LeakyRNN_11.28/1202/sg_3_128_d10_r11_3/model_155.pth (torch, 137244 bytes, 5 tensors)

weight f4 [128, 128]
2.9464033 0.6176311 -0.10990801 -0.5646435 0.38165134 -0.57580227 0.080576666 -1.8938679
-0.8412849 1.1703106 -0.9849739 -0.4057471 -0.3977458 0.2690746 0.12764074 -1.622845
2.4634392 1.379352 0.51622057 -0.22802408 -1.35316 -0.25871238 -0.5946292 0.9186364
-0.4778323 0.15362526 1.0530096 -0.26903868 -0.112440795 -0.40789965 0.8826427 -0.8059908
-0.26546127 0.1614793 -0.55286175 -0.7027843 0.16571449 -0.9358334 -0.3133796 0.0148684075
-0.27321795 0.026197039 -0.6492622 0.6288032 -1.4085478 -0.68094224 -0.14242299 -1.4998586
0.068267696 -0.1794484 1.0889281 -0.9423332 -0.7552909 1.4084094 -0.59873253 -0.24345177
0.27530217 1.0648886 0.96356624 -0.8822042 -0.04592133 -0.84928507 -0.041499957 -1.0640038
0.7232672 -0.45280966 -0.382608 -0.21888153 -0.99068373 0.073285 -0.944098 0.12526791
-0.44377998 -1.4424111 -0.48152378 0.24735755 -0.12328714 0.34658587 -0.097615965 0.81921065
-1.1615292 0.8861927 -0.46373388 -0.2865005 -0.61940604 -0.8320892 -0.24742691 0.11475206
-2.0787518 0.9228196 -0.3498388 0.24917254 -1.2809955 -0.06892169 0.22547163 -0.12383441
0.08200384 -0.14241216 0.84995866 -0.69272393 0.5202701 -0.52661204 -0.60601425 -0.50212455
-1.0729395 -0.32773453 -0.0514988 -0.24491863 -0.24451122 0.033280052 -1.2752788 -0.9807991
-0.581495 -0.41113362 0.15468745 1.0709099 0.15097573 -0.8351361 -0.24131519 -0.36149672
0.25286382 -0.8092255 -0.38216856 -0.08725288 -0.39174473 -0.73606974 0.45890245 -0.34062734
-0.20668335 1.5953077 -0.16578309 0.2837733 1.0403726 -0.25635517 -0.86669713 -0.27955714
0.2630347 2.0127625 -0.36142924 0.086455755 -0.7744657 0.4649809 -1.1735686 0.48986894
-0.32176352 -0.87000704 0.018076396 0.37357965 0.41664287 0.41113356 -0.13820729 -0.47951484
0.31527254 -1.411292 -0.9108877 -0.7862566 -0.33379406 -0.33670262 1.2686465 1.1583676
-0.4941417 -0.83245385 0.091384314 -0.21971817 0.44484034 -0.27609664 -0.27792606 -0.13816556
0.26846862 -0.25939426 -1.1837318 -0.53032 -0.2596256 -0.8233092 -0.3678288 0.3422907
-2.19605 0.76775366 -0.8140884 0.75139004 -1.0715847 0.025118796 -1.6604192 -0.257526
-0.80933565 0.35922307 -1.2769698 -0.24968508 -0.5771007 0.54609436 0.16638939 0.08210147
-0.15209532 -0.40594974 -0.01780724 0.14513901 -0.8078078 0.39586568 0.19745606 -0.04667636
0.40677583 -0.8071997 -0.5000582 -0.495549 -1.0194182 -1.6430435 -0.02771671 -0.48870623
-1.0734031 0.29882646 -1.0993572 -1.3536936 -0.45875326 -0.989434 0.7279145 -0.9103216
0.060362305 0.8417878 -0.12502849 -1.2001303 0.0630528 0.25020462 0.16876212 -0.23256962
1.7735342 1.4868132 0.34478995 -0.45908564 1.6821313 0.4910747 -0.64889556 -0.7341113
0.5213589 -1.9815625 -0.57148665 -0.26374575 0.81047016 -0.5532083 -1.1866401 -0.5920094
0.5568345 -0.54338086 -1.3790556 0.71710336 0.067087516 -0.14607134 -0.24707867 -0.46053293
0.45348832 -1.2885112 -0.562822 -0.52892685 -2.1204312 1.367973 1.7533898 -0.52057356
00000000: df91 3c40 121d 1e3f 7317 e1bd 7a8c 10bf
00000010: ce67 c33e c767 13bf 6105 a53d 436a f2bf
00000020: 725e 57bf bdcc 953f 4027 7cbf 15be cfbe
00000030: 56a5 cbbe 25c4 893e 41b4 023e 63b9 cfbf
00000040: fda8 1d40 9b8e b03f 0827 043f 257f 69be
00000050: 5934 adbf f375 84be 9f39 18bf c12b 6b3f
00000060: 6fa6 f4be f14f 1d3e 05c9 863f 70bf 89be
00000070: 5c47 e6bd 39d8 d0be dff4 613f 6a55 4ebf
00000080: 8aea 87be d45a 253e 5988 0dbf ace9 33bf
00000090: 0fb1 293e c792 6fbf 4a73 a0be 9f9a 733c
000000a0: 39e3 8bbe 2c9b d63c 0c36 26bf 3ff9 203f
000000b0: 4b4b b4bf 3b52 2ebf 55d7 11be 5efb bfbf
000000c0: efcf 8b3d 52c1 37be ff61 8b3f c03c 71bf
000000d0: bf5a 41bf c246 b43f 8946 19bf 6c4b 79be
000000e0: 68f4 8c3e 454e 883f 47ac 763f 22d8 61bf
000000f0: 0118 3cbd bf6a 59bf dcfb 29bd 4731 88bf
00000100: 0a28 393f abd6 e7be 32e5 c3be 7b22 60be
00000110: 739d 7dbf 7216 963d 68b0 71bf 3b46 003e
00000120: 2137 e3be eda0 b8bf 498a f6be 4c4b 7d3e
00000130: f87d fcbd b473 b13e e1ea c7bd cab7 513f
00000140: fdac 94bf 86dd 623f 876e edbe 32b0 92be
00000150: 6591 1ebf cc03 55bf 7b5d 7dbe 2103 eb3d
00000160: 450a 05c0 e83d 6c3f 121e b3be 1627 7f3e
00000170: a9f7 a3bf d126 8dbd 09e2 663e e59c fdbd
00000180: a1f1 a73d 7ed4 11be e496 593f 5b56 31bf
00000190: 6c30 053f 0cd0 06bf c023 1bbf 3c8b 00bf
000001a0: 1556 89bf d2cc a7be 68f0 52bd f3cb 7abe
000001b0: 2661 7abe aa50 083d 563c a3bf a615 7bbf
000001c0: dbdc 14bf 1b80 d2be 6366 1e3e 9313 893f
000001d0: 6299 1a3e 7bcb 55bf 541b 77be 1916 b9be
000001e0: 5e77 813e 6729 4fbf 99ab c3be a3b1 b2bd
000001f0: c492 c8be 116f 3cbf 43f5 ea3e b566 aebe
00000200: cda4 53be 0b33 cc3f 0bc3 29be bc4a 913e
00000210: ee2a 853f fc40 83be dddf 5dbf 1d22 8fbe
00000220: 7cac 863e 1ad1 0040 410d b9be b70f b13d
00000230: 6243 46bf fa11 ee3e 7f37 96bf 1ad0 fa3e
00000240: 30be a4be c8b8 5ebf f314 943c d545 bf3e
00000250: 3752 d53e 1980 d23e 3686 0dbe f882 f5be
00000260: 676b a13e 37a5 b4bf f02f 69bf 1d48 49bf
00000270: 0ee7 aabe 4964 acbe 0263 a23f 6445 943f
00000280: 2400 fdbe b21b 55bf b327 bb3d cdfd 60be
00000290: 1dc2 e33e 8a5c 8dbe 534c 8ebe 467b 0dbe
000002a0: b874 893e 53cf 84be 8684 97bf 0dc3 07bf
000002b0: a6ed 84be 64c4 52bf 0e54 bcbe ba40 af3e
000002c0: 158c 0cc0 818b 443f 1968 50bf 195b 403f
000002d0: b029 89bf efc5 cd3c 9e88 d4bf 73da 83be
000002e0: 9f30 4fbf 16ec b73e bf73 a3bf 72ad 7fbe
000002f0: dfbc 13bf d7cc 0b3f fb61 2a3e d124 a83d
00000300: e0be 1bbe a5d8 cfbe 7de0 91bc 529f 143e
00000310: 7ecc 4ebf e8ae ca3e ec31 4a3e b62f 3fbd
00000320: ec44 d03e a4a4 4ebf d003 00bf 99b8 fdbe
00000330: 4c7c 82bf 404f d2bf 270e e3bc b437 fabe
00000340: 4665 89bf c8ff 983e bdb7 8cbf d545 adbf
00000350: b5e1 eabe 8c4b 7dbf 9b58 3a3f d60a 69bf
00000360: 773e 773d 687f 573f 7807 00be df9d 99bf
00000370: d421 813d d21a 803e facf 2c3e bb26 6ebe
00000380: 2b03 e33f e54f be3f 4f88 b03e 460d ebbe
00000390: 1450 d73f 256e fb3e 051e 26bf b8ee 3bbf
000003a0: c777 053f d7a3 fdbf f34c 12bf af09 87be
000003b0: f97a 4f3f 0f9f 0dbf d3e3 97bf ee8d 17bf
000003c0: b58c 0e3f 021b 0bbf e584 b0bf 1694 373f
000003d0: 2e65 893d ba93 15be 3102 7dbe f9ca ebbe
000003e0: 9f2f e83e efed a4bf 1a15 10bf c067 07bf
000003f0: 25b5 07c0 bd19 af3f 146f e03f 4f44 05bf

weight f4 [128, 3]
-0.0023186156 -0.0013751697 0.015971167 0.055193506 -0.011224257 -0.04479518 -0.07383518 0.075408384
0.009276114 -0.0056820037 -0.007062139 -0.02795195 -0.0017163525 0.0152106825 0.018529221 0.0005884604
0.022837806 0.06595272 -0.003986352 -0.004274682 -0.007985349 0.011668297 -0.01102063 0.0071750903
-0.00081969635 -0.0006383085 0.012368705 0.05888383 -0.0049094306 0.0012003795 0.22348155 -0.0043115276
-0.028661035 0.013113289 0.017105255 -0.042286254 -0.050292604 0.0966437 -0.06018401 0.10030739
0.12736645 -0.008657319 -0.08300475 0.10924197 -0.06365531 0.008295143 0.010452153 0.020634104
0.002589474 0.014165896 -0.013259236 0.005771347 0.007735139 -0.010374281 -0.0006917143 -0.0049929833
-0.009057159 0.12037596 -0.059994124 0.021199923 0.09716285 0.028435249 0.008574999 0.025671037
0.017873755 0.018453965 -0.005557228 0.00266811 0.055575684 0.005532355 0.0034169727 -0.03678667
0.0695021 0.112036526 -0.004032631 0.001124897 6.10487e-05 -0.024877932 0.0010299017 -0.002728935
0.11105807 -0.01572887 -0.0024023992 -0.026795387 -0.004337353 -0.00259288 0.014921081 -0.035904627
0.22245316 -0.18135254 0.008555317 0.012078697 -0.0003695007 -0.03218025 0.09128952 0.050061986
-0.04499046 0.014307581 -0.04307397 -0.027833357 0.00068427745 0.02001927 0.069116004 0.010320253
0.008834387 2.586129 0.07745426 -0.2809433 0.045107547 0.15058126 -0.08214928 -2.149615
-0.291256 -0.057943992 0.00012433818 0.004916964 0.028079785 -0.07676464 0.022890307 -0.0062238458
-0.006195781 -0.0016586335 0.04353455 0.036933586 0.015456587 -0.057514194 -0.028138205 -0.05753389
-0.078138016 0.0015804656 0.00052636565 -0.00835408 0.011257603 -0.044941068 -0.21179642 -0.85167474
0.70911044 -0.31190923 0.0036841633 0.0013607728 -0.0061122044 0.0153142 -0.14496455 -0.16973546
-0.13197523 -0.15411323 0.010033937 0.069049835 0.19695671 0.03928303 0.018974185 -0.0006799938
-0.0051628114 0.011177215 0.0058120517 0.10721512 0.04794547 -0.027478995 0.16270022 -6.541652e-05
0.007529282 -0.021204075 -0.0031792773 0.0024390444 0.014498585 0.000520302 -0.0010261149 -0.0084731765
-0.0147400545 -0.019603455 0.022517571 0.022736553 0.0057328437 -0.058212154 -0.06693878 0.08670365
0.029343342 0.20475449 -0.20529228 0.014416409 0.046475783 -0.057584237 0.031357113 0.010812593
0.021235356 -0.079812765 -0.042350397 -0.008137095 0.096019655 0.041779008 -0.1151409 0.0950113
0.025331479 -0.0088867275 0.034976043 0.0011119324 -0.015138267 -0.012056228 -0.0038803134 0.0065704547
-0.006443874 -0.0040942566 0.009102346 -0.008736968 0.050207775 0.04535786 -0.006445787 0.017064326
0.0015730746 -0.00043987247 0.052468244 -0.0974808 -0.13652888 0.112353966 0.076960646 -0.035767816
0.015345368 -0.03922781 -0.019992098 -2.6302555 -2.3702347 0.6388336 0.025067313 0.04232127
-0.040590286 0.029876063 0.06477405 -0.0150141055 0.3589252 -0.94381034 -1.1559097 -0.093731314
0.004595709 -0.07277861 -0.32814226 -0.6156661 4.464647 0.043205313 0.014192976 -0.033434205
0.007001285 -0.054057967 0.1051201 0.004170256 0.0017261897 0.0060598007 0.004626471 0.011601545
0.018252568 -0.029156312 -0.028211648 -0.022831324 0.015259084 -0.020281717 0.008090334 -0.14200912
00000000: eaf3 17bb 0a3f b4ba f7d5 823c 9612 623d
00000010: f2e5 37bc 277b 37bd e636 97bd b66f 9a3d
00000020: d8fa 173c 1a30 babb 8469 e7bb 7dfb e4bc
00000030: 3cf7 e0ba 3a36 793c 98ca 973c e942 1a3a
00000040: 5a16 bb3c 3812 873d f29f 82bb a212 8cbb
00000050: fbd4 02bc 632c 3f3c df8f 34bc 051d eb3b
00000060: e4e0 56ba 2954 27ba 1ca6 4a3c 2c30 713d
00000070: 4adf a0bb 0d56 9d3a 59d8 643e b747 8dbb
00000080: 8cca eabc 1fd9 563c 5220 8c3c 5a34 2dbd
00000090: 9eff 4dbd 22ed c53d 8283 76bd f66d cd3d
000000a0: 5a6c 023e 6dd7 0dbc 65fe a9bd 41ba df3d
000000b0: b75d 82bd 5ae8 073c 823f 2b3c da08 a93c
000000c0: 2ab4 293b 1318 683c 443d 59bc 911d bd3b
000000d0: 0d77 fd3b e3f8 29bc 2954 35ba 2e9c a3bb
000000e0: 7a64 14bc ac87 f63d 66bc 75bd 76ab ad3c
000000f0: 51fd c63d 0af1 e83c 277e 0c3c 114c d23c
00000100: fb6b 923c c52c 973c 6819 b6bb 75db 2e3b
00000110: 54a3 633d c248 b53b 4aef 5f3b 9fad 16bd
00000120: 1e57 8e3d 6873 e53d 2924 84bb 4871 933a
00000130: 4507 8038 cecc cbbc c4fd 863a efd7 32bb
00000140: 6a72 e33d d5d9 80bc 9271 1dbb 0082 dbbc
00000150: 5b20 8ebb 4fed 29bb 8d77 743c bb10 13bd
00000160: c3ca 633e 7bb4 39be 9a2b 0c3c bae5 453c
00000170: 8bb9 c1b9 70cf 03bd 00f6 ba3d cc0d 4d3d
00000180: eb47 38bd 586a 6a3c 556e 30bd c802 e4bc
00000190: 1561 333a 74ff a33c b18c 8d3d 4716 293c
000001a0: 1bbe 103c 2383 2540 57a0 9e3d cdd7 8fbe
000001b0: b1c2 383d f931 1a3e e23d a8bd 4b93 09c0
000001c0: 821f 95be ae56 6dbd c760 0239 7c1e a13b
000001d0: 9407 e63c c836 9dbd 7484 bb3c 67f1 cbbb
000001e0: fa05 cbbb 8166 d9ba 4951 323d ac47 173d
000001f0: a03d 7d3c 0194 6bbd 1882 e6bc a8a8 6bbd
00000200: d306 a0bd a027 cf3a cdfb 093a 8ddf 08bc
00000210: cf71 383c 2014 38bd 29e1 58be 5b07 5abf
00000220: 4388 353f 91b2 9fbe 0172 713b f55b b23a
00000230: e348 c8bb 69e8 7a3c 9671 14be 22cf 2dbe
00000240: 8424 07be dccf 1dbe 6265 243c 006a 8d3d
00000250: 05af 493e 3ee7 203d c06f 9b3c 9d41 32ba
00000260: cd2c a9bb a320 373c 0673 be3b 9a93 db3d
00000270: 7862 443d a11b e1bc e39a 263e 3a30 89b8
00000280: 32b8 f63b 2bb4 adbc 6c5b 50bb 60d8 1f3b
00000290: 798b 6d3c e064 083a b47e 86ba 14d3 0abc
000002a0: 4580 71bc 6d97 a0bc c576 b83c 0242 ba3c
000002b0: 94da bb3b de6f 6ebd 3317 89bd af91 b13d
000002c0: 7361 f03c 29ab 513e 2438 52be cd32 6c3c
000002d0: 645d 3e3d 73dd 6bbd 5170 003d 4d27 313c
000002e0: c5f5 ad3c e074 a3bd 9c77 2dbd 7351 05bc
000002f0: f4a5 c43d 7720 2b3d fece ebbd 4995 c23d
00000300: f683 cf3c a399 11bc 0a43 0f3d 43be 913a
00000310: 7e06 78bc 7c87 45bc db4c 7ebb f84c d73b
00000320: 2227 d3bb 1d29 86bb 0222 153c 8025 0fbc
00000330: aba6 4d3d 2ac9 393d 2e37 d3bb 7cca 8b3c
00000340: a02f ce3a af9e e6b9 f1e8 563d 03a4 c7bd
00000350: 3ace 0bbe d619 e63d 8b9d 9d3d 4681 12bd
00000360: 236b 7b3c 57ad 20bd 78c6 a3bc 1b56 28c0
00000370: edb1 17c0 998a 233f f759 cd3c 1159 2d3d
00000380: 0042 26bd a5be f43c 42a8 843d b9fd 75bc
00000390: 0bc5 b73e 8e9d 71bf d9f4 93bf 34f6 bfbd
000003a0: 9a97 963b f40c 95bd 4302 a8be 4b9c 1dbf
000003b0: 63de 8e40 0ef8 303d a889 683c 4ef2 08bd
000003c0: 096b e53b e36b 5dbd 3549 d73d a5a6 883b
000003d0: 5141 e23a 4b91 c63b a799 973b 6814 3e3c
000003e0: 6986 953c 38d9 eebc 1d1c e7bc c208 bbbc
000003f0: 3d01 7a3c d825 a6bc 528d 043c d76a 11be

weight f4 [2, 128]
-0.29672608 0.29462737 -0.31169656 0.07252075 -0.2899037 0.42893487 0.10812188 0.11119103
-0.20355263 0.12605998 0.011664746 0.17203543 0.12696768 -0.016576147 -0.07603051 -0.16585977
0.07456403 0.3288416 -0.12315747 -0.07879411 -0.12345975 -0.0527651 -0.30765978 -0.03165255
0.019941619 -0.07699436 0.096649826 -0.3362476 0.30740657 -0.15413724 0.1998402 -0.1024355
0.11032739 0.24176444 -0.2525142 -0.022390403 0.20373413 -0.10500403 -0.038456954 0.0691614
-0.06551384 0.26307493 -0.58380824 0.2760492 0.041492973 0.04694549 -0.10782834 -0.22730772
0.2328811 -0.14786522 0.09767041 -0.39503455 0.60632426 0.11267791 0.323394 0.0018008428
-0.27628338 0.53841716 0.0014938823 0.198549 0.23163325 0.2378866 0.26746488 -0.4070073
-0.10266971 -0.18133482 -0.16291054 -0.0031736444 0.111930564 0.12408158 0.21111523 -0.23286551
-0.43522808 0.01640187 0.19707997 -0.011084887 -0.095659144 -0.18628287 0.0112846205 -0.101472594
0.30085889 0.22942303 -0.018440647 -0.05734952 0.0882659 -0.20294583 0.17635553 0.5325438
-0.26848233 -0.10189825 0.12202275 -0.07007941 -0.24278268 0.39050925 0.3950036 0.33153525
-0.2022593 -0.21455851 0.07392296 0.34601197 0.1523073 0.28794125 -0.20047551 0.09432342
-0.5091815 -0.21658954 -0.33643794 0.001260801 -0.054891527 0.03986348 -0.18812616 0.019503713
0.05644583 -0.1814304 0.046117313 0.23834218 -0.069988 -0.15972067 -0.0005891546 -0.16588631
0.3522853 0.25623712 0.1526494 -0.21670231 -0.15029174 -0.21382625 -0.10865214 -0.1739209
-0.070219226 0.15650065 0.1422991 -0.060635824 0.15810409 0.28784552 -0.0033922584 -0.26244456
-0.15208608 0.031112634 0.060645547 0.35996485 -0.016589196 -0.045259554 0.15404771 0.050246894
0.2989827 0.32617027 0.22134449 -0.48930833 -0.13689873 -0.08349668 0.03923923 0.296616
-0.29551446 -0.21728829 -0.3591008 -0.07915022 -0.24681424 0.3152794 0.049142785 0.29209885
-0.2880959 0.08151993 0.12108923 -0.046813373 0.123017915 0.17719151 0.14119507 -0.010672827
-0.16244246 -0.19946313 -0.43344158 -0.045048803 -0.08602257 -0.13827784 -0.024032524 -0.48657078
0.12670435 -0.17290395 0.19819537 0.06970719 0.05071123 0.42970365 0.015293956 0.0073709777
0.09544604 -0.06801274 0.311888 -0.12484793 -0.051407244 0.018912636 -0.15486996 -0.11088347
-0.107326575 0.1517349 0.16663839 -0.15899374 0.07946849 0.07967676 -0.168623 -0.028512085
-0.023964426 -0.054220878 0.2751117 0.22820291 0.32978174 0.25612715 -0.017529273 0.24368449
-0.34364668 0.070100226 0.2690497 -0.14188378 -0.19969735 -0.31486923 -0.48675174 0.109650895
-0.040717077 0.24039815 -0.0047981488 -0.54116917 -0.30187318 -0.28942192 -0.113676995 0.019543929
0.18114622 -0.11369807 0.10974682 -0.328606 -0.040187895 -0.101133294 0.35850906 -0.0625475
-0.2887654 0.26409653 0.0766463 0.0073448233 0.16925623 -0.2188097 -0.0679578 -0.0291448
0.11332035 0.380188 0.16910903 -0.16795747 -0.027708868 0.56211126 0.00585919 0.11642688
0.012540797 0.014610269 -0.41706634 0.3245411 -0.26124117 -0.1257396 -0.38664216 0.16961914
00000000: 7bec 97be 66d9 963e b196 9fbe c285 943d
00000010: 426e 94be 5a9d db3e 016f dd3d 1fb8 e33d
00000020: 1a70 50be de15 013e 7e1d 3f3c 0e2a 303e
00000030: d103 023e b3ca 87bc e2b5 9bbd 25d7 29be
00000040: 07b5 983d ed5d a83e fc39 fcbd ce5e a1bd
00000050: 77d8 fcbd 3820 58bd 9585 9dbe 1ba6 01bd
00000060: 9b5c a33c 38af 9dbd 58f0 c53d a528 acbe
00000070: 6564 9d3e 27d6 1dbe e9a2 4c3e b4c9 d1bd
00000080: 54f3 e13d 1991 773e 8b49 81be 146c b7bc
00000090: ae9f 503e 5a0c d7bd 0a85 1dbd 7ea4 8d3d
000000a0: 1f2c 86bd c2b1 863e 7574 15bf 5256 8d3e
000000b0: 89f4 293d ea49 403d 1bd5 dcbd 5bc3 68be
000000c0: 6278 6e3e fb69 17be 6d07 c83d f841 cabe
000000d0: 1138 1b3f adc3 e63d e693 a53e 420a ec3a
000000e0: 0475 8dbe b5d5 093f 5fce c33a 6e50 4b3e
000000f0: 4431 6d3e 8b98 733e 28f1 883e 4363 d0be
00000100: 7f44 d2bd d6af 39be 05d2 26be ebfc 4fbb
00000110: da3b e53d 7c1e fe3d 972e 583e 4c74 6ebe
00000120: 37d6 debe 375d 863c 55cf 493e 639d 35bc
00000130: f1e8 c3bd f0c0 3ebe 21e3 383c ddd0 cfbd
00000140: 2d0a 9a3e dfed 6a3e d710 97bc 55e7 6abd
00000150: c1c4 b43d 08d1 4fbe 8b96 343e ca54 083f
00000160: 8476 89be 08b0 d0bd 10e7 f93d cb85 8fbd
00000170: 069c 78be d4f0 c73e e93d ca3e fdbe a93e
00000180: 101d 4fbe 3ab5 5bbe ec64 973d 7b28 b13e
00000190: 72f6 1b3e 096d 933e 7449 4dbe a32c c13d
000001a0: b859 02bf a6c9 5dbe 9841 acbe 7641 a53a
000001b0: f0d5 60bd e347 233d 25a4 40be 40c6 9f3c
000001c0: be33 673d e4c8 39be 82e5 3c3d f90f 743e
000001d0: de55 8fbd d18d 23be 7f71 1aba 1ade 29be
000001e0: bd5e b43e 8331 833e 2050 1c3e 36e7 5dbe
000001f0: 14e6 19be 45f5 5abe 0385 debd 5218 32be
00000200: 19cf 8fbd b541 203e dbb6 113e 455d 78bd
00000210: 0ae6 213e 7d60 933e a750 5ebb 225f 86be
00000220: 74bc 1bbe ecdf fe3c 7767 783d 504d b83e
00000230: 11e6 87bc 1562 39bd afbe 1d3e b0cf 4d3d
00000240: 4314 993e caff a63e 21a8 623e 9f86 fabe
00000250: 2e2f 0cbe 4f00 abbd 51b9 203d 0dde 973e
00000260: ac4d 97be d280 5ebe 0fdc b7be 8319 a2bd
00000270: dfbc 7cbe 4d6c a13e f249 493d fb8d 953e
00000280: 4e81 93be ecf3 a63d a1fd f73d 61bf 3fbd
00000290: d1f0 fb3d b171 353e 7195 103e 15dd 2ebc
000002a0: 5157 26be 1040 4cbe 0eec ddbe 1885 38bd
000002b0: 9a2c b0bd b598 0dbe dbdf c4bc ce1f f9be
000002c0: c9be 013e bc0d 31be baf3 4a3e a5c2 8e3d
000002d0: 94b6 4f3d 1e02 dc3e 8093 7a3c 3e88 f13b
000002e0: 3779 c33d 434a 8bbd c9af 9f3e 46b0 ffbd
000002f0: 6790 52bd acee 9a3c 3b96 1ebe df16 e3bd
00000300: 09ce dbbd 6560 1b3e 41a3 2a3e 41cf 22be
00000310: 60c0 a23d 922d a33d 82ab 2cbe 2d92 e9bc
00000320: 0b51 c4bc b616 5ebd 71db 8c3e 06ae 693e
00000330: 27d9 a83e 1923 833e 8d99 8fbc 6d88 793e
00000340: 75f2 afbe b590 8f3d e2c0 893e fb49 11be
00000350: 767d 4cbe 8a36 a1be 8637 f9be a690 e03d
00000360: f3c6 26bd ef2a 763e ca39 9dbb 108a 0abf
00000370: 1f8f 9abe 1c2f 94be 7ccf e8bd 971a a03c
00000380: 657e 393e 89da e8bd f1c2 e03d 0c3f a8be
00000390: 109c 24bd f91e cfbd 808e b73e e718 80bd
000003a0: 0fd9 93be a937 873e bcf8 9c3d d8ac f03b
000003b0: 8151 2d3e a60f 60be 762d 8bbd 13c1 eebc
000003c0: 8014 e83d 00a8 c23e eb2a 2d3e 0bfd 2bbe
000003d0: b5fd e2bc 86e6 0f3f 73fe bf3b 3771 ee3d
000003e0: ea77 4d3c e95f 6f3c b889 d5be 402a a63e
000003f0: 67c1 85be e2c1 00be f6f5 c5be a4b0 2d3e

bias f4 [2]
-0.18126802 0.1282408
00000000: 539e 39be 8e51 033e

W f4 [128, 128]
0.06615327 -0.11401518 0.025203414 -0.0025940512 -0.018225469 0.0057087922 -0.13450716 0.0557005
0.009153253 0.1332244 0.07627285 -0.048340004 0.035664298 0.16808274 0.024945317 -0.044494748
0.06919087 -0.06063432 -0.08553102 0.056922227 0.0069412095 -0.021607459 0.025608942 0.18206155
0.052633002 0.1472876 -0.03155805 0.05919769 -0.1013823 0.04395069 0.07547187 -0.1532022
0.040917426 -0.004154457 -0.10751988 -0.051087987 0.0017958387 0.04750391 -0.0406841 0.15189782
0.01759105 -0.03835021 -0.05021101 -0.01233417 0.16869865 -0.05669807 -0.0011714132 0.14530236
0.08613754 -0.049004417 -0.1760672 -0.11506281 0.009854115 -0.013803325 0.11942796 -0.13394344
0.062715955 0.039668765 0.047413338 -0.111616015 0.0033678995 0.06333898 0.10623197 0.011821793
0.061168723 0.12241087 -0.0011056567 -0.13534352 -0.14840004 -0.041232552 0.040657472 0.10456521
-0.022485849 -0.052583974 -0.043080006 -0.03164563 0.030913038 0.0033669847 0.1426325 0.036824312
-0.04614829 0.0036580174 -0.07300025 -0.01217472 0.11416925 -0.013320026 -0.11191893 -0.031135231
0.011162633 -0.0691131 0.0060655805 -0.063541725 -0.08362278 -0.0038840105 -0.12749156 0.02553062
-0.08585229 -0.07584856 0.018500494 -0.0068172123 -0.013822781 0.09957602 -0.016550288 0.06696144
0.037995156 -0.03409935 0.027750414 -0.06521748 0.18114622 0.030978585 0.06755226 -0.03685416
-0.08557144 0.0056752856 0.04127027 0.07404831 0.021890715 -0.035398595 0.07636948 -0.04456105
-0.006181042 -0.06322124 0.08883172 0.03731689 0.0009289775 0.124790624 0.017650306 0.12203644
0.016574321 -0.038741864 0.20584601 -0.0047498727 0.03077617 -0.08782322 0.13797882 -0.048023727
0.07255256 0.06968604 0.08415669 0.18978484 -0.12145929 -0.013794331 -0.055098258 -0.10932745
-0.0022596482 -0.08030975 0.04495399 -0.036296826 0.17392297 0.051717862 0.13131073 -0.017173747
-0.012573485 -0.059002247 -0.09843688 0.012458537 0.045571454 0.08414496 0.035101216 -0.022687266
0.07125951 0.09293227 -0.09395793 -0.12833814 0.049949106 0.040069986 -0.099928364 0.109886795
-0.14300708 0.12062969 0.107512884 -0.018513497 0.012538158 -0.057337403 -0.018079035 0.06661179
-0.1144339 0.096453145 0.054106735 -0.039597243 -0.08659897 0.049032398 0.115319744 -0.13157716
-0.021959618 0.031481557 0.15171498 0.009431775 -0.15887491 0.017610896 0.051453467 -0.12706997
-0.17332575 -0.004773883 -0.04538706 -0.037787408 -0.1803199 0.0064549944 -0.044799615 0.011933775
-0.037225638 -0.08794848 0.15628332 0.0039899806 -0.03074459 0.04855843 -0.09340942 0.04167721
-0.07895406 -0.1378753 0.111005396 0.12981357 -0.047316454 -0.13029696 -0.18642041 -0.05910003
0.019888151 0.08661292 0.27207616 0.06864228 0.022910766 -0.091829 0.013893956 0.08160794
0.05250527 -0.015554552 0.09223527 0.16496126 -0.1609251 0.10102797 -0.06541757 -0.03291176
0.053747743 -0.0107307015 -0.018598031 -0.03261772 0.05167988 -0.078242995 0.022286117 0.08063062
0.13779755 0.047893353 -0.013735775 -0.048453305 -0.054761782 0.011548163 0.07664967 -0.102058604
-0.094215184 -0.02800179 0.01063413 0.1019336 0.0018615754 0.1307429 -0.026850194 -0.07543994
00000000: 5e7b 873d ca80 e9bd 6477 ce3c f500 2abb
00000010: 944d 95bc d210 bb3b 3fbc 09be 3526 643d
00000020: 87f7 153c fa6b 083e f134 9c3d 2b00 46bd
00000030: ba14 123d e21d 2c3e 1f5a cc3c 2040 36bd
00000040: f1b3 8d3d b15b 78bd e32a afbd 4827 693d
00000050: 1673 e33b 2002 b1bc d8c9 d13c 586e 3a3e
00000060: b495 573d 90d2 163e 0443 01bd 4779 723d
00000070: 86a1 cfbd a405 343d ff90 9a3d 0ae1 1cbe
00000080: 0899 273d 1c22 88bb 6233 dcbd a341 51bd
00000090: 5962 eb3a 7693 423d 5fa4 26bd 1a8b 1b3e
000000a0: 1b1b 903c 1c15 1dbd 0faa 4dbd 4215 4abc
000000b0: 57bf 2c3e 3c3c 68bd 1b8a 99ba 24ca 143e
000000c0: e168 b03d dbb8 48bd f64a 34be 0da6 ebbd
000000d0: 2773 213c 5727 62bc a596 f43d 7828 09be
000000e0: 3971 803d b77b 223d 7d34 423d f096 e4bd
000000f0: fab7 5c3b deb7 813d 2690 d93d 32b0 413c
00000100: 0e8c 7a3d 8db2 fa3d afeb 90ba 7e97 0abe
00000110: 2ef6 17be 77e3 28bd 7388 263d 4926 d63d
00000120: 3e34 b8bc 4b62 57bd a974 30bd d99e 01bd
00000130: 573d fd3c a1a8 5c3b 410e 123e 17d5 163d
00000140: fd05 3dbd 59bb 6f3b 2881 95bd 7a78 47bc
00000150: 91d1 e93d 3d3c 5abc c135 e5bd 500f ffbc
00000160: 7ae3 363c 2b8b 8dbd c7c1 c63b 2a22 82bd
00000170: 6c42 abbd e28a 7ebb 268d 02be 9725 d13c
00000180: 53d3 afbd 7d56 9bbd 598e 973c ec62 dfbb
00000190: f278 62bc 83ee cb3d 7894 87bc 1423 893d
000001a0: cfa0 1b3d c3ab 0bbd d654 e33c be90 85bd
000001b0: 657e 393e cdc6 fd3c d758 8a3d 63f4 16bd
000001c0: 1440 afbd bff7 b93b 040b 293d a4a6 973d
000001d0: 2854 b33c 1efe 10bd 9a67 9c3d a685 36bd
000001e0: 578a cabb 237a 81bd 68ed b53d 98d9 183d
000001f0: a086 733a 3a92 ff3d 6097 903c 3eee f93d
00000200: dfc6 873c caaf 1ebd 4cc9 523e d2a4 9bbb
00000210: 4e1e fc3c a9dc b3bd 524a 0d3e 87b4 44bd
00000220: 7096 943d 8eb7 8e3d 585a ac3d f556 423e
00000230: a6bf f8bd 9e01 62bc b6ae 61bd 12e7 dfbd
00000240: 9b16 14bb 7079 a4bd ad21 383d fbab 14bd
00000250: dd18 323e 1cd6 533d 5276 063e f5af 8cbc
00000260: 0501 4ebc 57ac 71bd 4699 c9bd e41e 4c3c
00000270: 22a9 3a3d 3154 ac3d 4bc6 0f3d a5da b9bc
00000280: 82f0 913d 4653 be3d 046d c0bd 136b 03be
00000290: 6f97 4c3d 6d20 243d 3ea7 ccbd 540c e13d
000002a0: 7370 12be b30c f73d b72f dc3d 9ea9 97bc
000002b0: d96c 4d3c a0da 6abd 7c1a 94bc c36b 883d
000002c0: 525c eabd 3a89 c53d 069f 5d3d b830 22bd
000002d0: cd5a b1bd 32d6 483d c22c ec3d 2abc 06be
000002e0: a8e4 b3bc cef2 003d 2c5b 1b3e bb87 1a3c
000002f0: 1bb0 22be ba44 903c dfc0 523d a11e 02be
00000300: 4e7c 31be 3c6e 9cbb c8e7 39bd f8c6 1abd
00000310: c8a5 38be 6b84 d33b cd7f 37bd e185 433c
00000320: e979 18bd 551e b4bd bc08 203e 62be 823b
00000330: 14dc fbbc 34e5 463d 704d bfbd b9b5 2a3d
00000340: abb2 a1bd 2f2f 0dbe cc56 e33d d9ed 043e
00000350: e6ce 41bd 916c 05be fee4 3ebe e012 72bd
00000360: 7aec a23c 1d62 b13d 914d 8b3e 5394 8c3d
00000370: 5caf bb3c d810 bcbd 7aa3 633c 1022 a73d
00000380: c40f 573d 85d8 7ebc d8e5 bc3d 9beb 283e
00000390: 8dc9 24be c1e7 ce3d a6f9 85bd 7bce 06bd
000003a0: 9826 5c3d d3cf 2fbc e65a 98bc 299a 05bd
000003b0: 48ae 533d dd3d a0bd 6091 b63c ab21 a53d
000003c0: cd1a 0d3e d22b 443d 040c 61bc f976 46bd
000003d0: e44d 60bd 8234 3d3c 81fa 9c3d 1a04 d1bd
000003e0: e4f3 c0bd 0364 e5bc c63a 2e3c 90c2 d03d
000003f0: 1b00 f43a 77e1 053e f0f4 dbbc 4180 9abd
