LeakyRNN_11.28/1202/sg_3_128_d10_r11_3/model_295.pth (torch, 137244 bytes, 5 tensors)

weight f4 [128, 128]
2.3565185 0.6951692 0.017373065 0.09748694 0.059911113 -0.74570817 -0.40716198 -1.4229782
-1.0799061 0.09102382 -0.3113142 0.14111347 -0.5008976 -0.39820564 -0.059441276 -1.0788039
1.7593524 0.8022803 0.051524036 -0.60148615 -1.2532051 -0.2382856 -0.71795315 0.19488636
-0.34970048 0.43251118 0.98110205 -0.3079157 -0.4792418 -0.5098503 0.2409658 -0.32148823
0.37118208 -0.114905015 -0.3198773 -0.75017697 -0.14117996 -0.8362482 0.4192067 -0.53196776
-0.33499566 -0.07333061 -0.6328902 -0.07133496 -1.9431024 -0.13424282 -0.2600755 -1.4943635
0.1456338 0.43542072 0.68524295 -0.88321656 -0.878627 0.7536421 -0.7790664 -0.15603496
0.6404244 0.8076575 1.0834031 -0.9075947 0.22187328 -0.35236302 0.7724543 -0.22581941
0.4110053 -0.38449758 -0.3932122 -0.08739143 -1.0862396 -0.18290128 -0.7351044 -0.45883805
-0.36218527 -1.0778623 -1.105374 0.27894014 -0.28053343 0.38263458 1.2801915 0.26182702
-0.88774246 0.88042027 -0.49911907 -0.368459 -1.0281582 -0.40703946 0.5458096 -0.06718074
-1.2543614 0.6103447 -0.15776245 -0.24320433 -0.5250836 -0.095043935 0.16138624 -0.27289832
0.63530076 0.060918104 0.83507496 -0.45989808 -0.59634066 -0.3527878 -0.65014803 -0.65554065
-0.6321496 -0.7772743 0.26363423 -0.15650529 0.26103228 0.11989955 0.049631193 -1.6491768
0.3554217 -0.47826293 -0.09438866 0.87248594 0.32793045 -1.0886081 -0.15636739 -0.41848361
0.11611015 -0.58908325 -0.05875815 -0.15560612 0.15583666 -0.9258893 0.42520964 -0.087000035
-0.47067943 2.1676872 -0.1733729 -0.42376176 0.45910004 -0.03478568 -0.29231283 0.0023548095
0.3763686 1.8527434 -0.92317545 -0.3408857 -0.76646876 0.40835765 -0.72925764 -0.028701415
-1.1124599 -0.74733794 0.43450385 0.35988954 -0.08670375 0.5786413 -0.107916 -0.5551358
0.3444922 -0.91437006 -0.7947898 -0.8267757 -0.43480906 -0.73420644 1.998568 0.8899032
-0.19767107 -0.24994873 0.30413467 0.09588473 0.20469971 -0.31144032 -0.83791524 -0.36775076
0.29437327 -0.15745588 -0.54924357 -0.39798787 -0.63809764 -0.38822573 -0.7154621 -0.078850895
-2.6015348 0.7581937 -0.43190426 0.38673162 -0.5761782 0.27700478 -0.8129193 -0.26768106
-0.044123374 -0.4173683 -0.6446913 -0.33532616 -0.32345623 0.27224177 -0.053194255 0.42089418
-0.32743704 0.09728399 0.3669144 0.2571926 -0.8254849 0.5134448 -0.16809827 0.23678167
-0.5351 -1.2208058 -0.20866022 -0.2697736 -0.7899631 -1.7717102 0.7264299 -0.36707273
-0.97473484 -0.13357544 -0.9433807 -1.5447391 -0.059735246 -1.0425364 0.19213343 -0.57499397
0.924621 0.65077335 -0.33838534 -0.31368878 0.15649168 -0.3989925 0.017279863 -0.88904846
1.9362582 0.7341598 0.52634865 -0.5627317 1.3499691 0.18302688 -0.75246805 -1.0315484
0.61732846 -1.8578794 -0.5064539 -0.27100992 -0.18755536 0.051705047 -0.7081702 -0.24672568
0.37911272 -0.5226422 -0.96976364 0.78644145 -0.34678268 0.16604567 -0.26968065 -0.23709269
0.35953698 -0.52906513 -0.42339963 -0.7779938 -1.4869497 1.2424065 1.0795639 -0.14909711
00000000: 33d1 1640 9cf6 313f f551 8e3c 3ca7 c73d
00000010: 5b65 753d bbe6 3ebf 8977 d0be 2624 b6bf
00000020: 5d3a 8abf b26a ba3d 9364 9fbe 0d80 103e
00000030: d33a 00bf 9ce1 cbbe b278 73bd 3f16 8abf
00000040: 7632 e13f 3e62 4d3f de0a 533d fffa 19bf
00000050: 0669 a0bf 2401 74be c7cb 37bf 4a90 473e
00000060: f10b b3be 1b72 dd3e 8129 7b3f 20a7 9dbe
00000070: 2e5f f5be 8d85 02bf bdbf 763e 1b9a a4be
00000080: 940b be3e 5253 ebbd f5c6 a3be 990b 40bf
00000090: 7b91 10be 5d14 56bf 43a2 d63e 0a2f 08bf
000000a0: 8d84 abbe 5c2e 96bd 1805 22bf 1018 92bd
000000b0: 94b7 f8bf f376 09be 9e28 85be 4e47 bfbf
000000c0: 0721 153e 77ef de3e 156c 2f3f 7b1a 62bf
000000d0: b3ed 60bf b0ee 403f e570 47bf a1c7 1fbe
000000e0: daf2 233f a4c2 4e3f f4ac 8a3f 2058 68bf
000000f0: c032 633e ed68 b4be 91bf 453f 343d 67be
00000100: 496f d23e dedc c4be 1c53 c9be 47fa b2bd
00000110: e609 8bbf 794a 3bbe cd2f 3cbf d2ec eabe
00000120: 5970 b9be 64f7 89bf e57c 8dbf 3ed1 8e3e
00000130: 14a2 8fbe aee8 c33e 51dd a33f 310e 863e
00000140: 1743 63bf 3963 613f 898c ffbe a8a6 bcbe
00000150: b09a 83bf 7a67 d0be 2eba 0b3f 0e96 89bd
00000160: ea8e a0bf 8d3f 1c3f 7b8c 21be 8e0a 79be
00000170: e16b 06bf 65a6 c2bd 6f42 253e 54b9 8bbe
00000180: 12a3 223f 4385 793d 79c7 553f c377 ebbe
00000190: c8a9 18bf 9aa0 b4be 1a70 26bf 83d1 27bf
000001a0: 8ed4 21bf 73fb 46bf 11fb 863e ec42 20be
000001b0: 06a6 853e e58d f53d 144a 4b3d 3a18 d3bf
000001c0: d5f9 b53e e1de f4be d74e c1bd 3d5b 5f3f
000001d0: 80e6 a73e 8357 8bbf c61e 20be 7c43 d6be
000001e0: 29cb ed3d 29ce 16bf 63ac 70bd 3657 1fbe
000001f0: a593 1f3e 1507 6dbf 14b5 d93e 132d b2bd
00000200: e5fc f0be 63bb 0a40 aa88 31be 4df7 d8be
00000210: 290f eb3e 6e7b 0ebd 07aa 95be 2653 1a3b
00000220: 63b3 c03e b226 ed3f 3a55 6cbf 9288 aebe
00000230: 4c37 44bf 4114 d13e a1b0 3abf 3b1f ebbc
00000240: 1665 8ebf 8a51 3fbf 4a77 de3e 7143 b83e
00000250: bc91 b1bd d621 143f 1003 ddbd 611d 0ebf
00000260: 4861 b03e 2814 6abf 5877 4bbf 93a7 53bf
00000270: 4b9f debe f4f4 3bbf 14d1 ff3f b2d0 633f
00000280: 496a 4abe 8ff2 7fbe 8ab7 9b3e 375f c43d
00000290: cd9c 513e 1b75 9fbe 9d81 56bf d449 bcbe
000002a0: 18b8 963e 1d3c 21be 3a9b 0cbf 11c5 cbbe
000002b0: 5e5a 23bf 86c5 c6be 8628 37bf 947c a1bd
000002c0: 8c7f 26c0 fb18 423f 8e22 ddbe b001 c63e
000002d0: 6a80 13bf 92d3 8d3e 7b1b 50bf 7e0d 89be
000002e0: b6ba 34bd 4cb1 d5be 7d0a 25bf dfaf abbe
000002f0: 0e9c a5be 4663 8b3e 38e2 59bd 717f d73e
00000300: d4a5 a7be d43c c73d 34dc bb3e c0ae 833e
00000310: fa52 53bf 1e71 033f f421 2cbe e576 723e
00000320: 50fc 08bf 5d43 9cbf 06ab 55be c41f 8abe
00000330: 063b 4abf 66c7 e2bf 4ff7 393f f5f0 bbbe
00000340: 3988 79bf 00c8 08be 6681 71bf 03ba c5bf
00000350: f2ac 74bd d571 85bf a0be 443e ce32 13bf
00000360: f6b3 6c3f 1599 263f d840 adbe d19b a0be
00000370: 5b3f 203e bf48 ccbe 808e 8d3c ae98 63bf
00000380: 4fd7 f73f e6f1 3b3f c9be 063f 2f0f 10bf
00000390: cacb ac3f 666b 3b3e bfa1 40bf c709 84bf
000003a0: 3d09 1e3f fece edbf f6a6 01bf d0c1 8abe
000003b0: 830e 40be acc8 533d a44a 35bf a8a5 7cbe
000003c0: 101b c23e e1cb 05bf 6e42 78bf 3a54 493f
000003d0: 808d b1be e007 2a3e 9513 8abe 6dc8 72be
000003e0: 3b15 b83e d070 07bf d6c7 d8be 9a2a 47bf
000003f0: 5e54 bebf 2d07 9f3f 262f 8a3f eaac 18be

weight f4 [128, 3]
-0.0035848026 0.00054062565 4.9810536e-05 0.044698574 -0.016308697 -0.05176037 -0.031055046 0.01467663
-0.06049848 0.0037665102 0.00011461717 -0.040071253 0.0029075837 0.014044678 0.030603657 0.0199163
0.00084765884 0.011915167 -0.0017555504 -0.004266043 -0.0103146965 0.027620004 -0.012022486 -0.0018699394
-0.0074995 0.0012297212 0.0012990237 0.0040018423 0.009332774 0.014888138 0.15095085 -0.05077349
-0.021694295 0.013134206 0.0131324 -0.024956886 0.021837693 0.06571379 -0.08400409 0.07029487
0.10857957 0.042937126 -0.06897779 -0.023372544 -0.046917353 0.0065950677 -0.014608382 -0.007868276
-0.00085233693 -0.000517599 -0.006975597 -0.0073511326 -0.011241869 -0.007164155 0.021753717 -0.019349013
-0.025686638 0.050760683 -0.041333836 0.063378945 0.018956546 -0.002320264 0.038086217 0.029100733
0.05494104 -0.011179993 -0.008314402 0.0047403304 0.034567274 -0.0030135058 0.0039314814 -0.035712976
0.09169073 0.15155746 -0.006571667 -0.004130273 0.003147704 -0.0051399535 0.002691555 -0.0039772373
0.074286275 -0.02645275 0.007854912 -0.04385869 -0.018696351 0.0036427076 0.017468464 -0.01617836
0.07574846 -0.14054486 0.005139022 0.005465584 0.013331564 -0.0066964217 0.014406761 0.04055156
-0.00028759017 0.008244577 -0.046127625 0.0059880177 -0.0028809845 0.011363107 0.020587297 -0.012165024
-0.029150967 2.2435873 0.11454769 -0.2881705 -0.04338903 0.045580614 -0.059377488 -0.16106185
0.0041834638 -0.03736706 -0.006142786 0.0058371155 0.013692568 -0.05034355 0.012854952 -0.00042922836
0.001701307 0.0016852947 0.007917809 0.002707486 0.0086842915 -0.026744636 -0.031439602 -0.007730391
-0.07601014 -0.00079148693 -0.0052234656 -0.008931376 -0.065734275 -0.030907972 -0.20180133 -0.0005010906
0.0076568043 -0.043565307 -0.0024411634 0.0024122584 0.0022073032 0.01090746 -0.07648207 -0.1768997
-0.1754132 -0.16028656 0.024358628 -0.040834423 0.08367524 -0.008449546 0.017315336 0.0005714353
-0.020499732 0.006984108 0.0033459074 0.0496288 0.11331286 -0.0939199 0.08055994 0.009522963
0.012346122 -0.02228733 0.002233192 -0.0040194173 0.012172175 -0.0058935243 -0.0019547646 -0.0011294335
-0.0025583846 -0.00022902181 -0.003956431 0.008069116 -0.0072534005 -0.053953987 -0.07765147 0.029780824
0.02880748 0.1243161 -0.12625545 0.008841312 0.023405226 -0.0015551833 -0.0021369467 -0.010379999
0.0011491479 -0.06329448 0.015542917 -0.02947037 0.017007302 0.08129155 -0.010462511 0.13376579
0.015554786 0.0036685257 -0.0005573579 -0.0049890555 -0.0147977015 -0.008214949 -0.0013479638 0.013325348
0.006949675 -0.005843869 -0.0015426539 -0.022948526 0.059724316 0.06014121 -0.010026189 0.00025486387
-0.011755629 0.006440846 0.018973008 0.14377868 -0.07921176 0.03771041 0.016805556 -0.039871585
0.0046870494 -0.007757434 -0.026486471 -2.3821688 -2.132189 0.38772228 -0.03342036 -0.004920132
-0.09650144 0.0009110919 -0.0008821219 -0.018386072 0.112384886 -0.2978487 -0.51834977 -0.057486292
-0.020304946 -0.0755173 0.11256404 -0.3085718 4.0038266 0.011324455 -0.014508493 -0.052580446
0.004289674 -0.084876224 0.08737186 0.0069579226 0.00028502467 0.0042551234 0.00553814 0.0013470955
-0.039441895 -0.02996185 -0.0074631297 -0.055931304 0.0034326746 -0.015134841 -0.012302398 -0.064097814
00000000: 02ef 6abb c6b8 0d3a a8eb 5038 da15 373d
00000010: d199 85bc af02 54bd 2767 febc 3f76 703c
00000020: 41cd 77bd 8ed7 763b a05e f038 c121 24bd
00000030: 298d 3e3b a61b 663c 85b4 fa3c 8227 a33c
00000040: 6c35 5e3a d537 433c 7f1a e6ba 2aca 8bbb
00000050: f9fe 28bc 5943 e23c f6f9 44bc c118 f5ba
00000060: 5ebe f5bb 992e a13a 0144 aa3a e321 833b
00000070: 7ee8 183c 60ed 733c dc92 1a3e ddf7 4fbd
00000080: 3cb8 b1bc da30 573c 4729 573c 6272 ccbc
00000090: f6e4 b23c f494 863d 560a acbd c2f6 8f3d
000000a0: f75e de3d d7de 2f3d 3a44 8dbd c777 bfbc
000000b0: 692c 40bd 701b d83b ff57 6fbc f1e9 00bc
000000c0: 5d6f 5fba 7baf 07ba 8c93 e4bb c5e1 f0bb
000000d0: d12f 38bc 4ac1 eabb da34 b23c d281 9ebc
000000e0: c96c d2bc 6fea 4f3d ab4d 29bd d2cc 813d
000000f0: c24a 9b3c 920f 18bb 4b00 1c3d a964 ee3c
00000100: db09 613d 4a2c 37bc 2139 08bc c654 9b3b
00000110: 6a96 0d3d 3d7e 45bb a8d3 803b c547 12bd
00000120: 59c8 bb3d e131 1b3e 2357 d7bb 3e57 87bb
00000130: b649 4e3b 0e6d a8bb cd64 303b 7c53 82bb
00000140: 6723 983d 70b3 d8bc e4b1 003c 2ba5 33bd
00000150: 1729 99bc 7eba 6e3b 061a 8f3c 7b88 84bc
00000160: 0222 9b3d feea 0fbe 3e65 a83b a418 b33b
00000170: a26c 5a3c a86d dbbb 560a 6c3c 6519 263d
00000180: b3c7 96b9 4314 073c 52f0 3cbd 2237 c43b
00000190: e6ce 3cbb 532c 3a3c b1a6 a83c cf4f 47bc
000001a0: 02ce eebc ef96 0f40 fb97 ea3d 158b 93be
000001b0: b2b8 31bd bdb2 3a3d cf35 73bd 66ed 24be
000001c0: 7015 893b 340e 19bd 6c49 c9bb 4645 bf3b
000001d0: cb56 603c 0a35 4ebd 949d 523c 0e0a e1b9
000001e0: 64fe de3a 1be5 dc3a b3b9 013c 1470 313b
000001f0: 8f48 0e3c 9117 dbbc d0c6 00bd 384f fdbb
00000200: 34ab 9bbd ca7b 4fba 9b29 abbb e854 12bc
00000210: b19f 86bd b732 fdbc 02a5 4ebe 9f5b 03ba
00000220: eee5 fa3b 8971 32bd edfb 1fbb fb16 1e3b
00000230: 67a8 103b 34b5 323c a2a2 9cbd 3225 35be
00000240: 859f 33be 2922 24be bf8b c73c ff41 27bd
00000250: ed5d ab3d f76f 0abc e4d8 8d3c 60cc 153a
00000260: 0eef a7bc f2da e43b 0347 5b3b 9247 4b3d
00000270: 9310 e83d 1459 c0bd 9cfc a43d 3406 1c3c
00000280: 6447 4a3c eb93 b6bc bf5a 123b 51b5 83bb
00000290: cd6d 473c 771e c1bb 821b 00bb 8009 94ba
000002a0: 92aa 27bb 9325 70b9 f3a4 81bb 5334 043c
000002b0: efad edbb dbfe 5cbd bc07 9fbd eaf6 f33c
000002c0: aafd eb3c 7099 fe3d 1c49 01be 26db 103c
000002d0: 51bc bf3c 4bd7 cbba 040c 0cbb df10 2abc
000002e0: 019f 963a 89a0 81bd b8a7 7e3c d86b f1bc
000002f0: e652 8b3c 2f7c a63d f46a 2bbc e6f9 083e
00000300: 80d9 7e3c a66b 703b a81b 12ba 3b7b a3bb
00000310: 0f72 72bc fe97 06bc 29ae b0ba 8f52 5a3c
00000320: 19ba e33b ed7d bfbb e032 caba 8cfe bbbc
00000330: 7ca1 743d a156 763d e244 24bc 409f 8539
00000340: af9a 40bc bb0d d33b 486d 9b3c b83a 133e
00000350: c639 a2bd 3b76 1a3d ceab 893c 6350 23bd
00000360: d295 993b 1332 febb 28fa d8bc 7475 18c0
00000370: c975 08c0 8983 c63e cae3 08bd 0f39 a1bb
00000380: 8ca2 c5bd 58d6 6e3a 333e 67ba 639e 96bc
00000390: 0c2a e63d a07f 98be 92b2 04bf bf76 6bbd
000003a0: 8f56 a6bc d0a8 9abd fa87 e63d 1ffd 9dbe
000003b0: 591f 8040 358a 393c 08b5 6dbc 985e 57bd
000003c0: 6590 8c3b 96d3 adbd 05f0 b23d 49ff e33b
000003d0: 5d6f 9539 906e 8b3b 4979 b53b 0691 b03a
000003e0: d38d 21bd 8e72 f5bc 458d f4bb 3918 65bd
000003f0: b9f6 603b 20f8 77bc ff8f 49bc b745 83bd

weight f4 [2, 128]
-0.31593823 0.33439174 -0.27371645 0.039690167 -0.20618658 0.4129944 0.07325339 0.03829274
-0.24296659 -0.061970707 0.010880692 0.21256615 0.03226395 -0.048724707 -0.03581104 -0.058211904
0.15518962 0.34424546 -0.05340524 -0.07982611 -0.06890004 -0.023075614 -0.18475667 -0.088055216
0.04870002 0.016312176 0.1534562 -0.36991262 0.33494234 -0.30849305 0.1527462 -0.0561674
0.13901313 0.1734227 -0.15717012 -0.0053082337 0.16522552 -0.027456526 -0.089716226 0.051142313
-0.10136891 0.2908386 -0.5019071 0.2432897 0.031126596 0.089591876 0.032218542 -0.24953575
0.17647484 -0.13523021 0.10210939 -0.28936836 0.7008647 0.056321453 0.29294813 -0.0077069197
-0.22052178 0.53707385 0.025433585 0.12085183 0.22781602 0.18641078 0.21176122 -0.45247278
-0.0876606 -0.18114232 -0.09071994 -0.076170504 0.0858715 0.08424812 0.15838501 -0.31718633
-0.4130094 -0.039736293 0.21014753 -0.023485865 -0.00784631 -0.14970118 0.0327618 -0.1130497
0.26788533 0.18907392 -0.13297494 -0.14964451 -0.0068941005 -0.08544358 0.1724248 0.53223574
-0.33845323 -0.065200746 -0.006099364 -0.11665539 -0.21784166 0.38969436 0.33963057 0.24357547
-0.19434148 -0.19726361 0.04982941 0.1614785 0.14345247 0.27626055 -0.12268634 0.07098287
-0.52935475 -0.18567881 -0.44774273 -0.007961336 0.0510467 0.09387999 -0.20884496 0.06973335
0.013606929 -0.22447473 0.054474313 0.1520924 0.037877742 -0.09856039 -0.007898166 -0.099654
0.41376176 0.19420265 0.22474296 -0.15266086 -0.18909435 -0.19126998 -0.11365416 -0.14132074
-0.024244491 0.07911611 0.20303555 -0.025521634 0.1193952 0.20039473 -0.112290874 -0.23076089
-0.061125465 0.10305869 0.104959205 0.39894623 -0.048552055 -0.014215236 0.10642276 0.062488955
0.30693045 0.29838052 0.1297609 -0.5669526 -0.028482145 -0.057680324 -0.020076934 0.3466806
-0.15376018 -0.12908828 -0.25874257 -0.082288235 -0.12547119 0.4841721 0.058715884 0.24708062
-0.18263565 0.16472352 0.117507525 -0.05475044 0.06552026 0.21137173 0.108700804 -0.0080647245
-0.16674992 -0.046959147 -0.42155966 -0.04234633 -0.07678711 -0.23151593 -0.002015424 -0.6021561
0.0925428 -0.14484888 0.09795573 0.07694152 0.017361274 0.39522552 -0.011251346 -0.012893445
0.07987042 -0.09141533 0.35689276 -0.13446657 -0.107332475 -0.028458107 -0.17658772 0.0068074455
0.0021274956 0.12158579 0.15495472 -0.11968714 -0.016427366 -0.0057981913 -0.1108834 -0.021869067
0.013614697 0.010490155 0.38898343 0.17485288 0.2815413 0.2714277 -0.04148459 0.19819854
-0.4008474 0.08694743 0.268832 -0.09836033 -0.20864491 -0.23712869 -0.49811175 0.09289034
0.008522615 0.19168088 0.066619486 -0.5593743 -0.19881012 -0.32522398 -0.09984856 -0.05226128
0.12450435 -0.071710296 0.093545064 -0.25174212 -0.09235027 -0.025195358 0.37263197 0.10699919
-0.21497579 0.22310369 0.13067274 -0.0129352715 0.20793454 -0.25050348 0.00095295213 -0.03426122
0.06745831 0.37224445 0.026340082 -0.09270648 -0.103322685 0.4141635 -0.013136148 0.1014221
-0.01944122 -0.047955815 -0.43014792 0.2553331 -0.2516142 -0.07413001 -0.23689592 0.030904483
00000000: a8c2 a1be 6535 ab3e 9024 8cbe 2892 223d
00000010: 9322 53be 0174 d33e e005 963d d9d8 1c3d
00000020: 3ccc 78be ffd4 7dbd ee44 323c f1aa 593e
00000030: 3427 043d 8f93 47bd 99ae 12bd 9b6f 6ebd
00000040: 07ea 1e3e f140 b03e 74bf 5abd df7b a3bd
00000050: 771b 8dbd 1209 bdbc da30 3dbe 4b56 b4bd
00000060: ac79 473d 1da1 853c 9f23 1d3e 3065 bdbe
00000070: 907d ab3e cdf2 9dbe 8069 1c3e ca0f 66bd
00000080: 7559 0e3e b895 313e 34f1 20be b1f0 adbb
00000090: e130 293e 82ec e0bc 24bd b7bd 9a7a 513d
000000a0: 819a cfbd cce8 943e fc7c 00bf ef20 793e
000000b0: 34fd fe3c f27b b73d 97f7 033d 4d86 7fbe
000000c0: d2b5 343e ca79 0abe ba1e d13d 1728 94be
000000d0: de6b 333f 53b1 663d 4cfd 953e 548a fcbb
000000e0: 76d0 61be ac7d 093f 185a d03c 2a81 f73d
000000f0: 9a48 693e 78e2 3e3e efd7 583e 83aa e7be
00000100: 6787 b3bd 5f7d 39be 60cb b9bd 48ff 9bbd
00000110: 66dd af3d 478a ac3d ae2f 223e 3f66 a2be
00000120: f875 d3be 86c2 22bd ea30 573e 6e65 c0bc
00000130: cf8d 00bc 444b 19be 3d31 063d 9a86 e7bd
00000140: 4428 893e 989c 413e 952a 08be 693c 19be
00000150: e8e7 e1bb 0bfd aebd 2090 303e 9a40 083f
00000160: be49 adbe f887 85bd 2cdd c7bb 05e9 eebd
00000170: e211 5fbe 0586 c73e 0fe4 ad3e d96b 793e
00000180: 7401 47be 79ff 49be ec19 4c3d 9f5a 253e
00000190: 34e5 123e 0672 8d3e fa42 fbbd 785f 913d
000001a0: cb83 07bf 9622 3ebe 893e e5be 4370 02bc
000001b0: 5816 513d 2744 c03d 74db 55be 5cd0 8e3d
000001c0: 99ef 5e3c b4dc 65be 7520 5f3d 1cbe 1b3e
000001d0: b125 1b3d 08da c9bd 4f67 01bc 6517 ccbd
000001e0: 95d8 d33e 0fdd 463e 0523 663e 2153 1cbe
000001f0: f3a1 41be 47dc 43be 83c3 e8bd 62b6 10be
00000200: 629c c6bc a107 a23d 8de8 4f3e bf12 d1bc
00000210: 7885 f43d 4734 4d3e c2f8 e5bd 954c 6cbe
00000220: b25e 7abd 6f10 d33d daf4 d63d ae42 cc3e
00000230: 85de 46bd 05e7 68bc 2df4 d93d 6bf4 7f3d
00000240: fd25 9d3e 55c5 983e 0be0 043e ce23 11bf
00000250: 6353 e9bc 3442 6cbd 6278 a4bc 1f80 b13e
00000260: 4f73 1dbe b82f 04be e879 84be bc86 a8bd
00000270: 857b 00be 68e5 f73e 1180 703d b402 7d3e
00000280: d704 3bbe 48ad 283e c9a7 f03d ff41 60bd
00000290: 7c2f 863d d571 583e 879e de3d e821 04bc
000002a0: 7ec0 2abe 3c58 40bd abd6 d7be 5873 2dbd
000002b0: 8f42 9dbd 8312 6dbe 3415 04bb e726 1abf
000002c0: 1487 bd3d 4453 14be 049d c83d 8493 9d3d
000002d0: 3b39 8e3c 005b ca3e 9157 38bc 073f 53bc
000002e0: 1a93 a33d f637 bbbd a6ba b63e 9bb1 09be
000002f0: 21d1 dbbd fa20 e9bc 69d3 34be fe10 df3b
00000300: 746d 0b3b f801 f93d 73ac 1e3e 881e f5bd
00000310: af92 86bc c1fe bdbb d616 e3bd c226 b3bc
00000320: 2e10 5f3c e6de 2b3c d628 c73e a20c 333e
00000330: 2e26 903e 92f8 8a3e bfeb 29bd 8ff4 4a3e
00000340: df3b cdbe 7f11 b23d 59a4 893e 2471 c9bd
00000350: 03a7 55be ddd1 72be 8108 ffbe 4a3d be3d
00000360: 70a2 0b3c fe47 443e cc6f 883d 2733 0fbf
00000370: e194 4bbe c283 a6be 677d ccbd ed0f 56bd
00000380: 23fc fe3d d9dc 92bd 8e94 bf3d 58e4 80be
00000390: 2322 bdbd 7f66 cebc 9ec9 be3e 6422 db3d
000003a0: 9d22 5cbe 4b75 643e 13cf 053e 76ee 53bc
000003b0: cbec 543e fe41 80be 89cf 793a 7e55 0cbd
000003c0: 9527 8a3d d396 be3e 28c7 d73c e5dc bdbd
000003d0: d89a d3bd 3d0d d43e 0039 57bc 64b6 cf3d
000003e0: 3243 9fbc 516d 44bd 593c dcbe 05bb 823e
000003f0: 94d3 80be 7ad1 97bd d894 72be 662b fd3c

bias f4 [2]
-0.1878532 0.15865238
00000000: 975c 40be c575 223e

W f4 [128, 128]
0.06615327 -0.11401518 0.025203414 -0.0025940512 -0.018225469 0.0057087922 -0.13450716 0.0557005
0.009153253 0.1332244 0.07627285 -0.048340004 0.035664298 0.16808274 0.024945317 -0.044494748
0.06919087 -0.06063432 -0.08553102 0.056922227 0.0069412095 -0.021607459 0.025608942 0.18206155
0.052633002 0.1472876 -0.03155805 0.05919769 -0.1013823 0.04395069 0.07547187 -0.1532022
0.040917426 -0.004154457 -0.10751988 -0.051087987 0.0017958387 0.04750391 -0.0406841 0.15189782
0.01759105 -0.03835021 -0.05021101 -0.01233417 0.16869865 -0.05669807 -0.0011714132 0.14530236
0.08613754 -0.049004417 -0.1760672 -0.11506281 0.009854115 -0.013803325 0.11942796 -0.13394344
0.062715955 0.039668765 0.047413338 -0.111616015 0.0033678995 0.06333898 0.10623197 0.011821793
0.061168723 0.12241087 -0.0011056567 -0.13534352 -0.14840004 -0.041232552 0.040657472 0.10456521
-0.022485849 -0.052583974 -0.043080006 -0.03164563 0.030913038 0.0033669847 0.1426325 0.036824312
-0.04614829 0.0036580174 -0.07300025 -0.01217472 0.11416925 -0.013320026 -0.11191893 -0.031135231
0.011162633 -0.0691131 0.0060655805 -0.063541725 -0.08362278 -0.0038840105 -0.12749156 0.02553062
-0.08585229 -0.07584856 0.018500494 -0.0068172123 -0.013822781 0.09957602 -0.016550288 0.06696144
0.037995156 -0.03409935 0.027750414 -0.06521748 0.18114622 0.030978585 0.06755226 -0.03685416
-0.08557144 0.0056752856 0.04127027 0.07404831 0.021890715 -0.035398595 0.07636948 -0.04456105
-0.006181042 -0.06322124 0.08883172 0.03731689 0.0009289775 0.124790624 0.017650306 0.12203644
0.016574321 -0.038741864 0.20584601 -0.0047498727 0.03077617 -0.08782322 0.13797882 -0.048023727
0.07255256 0.06968604 0.08415669 0.18978484 -0.12145929 -0.013794331 -0.055098258 -0.10932745
-0.0022596482 -0.08030975 0.04495399 -0.036296826 0.17392297 0.051717862 0.13131073 -0.017173747
-0.012573485 -0.059002247 -0.09843688 0.012458537 0.045571454 0.08414496 0.035101216 -0.022687266
0.07125951 0.09293227 -0.09395793 -0.12833814 0.049949106 0.040069986 -0.099928364 0.109886795
-0.14300708 0.12062969 0.107512884 -0.018513497 0.012538158 -0.057337403 -0.018079035 0.06661179
-0.1144339 0.096453145 0.054106735 -0.039597243 -0.08659897 0.049032398 0.115319744 -0.13157716
-0.021959618 0.031481557 0.15171498 0.009431775 -0.15887491 0.017610896 0.051453467 -0.12706997
-0.17332575 -0.004773883 -0.04538706 -0.037787408 -0.1803199 0.0064549944 -0.044799615 0.011933775
-0.037225638 -0.08794848 0.15628332 0.0039899806 -0.03074459 0.04855843 -0.09340942 0.04167721
-0.07895406 -0.1378753 0.111005396 0.12981357 -0.047316454 -0.13029696 -0.18642041 -0.05910003
0.019888151 0.08661292 0.27207616 0.06864228 0.022910766 -0.091829 0.013893956 0.08160794
0.05250527 -0.015554552 0.09223527 0.16496126 -0.1609251 0.10102797 -0.06541757 -0.03291176
0.053747743 -0.0107307015 -0.018598031 -0.03261772 0.05167988 -0.078242995 0.022286117 0.08063062
0.13779755 0.047893353 -0.013735775 -0.048453305 -0.054761782 0.011548163 0.07664967 -0.102058604
-0.094215184 -0.02800179 0.01063413 0.1019336 0.0018615754 0.1307429 -0.026850194 -0.07543994
00000000: 5e7b 873d ca80 e9bd 6477 ce3c f500 2abb
00000010: 944d 95bc d210 bb3b 3fbc 09be 3526 643d
00000020: 87f7 153c fa6b 083e f134 9c3d 2b00 46bd
00000030: ba14 123d e21d 2c3e 1f5a cc3c 2040 36bd
00000040: f1b3 8d3d b15b 78bd e32a afbd 4827 693d
00000050: 1673 e33b 2002 b1bc d8c9 d13c 586e 3a3e
00000060: b495 573d 90d2 163e 0443 01bd 4779 723d
00000070: 86a1 cfbd a405 343d ff90 9a3d 0ae1 1cbe
00000080: 0899 273d 1c22 88bb 6233 dcbd a341 51bd
00000090: 5962 eb3a 7693 423d 5fa4 26bd 1a8b 1b3e
000000a0: 1b1b 903c 1c15 1dbd 0faa 4dbd 4215 4abc
000000b0: 57bf 2c3e 3c3c 68bd 1b8a 99ba 24ca 143e
000000c0: e168 b03d dbb8 48bd f64a 34be 0da6 ebbd
000000d0: 2773 213c 5727 62bc a596 f43d 7828 09be
000000e0: 3971 803d b77b 223d 7d34 423d f096 e4bd
000000f0: fab7 5c3b deb7 813d 2690 d93d 32b0 413c
00000100: 0e8c 7a3d 8db2 fa3d afeb 90ba 7e97 0abe
00000110: 2ef6 17be 77e3 28bd 7388 263d 4926 d63d
00000120: 3e34 b8bc 4b62 57bd a974 30bd d99e 01bd
00000130: 573d fd3c a1a8 5c3b 410e 123e 17d5 163d
00000140: fd05 3dbd 59bb 6f3b 2881 95bd 7a78 47bc
00000150: 91d1 e93d 3d3c 5abc c135 e5bd 500f ffbc
00000160: 7ae3 363c 2b8b 8dbd c7c1 c63b 2a22 82bd
00000170: 6c42 abbd e28a 7ebb 268d 02be 9725 d13c
00000180: 53d3 afbd 7d56 9bbd 598e 973c ec62 dfbb
00000190: f278 62bc 83ee cb3d 7894 87bc 1423 893d
000001a0: cfa0 1b3d c3ab 0bbd d654 e33c be90 85bd
000001b0: 657e 393e cdc6 fd3c d758 8a3d 63f4 16bd
000001c0: 1440 afbd bff7 b93b 040b 293d a4a6 973d
000001d0: 2854 b33c 1efe 10bd 9a67 9c3d a685 36bd
000001e0: 578a cabb 237a 81bd 68ed b53d 98d9 183d
000001f0: a086 733a 3a92 ff3d 6097 903c 3eee f93d
00000200: dfc6 873c caaf 1ebd 4cc9 523e d2a4 9bbb
00000210: 4e1e fc3c a9dc b3bd 524a 0d3e 87b4 44bd
00000220: 7096 943d 8eb7 8e3d 585a ac3d f556 423e
00000230: a6bf f8bd 9e01 62bc b6ae 61bd 12e7 dfbd
00000240: 9b16 14bb 7079 a4bd ad21 383d fbab 14bd
00000250: dd18 323e 1cd6 533d 5276 063e f5af 8cbc
00000260: 0501 4ebc 57ac 71bd 4699 c9bd e41e 4c3c
00000270: 22a9 3a3d 3154 ac3d 4bc6 0f3d a5da b9bc
00000280: 82f0 913d 4653 be3d 046d c0bd 136b 03be
00000290: 6f97 4c3d 6d20 243d 3ea7 ccbd 540c e13d
000002a0: 7370 12be b30c f73d b72f dc3d 9ea9 97bc
000002b0: d96c 4d3c a0da 6abd 7c1a 94bc c36b 883d
000002c0: 525c eabd 3a89 c53d 069f 5d3d b830 22bd
000002d0: cd5a b1bd 32d6 483d c22c ec3d 2abc 06be
000002e0: a8e4 b3bc cef2 003d 2c5b 1b3e bb87 1a3c
000002f0: 1bb0 22be ba44 903c dfc0 523d a11e 02be
00000300: 4e7c 31be 3c6e 9cbb c8e7 39bd f8c6 1abd
00000310: c8a5 38be 6b84 d33b cd7f 37bd e185 433c
00000320: e979 18bd 551e b4bd bc08 203e 62be 823b
00000330: 14dc fbbc 34e5 463d 704d bfbd b9b5 2a3d
00000340: abb2 a1bd 2f2f 0dbe cc56 e33d d9ed 043e
00000350: e6ce 41bd 916c 05be fee4 3ebe e012 72bd
00000360: 7aec a23c 1d62 b13d 914d 8b3e 5394 8c3d
00000370: 5caf bb3c d810 bcbd 7aa3 633c 1022 a73d
00000380: c40f 573d 85d8 7ebc d8e5 bc3d 9beb 283e
00000390: 8dc9 24be c1e7 ce3d a6f9 85bd 7bce 06bd
000003a0: 9826 5c3d d3cf 2fbc e65a 98bc 299a 05bd
000003b0: 48ae 533d dd3d a0bd 6091 b63c ab21 a53d
000003c0: cd1a 0d3e d22b 443d 040c 61bc f976 46bd
000003d0: e44d 60bd 8234 3d3c 81fa 9c3d 1a04 d1bd
000003e0: e4f3 c0bd 0364 e5bc c63a 2e3c 90c2 d03d
000003f0: 1b00 f43a 77e1 053e f0f4 dbbc 4180 9abd
