LeakyRNN_11.28/1202/ta_3_128_d10_r11_5/model_96.pth (torch, 137244 bytes, 5 tensors)

weight f4 [128, 128]
000000 0b b9 b8 3e e0 05 d4 bf 0f 2c 3f bf be 79 a7 bf
       0.36078677 -1.6564293 -0.74676603 -1.3084028
000010 e5 94 fe bd b1 9d ce be ec d9 fd 3f dd eb c0 be
       -0.12430743 -0.40354684 1.983213 -0.3767995
000020 d5 d5 88 3f f4 c5 8f be 5d d2 cb bf cc a6 87 be
       1.0690256 -0.28080714 -1.5923573 -0.26494443
000030 64 0e 88 bf 90 b7 3a 3f 8b 44 21 bf c5 f1 b2 3f
       -1.0629392 0.72936344 -0.62995213 1.3980032
000040 6b aa 01 3e 4d a9 a0 3f f1 b3 16 3f 19 15 82 be
       0.12662666 1.2551666 0.5886832 -0.2540672
000050 31 b2 2e bf ea 0f 5c be b5 87 de be 76 db 98 3f
       -0.6824065 -0.21490446 -0.4346291 1.1941974
000060 32 23 11 bf 97 59 9b 3e 5a e0 c4 be a4 a8 01 3f
       -0.5669433 0.3034179 -0.38452417 0.5064795
000070 76 36 06 3e f2 38 84 3f 1c e3 14 bf d4 33 27 be
       0.13106713 1.0329878 -0.5815904 -0.16328365
000080 1c 4a 75 be f8 28 c4 3e 7f cc 40 3f 6d 6a bc be
       -0.23954052 0.38312507 0.75312036 -0.36799946
000090 b0 07 aa be 67 d5 3a 3f 5b 02 9f be 16 b6 c4 be
       -0.3320899 0.72981876 -0.31056485 -0.3842017
0000a0 08 83 74 bf 35 49 dc bf 2c ea 95 3e a5 5f f0 3e
       -0.9551244 -1.7209841 0.2928022 0.4694797
0000b0 30 af 44 3c 02 92 57 bf 96 68 f5 3d fe 04 b7 3d
       0.012004659 -0.84207165 0.11982839 0.08936499
0000c0 c6 a0 75 be 1d d2 85 be 0d 32 10 40 96 33 0c be
       -0.23987111 -0.26136866 2.2530549 -0.13691553
0000d0 72 f9 53 3f 7f 66 91 be c6 c9 68 bf cf b1 8e be
       0.828025 -0.2839851 -0.9093288 -0.27870032
0000e0 9a 0c b7 3e bd 20 13 3e b9 d6 38 3e 7f 2f 8f 3e
       0.35751802 0.14367957 0.1805066 0.27965924
0000f0 ce 0d 61 bf 44 20 7e be b4 b9 00 bf 46 53 52 3e
       -0.8791169 -0.24816996 -0.5028336 0.20539579
000100 21 04 82 be 04 df 85 bf 04 55 6d 3e 3b b1 4e be
       -0.25393775 -1.0458684 0.23176962 -0.20184796
000110 7f 1e 03 bd 53 4b d2 3e 2b 16 29 bf 29 cf 0c bb
       -0.032011505 0.41073093 -0.6604945 -0.0021485782
000120 7c 26 ca bd 9e d4 ea bc ac 0d 98 be 65 83 82 3e
       -0.098706216 -0.028665837 -0.2969793 0.2549087
000130 89 5d 18 3e b6 63 36 3c fb 84 67 3d 1c 6c 62 be
       0.14879431 0.011132171 0.056523304 -0.22111553
000140 45 d1 9c bf 67 4e 93 be 47 fd 80 3d 79 d3 b2 3d
       -1.2251364 -0.28770754 0.06298309 0.087317415
000150 ab 8a 68 bf 97 9e 3d 40 3d d8 e2 3e 87 95 45 be
       -0.9083659 2.9628046 0.44305602 -0.19295321
000160 8a 81 c7 be 65 22 95 3e 69 d7 15 3f b1 13 97 bf
       -0.38966018 0.29127803 0.58531815 -1.1802884
000170 7e 34 43 be f4 d3 59 3f b9 99 07 bf 3f 40 84 bf
       -0.19062993 0.8508904 -0.5296894 -1.0332106
000180 62 8a 8e be 88 88 98 3e 92 1c 3c 3d b2 cf 73 3f
       -0.27839953 0.29791665 0.045925684 0.9523879
000190 3c 69 3a be 31 48 f9 bd ea d5 29 3f 57 1f a1 bd
       -0.18204206 -0.121719725 0.6634203 -0.07867306
0001a0 c9 6e 3e 3b 69 9f 4b 3e 05 f4 95 3e f4 01 21 3f
       0.0029057732 0.19885029 0.29287735 0.62893605
0001b0 d7 79 a8 3f 88 e9 89 be f3 ba 42 3f d7 df 1e be
       1.3162183 -0.26935983 0.7606651 -0.15515076
0001c0 85 98 14 3f 12 9a 01 3f 1a c5 85 bf 2f c7 4a bf
       0.58045226 0.5062572 -1.0450776 -0.7921018
0001d0 c9 de e6 3e ca e6 8b 3e dd c7 41 3e e4 f2 02 3f
       0.45091847 0.27324516 0.18923898 0.5115187
0001e0 04 ab 86 bf c2 ab 07 be e2 55 77 bf 36 3e 02 3f
       -1.052094 -0.13249114 -0.9661542 0.50876176
0001f0 8b 21 6e be d6 a4 b6 3e 46 f5 d1 be a5 ea 6d bf
       -0.23254983 0.35672635 -0.4100744 -0.92936164
000200 dc 1f b6 3e 25 1b 57 be 7e 57 98 3c c9 fd 0e 3f
       0.35571182 -0.21006449 0.018596407 0.55855995
000210 a6 3f 27 3f 6b be 07 3e 32 5d 44 bf a4 4e 95 be
       0.65331495 0.13256232 -0.76704705 -0.2916156
000220 27 17 ca be 46 7e 82 bc b4 57 23 3f b1 c3 e4 bf
       -0.3947079 -0.015929352 0.638057 -1.787222
000230 24 35 fc 3e 14 1f 89 bf c8 88 04 3f 67 9e 1f bf
       0.49259293 -1.0712609 0.5177121 -0.6235108
000240 dd b3 79 3e 86 f0 1b 3f 93 0d 16 3f 2c b9 76 bf
       0.24385019 0.60913885 0.5861446 -0.963763
000250 59 5c c8 3f b1 03 87 3e 5f 47 6d 3e 6d 4c d8 bf
       1.5653182 0.26370004 0.23171757 -1.6898323
000260 57 df f3 3f 66 52 ad bd 15 2f a1 bf cb 69 8d 3d
       1.9052533 -0.08462982 -1.2592493 0.06904944
000270 12 0e 5b 3f 20 36 88 be e1 ff 1d 3f d7 20 a9 3e
       0.85568345 -0.26603794 0.61718565 0.33032867
000280 fa 1e 0f bf 79 60 15 3f 6c 75 84 3e c8 c0 44 bf
       -0.5590664 0.5835033 0.25870836 -0.7685666
000290 3c 95 87 3f 68 5f 40 bf 59 b9 76 be c5 8a f4 3e
       1.0592418 -0.7514558 -0.24094142 0.47762123
0002a0 33 d0 44 3e f8 2f c4 3f fa 93 42 3e c7 a4 13 bf
       0.19220047 1.5327139 0.19001761 -0.57673305
0002b0 49 2b aa 3b 91 00 52 bf dc 22 a6 bf 25 a3 90 3d
       0.0051931483 -0.82032114 -1.2979388 0.07062367
0002c0 4a d6 9c 3f 84 4c 32 bf f2 bf df 3e 58 c8 42 3d
       1.2252896 -0.69648004 0.4370113 0.047554344
0002d0 c1 a1 3c bf 02 a5 bf 3e c5 75 a7 3e e0 db 07 3f
       -0.73684317 0.37430578 0.3270704 0.5306988
0002e0 49 9d 34 bf 7b ac 8d bf a9 34 50 be 8d 20 03 be
       -0.705525 -1.1068262 -0.20332588 -0.12805386
0002f0 d7 da 62 bf 37 88 d1 3f 54 85 05 be 57 f3 62 3e
       -0.88615173 1.6369694 -0.13039142 0.2216314
000300 5a ad 11 3e 82 4b fc 3e c9 15 81 3f c4 8a 97 3f
       0.14226285 0.49276358 1.0084773 1.1839223
000310 0f c5 0f 3f 52 85 c6 3f 37 96 29 3f 43 23 dc 3e
       0.5616006 1.5509436 0.66244835 0.42995653
000320 7a 5c f2 be 81 00 3e bf de 38 4c bf 36 6a 37 be
       -0.4733618 -0.7421952 -0.7977427 -0.1791161
000330 50 c5 19 bf c1 ec 39 bf ea 21 ba be 6c 0d 02 bf
       -0.600667 -0.7262688 -0.36354 -0.5080173
000340 90 63 08 bf 51 50 95 3e 98 06 d4 be 2f e0 33 bf
       -0.5327692 0.2916284 -0.4141128 -0.7026395
000350 7f 67 65 3e 8a 08 b5 3e 65 79 5e 3e 6b 06 97 3e
       0.22402762 0.35358077 0.21725996 0.29497084
000360 cc 5f 5f 3f 19 59 77 be 76 50 e1 3d 60 bd e9 3e
       0.8725555 -0.24155082 0.11001675 0.45652294
000370 72 a5 ba 3f b6 d3 5a be 17 2e 86 3f c0 03 5a be
       1.458174 -0.21369824 1.0482816 -0.21290493
000380 85 0a df 3e c5 51 61 3f 90 0e 92 3f 0c 6f e2 3d
       0.43562713 0.88015395 1.1410694 0.11056337
000390 48 39 0c bf e9 84 a3 be e8 d1 1d bf fd 2e 50 be
       -0.54774904 -0.3193734 -0.61648417 -0.20330425
0003a0 d2 a6 c7 3e e8 6f 9a 3f 19 6a 4b bf 0f eb 3c bf
       0.3899446 1.2065401 -0.7945877 -0.7379617
0003b0 d4 cf 7d 3e 73 a2 ae be e9 f0 53 3f da 4d 06 3f
       0.24786311 -0.34108314 0.82789475 0.5246254
0003c0 bc b4 b0 bf c9 bb 59 bf 27 2c fd be fe 30 0c bf
       -1.3805156 -0.8505216 -0.49447748 -0.54762256
0003d0 85 09 8d be 8e 01 2b bf 26 36 b8 3f 23 55 86 3f
       -0.27546325 -0.6679925 1.4391525 1.0494732
0003e0 70 4c c9 3e 2a b0 eb be 53 3c 5e bf bb 8a 82 bf
       0.3931613 -0.4603284 -0.868108 -1.0198587
0003f0 74 55 1c 3f f1 1b 13 bf 3d 7b 5d 3e 0a bf 97 3e
       0.6106789 -0.5746451 0.21629043 0.2963794

weight f4 [128, 3]
000000 92 67 f2 3c af 71 52 3d 2c 8b 98 3a 23 d9 79 3d
       0.029590402 0.05137795 0.0011638156 0.060998093
000010 aa a0 81 3d 69 32 66 bc 64 10 12 bc fc ef f4 bd
       0.06329472 -0.014050105 -0.008915041 -0.11959836
000020 85 3b 52 3b 7b 79 3a 3e a3 92 97 bc 99 42 44 3b
       0.0032078933 0.18210404 -0.018502539 0.0029946922
000030 17 97 5f 3e 30 bd 73 bd 1e 93 b1 bc 7f e3 27 3d
       0.2183498 -0.059506595 -0.021676596 0.04098844
000040 5b f0 99 3d c8 eb 32 bc e5 ec 58 bd 1b dd 1e 3d
       0.07516547 -0.010920472 -0.052960295 0.03878508
000050 2a 6a 13 b7 40 98 b5 3b 74 78 56 3c 44 04 04 3b
       -8.786601e-06 0.0055418313 0.013090242 0.0020144144
000060 6a a1 3e 3d 70 34 df 3d 5c 54 03 3c 27 ae 6a bc
       0.046540655 0.108986735 0.008015718 -0.014323748
000070 11 29 a0 3c 0c 76 e9 ba fe d8 8f bb c8 68 0e be
       0.019550832 -0.001781167 -0.004389881 -0.13907158
000080 1b b5 6e bb 66 6d 1a bd cd ba 59 be 8b 90 13 3a
       -0.0036423865 -0.037701987 -0.21262665 0.00056291436
000090 16 a5 88 3d 9a 77 98 bd 65 8b 2c bc e5 1e 98 bd
       0.06672113 -0.07444687 -0.010531281 -0.07427768
0000a0 58 dd 03 be 12 67 68 bc 70 e1 49 bc 37 81 8c bc
       -0.12877405 -0.01418473 -0.012321815 -0.017151458
0000b0 10 40 5a bb 6d e4 64 bd b4 8d 89 bd 5d 2a f1 3b
       -0.0033302344 -0.055881906 -0.06716481 0.0073597864
0000c0 c5 c6 43 3c 9f 55 8b 3c 13 06 e7 3b e4 7a c2 bc
       0.011949246 0.0170086 0.0070502847 -0.02374024
0000d0 eb 20 04 bb 80 c5 79 bc 5d 84 30 bb a6 75 7d 3d
       -0.0020161222 -0.015244842 -0.0026934363 0.061879776
0000e0 70 5c 56 bc c1 d6 b4 bc 85 3e 90 3d 0c 3d e0 3a
       -0.013083562 -0.022075059 0.07043175 0.0017108037
0000f0 49 57 97 bb 3f 45 3b 3c 34 1a 71 bb aa 68 68 3c
       -0.0046185595 0.011430084 -0.00367893 0.01418511
000100 bc 04 1a bc 7b 99 80 39 4b d6 a5 bd d1 20 80 3c
       -0.009400543 0.00024528414 -0.08097514 0.015640648
000110 21 d7 07 3c b3 46 ea 3c 90 d1 2c 39 30 84 4f 3c
       0.008291037 0.028598165 0.00016481266 0.012665793
000120 db d7 7c 3d 00 f0 84 3d fb 3a bc ba b4 f5 9a 3c
       0.061729293 0.06491089 -0.0014360839 0.018915989
000130 fb 6e 89 3c ce af 0f 3c 92 61 0d bc fd 30 ed bb
       0.016776552 0.008769942 -0.00862922 -0.007238506
000140 dd 80 23 bc 5f e1 80 c0 3d e8 6d c0 35 26 19 bc
       -0.009979454 -4.027511 -3.7172997 -0.009347488
000150 5f ab 9d 3c 7c ed 14 3d 67 59 d9 3a 6b 69 a7 3c
       0.019246755 0.036359295 0.001658243 0.02043601
000160 3b 59 b2 3c 92 e9 c5 ba f1 ee 1f 3d d8 26 9e 3d
       0.021771064 -0.0015099517 0.03904623 0.077222526
000170 f0 d7 36 3c 3b bd 93 3d 14 85 e1 3c e9 49 b9 3b
       0.011159882 0.07213827 0.027529277 0.0056545627
000180 3f 77 08 3e fe 78 b0 bc dc e3 da 3b d2 ec 46 bb
       0.13326739 -0.021542069 0.006679995 -0.0030353558
000190 8b 6e a5 3c 47 e5 42 bc 06 1b b1 3e 26 d4 de 3e
       0.020194313 -0.011895484 0.3459093 0.4352123
0001a0 9a 42 8f ba a8 04 8d 3c 50 b1 14 bb 41 45 18 3c
       -0.0010929883 0.017214134 -0.0022688694 0.009293855
0001b0 97 d9 34 3a 12 c5 f2 3b 1d 4f 34 bb d5 06 cb 3d
       0.00068988785 0.0074087465 -0.0027512976 0.099134125
0001c0 a4 48 46 3e 7d ba f4 3c 6d 5e db 3d f4 a8 0d 3e
       0.19363648 0.02987408 0.1071137 0.13833982
0001d0 d9 74 fe 3b fd 71 81 bc 0a 5c b0 bb 46 27 1c bc
       0.007765394 -0.015801424 -0.0053820657 -0.009530848
0001e0 87 bd 8e 3c 45 6e 93 3c 0a 3a 5a 3c 79 90 30 3e
       0.017424358 0.017996917 0.013319502 0.17242612
0001f0 e4 ca 13 be 9e 0a 40 3c 96 19 d9 bc 9d 0d 5f be
       -0.14432865 0.011721281 -0.026501458 -0.21782537
000200 55 9d 27 3b 7b fd 94 3d 7d bd c4 3d 51 1b bf bb
       0.0025575955 0.0727491 0.096064545 -0.005832114
000210 be 98 01 bb 64 ef bd bb 87 61 06 3c f0 11 30 bd
       -0.001977488 -0.00579636 0.008201963 -0.042985857
000220 7a 3e 7b bc a7 05 df ba fc ba 9c bc 40 27 27 bd
       -0.01533472 -0.0017015234 -0.01913213 -0.040808916
000230 db 08 06 3c b4 6b e0 3c e6 9d 30 3e 0f 6d a1 3b
       0.008180822 0.027395107 0.17247733 0.004926331
000240 eb 0e 8c 3d d9 19 4d bd 69 75 d5 3b 64 ab 34 bc
       0.06838783 -0.05007348 0.0065142405 -0.011027191
000250 86 c7 e4 3b 29 a1 9f 3c 05 74 cf bb f4 7f 79 3d
       0.006981793 0.019486027 -0.0063309693 0.06091304
000260 9e 08 c8 3a 2b db 56 3b 12 e4 97 3c 0a 86 15 bb
       0.0015261357 0.0032784443 0.01854137 -0.002281549
000270 63 6e 91 ba 62 37 81 bc ae 6d 47 bc e6 9f 70 3d
       -0.001109552 -0.015773479 -0.012172146 0.05874624
000280 f4 46 44 3d d3 24 ef bc 7b 2f 0b 3c 66 49 b0 3b
       0.04791923 -0.029192364 0.008495207 0.0053798435
000290 3e 26 70 b9 66 aa cb 3d d2 c6 45 3e b3 79 2d 3b
       -0.0002290243 0.0994461 0.19314125 0.0026470243
0002a0 0e e8 8c bd 68 72 8e bd ec c5 25 ba 8f 87 16 3d
       -0.068801984 -0.06955415 -0.0006323743 0.036750372
0002b0 31 2c 4f 3d ba d6 eb bb 69 3f 86 3b 1f 61 19 3c
       0.050579254 -0.0071972283 0.0040969145 0.009361534
0002c0 95 46 a8 3b 75 05 3f 3b af c6 a4 3c 67 a4 20 ba
       0.005135367 0.002914754 0.020114271 -0.00061280135
0002d0 89 41 4b 3e d9 fd 11 be b1 f4 81 bb 82 53 89 bc
       0.19849218 -0.14256991 -0.003965937 -0.016763452
0002e0 1d 31 23 be e0 d7 34 bc cf fe 91 bc 96 14 61 bd
       -0.15936704 -0.011037797 -0.017821698 -0.054951273
0002f0 65 cb 10 3c 1b 85 d9 bd 0c 77 13 be 12 fc 85 bc
       0.008837556 -0.10621091 -0.14400882 -0.016355548
000300 f9 22 89 3c 4e 2e 61 3c 05 a4 86 3b b4 d7 97 3d
       0.01674031 0.01374395 0.004108908 0.07414189
000310 4f db 01 be 19 9e 79 bb e3 79 c2 bc ac ee 74 3d
       -0.12681316 -0.0038088618 -0.02373976 0.059797928
000320 90 fc e5 bb 25 7c 6e 3d 10 0e 91 3d cb ae b5 b9
       -0.007018633 0.058223862 0.0708276 -0.0003465324
000330 af ee fc bd 34 d4 a3 3d af 0d 6e 3c e9 5d 28 bc
       -0.12350213 0.07999459 0.01452963 -0.010276296
000340 50 58 3a 3e 54 9f 4d bc da b3 ec 3d 63 f0 b3 bc
       0.18197751 -0.012550194 0.115577415 -0.021965211
000350 2f d3 20 bc ef b7 96 bc 4a 26 42 bc 5b df 0f bc
       -0.009815975 -0.018398253 -0.011849949 -0.008781279
000360 73 8f 1a bc 80 f7 61 3d e6 d5 8b 3c 93 7b 89 3b
       -0.009433615 0.055167675 0.017069768 0.0041956394
000370 57 80 76 bc 93 1c 3f bc 45 4c 9e bc e7 d0 31 3e
       -0.015045247 -0.0116645275 -0.019323478 0.17364846
000380 f7 91 ba 3a ad 39 1b bc b5 1f 4d bd fe 78 6a 3c
       0.0014234175 -0.0094742 -0.050079066 0.014311073
000390 91 a5 c3 3c ab 9d aa 3d 21 de d2 bb d5 c0 31 3b
       0.02388266 0.08330854 -0.0064351712 0.0027122993
0003a0 c7 71 3c 3c bb 57 bf 3b 44 12 a0 bd 0a 20 30 bd
       0.011501736 0.0058393157 -0.07815984 -0.042999305
0003b0 72 03 73 3b d2 de fa 3b 03 d0 33 bd 3f c6 f5 3b
       0.003708091 0.007655957 -0.043899547 0.0075004394
0003c0 52 a5 6a 3c 1e 73 db 38 0d 86 1b 3b 40 19 c8 bc
       0.014321642 0.00010464176 0.0023731024 -0.024426103
0003d0 76 b4 60 bc b2 56 89 3c 2e 52 a4 3c 10 54 e9 3c
       -0.0137149 0.016764972 0.020058718 0.028482467
0003e0 57 68 e1 39 b6 f3 dd bb 6d f0 a4 3c 80 88 38 3c
       0.00042993083 -0.0067734374 0.020134175 0.011263013
0003f0 ca ce bd ba 34 59 27 bc b1 78 85 3b 01 a6 f8 bf
       -0.0014481184 -0.010214139 0.0040732254 -1.942566

weight f4 [2, 128]
000000 7d b9 be 3b a2 26 07 bb 82 7f e9 ba 54 b9 f3 3b
       0.005820452 -0.0020622392 -0.001781449 0.0074378643
000010 a7 d1 99 bb 5f 82 e0 3b a3 b7 67 3b 59 77 c7 bc
       -0.004694182 0.006851479 0.0035357259 -0.024348902
000020 03 7d 0a bc 67 54 dd bc c3 9a 80 bb 6d e8 52 3b
       -0.008452657 -0.027017785 -0.003924699 0.0032181994
000030 e7 ab 45 3b 6d ff 81 ba 58 9f 6b 3c 9e dd 87 bb
       0.0030162276 -0.0009918042 0.014381252 -0.004146292
000040 00 87 84 3c a5 4a 9c bd 65 39 48 bb eb 6c 38 bc
       0.016177654 -0.07631425 -0.0030551788 -0.011256437
000050 e1 21 ba 3b 71 68 8a 3b d0 f7 0a b9 f9 d7 05 3b
       0.005680308 0.004223876 -0.00013253023 0.002042292
000060 20 4f d2 ba c6 52 cf bb 7d 24 e5 bb d3 62 49 3b
       -0.001604531 -0.006327006 -0.006992875 0.003072907
000070 3d 79 5f 3b 80 84 5d 3c 42 a6 9d 3c ec 0c 51 3c
       0.0034099363 0.01352036 0.019244317 0.0127594285
000080 56 15 9f 3b 42 c7 da 3b 06 93 08 bb 4a 8c 6b 3c
       0.0048548384 0.0066765854 -0.0020839586 0.014376709
000090 4b 05 bc 3a 28 48 c2 3b 5f 1f 8a 3b 93 74 4c bd
       0.0014344839 0.005929012 0.0042151655 -0.04991586
0000a0 44 d7 15 3b 0c ab bf 3b eb e6 15 3a cd 9e d1 3a
       0.0022863904 0.005849248 0.00057183084 0.0015992761
0000b0 4e e5 4a 3c 46 91 5c bb 6c 6b 52 3b 6d 20 56 3c
       0.012383772 -0.0033655926 0.0032107485 0.013069254
0000c0 2c 4a 67 3b 87 75 a0 3c 53 61 a1 bb 59 a6 1f bc
       0.0035292013 0.019587291 -0.004924932 -0.00974425
0000d0 f8 86 a4 bc 9a 35 65 3b 6a 18 41 ba ba 51 c4 bb
       -0.02008389 0.0034974576 -0.00073660037 -0.005991188
0000e0 f1 16 b8 ba c6 69 47 3b b2 b2 21 3b a5 84 c6 bb
       -0.0014044923 0.0030428036 0.002467316 -0.006058293
0000f0 d7 bc 71 3b c5 95 61 3b ed 5e 7d 3c 2e 4b df be
       0.003688624 0.0034421545 0.015464527 -0.43612045
000100 ca 85 06 3c 24 28 0e 3b bd 27 ac 3b f7 6b 0a bc
       0.008210609 0.0021691406 0.0052537606 -0.008448592
000110 d2 5c a4 ba 85 13 89 bb 57 0b 6c bb 28 bb a9 bc
       -0.001253987 -0.004183235 -0.0036017501 -0.020719126
000120 36 f8 dc bb 38 16 75 bc 4d 71 05 3c b4 b1 28 3a
       -0.0067434562 -0.014958911 0.008144689 0.0006435171
000130 05 8a 48 bb ea 5d a8 3c 04 1f 59 ba 06 ec 4d 3c
       -0.0030599844 0.020552594 -0.0008282515 0.012568479
000140 08 39 13 bc 95 6a 51 3b 56 9d e7 ba d9 67 d8 bb
       -0.008985765 0.0031954397 -0.0017670791 -0.0066041765
000150 73 59 02 bd 9f a1 85 3c 00 27 58 bb 85 74 1d bc
       -0.031823587 0.016312419 -0.003298223 -0.0096103
000160 83 d6 50 3a 8c c4 32 3b 3a c1 67 bb 62 d8 83 3b
       0.0007966535 0.0027277796 -0.0035362975 0.0040235976
000170 a2 94 46 3a 1e d0 c9 38 c5 ea d0 3b ea 42 59 39
       0.00075752486 9.623192e-05 0.006375643 0.0002071966
000180 d4 f8 18 bb 5a 42 e4 be 40 73 08 3b 7f 2e 84 3b
       -0.0023341672 -0.44581872 0.0020820647 0.004033863
000190 c6 90 4e b9 03 26 2f 3b c7 eb d0 3a fc ea 18 b9
       -0.00019699623 0.0026725538 0.0015939408 -0.00014583388
0001a0 19 5f 83 39 35 7f 91 3a ea 6a 28 3b 0a 3b 1c ba
       0.0002505712 0.0011100533 0.0025698491 -0.0005959725
0001b0 0e 4e 63 bb be f8 1a bb b0 6d 14 bb bc 13 1b bc
       -0.0034683975 -0.0023646797 -0.0022648387 -0.009465154
0001c0 8c 25 b7 3b f0 ba 06 3b 4e 5a 88 3b 39 bc 54 3b
       0.0055891927 0.00205582 0.004161156 0.0032460822
0001d0 ae 31 54 be 69 f6 dc 3b f3 0e aa bb d5 c7 06 3b
       -0.20722076 0.0067432416 -0.0051897704 0.0020565887
0001e0 40 eb ff 3c 00 bc 9b ba c8 79 09 3c 76 79 bc bc
       0.031240106 -0.001188159 0.008390851 -0.023007136
0001f0 e0 59 53 bb 90 ef 5a 3c 26 a1 43 be 49 76 28 bd
       -0.0032249615 0.01336278 -0.19104442 -0.04112843
000200 e9 0f a3 3b fe ca 0e bc bb 0d f1 bb f2 3a 44 3c
       0.004976262 -0.008715389 -0.007356373 0.011976944
000210 cd fb 0c 3b 65 fd 4e 3c bb ca b0 3b 05 91 39 bd
       0.002151239 0.012633656 0.005395261 -0.045304317
000220 84 03 5c bc c9 64 ef bc a8 2f 11 bc 6e b9 3a 3b
       -0.013428573 -0.029222863 -0.00886146 0.0028491872
000230 cc 98 79 ba b2 53 10 3b 57 03 c7 3c e8 d9 ef ba
       -0.00095213647 0.0022022543 0.024293585 -0.0018299194
000240 bb 6a 12 3d ff 16 03 be d9 25 21 bc b9 e1 23 bc
       0.035746317 -0.12801741 -0.009835684 -0.010002547
000250 5a 58 69 bb 7a 39 c8 3b b9 cb 81 bb a9 92 d2 ba
       -0.003560564 0.0061103674 -0.003961053 -0.0016065437
000260 42 3f 83 bb 85 25 6c 3b 09 3b b0 bb 0c 8a 65 3c
       -0.0040053437 0.0036033106 -0.0053781313 0.014009964
000270 36 59 da 3b 6c df e3 3c c0 b4 e5 3c fd 8a ba 3c
       0.006663467 0.027816497 0.02804029 0.022771353
000280 26 60 e4 3b 5f dc 51 3c 5d 77 0e bc 75 7d 77 3c
       0.0069694696 0.012808888 -0.008695451 0.015105595
000290 71 1c d1 ba 4f b2 88 3c 71 d8 05 3c d2 c8 92 bd
       -0.0015953911 0.016686587 0.008169279 -0.0716721
0002a0 ba 64 9c 3b b1 cb ca 3b 95 74 56 3a 76 40 4a 3b
       0.0047727497 0.0061888327 0.0008180824 0.0030861176
0002b0 de c2 ed 3c f1 4d 79 bb a0 5a 6c ba eb 8c 92 3c
       0.029023584 -0.0038040841 -0.000901619 0.01788946
0002c0 ca 09 02 3c 6a 02 a0 3c 53 29 db bb 78 1d 65 bc
       0.007936904 0.019532401 -0.006688276 -0.013984077
0002d0 1d b8 cb bc c2 d8 13 3c 26 ac 14 bc 57 46 56 bc
       -0.024868065 0.009023847 -0.0090742465 -0.013078294
0002e0 5c 08 2f bb 32 b4 e4 ba bc 2b ab 3b 2f 19 ca 3b
       -0.0026707863 -0.0017448722 0.0052237194 0.006167553
0002f0 7a 30 57 3b 62 ca ea 3a 21 1c e5 3b 24 6b b5 3d
       0.003283529 0.0017913098 0.0069918786 0.08858326
000300 d2 93 29 3c b8 e0 ef 3b 40 f3 79 3c bd 8b 5b bc
       0.0103501845 0.0073204897 0.015255749 -0.013400015
000310 55 8c 70 bb ec 5e 4b ba e2 ea ec bb 54 00 fc bc
       -0.0036704738 -0.000775798 -0.0072301487 -0.030761875
000320 ee 0c 89 bc 75 6b c7 bc f9 1d 75 3c a6 fb 81 3b
       -0.016729798 -0.024343232 0.014960759 0.0039667664
000330 83 48 00 bc f1 5a b8 3c be 96 ac 3b 02 93 8e 3c
       -0.007829788 0.022504302 0.0052669933 0.017404083
000340 61 67 58 bc 2d 2b 23 3c 4e ed f4 3b 82 78 8b bb
       -0.013208241 0.009959024 0.007474578 -0.004256309
000350 03 cf 5e bd b3 81 c6 3c 02 84 98 bb 95 5d 41 bc
       -0.05439664 0.024231767 -0.0046544084 -0.011802097
000360 a4 44 dd ba c3 74 b4 ba db 28 32 bb b7 b1 87 3b
       -0.0016881418 -0.0013767708 -0.0027184996 0.0041410583
000370 d2 d3 96 3b 10 35 2d 3b a2 94 17 3c 1f 23 59 3b
       0.0046028877 0.0026429333 0.009251745 0.0033132506
000380 eb 66 d0 ba 85 6a b2 3d d4 53 14 3b a2 0b 71 3a
       -0.0015899813 0.08711723 0.0022632973 0.0009195154
000390 0b 73 2a 3c ca e9 39 3b 64 6e 3e bb 3a 02 23 bc
       0.010403405 0.002836811 -0.0029057497 -0.009949261
0003a0 e3 2d 1b 3c 47 af 7e bb af f3 89 3b 3a 91 24 ba
       0.009471389 -0.0038861798 0.0042099576 -0.0006277744
0003b0 a1 1b b5 bb 7a 5f c1 ba 37 7a 25 bb d4 c2 7f bc
       -0.0055269753 -0.0014753186 -0.0025249848 -0.0156104155
0003c0 8f 9a 4a 3c f8 bc c1 3b 9b 3a 5a bb fa 9a d2 3b
       0.012365951 0.0059124194 -0.0033299092 0.006427166
0003d0 4f 29 bb be ef 65 4a 3c ee f4 d6 bb a9 e9 65 3b
       -0.36554953 0.012353404 -0.0065599596 0.00350819
0003e0 e6 b9 5b 3d 1d 1a f0 bb 4a b4 83 3c 27 67 16 bd
       0.053644083 -0.0073273317 0.01607718 -0.036719467
0003f0 2e 41 6e bc 67 3e b6 3c 0f 3f b5 be db f9 72 bd
       -0.014541907 0.022246553 -0.35399672 -0.059320312

bias f4 [2]
000000 cb 09 79 39 1c ef 19 3b
       0.00023750139 0.0023488468

W f4 [128, 128]
000000 77 7c 08 bc 00 81 23 bc e5 85 b3 3d 77 40 ab bd
       -0.008330456 -0.009979486 0.08765773 -0.08361905
000010 00 55 f6 bc 2f be d2 3c 61 46 31 3e 6f 47 df 3d
       -0.030069828 0.025725452 0.17312004 0.10902297
000020 b5 e7 95 bc 19 3d 99 bd 1e 62 a0 3c 46 a3 40 bb
       -0.018298963 -0.074823566 0.019578036 -0.0029394194
000030 1d 54 c7 bd eb c9 d5 bc e7 07 76 3d 0e 68 ff bb
       -0.0973284 -0.026097259 0.06006613 -0.0077943867
000040 fb 93 87 bc a4 10 0e be 86 79 81 bc e9 48 80 bd
       -0.016550055 -0.13873535 -0.015805017 -0.062639065
000050 f2 88 1b bd d8 14 3b 3e 29 8d 94 3d 55 f3 fb 3c
       -0.037972398 0.1826967 0.07253487 0.030755678
000060 5d 15 b5 bd c6 47 52 bd b3 69 9a bd 87 23 07 3c
       -0.08841965 -0.05133798 -0.07539692 0.0082482165
000070 42 8d a4 3d 61 60 26 3e 34 7a 3e 3e 2d 21 12 be
       0.08034755 0.16247703 0.18601304 -0.14270468
000080 b0 83 5f bd 14 9e d3 bd a6 5e 2d bd c8 d8 05 3d
       -0.054568946 -0.103328854 -0.042326592 0.03267744
000090 dc 9b 02 bd 9c ad b6 3c fc 29 a5 3d cf ac 64 bd
       -0.03188692 0.02229958 0.080646485 -0.055828866
0000a0 7d 77 9b bd 18 46 28 3d a0 59 5c bc ba 47 13 bd
       -0.0759115 0.04108247 -0.013449103 -0.035957076
0000b0 9e 1b 84 3d d3 fc a6 bd 49 79 f3 bb 5b ea 98 3d
       0.0645058 -0.08153691 -0.00743023 0.07466575
0000c0 0c 2e fa bd 48 d4 82 3d 55 df 54 3d 91 6d 07 3e
       -0.12215814 0.06388146 0.0519708 0.1322539
0000d0 9a 77 25 3e 5c ec 93 bc e9 a0 51 bc 8b 0e 90 3c
       0.16158906 -0.01805704 -0.012794712 0.01758506
0000e0 a6 ef d5 3d 67 83 4c 3e b0 f1 d1 bd 5b 73 f1 bd
       0.104461 0.19972001 -0.10251176 -0.117895804
0000f0 27 df 7a 3d fb 46 b1 3d 05 2a 64 3c 07 bf de bd
       0.06124797 0.086561166 0.013926034 -0.10876279
000100 1c 6a 99 3d 1c 16 9b bd 0d cf 7b bd 9d b9 3c 3d
       0.07490942 -0.075725764 -0.061476756 0.046075452
000110 48 dc 8f bd 44 36 26 3e a6 5f b7 bd 50 84 d9 bd
       -0.07024437 0.16231638 -0.0895379 -0.1062094
000120 0b f7 9b 3d 28 6f 18 bc 4b f0 8d bd 31 4f c1 3b
       0.07615479 -0.009303845 -0.06930598 0.005899333
000130 fc cf e7 3c d2 a0 68 3d 1d d3 98 3d b9 3a 58 bd
       0.028297417 0.056793995 0.07462142 -0.052790377
000140 fd dd 31 bd d3 39 c2 bd 9e 4b fb bd cc 0b 59 3d
       -0.043424595 -0.09483685 -0.12270282 0.052989766
000150 13 a5 f7 bd db 61 20 3d 89 59 38 3c dd 73 66 3d
       -0.12092032 0.039155822 0.011251816 0.05626284
000160 aa 06 ed ba ae 0b 44 bd 91 86 00 3e 2c 30 81 3c
       -0.0018083651 -0.0478627 0.12551333 0.01577004
000170 55 99 60 bd 59 c2 a8 bd 14 76 7b 3c 42 16 52 3d
       -0.05483373 -0.08240194 0.015347976 0.051290758
000180 85 fd 77 bd df 60 e3 3d 57 3d 03 3c b6 34 bf 3d
       -0.06054451 0.11102461 0.00801023 0.09336226
000190 91 4d 9b 3d 2c 7d b5 3d b4 d8 c2 3d 08 49 a7 3d
       0.07583154 0.08861765 0.09513989 0.081682265
0001a0 40 f2 94 3c 8b cf a7 3d 50 7a 28 be 8f 99 67 bd
       0.01818192 0.081938826 -0.16452909 -0.05654293
0001b0 ee 3d 45 3e 8b d6 89 3c 92 74 fe bd d2 46 b9 bc
       0.19261906 0.016825935 -0.12424578 -0.022616778
0001c0 b8 99 f1 3d d8 15 e2 bc dd c2 72 bc 9b 10 fb bd
       0.11796898 -0.027598307 -0.014816967 -0.122590266
0001d0 54 bb 04 be f9 22 d5 3d 26 6e eb 3c 49 15 9e bd
       -0.12962085 0.10407061 0.028739046 -0.077189036
0001e0 79 df b6 3b fb b6 cb bd e5 6f ad 3d 1b 58 95 bd
       0.0055808392 -0.0994701 0.08468608 -0.072921954
0001f0 a3 e3 d8 3d 44 09 8e bd 6f 31 6c 3d 58 c6 87 bc
       0.10590293 -0.06935361 0.05766433 -0.01657407
000200 97 30 12 bd 74 e4 fc bd 78 17 88 bd ec 42 86 3c
       -0.03569087 -0.123482615 -0.06645101 0.016389333
000210 1e 3b 01 3d 72 ba 87 bd 7a 20 63 be 09 7a 06 3e
       0.03155052 -0.066273585 -0.22180358 0.1313249
000220 14 fc 37 3c 61 1f fd bd a5 ee 81 3d bc c0 e2 bb
       0.011229534 -0.12359501 0.06344346 -0.0069199484
000230 32 c3 87 bd 19 a0 9b bc 1b c6 86 bd 52 64 31 3d
       -0.066290274 -0.018997239 -0.06580754 0.043308564
000240 5d 2b bd bd bf 48 8f bd b0 45 05 bd 0b b5 40 3d
       -0.092367865 -0.06996297 -0.032537162 0.047047656
000250 64 c5 1d 3e 71 70 87 3c 8d 48 95 bd 56 62 a2 bd
       0.1540733 0.016533108 -0.072892286 -0.07928912
000260 9c b5 a2 bd 6f 31 c4 3c b8 80 ce 3c 30 b0 58 3d
       -0.079447955 0.023949353 0.025207862 0.0529024
000270 31 3b 4f 3c b1 c4 9f bd 69 92 5e 3d 92 ed 19 bd
       0.01264839 -0.07801188 0.054338846 -0.03758008
000280 30 7e 28 3d a3 ff a5 bd 77 08 cc 3d c4 b5 e8 3d
       0.041135967 -0.081053995 0.09962552 0.11362794
000290 0c d4 26 bc e7 b9 86 bd 72 23 46 be 51 78 a7 bd
       -0.010182392 -0.06578427 -0.19349459 -0.081772454
0002a0 9c f5 c2 bd 92 55 65 bd cf 3b 27 be 52 70 f3 3d
       -0.095195025 -0.05598981 -0.16331409 0.11886658
0002b0 6b 57 d8 3d ea 37 73 bc 1a de 5c be 3e f8 69 3c
       0.10563549 -0.014844874 -0.215691 0.014280377
0002c0 c6 e2 e1 3d bd 5d c8 bd 72 90 4f bd cc 54 cb bd
       0.11029582 -0.09783504 -0.050674863 -0.09928283
0002d0 11 b0 02 bd 09 c3 c5 3b cc c2 dd bd bd 2d a5 bd
       -0.03190619 0.006035213 -0.1082817 -0.080653645
0002e0 fb 1a 02 3c 5e eb 89 3d 79 06 79 3e 3d ea 05 3d
       0.007941003 0.06734346 0.24318875 0.03269409
0002f0 98 d8 d9 3d 81 c7 88 3e fc a3 0e be f6 06 75 bd
       0.10637015 0.2671471 -0.13929743 -0.05982109
000300 05 6a 0f 3e 7d f0 b9 3b 75 4a 29 3d fe 84 e6 3d
       0.14005287 0.0056744204 0.041330773 0.11255835
000310 0e 24 dc bd 9b 17 22 3d 33 04 15 3d 48 bf c4 3c
       -0.107490644 0.039573293 0.036380958 0.024016991
000320 56 be aa bd 8e 16 15 be 58 f0 1a bd ac 64 d2 bd
       -0.08337085 -0.14559385 -0.037826866 -0.10273108
000330 cc 5f 5d 3d 5d 87 12 3c 5a 65 ce bd 36 9b ff 3d
       0.054046437 0.008943406 -0.10077925 0.12480776
000340 81 98 41 3d 1e 39 d6 3d 59 ee 9a bd ab 14 82 bc
       0.04726458 0.10460113 -0.075649925 -0.015878996
000350 6d 47 4a 3c 03 a2 be 3d 6b 65 2a bd a6 14 ee bd
       0.012346131 0.09308245 -0.041600626 -0.11625032
000360 76 1c 04 3e 59 ca 97 bd 30 cb 2a 3e 40 ab 83 bd
       0.12901482 -0.07411642 0.16679072 -0.06429148
000370 7f 32 0e 3e 91 f0 2c bc 1e 62 52 bd 61 39 88 bd
       0.1388645 -0.010555402 -0.051363103 -0.06651569
000380 0c 49 21 3e 2a fc 13 3e 1c 31 3d 3c aa 76 86 bd
       0.15750521 0.14451662 0.011547353 -0.06565602
000390 f5 67 1f be 66 1f 0b 3d 39 fb 19 bd 37 d9 28 bc
       -0.15567 0.03396549 -0.0375931 -0.010305694
0003a0 de bf 7b 3c e6 92 2f bd 6b d5 88 3d 72 e6 f6 bd
       0.015365569 -0.042864703 0.06681331 -0.12055673
0003b0 3c 2f 4a 3d c7 3e 5f bd 8a 11 7d bd 06 3b 04 bd
       0.049361452 -0.05450323 -0.061784305 -0.03228285
0003c0 93 2a 44 bc 5f 2d 10 bc 02 02 84 bd 56 d0 0f be
       -0.011973041 -0.00879988 -0.064456955 -0.14044318
0003d0 29 33 4f be 72 f4 e4 bd ca a2 a3 3d 54 75 5c 3d
       -0.2023436 -0.11179437 0.07990034 0.05382283
0003e0 08 11 7e bd ce 45 ee bd 32 c5 f4 bd 53 ce 76 bb
       -0.06202796 -0.11634408 -0.119516745 -0.00376596
0003f0 da 9b 81 bc 72 f2 a7 3d 5d a5 54 bd 70 c4 3f 3d
       -0.015821386 0.0820054 -0.051915515 0.046818197
