LeakyRNN_11.28/1128/ta_2_10_64_d10_r11/model_86.pth (torch, 37660 bytes, 5 tensors)

weight f4 [64, 64]
-0.16674718 -0.18634996 -0.5253323 0.19472738 -0.010445058 0.006890045 0.017518613 0.3055234
-0.38662675 -0.13835256 -0.2967271 -0.32528892 0.5780471 0.102031305 -0.09706982 0.2269632
-0.15039861 0.038231704 0.086447105 -0.54323614 0.21358545 -0.29762238 0.2747909 0.33163738
-0.26771995 0.43152153 0.11374122 0.19461764 -0.469532 0.06384922 0.54358435 0.43130314
-0.035764903 -0.24335888 -0.38004228 0.30175805 -0.40915716 -0.07952863 0.2599053 -1.3132856
-0.28237984 0.34363306 -0.35119343 -0.32478496 0.27626336 0.0458477 -0.43137604 0.21677724
-0.42500776 -0.42462096 0.50945514 1.0285523 -0.5662738 0.0011925098 0.17455715 0.18830302
0.4991584 0.17301443 -0.63886726 0.0135945305 -0.055545896 0.20941299 -0.02842813 -0.23211575
-0.31078583 1.2874504 -0.093153484 -0.8530349 0.40749106 -0.05978909 -0.28423038 -0.2861884
0.48846126 -0.49986538 0.67538077 0.55557764 0.12741156 0.38480765 0.64591235 0.102513336
-0.70973146 -0.3847606 0.5084316 0.9708724 -0.077909335 0.20376347 -0.5301961 0.8687114
0.1564724 0.43541726 0.31650716 0.014099366 -0.3202626 -0.40458277 0.19479957 -0.47366673
-0.5136831 0.24316616 -0.061764322 0.14726603 0.43612164 -1.0618439 0.6870218 0.6244441
0.017483056 0.62580365 -0.07260799 -0.49027818 -1.0088087 -0.10059834 0.8507751 0.20366567
-0.0766667 0.7445509 -0.41019 -0.07223897 -0.17608674 0.13229574 -0.08420565 0.38664886
0.5508273 0.23825492 0.3175833 -0.5936125 0.19332696 0.63696724 -0.074454814 -0.538905
0.040516473 0.26273018 -4.1455874 0.013236835 0.27201083 0.36690098 0.36974713 0.0077927946
-0.05309047 0.21030875 -0.27816126 0.5058982 -0.18760937 -0.19215108 -0.13971439 -0.022457523
-0.44857743 -0.20248753 -0.017409429 -0.05880586 -0.5883207 -0.20051564 -0.0036684566 -0.2297737
0.4624774 -0.44389552 0.033798106 0.061481833 -0.07046434 0.043573968 -0.2842963 0.34285176
-0.54507214 0.57867104 0.34814674 0.17817557 -0.40169743 -0.064351685 -0.33903372 -0.048696227
-0.011093947 0.1282757 0.16987579 -0.008881557 0.011438057 0.25436467 0.041073464 -0.16630496
-0.01762305 -0.043053515 -0.031046487 -0.42062187 0.24226823 0.18317102 0.063188754 -0.3191454
0.28790268 0.15928502 -0.49867013 0.24135207 0.11694028 0.41942912 -0.19263235 -0.24467467
-0.9160855 0.29852152 -0.11706011 -0.06155684 -0.34476796 0.9732432 0.17155267 -0.4470954
0.29629102 -0.08063705 0.04878516 -0.41049635 0.17087537 -0.36761653 0.24334326 -0.11976288
0.24051914 -0.33338624 0.5988215 0.45694277 0.16047287 0.026719695 -0.09464135 -1.0738215
-0.45809725 -0.12061547 0.36080977 -0.11112291 -0.058720812 -0.22669894 0.17344888 0.061831675
0.17127036 -0.23096506 0.33574226 0.9432451 0.61906004 0.1580223 0.6668042 0.5963643
0.17965993 0.01057125 -0.6661909 -0.45106637 -0.40977153 -0.33741072 -0.070916496 0.444049
0.28479186 -0.37480527 -0.5226256 0.022454798 -0.11753894 0.39183328 -0.03450808 -0.039167654
-0.15713437 0.060535878 -0.27697372 0.32811332 -0.08061754 -0.124223836 -0.7350484 0.08261555
00000000: c6bf 2abe 86d2 3ebe 2d7c 06bf 9d66 473e
00000010: c021 2bbc e3c5 e13b 3283 8f3c 906d 9c3e
00000020: f1f3 c5be 4bac 0dbe 9dec 97be 458c a6be
00000030: e5fa 133f caf5 d03d 8bcc c6bd 0b69 683e
00000040: 1802 1abe d998 1c3d 2e0b b13d 8611 0bbf
00000050: 25b6 5a3e f661 98be 65b1 8c3e 60cc a93e
00000060: 9712 89be 64f0 dc3e 28f1 e83d d949 473e
00000070: 8066 f0be 61c3 823d 5828 0b3f c4d3 dc3e
00000080: 387e 12bd 1233 79be e794 c2be 0880 9a3e
00000090: 0c7d d1be e8df a2bd 4f12 853e be19 a8bf
000000a0: 1794 90be acf0 af3e a0cf b3be 374a a6be
000000b0: 6472 8d3e ccca 3b3d 52dd dcbe dafa 5d3e
000000c0: 9e9a d9be eb67 d9be a76b 023f 9aa7 833f
000000d0: 52f7 10bf fd4d 9c3a 1cbf 323e 82d2 403e
000000e0: b191 ff3e b22a 313e ce8c 23bf 98bb 5e3c
000000f0: 1884 63bd 5c70 563e 1ce2 e8bc c0af 6dbe
00000100: 521f 9fbe 2dcb a43f 41c7 bebd 7f60 5abf
00000110: aba2 d03e 68e5 74bd a586 91be 4987 92be
00000120: 9817 fa3e 5bee ffbe c1e5 2c3f 563a 0e3f
00000130: 2d78 023e 8205 c53e 835a 253f 83f2 d13d
00000140: f6b0 35bf 57ff c4be 9328 023f 188b 783f
00000150: ee8e 9fbd 5fa7 503e eeba 07bf df63 5e3f
00000160: 4d3a 203e 03ef de3e 3a0d a23e 0701 673c
00000170: 76f9 a3be 7925 cfbe 8a79 473e 7284 f2be
00000180: bc80 03bf 8d00 793e 96fc 7cbd e8cc 163e
00000190: 564b df3e 80ea 87bf a9e0 2f3f 92db 1f3f
000001a0: a038 8f3c ab34 203f 7fb3 94bd be05 fbbe
000001b0: a520 81bf 8106 cebd 66cc 593f bc8d 503e
000001c0: 6e03 9dbd e39a 3e3f 6c04 d2be 06f2 93bd
000001d0: 1550 34be 8978 073e 0374 acbd d7f6 c53e
000001e0: 0503 0d3f 19f9 733e 479a a23e fdf6 17bf
000001f0: 81f7 453e 4910 233f c47b 98bd aef5 09bf
00000200: 9af4 253d 9284 863e a7a8 84c0 4fdf 583c
00000210: 0145 8b3e 72da bb3e 7f4f bd3e b35a ff3b
00000220: 6575 59bd 2d5b 573e 276b 8ebe 8b82 013f
00000230: ac1c 40be 41c3 44be 4a11 0fbe d7f8 b7bc
00000240: f1ab e5be e458 4fbe 389e 8ebc 6ade 70bd
00000250: 2f9c 16bf f953 4dbe 7d6a 70bb cc49 6bbe
00000260: d6c9 ec3e 4646 e3be e26f 0a3d 60d4 7b3d
00000270: 9c4f 90bd 9e7a 323d 498f 91be 448a af3e
00000280: d989 0bbf c923 143f 4a40 b23e a873 363e
00000290: 49ab cdbe d1ca 83bd d495 adbe b275 47bd
000002a0: 63c3 35bc b55a 033e ebf3 2d3e f383 11bc
000002b0: b066 3b3c 163c 823e a63c 283d d94b 2abe
000002c0: 375e 90bc e258 30bd 3455 febc c05b d7be
000002d0: 2a15 783e 2f91 3b3e 1b69 813d 0767 a3be
000002e0: fb67 933e 9d1b 233e b151 ffbe ff24 773e
000002f0: 637e ef3d 6abf d63e 6a41 45be ff8b 7abe
00000300: 9484 6abf d0d7 983e 36bd efbd 0623 7cbd
00000310: 6d85 b0be 7726 793f 81ab 2f3e b0e9 e4be
00000320: 75b3 973e 0a25 a5bd f3d2 473d 942c d2be
00000330: f4f9 2e3e 3c38 bcbe fa2e 793e 3e46 f5bd
00000340: a64a 763e 9ab1 aabe 5e4c 193f 67f4 e93e
00000350: 0053 243e 43e3 da3c 53d3 c1bd fc72 89bf
00000360: b98b eabe 3e05 f7bd 0fbc b83e 6994 e3bd
00000370: 3c85 70bd c423 68be 959c 313e 3643 7d3d
00000380: 7f61 2f3e 1b82 6cbe 69e6 ab3e 8378 713f
00000390: b87a 1e3f 99d0 213e aeb3 2a3f 55ab 183f
000003a0: c6f8 373e 0933 2d3c 7d8b 2abf 2cf2 e6be
000003b0: 93cd d1be 19c1 acbe ab3c 91bd 645a e33e
000003c0: 3dd0 913e 7ae6 bfbe cbca 05bf 20f3 b73c
000003d0: 41b8 f0bd 5f9e c83e 5858 0dbd 436e 20bd
000003e0: d5e7 20be 78f4 773d 80cf 8dbe 78fe a73e
000003f0: cf1a a5bd 1169 febd 222c 3cbf 5732 a93d

weight f4 [64, 3]
0.2343627 -0.954519 0.11884634 -0.097584344 -0.071690105 -0.2197518 0.12515903 -0.07934225
0.054609355 -0.7486893 -0.46737835 0.066911794 -1.135389 -0.93412155 0.1755945 -1.4567972
1.456737 -0.3905019 -0.45064777 -0.45103166 0.106234 -0.23087513 -0.13331139 -0.21056007
0.15770118 0.06615957 -0.073160015 0.45586073 -0.21740055 -0.034535985 -0.028859906 -0.95945156
0.25978303 -1.8398223 0.31828812 -0.14024226 -0.8874936 0.6785605 -0.32618567 0.5960444
-1.6456041 -0.076255 -0.13099763 0.043970175 -0.13802795 -0.08101369 0.19058153 -0.16091427
-0.14221936 -0.08041463 -0.059846774 0.35454938 -0.8467619 -0.09018019 -0.119474635 -0.19518259
0.33633384 1.2209971 -0.4879629 0.09010178 0.10693746 0.0945712 -0.22996587 0.056548126
-0.0016822042 0.023592342 -0.00099711 0.016375149 -0.055131502 -1.3343428 -0.7812058 0.15470329
-0.16258885 -0.07481504 0.14931959 0.41568863 -0.102702215 -0.27506867 0.5964036 -0.24389559
0.2848323 -0.57044953 -0.15160155 0.0027431312 -0.35892063 1.5618932 -0.31907964 -0.6065001
-0.119063556 0.24156184 0.2906091 0.048284736 0.048353627 -1.0892745 0.12673892 0.3263063
0.30009207 -0.14586009 -0.06663401 -0.097546846 -0.07215792 0.0014550422 0.68629014 1.3973294
-0.47963512 1.211642 1.2214888 -0.103029996 1.0221708 1.4488434 -0.0030296317 0.013325207
0.32558608 0.2770903 -0.020004962 0.46380746 -0.1281923 1.3776014 1.4467281 -0.10443801
0.0331527 0.04706531 0.15867792 0.101397775 0.78232396 -0.16266367 0.0065154964 0.26897946
0.105335146 0.4877784 0.8449457 0.22170186 -0.60440314 0.40345523 -0.015650874 0.20496628
0.32778406 -0.023492651 0.40870586 -0.96018595 -0.2445827 0.035838768 0.018980604 0.2009909
0.23078158 0.14759691 0.045016646 0.8527932 -1.3566335 -0.29189253 0.32686397 -0.7272692
-0.023482312 -1.3145005 -0.8061465 0.6392067 1.0232145 -0.25852638 0.4629019 -0.12347664
-0.068011016 0.21434176 -0.1956952 -0.13546148 0.15036775 0.1395359 0.2623411 0.07653713
-0.72104675 0.07811311 -0.10935987 0.42226213 -0.03446909 -0.21808158 0.099799134 -0.11476201
-0.10950504 0.051331397 -0.75798726 -0.2699462 -0.1338905 -0.016202532 0.13086967 -0.7922514
-0.59131086 0.17526892 -1.9765553 1.4683726 0.35774723 -0.056374643 -0.15064235 -0.025134338
00000000: c7fc 6f3e 5b5b 74bf b665 f33d 4dda c7bd
00000010: 43d2 92bd 9e06 61be b029 003e 317e a2bd
00000020: 0fae 5f3d 1aaa 3fbf 374c efbe 0d09 893d
00000030: 6d54 91bf 9722 6fbf 0bcf 333e 5578 babf
00000040: 5c76 ba3f ddef c7be 4ebb e6be 9fed e6be
00000050: 3691 d93d 886a 6cbe c882 08be 0f9d 57be
00000060: 6b7c 213e ab7e 873d ebd4 95bd 9466 e93e
00000070: 409e 5ebe 9b75 0dbd 9c6b ecbc 9e9e 75bf
00000080: 4802 853e 4c7f ebbf a9f6 a23e ab9b 0fbe
00000090: c832 63bf 24b6 2d3f cf01 a7be 5e96 183f
000000a0: 28a3 d2bf 952b 9cbd 3e24 06be 121a 343d
000000b0: 3357 0dbe 81ea a5bd ce27 433e b6c6 24be
000000c0: f4a1 11be 6db0 a4bd e421 75bd 7f87 b53e
000000d0: 63c5 58bf 64b0 b8bd 1eaf f4bd f2dd 47be
000000e0: f333 ac3e a249 9c3f 46d6 f9be 4887 b83d
000000f0: 0702 db3d 8cae c13d 2c7c 6bbe 029f 673d
00000100: 687d dcba ba44 c13c 76b1 82ba 2d25 863c
00000110: 92d1 61bd bfcb aabf 1afd 47bf 8a6a 1e3e
00000120: b17d 26be a138 99bd 3ce7 183e 24d5 d43e
00000130: 8a55 d2bd cdd5 8cbe e8ad 183f c4bf 79be
00000140: 8ad5 913e fb08 12bf 703d 1bbe 1bc6 333b
00000150: 72c4 b7be 1eec c73f 685e a3be 9743 1bbf
00000160: 98d7 f3bd fd5b 773e b7ca 943e 37c6 453d
00000170: 740e 463d 596d 8bbf d9c7 013e 9f11 a73e
00000180: aba5 993e 595c 15be 6977 88bd a4c6 c7bd
00000190: 88c7 93bd 1db7 be3a b6b0 2f3f b1db b23f
000001a0: bc92 f5be 1617 9b3f bf59 9c3f 6401 d3bd
000001b0: 7ed6 823f b373 b93f c98c 46bb f851 5a3c
000001c0: 38b3 a63e c8de 8d3e 72e1 a3bc 2c78 ed3e
000001d0: d844 03be 3e55 b03f 632e b93f 98e3 d5bd
000001e0: 20cb 073d 8ec7 403d 777c 223e a3a9 cf3d
000001f0: 6246 483f 4e91 26be f27f d53b adb7 893e
00000200: f4b9 d73d 17be f93e 5d4e 583f d005 633e
00000210: 2aba 1abf af91 ce3e 4336 80bc aee2 513e
00000220: 50d3 a73e a973 c0bc e541 d13e bfce 75bf
00000230: e373 7abe accb 123d 367d 9b3c 8fd0 4d3e
00000240: 0252 6c3e a523 173e 6063 383d a850 5a3f
00000250: 2ba6 adbf f072 95be b75a a73e 502e 3abf
00000260: fa5d c0bc 8d41 a8bf 9e5f 4ebf 0da3 233f
00000270: b1f8 823f 925d 84be 7a01 ed3e 52e1 fcbd
00000280: 5c49 8bbd 687c 5b3e 5364 48be 6ab6 0abe
00000290: 01fa 193e 80e2 0e3e 9351 863e 80bf 9c3d
000002a0: 8596 38bf c4f9 9f3d 11f8 dfbd be32 d83e
000002b0: 762f 0dbd c750 5fbe 7d63 cc3d 5808 ebbd
000002c0: 2e44 e0bd df40 523d 740b 42bf 6336 8abe
000002d0: 971a 09be 2cbb 84bc b302 063e fdd0 4abf
000002e0: 2660 17bf b279 333e c4ff fcbf a2f3 bb3f
000002f0: a52a b73e 19e9 66bd fd41 1abe 87e6 cdbc

weight f4 [2, 64]
-0.025535898 0.0126444 -0.05462666 -0.04517523 -0.036385138 0.026255954 0.20598763 0.0067153475
-0.04031662 0.062110107 0.010796603 -0.07119998 -0.008863489 -0.081403844 0.034247342 -0.021895306
0.020707209 -0.047439367 0.13953154 0.0013682342 0.016771393 -0.045196984 -0.045073956 0.06667935
-0.05202228 0.006553292 -0.1738948 -0.085316494 0.14241245 -0.018546475 0.018952755 0.05054995
-0.0621437 0.0027095724 -0.22186998 -0.0077670626 0.14361924 0.04793742 -0.16787675 -0.14221427
-0.0140095465 0.07224604 -0.107131794 0.0031352802 -0.14557575 0.04704174 0.056170747 0.07231258
0.03888607 0.06066447 0.0500713 0.004353025 0.07476165 -0.055731483 -0.051392473 -0.08152491
0.035243023 0.15397494 -0.07662765 -0.003257319 0.04259639 -0.07309238 -0.015674373 0.12852906
0.025751403 -0.09961206 0.09360753 0.0028620574 -0.07213151 0.14295834 0.0068761427 0.06350406
-0.15426904 0.16125394 -0.04545315 0.13007995 -0.07674406 0.008179563 0.070972376 -0.112724446
-0.011934641 -0.11710247 -0.0027897619 -0.030842707 -0.08951202 0.03295909 -0.022217795 0.0037849168
0.05506106 -0.113708846 -0.015731279 0.10414813 0.1388386 0.005555663 0.13792843 -0.06867571
-0.13901705 0.037472352 -0.09600881 0.0856655 -0.048457317 0.022479644 0.014040013 -0.0246907
0.06132807 0.12140487 -0.049198885 -0.11901477 0.039803166 -0.08245866 0.12681665 0.054418255
-0.040679354 0.13541287 -0.08323373 -0.061586298 0.02114816 0.023302348 0.040087353 -0.044657607
0.028539697 -0.0033296407 0.06650945 0.10314565 0.03242008 -0.0737982 -0.025092931 -0.099485934
00000000: a930 d1bc 752a 4f3c 34c0 5fbd a909 39bd
00000010: 9508 15bd ba16 d73c 6cee 523e 6b0c dc3b
00000020: 0a23 25bd 2b67 7e3d 3ce4 303c 4cd1 91bd
00000030: 2b38 11bc 0fb7 a6bd f146 0c3d c95d b3bc
00000040: 2aa2 a93c c84f 42bd 5be1 0e3e 5256 b33a
00000050: 2964 893c 7920 39bd 789f 38bd 2f8f 883d
00000060: 5015 55bd ffbc d63b 7a11 32be 6aba aebd
00000070: 92d4 113e c7ee 97bc cf42 9b3c 770d 4f3d
00000080: 648a 7ebd 1593 313b e231 63be d882 febb
00000090: ec10 133e 075a 443d e2e7 2bbe 9ea0 11be
000000a0: 4c88 65bc bbf5 933d ea67 dbbd 4679 4d3b
000000b0: cf11 15be d7ae 403d 4c13 663d 9e18 943d
000000c0: 0047 1f3d 4f7b 783d 9017 4d3d d2a3 8e3b
000000d0: a31c 993d b246 64bd ea80 52bd 88f6 a6bd
000000e0: fd5a 103d 9bab 1d3e f5ee 9cbd bf78 55bb
000000f0: 8d79 2e3d 75b1 95bd 8b67 80bc 1f9d 033e
00000100: 9bf4 d23c 6801 ccbd 4eb5 bf3d 5b91 3b3b
00000110: afb9 93bd ac63 123e 4451 e13b 6b0e 823d
00000120: b4f8 1dbe c11f 253e 152d 3abd ae33 053e
00000130: fd2b 9dbd 9303 063c f759 913d 13dc e6bd
00000140: 8389 43bc 6bd3 efbd 70d4 36bb d8a9 fcbc
00000150: 1452 b7bd 1c00 073d 1802 b6bc 5e0c 783b
00000160: b587 613d 2fe0 e8bd e2de 80bc 9d4b d53d
00000170: b52b 0e3e 470c b63b 1c3d 0d3e daa5 8cbd
00000180: 7c5a 0ebe 9c7c 193d 44a0 c4bd 6571 af3d
00000190: 2e7b 46bd 3b27 b83c 1508 663c 2744 cabc
000001a0: 2433 7b3d 1ea3 f83d c584 49bd 04be f3bd
000001b0: a508 233d 16e0 a8bd 39dc 013e ade5 5e3d
000001c0: 659f 26bd aca9 0a3e 7276 aabd ea41 7cbd
000001d0: e83e ad3c 91e4 be3c a332 243d e5ea 36bd
000001e0: 15cc e93c 1a36 5abb 1b36 883d 073e d33d
000001f0: ebca 043d 8323 97bd b18f cdbc 48bf cbbd

bias f4 [2]
-0.0012577962 0.0024950542
00000000: a3dc a4ba 1084 233b

W f4 [64, 64]
0.16738175 0.040761717 -0.15904608 -0.015930165 0.017485166 -0.2596314 -0.05475246 0.1879973
-0.059190813 -0.19271225 -0.13102451 -0.014714785 0.17677477 -0.04115198 0.036881916 -0.010674887
-0.015010925 0.03246284 0.17913839 -0.24769606 0.20044534 0.10210159 0.036375523 0.13134983
-0.3670699 -0.018387102 0.061246652 0.07332022 -0.07046691 -0.04608372 0.14512327 0.10980167
0.045022998 -0.025385223 0.06528761 0.068750665 -0.036111563 -0.09201488 -0.21891272 -0.30172238
-0.21931866 0.009284379 -0.17636538 -0.18529351 0.058734685 -0.061421268 -0.10195505 0.036413107
-0.05490835 0.020380279 0.22637498 0.19837126 -0.14046042 0.015018305 0.089345396 -0.017791968
0.10520421 0.16011274 -0.19877736 0.08750554 0.07276871 0.16834573 -0.003261359 -0.1294684
-0.15706545 0.12781818 -0.09743009 -0.1435192 0.054056026 -0.14004478 0.069906704 -0.024827842
0.270499 -0.0012152389 -0.16277938 -0.1477322 -0.10391872 -0.09360871 -0.00031967138 0.09032572
-0.033722837 -0.1801514 0.001250124 0.07925446 0.047045227 -0.0029748608 0.047499776 0.028650228
-0.062857755 0.05269986 0.2075803 -0.012401702 -0.007476538 -0.014243892 0.16467382 0.029406
-0.07122477 0.21000724 -0.055570893 -0.1799712 0.02353947 0.03982508 0.07123787 0.055408787
0.11178903 0.14405341 -0.003228579 -0.1344794 0.10668516 0.07279937 -0.1057767 0.09403617
-0.0067363945 0.09306793 -0.012484462 -0.19971448 0.04665751 0.18866433 0.013495276 0.010623482
0.16801248 -0.040854815 0.3095309 0.18390305 -0.029115142 0.18054146 -0.10843757 -0.26227677
0.04869036 0.086684145 0.081857644 0.062275127 -0.019803837 0.04148449 0.18411835 0.052042007
-0.1706242 -0.045549504 -0.14655842 -0.07938582 0.3970232 -0.07456183 0.035643827 -0.1286416
0.058182582 0.04056852 0.01599336 0.12830654 -0.0756021 0.13048278 0.06755071 -0.2597762
0.13068637 -0.0062708603 -0.11573578 0.13560474 0.020609029 0.052111417 -0.059520982 0.014936397
-0.24472187 0.04586527 0.17643832 0.11192506 0.036690272 -0.07673087 -0.18206775 -0.013845572
0.018808436 0.113140605 0.30711606 -0.19450992 0.19235443 0.1592873 -0.09518764 -0.0011317459
0.0175649 -0.12708277 0.0865637 -0.29525998 0.15317342 -0.020588132 0.03874452 -0.15247044
-0.05256672 -0.039867446 0.0341775 0.0063523166 -0.26708534 0.054965418 -0.030964732 0.01974107
-0.08855482 0.052771628 -0.036931735 -0.01177706 0.12664263 0.09171491 -0.1386473 0.100943245
0.19941755 -0.18634325 0.0023849588 0.055133175 0.008466344 -0.12630309 0.07651426 -0.02202052
-0.023313876 0.10922813 0.066097714 0.1114843 0.016568894 0.2534856 0.076250225 -0.16720787
-0.15943287 -0.03606874 0.0035609878 0.16070253 0.03482396 -0.16579637 0.15710776 -0.11580227
0.23492166 -0.17264701 0.056189623 0.027635172 0.2956566 -0.011631027 0.19761236 0.15986226
0.017334478 0.04322496 -0.08919556 0.055347838 0.08448222 -0.27466166 0.027177662 -0.12164412
0.0013455377 -0.1456222 0.05092637 -0.14214721 0.12177857 0.10649305 0.12426621 0.03876228
-0.11671386 -0.037103515 -0.20196362 0.26839018 -0.05456131 0.18066896 -0.27227393 0.036335994
00000000: 1f66 2b3e c2f5 263d fadc 22be fa7f 82bc
00000010: 0d3d 8f3c 68ee 84be 1e44 60bd 5d82 403e
00000020: 1172 72bd 5c56 45be 4a2b 06be 4816 71bc
00000030: 7204 353e fb8e 28bd 7e11 173d b9e5 2ebc
00000040: 62f0 75bc c1f7 043d 0e70 373e 09a4 7dbe
00000050: 8b41 4d3e a31a d13d 80fe 143d 9280 063e
00000060: 96f0 bbbe 8ca0 96bc c5dd 7a3d e928 963d
00000070: f550 90bd 48c2 3cbd 329b 143e b3df e03d
00000080: 096a 383d acf4 cfbc 83b5 853d 26cd 8c3d
00000090: b8e9 13bd 4c72 bcbd a82a 60be 5b7b 9abe
000000a0: 1295 60be 821d 183c 2099 34be 95bd 3dbe
000000b0: c893 703d de94 7bbd cfcd d0bd e925 153d
000000c0: 94e7 60bd 8bf4 a63c d8ce 673e d621 4b3e
000000d0: dbd4 0fbe 560f 763c b8fa b63d 76c0 91bc
000000e0: 4e75 d73d 98f4 233e 4b8c 4bbe 1b36 b33d
000000f0: c307 953d d362 2c3e 86bc 55bb 5d93 04be
00000100: c4d5 20be c5e2 023e 6d89 c7bd b2f6 12be
00000110: da69 5d3d e667 0fbe 3f2b 8f3d c263 cbbc
00000120: d87e 8a3e a748 9fba a3af 26be 1c47 17be
00000130: 56d3 d4bd ecb5 bfbd 9199 a7b9 b1fc b83d
00000140: f520 0abd 9c79 38be 33db a33a 2a50 a23d
00000150: 7fb2 403d e2f5 42bb 208f 423d e2b3 ea3c
00000160: 91bb 80bd cfdb 573d ee8f 543e 8230 4bbc
00000170: bffd f4bb 375f 69bc 41a0 283e dae4 f03c
00000180: 4bde 91bd 230c 573e 4e9e 63bd 5f4a 38be
00000190: d9d5 c03c a01f 233d 29e5 913d 53f4 623d
000001a0: a6f1 e43d bd82 133e 9196 53bb f8b4 09be
000001b0: c07d da3d d617 953d 74a1 d8bd 0996 c03d
000001c0: f9bc dcbb 669a be3d a18b 4cbc f481 4cbe
000001d0: f21b 3f3d 3931 413e 4a1b 5d3c 1d0e 2e3c
000001e0: 770b 2c3e 6157 27bd d67a 9e3e 1551 3c3e
000001f0: e182 eebc dcdf 383e 8414 debd 2449 86be
00000200: 8b6f 473d 7587 b13d fba4 a73d 3414 7f3d
00000210: a83b a2bc a4eb 293d 8589 3c3e 002a 553d
00000220: 1cb8 2ebe 1e92 3abd 6913 16be 0895 a2bd
00000230: a046 cb3e dfb3 98bd 43ff 113d a0ba 03be
00000240: dc50 6e3d 2d2b 263d 8204 833c ca62 033e
00000250: 46d5 9abd 479d 053e 0758 8a3d 6301 85be
00000260: a6d2 053e ca7b cdbb e106 edbd f8db 0a3e
00000270: 44d4 a83c c872 553d 46cc 73bd cab7 743c
00000280: 5f98 7abe 39dd 3b3d 3fac 343e f738 e53d
00000290: 8a48 163d 1325 9dbd f86f 3abe 8ad8 62bc
000002a0: 2614 9a3c 43b6 e73d 513e 9d3e 9c2d 47be
000002b0: 8ff8 443e 361c 233e bdf1 c2bd 1757 94ba
000002c0: 44e4 8f3c fc21 02be 4f48 b13d 512c 97be
000002d0: 7ed9 1c3e 71a8 a8bc 93b2 1e3d 3621 1cbe
000002e0: 3350 57bd 0c4c 23bd b5fd 0b3d 1827 d03b
000002f0: 69bf 88be 6b23 613d c0a9 fdbc 06b8 a13c
00000300: 3b5c b5bd 1027 583d bb45 17bd 92f4 40bc
00000310: 9bae 013e 07d5 bb3d 8ff9 0dbe 55bb ce3d
00000320: 1d34 4c3e c4d0 3ebe f84c 1c3b 53d3 613d
00000330: 6cb6 0a3c 9955 01be 82b3 9c3d 6164 b4bc
00000340: befc bebc ffb2 df3d 3d5e 873d e151 e43d
00000350: 7dbb 873c ddc8 813e 1429 9c3d 8a38 2bbe
00000360: 5f42 23be d1bc 13bd 765f 693b 348f 243e
00000370: 92a3 0e3d 86c6 29be dbe0 203e be29 edbd
00000380: 4e8f 703e 61ca 30be 1727 663d 2863 e23c
00000390: 4d60 973e 1090 3ebc e55a 4a3e efb2 233e
000003a0: 0901 8e3c a80c 313d 29ac b6bd 6ab4 623d
000003b0: 0405 ad3d 74a0 8cbe b0a3 de3c 8d20 f9bd
000003c0: c15c b03a fc1d 15be 2b98 503d 0a8f 11be
000003d0: 0b67 f93d 0719 da3d 487f fe3d 32c5 1e3d
000003e0: ad07 efbd dbf9 17bd 8dcf 4ebe 706a 893e
000003f0: ae7b 5fbd 4901 393e 7d67 8bbe 0dd5 143d
