LeakyRNN_11.28/1128/ta_2_10_64_d10_r11/model_175.pth (torch, 37660 bytes, 5 tensors)

weight f4 [64, 64]
-0.5043155 -0.34003365 -0.5340139 0.4569228 -0.05829026 0.01879458 0.020569779 0.62376636
-0.49241558 -0.25064683 -0.6068417 -0.3479518 0.88307804 0.5032151 -0.23952642 -0.066647135
-0.12923904 0.34479403 0.16626263 -0.92903626 0.5118765 -0.097498655 0.23111023 0.17936166
0.013097646 0.16832283 -0.084879 -0.088402465 -0.8502257 0.10744729 0.8341637 0.3259364
-0.1871028 -0.54917103 -0.36780897 0.18963833 -0.47209418 0.06504626 0.56084967 -2.2205734
-0.35824105 0.2691636 -0.5219372 -0.26640582 0.06271796 0.24927482 -0.7565833 -0.3164953
-0.62918097 -0.5556693 0.541819 1.5062344 -0.96262264 -0.17551161 0.050004344 -0.2044554
-0.10432782 -0.18703756 -0.67140865 0.1302988 -0.32596686 0.073659375 0.03493688 -0.32354823
-0.5296557 1.3842392 0.37950766 -1.468126 0.86834574 -0.5486909 -0.316918 -0.55704236
0.45762134 -0.47298843 0.9824807 0.99834526 -0.0076406873 0.4731536 0.46496466 0.5455007
-1.5257404 -0.7985754 1.2087086 0.6790726 0.34293386 0.17755716 -0.110118665 1.0254391
0.13094847 -0.17140475 0.567612 -0.36432698 -0.9388334 -0.034097854 0.14765039 -0.40048903
-0.4444097 -0.084283605 -0.046164047 0.022256672 0.7868951 -1.2103437 0.8026271 1.1853027
-0.43365735 1.1118594 -0.34951535 -1.2315973 -0.71587026 -0.06631497 1.5268037 0.041919496
-0.45171002 0.84495085 -0.5820021 -0.045406368 0.022895722 0.36670586 -0.51251966 0.7619173
0.5509789 0.13601963 -0.013309744 -0.61842155 0.07642623 1.1756324 0.20906429 -0.3771374
0.17319138 0.20627645 -6.612792 -0.1985999 0.3101437 0.37405974 1.089589 0.50716937
0.051621586 0.19143145 0.13498038 0.20002101 -0.84502286 -0.741122 -0.11539316 0.36499712
-0.4760003 -0.4595066 -0.21282057 -0.15374665 -0.68926454 0.03637202 1.1529866 -0.33456814
0.7319541 -0.2848252 -0.26508585 -0.0018513692 -0.24652258 -0.080667906 -0.28986907 0.82433575
-0.39610186 0.29401356 0.118744425 0.41309464 -0.7319677 0.2242 -0.33406615 0.38250354
-0.076168746 0.67098415 0.13503125 -0.14954247 -0.032606818 0.11276522 0.34584525 0.10154493
-0.4520771 0.032385137 0.46702644 -0.6248717 0.011198722 -0.65575475 0.16909744 -0.3530045
1.2177082 0.3300857 -0.35153547 0.38291296 -0.0065242886 0.057467293 -0.41779134 -0.25519332
-1.3377801 0.48562732 0.06546613 -0.120058015 -0.24500048 1.1258439 0.3740784 -0.7631319
0.2643598 -0.01776382 -0.18504702 -0.49612895 0.12564144 -0.50691384 0.49449143 -0.16932257
0.08660639 -0.24401574 1.0727053 0.71896994 0.55736536 0.51912534 -0.049954876 -1.1393015
-0.70219576 -0.06388813 0.506629 0.0031895738 -0.073256575 -0.49020123 -0.06660178 0.36777145
0.3228984 0.16221054 0.606928 1.4755791 0.840689 -0.18804064 1.5480415 0.72310174
0.6148828 0.0006498398 -0.5663187 -0.24308397 -0.44798964 -0.28810585 -0.16291139 0.34111106
0.7056937 -0.38855615 -0.7147743 -0.14904739 0.08741287 0.9632352 -0.094157584 0.20591134
0.2671166 0.38710257 -0.5987522 0.4669698 -0.43083307 -0.101098284 -0.9472859 -0.34855127
00000000: d21a 01bf e418 aebe 23b5 08bf c9f1 e93e
00000010: c5c1 6ebd 17f7 993c f481 a83c 27af 1f3f
00000020: e51d fcbe c854 80be fa59 1bbf bd26 b2be
00000030: 6711 623f b4d2 003f 6a46 75be 4b7e 88bd
00000040: 3d57 04be d888 b03e c040 2a3e 52d5 6dbf
00000050: 570a 033f 60ad c7bd 29a8 6c3e 95aa 373e
00000060: 8297 563c d25c 2c3e 0bd5 adbd 5a0c b5bd
00000070: 64a8 59bf 530d dc3d c18b 553f 23e1 a63e
00000080: e097 3fbe 7996 0cbf 7551 bcbe 8d30 423e
00000090: 54b6 f1be f936 853d d893 0f3f e01d 0ec0
000000a0: 5f6b b7be d0cf 893e ad9d 05bf 5866 88be
000000b0: 4672 803d e641 7f3e 71af 41bf ac0b a2be
000000c0: 0112 21bf 5840 0ebf a6b4 0a3f 4acc c03f
000000d0: 706e 76bf 51b9 33be 5bd1 4c3d c25c 51be
000000e0: d3a9 d5bd c686 3fbe 70e1 2bbf 0c6d 053e
000000f0: 21e5 a6be bada 963d f919 0f3d 1da8 a5be
00000100: 8497 07bf c02e b13f d44e c23e 8eeb bbbf
00000110: e84b 5e3f 0277 0cbf 1343 a2be 549a 0ebf
00000120: 584d ea3e 8a2b f2be db83 7b3f 8e93 7f3f
00000130: bb5e fabb 3041 f23e d90f ee3e efa5 0b3f
00000140: 764b c3bf 706f 4cbf f7b6 9a3f b4d7 2d3f
00000150: 0795 af3e 8bd1 353e e585 e1bd 9741 833f
00000160: 5b17 063e ba84 2fbe 054f 113f 1189 babe
00000170: 6357 70bf 31aa 0bbd aa31 173e e60c cdbe
00000180: ab89 e3be e29c acbd 8316 3dbd a053 b63c
00000190: f571 493f 8bec 9abf f878 4d3f 00b8 973f
000001a0: 5608 debe 6951 8e3f adf3 b2be fba4 9dbf
000001b0: 4643 37bf 25d0 87bd 4e6e c33f c7b3 2b3d
000001c0: 8946 e7be b34e 583f 17fe 14bf 07fc 39bd
000001d0: cf8f bb3c dfc0 bb3e 7d34 03bf 030d 433f
000001e0: f40c 0d3f bb48 0b3e 1d11 5abc e050 1ebf
000001f0: 5b85 9c3d 1f7b 963f f314 563e 2718 c1be
00000200: 1559 313e 223a 533e fe9b d3c0 c65d 4bbe
00000210: 28cb 9e3e c284 bf3e a777 8b3f dad5 013f
00000220: 2871 533d 9b06 443e 4c38 0a3e 4fd2 4c3e
00000230: 6b53 58bf 2cba 3dbf 4053 ecbd e7e0 ba3e
00000240: 50b6 f3be 7344 ebbe a3ed 59be c36f 1dbe
00000250: a473 30bf d4fa 143d 1195 933f 844c abbe
00000260: 5861 3b3f 9cd4 91be 55b9 87be a4a9 f2ba
00000270: 6a70 7cbe 3735 a5bd b869 94be ab07 533f
00000280: ddcd cabe f288 963e 4730 f33d 2481 d33e
00000290: 3c62 3bbf af94 653e b80a abbe 81d7 c33e
000002a0: 5cfe 9bbd 9ec5 2b3f a245 0a3e a921 19be
000002b0: ba8e 05bd 74f1 e63d a112 b13e caf6 cf3d
000002c0: a676 e7be 47a6 043d 171e ef3e 97f7 1fbf
000002d0: d87a 373c 8bdf 27bf e127 2d3e 01bd b4be
000002e0: dddd 9b3f fe00 a93e 75fc b3be 2b0d c43e
000002f0: b3c9 d5bb d362 6b3d bfe8 d5be b3a8 82be
00000300: 613c abbf 25a4 f83e 1b13 863d fae0 f5bd
00000310: 68e1 7abe a71b 903f 3487 bf3e 9d5c 43bf
00000320: 2b5a 873e 6e85 91bc f77c 3dbe 9d04 febe
00000330: 26a8 003e 1bc5 01bf fb2d fd3e e562 2dbe
00000340: b15e b13d 43df 79be 684e 893f 6a0e 383f
00000350: 7faf 0e3f 66e5 043f 7c9d 4cbd a2d4 91bf
00000360: 1ac3 33bf c8d7 82bd 70b2 013f 2b08 513b
00000370: 8b07 96bd a8fb fabe 8466 88bd 8a4c bc3e
00000380: f052 a53e 851a 263e a25f 1b3f c7df bc3f
00000390: 6537 573f ba8d 40be 3926 c63f 321d 393f
000003a0: f668 1d3f 035a 2a3a 43fa 10bf 01eb 78be
000003b0: e65e e5be 9c82 93be 3ed2 26be 1ca6 ae3e
000003c0: 58a8 343f d5f0 c6be 73fb 36bf e19f 18be
000003d0: 8505 b33d 9596 763f b1d5 c0bd 6cda 523e
000003e0: 82c3 883e 4f32 c63e d347 19bf aa16 ef3e
000003f0: 2796 dcbe 9e0c cfbd 5481 72bf 5075 b2be

weight f4 [64, 3]
0.48988175 -0.20303775 -0.073366635 0.17280692 -0.11118634 -0.111586824 0.020113835 -0.022764785
0.08675683 -0.94846004 -0.6460636 0.057812206 -0.7355376 -0.44387066 -0.058210053 -1.6798432
1.1562055 -0.12577318 -0.22978754 -0.34894598 -0.100520715 0.11461938 -0.32523552 0.074462
0.09009951 0.079604805 -0.12185083 -0.05776863 -0.10736954 -0.078764856 -0.11430992 -0.84441596
-0.067153886 -1.4375536 0.020235253 0.057780005 -0.34277767 0.45623603 -0.18553095 1.2291093
-1.9728819 -0.1719779 0.13007173 0.12214246 0.06997781 0.015586134 0.17415239 0.090610944
0.25509626 0.031945128 -0.15526049 0.3740797 -0.29691535 0.2304123 -0.367303 -0.3562694
0.1571725 0.780404 -0.18478075 -0.30458522 -0.16936117 0.15171437 0.015958523 0.085873604
-0.004573607 0.011258052 -0.0054557985 -0.027923033 -0.012624601 -0.20155743 -0.09737248 -0.14061442
-0.16670142 -0.19750105 0.23707294 -0.20737381 0.09895077 -0.12328437 -0.04122056 0.069353625
-0.0026930217 -0.3093954 -0.14230122 -0.31487176 0.11414794 1.23219 0.031287417 -0.13156712
-0.073332526 0.06423565 -0.0303492 0.10272302 0.013728406 -0.30085447 0.15646562 0.281786
0.044143196 0.15791583 -0.06463779 0.028257478 -0.056735337 0.049626768 0.0021140934 0.62736404
-0.15522575 0.57734615 1.4985735 -0.17266822 0.91373736 1.2817516 -0.0022195843 0.048371382
-0.0066951015 -0.20514588 -0.31861418 0.20489411 -0.09523356 2.0555036 1.7828957 0.3263173
-0.007899633 -0.08490381 0.17940663 0.093158826 0.015836915 -0.07456795 -0.715999 -0.1280548
0.16281155 0.06134587 0.3670617 -0.06990429 0.04065256 0.5382578 0.004364446 0.21056253
0.18140113 0.067450516 0.09463315 -0.22254205 -0.07136843 0.10170197 0.06415524 0.04573603
-0.2868566 0.013031177 0.16671118 0.53118294 -0.8154552 0.09469046 0.20206091 -0.3775532
0.07767878 -2.230151 -1.4906673 0.47343054 0.8813657 -0.0013423869 0.29263955 -0.245657
0.08095638 -0.17065011 -0.14135665 -0.09811579 0.09727269 0.11010955 0.27308533 0.22073112
-0.3890519 -0.17084885 -0.17578535 -0.17134784 -0.16465135 -0.011300578 0.17854726 -0.035345454
-0.047825545 -0.12017122 -0.19623348 -0.03289044 -0.0061482154 -0.067045994 0.066985264 -0.22164899
-0.23055279 -0.11404281 -1.3990055 1.8556138 0.060763717 0.26430678 0.10819527 0.025973938
00000000: c8d1 fa3e 21e9 4fbe 3f41 96bd 4cf4 303e
00000010: aab5 e3bd a287 e4bd c5c5 a43c 377d babc
00000020: 91ad b13d 47ce 72bf 6d64 25bf 7ecc 6c3d
00000030: 314c 3cbf 0443 e3be aa6d 6ebd 1a05 d7bf
00000040: 8bfe 933f afca 00be 6d4d 6bbe 0ca9 b2be
00000050: cedd cdbd 91bd ea3d 4585 a6be 887f 983d
00000060: 1886 b83d d807 a33d ee8c f9bd cd9e 6cbd
00000070: 90e4 dbbd 784f a1bd 521b eabd a52b 58bf
00000080: fa87 89bd c201 b8bf 67c4 a53c baaa 6c3d
00000090: 8e80 afbe c597 e93e d3fb 3dbe 7453 9d3f
000000a0: 6587 fcbf fa1a 30be 8631 053e d325 fa3d
000000b0: 8750 8f3d fc5c 7f3c 0155 323e 3b92 b93d
000000c0: fa9b 823e e5d8 023d 9bfc 1ebe 6087 bf3e
000000d0: 4a05 98be 34f1 6b3e 240f bcbe f168 b6be
000000e0: d4f1 203e 8ec8 473f 2a37 3dbe 98f2 9bbe
000000f0: 046d 2dbe 035b 1b3e 73bb 823c 80de af3d
00000100: 32de 95bb b173 383c 8ec6 b2bb d8be e4bc
00000110: 6ad7 4ebc 1265 4ebe 396b c7bd 3afd 0fbe
00000120: c7b3 2abe b73d 4abe 40c3 723e cd59 54be
00000130: b4a6 ca3d 847c fcbd e4d6 28bd 4609 8e3d
00000140: 687d 30bb 1369 9ebe 69b7 11be df36 a1be
00000150: 65c6 e93d 67b8 9d3f 3c27 003d 88b9 06be
00000160: 5d2f 96bd fb8d 833d e39e f8bc 7260 d23d
00000170: 1ced 603c 9909 9abe 8638 203e 4146 903e
00000180: 7fcf 343d b0b4 213e d160 84bd 3a7c e73c
00000190: 5063 68bd 7045 4b3d 9a8c 0a3b ee9a 203f
000001a0: 80f3 1ebe f5cc 133f 42d1 bf3f f0cf 30be
000001b0: b1ea 693f 7010 a43f 7276 11bb 1221 463d
000001c0: 9562 dbbb c311 52be 6621 a3be c3cf 513e
000001d0: d009 c3bd 5f8d 0340 ed35 e43f 1013 a73e
000001e0: 766d 01bc 0ce2 adbd 5fb6 373e 0eca be3d
000001f0: 6bbc 813c 15b7 98bd b64b 37bf cc20 03be
00000200: 12b8 263e cf45 7b3d 83ef bb3e fb29 8fbd
00000210: 4c83 263d 43cb 093f a003 8f3b b49d 573e
00000220: 38c1 393e 7f23 8a3d 06cf c13d 10e2 63be
00000230: 9d29 92bd 1f49 d03d d363 833d b455 3b3d
00000240: dede 92be b880 553c 56b6 2a3e 9bfb 073f
00000250: acc1 50bf 12ed c13d 0ee9 4e3e a74e c1be
00000260: 0d16 9f3d cbba 0ec0 30ce bebf 7d65 f23e
00000270: 2fa1 613f 08f3 afba dad4 953e 828d 7bbe
00000280: 75cc a53d e7be 2ebe ccbf 10be eef0 c8bd
00000290: e736 c73d 1e81 e13d d7d1 8b3e 5707 623e
000002a0: d031 c7be 00f3 2ebe 1301 34be cf75 2fbe
000002b0: 5d9a 28be 0f26 39bc 18d5 363e 65c6 10bd
000002c0: b8e4 43bd 541c f6bd 6ef1 48be 20b8 06bd
000002d0: f876 c9bb 694f 89bd 922f 893d f4f7 62be
000002e0: 0816 6cbe 478f e9bd 9d12 b3bf c184 ed3f
000002f0: 60e3 783d 3853 873e 7b95 dd3d 4cc7 d43c

weight f4 [2, 64]
-0.17576462 -0.06911813 -0.06515495 -0.03251558 -0.11312515 -0.012592082 0.051749304 0.006045708
-0.025202498 0.06765876 0.040726814 -0.10164751 -0.0025165787 -0.051006332 0.0014140927 0.11866975
-0.093247764 0.047546893 0.1357941 -0.066460475 0.013039172 0.026396947 -0.06381827 0.002356022
-0.041261733 0.028426208 -0.08555099 -0.07749178 0.13554311 -0.012527538 0.06911346 0.023707183
-0.06434132 0.029042266 -0.1951419 -0.07719627 0.08971691 0.07453546 -0.08980802 -0.16069521
0.02188739 0.1954288 -0.15001377 -0.020159913 -0.14422733 0.05434701 0.05114985 0.034965385
0.040304672 0.023151869 0.08880116 0.03622289 0.07519484 -0.05903667 -0.036490086 -0.02272692
0.033352453 0.18883933 -0.1285862 -0.01923885 0.056762163 0.003041106 0.02119206 0.1018376
0.03113676 -0.062231574 -0.037353672 -0.021167632 -0.02797082 0.11304235 -0.022968892 0.0335485
-0.0542093 0.0975169 -0.042192854 0.12278803 -0.02339564 -0.0072077326 -0.005549089 0.016321246
0.018820591 -0.15624565 0.10858635 0.020747459 -0.08571365 0.0757002 -0.010671974 0.028080322
0.061661202 -0.12663533 -0.078584105 0.1426935 0.091602474 -0.0004943566 0.12154665 -0.05607833
-0.041677482 0.06099947 -0.110878214 0.014448222 0.013747887 -0.009610336 0.014242062 0.04970127
-0.009806453 0.04852948 -0.09199921 -0.061082017 0.046067063 -0.013533804 0.050993748 0.032696936
0.0066364966 0.15681489 -0.08707048 0.013728638 0.06434997 0.049564138 0.006874165 -0.073918715
-0.019915536 -0.019557206 0.10563303 0.06423788 0.0045017055 -0.18482816 -0.014415068 -0.08335507
00000000: a4fb 33be ce8d 8dbd f56f 85bd 0f2f 05bd
00000010: 29ae e7bd 054f 4ebc 14f7 533d 131b c63b
00000020: 7875 cebc ad90 8a3d 29d1 263d 922c d0bd
00000030: 2fed 24bb 04ec 50bd 1459 b93a 2009 f33d
00000040: aff8 bebd 88c0 423d 9c0d 0b3e 6e1c 88bd
00000050: 40a2 553c 693e d83c 27b3 82bd 7d67 1a3b
00000060: 1002 29bd 14de e83c 5c35 afbd 03b4 9ebd
00000070: d0cb 0a3e 4e40 4dbc 5c8b 8d3d 9135 c23c
00000080: 62c5 83bd 0cea ed3c 47d3 47be 1419 9ebd
00000090: 80bd b73d 0ca6 983d 44ed b7bd 498d 24be
000000a0: 2f4d b33c 7d1e 483e 369d 19be 6726 a5bc
000000b0: 54b0 13be f89a 5e3d 8182 513d dd37 0f3d
000000c0: 8316 253d fda8 bd3c 62dd b53d 745e 143d
000000d0: c1ff 993d 6fd0 71bd a176 15bd ce2d babc
000000e0: 959c 083d 195f 413e 1aac 03be cb9a 9dbc
000000f0: 717f 683d 4b4d 473b f99a ad3c 3b90 d03d
00000100: 8512 ff3c 89e6 7ebd 2a00 19bd be67 adbc
00000110: 1023 e5bc bf82 e73d 4229 bcbc 276a 093d
00000120: 920a 5ebd f1b6 c73d 6ad2 2cbd 4a78 fb3d
00000130: 37a8 bfbc d82e ecbb 22d5 b5bb 22b4 853c
00000140: a42d 9a3c dcfe 1fbe 8562 de3d 93f6 a93c
00000150: a38a afbd b508 9b3d 81d9 2ebc b408 e63c
00000160: 7590 7c3d b1ac 01be b4f0 a0bd 3f1e 123e
00000170: 149a bb3d b697 01ba 73ed f83d 64b2 65bd
00000180: 02b6 2abd 95da 793d 1e14 e3bd 3cb8 6c3c
00000190: d13e 613c ac74 1dbc 8a57 693c 8f93 4b3d
000001a0: 3fab 20bc d9c6 463d 156a bcbd 2331 7abd
000001b0: d1b0 3c3d e3bc 5dbc d2de 503d 39ed 053d
000001c0: f876 d93b 1594 203e 0252 b2bd 15ee 603c
000001d0: ebc9 833d c403 4b3d ad40 e13b b262 97bd
000001e0: e825 a3bc 6f36 a0bc 2156 d83d 268f 833d
000001f0: 0b83 933b 9843 3dbe 2d2d 6cbc 10b6 aabd

bias f4 [2]
-0.0022154632 -0.0029348151
00000000: 4e31 11bb 0756 40bb

W f4 [64, 64]
0.16738175 0.040761717 -0.15904608 -0.015930165 0.017485166 -0.2596314 -0.05475246 0.1879973
-0.059190813 -0.19271225 -0.13102451 -0.014714785 0.17677477 -0.04115198 0.036881916 -0.010674887
-0.015010925 0.03246284 0.17913839 -0.24769606 0.20044534 0.10210159 0.036375523 0.13134983
-0.3670699 -0.018387102 0.061246652 0.07332022 -0.07046691 -0.04608372 0.14512327 0.10980167
0.045022998 -0.025385223 0.06528761 0.068750665 -0.036111563 -0.09201488 -0.21891272 -0.30172238
-0.21931866 0.009284379 -0.17636538 -0.18529351 0.058734685 -0.061421268 -0.10195505 0.036413107
-0.05490835 0.020380279 0.22637498 0.19837126 -0.14046042 0.015018305 0.089345396 -0.017791968
0.10520421 0.16011274 -0.19877736 0.08750554 0.07276871 0.16834573 -0.003261359 -0.1294684
-0.15706545 0.12781818 -0.09743009 -0.1435192 0.054056026 -0.14004478 0.069906704 -0.024827842
0.270499 -0.0012152389 -0.16277938 -0.1477322 -0.10391872 -0.09360871 -0.00031967138 0.09032572
-0.033722837 -0.1801514 0.001250124 0.07925446 0.047045227 -0.0029748608 0.047499776 0.028650228
-0.062857755 0.05269986 0.2075803 -0.012401702 -0.007476538 -0.014243892 0.16467382 0.029406
-0.07122477 0.21000724 -0.055570893 -0.1799712 0.02353947 0.03982508 0.07123787 0.055408787
0.11178903 0.14405341 -0.003228579 -0.1344794 0.10668516 0.07279937 -0.1057767 0.09403617
-0.0067363945 0.09306793 -0.012484462 -0.19971448 0.04665751 0.18866433 0.013495276 0.010623482
0.16801248 -0.040854815 0.3095309 0.18390305 -0.029115142 0.18054146 -0.10843757 -0.26227677
0.04869036 0.086684145 0.081857644 0.062275127 -0.019803837 0.04148449 0.18411835 0.052042007
-0.1706242 -0.045549504 -0.14655842 -0.07938582 0.3970232 -0.07456183 0.035643827 -0.1286416
0.058182582 0.04056852 0.01599336 0.12830654 -0.0756021 0.13048278 0.06755071 -0.2597762
0.13068637 -0.0062708603 -0.11573578 0.13560474 0.020609029 0.052111417 -0.059520982 0.014936397
-0.24472187 0.04586527 0.17643832 0.11192506 0.036690272 -0.07673087 -0.18206775 -0.013845572
0.018808436 0.113140605 0.30711606 -0.19450992 0.19235443 0.1592873 -0.09518764 -0.0011317459
0.0175649 -0.12708277 0.0865637 -0.29525998 0.15317342 -0.020588132 0.03874452 -0.15247044
-0.05256672 -0.039867446 0.0341775 0.0063523166 -0.26708534 0.054965418 -0.030964732 0.01974107
-0.08855482 0.052771628 -0.036931735 -0.01177706 0.12664263 0.09171491 -0.1386473 0.100943245
0.19941755 -0.18634325 0.0023849588 0.055133175 0.008466344 -0.12630309 0.07651426 -0.02202052
-0.023313876 0.10922813 0.066097714 0.1114843 0.016568894 0.2534856 0.076250225 -0.16720787
-0.15943287 -0.03606874 0.0035609878 0.16070253 0.03482396 -0.16579637 0.15710776 -0.11580227
0.23492166 -0.17264701 0.056189623 0.027635172 0.2956566 -0.011631027 0.19761236 0.15986226
0.017334478 0.04322496 -0.08919556 0.055347838 0.08448222 -0.27466166 0.027177662 -0.12164412
0.0013455377 -0.1456222 0.05092637 -0.14214721 0.12177857 0.10649305 0.12426621 0.03876228
-0.11671386 -0.037103515 -0.20196362 0.26839018 -0.05456131 0.18066896 -0.27227393 0.036335994
00000000: 1f66 2b3e c2f5 263d fadc 22be fa7f 82bc
00000010: 0d3d 8f3c 68ee 84be 1e44 60bd 5d82 403e
00000020: 1172 72bd 5c56 45be 4a2b 06be 4816 71bc
00000030: 7204 353e fb8e 28bd 7e11 173d b9e5 2ebc
00000040: 62f0 75bc c1f7 043d 0e70 373e 09a4 7dbe
00000050: 8b41 4d3e a31a d13d 80fe 143d 9280 063e
00000060: 96f0 bbbe 8ca0 96bc c5dd 7a3d e928 963d
00000070: f550 90bd 48c2 3cbd 329b 143e b3df e03d
00000080: 096a 383d acf4 cfbc 83b5 853d 26cd 8c3d
00000090: b8e9 13bd 4c72 bcbd a82a 60be 5b7b 9abe
000000a0: 1295 60be 821d 183c 2099 34be 95bd 3dbe
000000b0: c893 703d de94 7bbd cfcd d0bd e925 153d
000000c0: 94e7 60bd 8bf4 a63c d8ce 673e d621 4b3e
000000d0: dbd4 0fbe 560f 763c b8fa b63d 76c0 91bc
000000e0: 4e75 d73d 98f4 233e 4b8c 4bbe 1b36 b33d
000000f0: c307 953d d362 2c3e 86bc 55bb 5d93 04be
00000100: c4d5 20be c5e2 023e 6d89 c7bd b2f6 12be
00000110: da69 5d3d e667 0fbe 3f2b 8f3d c263 cbbc
00000120: d87e 8a3e a748 9fba a3af 26be 1c47 17be
00000130: 56d3 d4bd ecb5 bfbd 9199 a7b9 b1fc b83d
00000140: f520 0abd 9c79 38be 33db a33a 2a50 a23d
00000150: 7fb2 403d e2f5 42bb 208f 423d e2b3 ea3c
00000160: 91bb 80bd cfdb 573d ee8f 543e 8230 4bbc
00000170: bffd f4bb 375f 69bc 41a0 283e dae4 f03c
00000180: 4bde 91bd 230c 573e 4e9e 63bd 5f4a 38be
00000190: d9d5 c03c a01f 233d 29e5 913d 53f4 623d
000001a0: a6f1 e43d bd82 133e 9196 53bb f8b4 09be
000001b0: c07d da3d d617 953d 74a1 d8bd 0996 c03d
000001c0: f9bc dcbb 669a be3d a18b 4cbc f481 4cbe
000001d0: f21b 3f3d 3931 413e 4a1b 5d3c 1d0e 2e3c
000001e0: 770b 2c3e 6157 27bd d67a 9e3e 1551 3c3e
000001f0: e182 eebc dcdf 383e 8414 debd 2449 86be
00000200: 8b6f 473d 7587 b13d fba4 a73d 3414 7f3d
00000210: a83b a2bc a4eb 293d 8589 3c3e 002a 553d
00000220: 1cb8 2ebe 1e92 3abd 6913 16be 0895 a2bd
00000230: a046 cb3e dfb3 98bd 43ff 113d a0ba 03be
00000240: dc50 6e3d 2d2b 263d 8204 833c ca62 033e
00000250: 46d5 9abd 479d 053e 0758 8a3d 6301 85be
00000260: a6d2 053e ca7b cdbb e106 edbd f8db 0a3e
00000270: 44d4 a83c c872 553d 46cc 73bd cab7 743c
00000280: 5f98 7abe 39dd 3b3d 3fac 343e f738 e53d
00000290: 8a48 163d 1325 9dbd f86f 3abe 8ad8 62bc
000002a0: 2614 9a3c 43b6 e73d 513e 9d3e 9c2d 47be
000002b0: 8ff8 443e 361c 233e bdf1 c2bd 1757 94ba
000002c0: 44e4 8f3c fc21 02be 4f48 b13d 512c 97be
000002d0: 7ed9 1c3e 71a8 a8bc 93b2 1e3d 3621 1cbe
000002e0: 3350 57bd 0c4c 23bd b5fd 0b3d 1827 d03b
000002f0: 69bf 88be 6b23 613d c0a9 fdbc 06b8 a13c
00000300: 3b5c b5bd 1027 583d bb45 17bd 92f4 40bc
00000310: 9bae 013e 07d5 bb3d 8ff9 0dbe 55bb ce3d
00000320: 1d34 4c3e c4d0 3ebe f84c 1c3b 53d3 613d
00000330: 6cb6 0a3c 9955 01be 82b3 9c3d 6164 b4bc
00000340: befc bebc ffb2 df3d 3d5e 873d e151 e43d
00000350: 7dbb 873c ddc8 813e 1429 9c3d 8a38 2bbe
00000360: 5f42 23be d1bc 13bd 765f 693b 348f 243e
00000370: 92a3 0e3d 86c6 29be dbe0 203e be29 edbd
00000380: 4e8f 703e 61ca 30be 1727 663d 2863 e23c
00000390: 4d60 973e 1090 3ebc e55a 4a3e efb2 233e
000003a0: 0901 8e3c a80c 313d 29ac b6bd 6ab4 623d
000003b0: 0405 ad3d 74a0 8cbe b0a3 de3c 8d20 f9bd
000003c0: c15c b03a fc1d 15be 2b98 503d 0a8f 11be
000003d0: 0b67 f93d 0719 da3d 487f fe3d 32c5 1e3d
000003e0: ad07 efbd dbf9 17bd 8dcf 4ebe 706a 893e
000003f0: ae7b 5fbd 4901 393e 7d67 8bbe 0dd5 143d
