data_1216/1216_1/sp_L1_2_128_d30_r7/model_117.pth (torch, 137244 bytes, 5 tensors)

weight f4 [128, 128]
0	0xbb214fb6	-0.0024614162
1	0xba95f4a9	-0.0011440712
2	0x393df82f	0.000181169
3	0xbb22aaf5	-0.0024821137
4	0xbb89183e	-0.004183798
5	0xbadb2d61	-0.0016721898
6	0x39a11e89	0.00030731063
7	0xba6388de	-0.00086797576
8	0xb9da8162	-0.00041676598
9	0xbb45788c	-0.0030131666
10	0xbc032c7b	-0.00800621
11	0x3b3a6f83	0.0028447814
12	0xbb0f4211	-0.0021859447
13	0xbe0b42c3	-0.13599686
14	0xbb9abb54	-0.0047220383
15	0xbb2c366b	-0.0026277553
16	0xbae5e7b2	-0.0017540364
17	0x3ab3ab43	0.0013707656
18	0x3aec2215	0.0018015528
19	0x3b3216c7	0.002717422
20	0x3a78ff30	0.0009498475
21	0xbacff9d3	-0.00158673
22	0x3b1306e4	0.0022434527
23	0xbb992453	-0.0046735196
24	0xbb78d84c	-0.003797072
25	0x3a889dcb	0.0010423003
26	0xbe813df4	-0.2524258
27	0x3a5ab1cd	0.00083425344
28	0x3a6c461e	0.0009013134
29	0xbc10e618	-0.008843921
30	0xbc515b94	-0.012778182
31	0xbd6f20c4	-0.058380857
32	0xbbbda810	-0.005787857
33	0xbada7810	-0.0016667861
34	0x39bfc58a	0.00036577537
35	0x3b639e0c	0.0034731654
36	0x38f3ed4d	0.00011631344
37	0xba8e1ee5	-0.0010842948
38	0xbb65cc37	-0.0035064348
39	0xbbaa808a	-0.0052033113
40	0xbbdb77cc	-0.0066976305
41	0xbb20ef56	-0.0024556718
42	0xb95dfa1f	-0.0002116938
43	0xbb2e83bd	-0.0026628815
44	0xb8db7c97	-0.000104659404
45	0xbaafd214	-0.0013414049
46	0xba89e2ae	-0.0010519826
47	0x3ad6075f	0.0016329101
48	0xbb501cae	-0.0031755376
49	0xbbf15e00	-0.007365942
50	0xbb80eaca	-0.003934239
51	0xbf29792b	-0.6620051
52	0xbb09b7bf	-0.0021014062
53	0xb816ce85	-3.5955123e-05
54	0x3ac676b2	0.0015141575
55	0x3addc0a7	0.0016918377
56	0xbeb9f52a	-0.36319858
57	0x3b2e47b2	0.0026593027
58	0x3a3015b1	0.00067170995
59	0x3a159afc	0.00057069934
60	0xbd474081	-0.0486455
61	0x3acbfaf4	0.0015562461
62	0xbac17233	-0.0014758765
63	0x3af36f94	0.0018572682
64	0x390e5f88	0.00013577763
65	0xba855ea8	-0.0010175304
66	0xbaf8c57f	-0.0018979757
67	0x3b140f6a	0.0022592195
68	0x3b00fbe6	0.0019681393
69	0xbb08474e	-0.0020794454
70	0xba8c2f42	-0.0010695236
71	0xba0a96c6	-0.0005286749
72	0x3991f594	0.00027839525
73	0xb9956d87	-0.000285011
74	0x3b471b04	0.0030381093
75	0xbba7f9ce	-0.0051262146
76	0x3b0b7fae	0.002128582
77	0xbbad4c69	-0.00528865
78	0x388b557d	6.64396e-05
79	0x3ad3c35e	0.0016156246
80	0xbb96a31b	-0.0045970804
81	0x3abc6161	0.0014372283
82	0xbc230d29	-0.009951868
83	0xbfb2c50f	-1.3966388
84	0xbb2d14ab	-0.0026410024
85	0x39ddc09e	0.00042295916
86	0x3ab4d999	0.0013797759
87	0x3a7d1f30	0.00096558314
88	0x3a89f811	0.00105262
89	0xbb99ba62	-0.004691408
90	0xbacb8364	-0.0015526828
91	0xbadd8eab	-0.001690348
92	0x3a997857	0.0011708838
93	0xbbe7974d	-0.007067597
94	0xbb60b2b9	-0.0034286215
95	0xb905cf7d	-0.00012761164
96	0x3a887991	0.0010412206
97	0xbaf7891b	-0.0018885465
98	0xbb1ddacb	-0.002408671
99	0xba296867	-0.00064623955
100	0x3a81c45f	0.0009900442
101	0x3b4508ce	0.0030065062
102	0xb988171f	-0.00025957168
103	0xbd6fd1e4	-0.058549777
104	0x3a337f27	0.0006847255
105	0xbb7042bf	-0.0036660878
106	0x3b011d45	0.0019701284
107	0xbb5cf7f1	-0.003371712
108	0xbb87023b	-0.004120139
109	0x3b0239b4	0.001987082
110	0xbba0a931	-0.0049029817
111	0xbc1b1312	-0.009464996
112	0xbb090a43	-0.0020910657
113	0xbb60763e	-0.0034250165
114	0x377876cb	1.4809611e-05
115	0x3b40aed8	0.002940109
116	0xbc62ef99	-0.01385107
117	0xba3da30c	-0.0007234074
118	0xbb892e7b	-0.004186449
119	0xbb8b13d6	-0.004244308
120	0xba8e4d2b	-0.0010856738
121	0xbc85597f	-0.016278027
122	0xbb927eac	-0.004470667
123	0x3af535ef	0.001870809
124	0xbb9ee3c8	-0.004848931
125	0xbb9fbdb1	-0.004874908
126	0xba8e4765	-0.0010855017
127	0x3b37db90	0.0028054453
128	0x3a3a2918	0.00071014604
129	0xba15f717	-0.0005720718
130	0xb8cf2af6	-9.878531e-05
131	0x3a7b427f	0.0009584799
132	0xb9ed7f95	-0.0004529922
133	0x3a1d56ce	0.00060020096
134	0x3aa6227a	0.001267507
135	0xb96ff5d5	-0.00022884396
136	0xba376f44	-0.0006997476
137	0x397e1a10	0.00024233037
138	0xbb42d5a8	-0.00297294
139	0xba517834	-0.0007990629
140	0x380cb944	3.3551143e-05
141	0xbf2189e6	-0.6310104
142	0xb75cfd87	-1.3172051e-05
143	0xbab1b8b3	-0.0013559073
144	0x3a41035a	0.0007362865
145	0xb9569099	-0.00020462497
146	0x396004a9	0.00021364041
147	0x39283423	0.00016041151
148	0x3853505b	5.0381157e-05
149	0xb9e8728b	-0.0004433583
150	0x393902d7	0.00017644033
151	0x3a8a4f98	0.0010552285
152	0x38c5a609	9.4246185e-05
153	0x3a35d530	0.00069363695
154	0xbf4a1c40	-0.78949356
155	0xba5326e1	-0.00080548046
156	0xba11aadf	-0.0005556773
157	0xbb384599	-0.0028117655
158	0x39e7287b	0.00044089914
159	0xbb1f48b1	-0.0024304802
160	0xba2f6642	-0.0006690958
161	0xbb064463	-0.002048754
162	0x399aa98e	0.00029499497
163	0xb966578a	-0.0002196712
164	0x37037209	7.834759e-06
165	0xb8cf6b61	-9.89053e-05
166	0x390a45ec	0.00013186753
167	0xba839c40	-0.0010041073
168	0x3a28474f	0.0006419317
169	0xb996c95f	-0.00028760263
170	0x39425e08	0.00018536311
171	0x39c2219a	0.000370276
172	0xb9e77f51	-0.00044154612
173	0xbaae57af	-0.0013301278
174	0xb9d50b4c	-0.00040634943
175	0x385c9631	5.2591964e-05
176	0xb91cb47c	-0.00014944555
177	0xbb420a35	-0.0029608135
178	0x39a7ad3c	0.00031981792
179	0xbf917422	-1.1363566
180	0xb8228e2e	-3.8756225e-05
181	0xb983302a	-0.00025022152
182	0x39ae357c	0.00033227715
183	0x395fe85a	0.00021353495
184	0xbf3bc90c	-0.7335365
185	0xb7ae399e	-2.0769246e-05
186	0xba03d74a	-0.0005029334
187	0xb9ba33f0	-0.0003551538
188	0xbed824db	-0.42215618
189	0xbab9aa29	-0.0014165092
190	0xb95d5102	-0.0002110638
191	0xba058d83	-0.0005094634
192	0xb9677d70	-0.00022076606
193	0x38cab6e7	9.666179e-05
194	0xb95dd58a	-0.00021155752
195	0x3989ac4b	0.00026259045
196	0x38f6ce72	0.000117686475
197	0xbdb8f559	-0.09031171
198	0xba1c3deb	-0.0005960154
199	0xb9f2b934	-0.00046295824
200	0xb9815ef1	-0.00024675534
201	0xb9efe925	-0.00045759339
202	0x38810eac	6.153932e-05
203	0x3a18b98a	0.00058259873
204	0x3966822a	0.00021982999
205	0x3a48a0bd	0.00076533464
206	0x3952cdb4	0.00020103791
207	0xb9355ca3	-0.00017296015
208	0x3a3877b2	0.0007036879
209	0x388782df	6.461678e-05
210	0x3932f4fc	0.00017066667
211	0xbf91d7d7	-1.1393994
212	0x3781ee9e	1.5489113e-05
213	0xba79bc3e	-0.00095266465
214	0x39516dac	0.00019972649
215	0xb9df836f	-0.000426318
216	0xba50d0ac	-0.0007965665
217	0x39a6cdf1	0.00031815426
218	0xb9d6b7bc	-0.00040954154
219	0x3957499c	0.0002053142
220	0x3a301620	0.0006717164
221	0x39fee115	0.00048614354
222	0xba0c6b68	-0.0005356581
223	0xba2912fb	-0.00064496667
224	0x3a81f5b6	0.0009915147
225	0x3a194513	0.00058467797
226	0x3a8bc98a	0.0010664922
227	0x39fc127b	0.00048078955
228	0xb8fd0f5a	-0.000120668396
229	0xbb240472	-0.0025027064
230	0x3a007713	0.0004900556
231	0xbba238f4	-0.004950637
232	0x392fb0df	0.0001675519
233	0xb8226569	-3.8718255e-05
234	0xb92fe7b5	-0.00016775618
235	0xba5675f6	-0.00081810297
236	0xb9a51194	-0.0003148435
237	0x39fe1707	0.00048463812
238	0xb9e1dd29	-0.0004308012
239	0x39a897c7	0.0003215654
240	0xb9540480	-0.00020219572
241	0xb9f272b8	-0.0004624331
242	0x39ee1c28	0.00045415876
243	0xb9c304a6	-0.00037196762
244	0xbb32ffeb	-0.0027313184
245	0xb835cd8e	-4.33452e-05
246	0xb79d12a4	-1.8724539e-05
247	0x3908125a	0.00012976807
248	0x39a58e53	0.00031577292
249	0xba1cbc88	-0.0005979021
250	0xb9e58706	-0.00043778884
251	0x380ebbbf	3.403029e-05
252	0x3a2d1d6b	0.000660381
253	0x39f4b034	0.00046670588
254	0xbaee8411	-0.0018197318
255	0x3a0eb67c	0.00054440624

weight f4 [128, 3]
0	0xba5f1c9e	-0.0008511039
1	0xb95be245	-0.0002096976
2	0x39b33ccd	0.0003418684
3	0x39bf8a00	0.00036533177
4	0x38b4109c	8.5861626e-05
5	0x37efc40a	2.8582308e-05
6	0xba2cefd0	-0.0006597014
7	0xb9581711	-0.00020607958
8	0xb924039b	-0.00015641602
9	0x3aa3e358	0.0012503667
10	0xb95b55b7	-0.00020917399
11	0x3a98685b	0.001162778
12	0x3b1d5bbe	0.0024010981
13	0xba4c47d9	-0.00077926886
14	0x3ad749b6	0.0016425166
15	0x3a09b490	0.0005253041
16	0x3af0c37b	0.0018368805
17	0x38953cfd	7.1162336e-05
18	0x3abc8103	0.001438171
19	0x3a01309a	0.00049282017
20	0xb9f9debf	-0.0004765894
21	0xb9d5c719	-0.00040774865
22	0xba9f7635	-0.0012165966
23	0x39c36813	0.0003727084
24	0x3ab9f180	0.0014186352
25	0xb890f62b	-6.9123074e-05
26	0x3a4336b8	0.00074468134
27	0x3acc4f31	0.0015587566
28	0xb9398028	-0.00017690717
29	0x39e0ee81	0.0004290231
30	0x3aedbccf	0.0018137934
31	0x3aa04a15	0.0012229109
32	0x398e729f	0.0002716975
33	0x3b567578	0.0032723825
34	0xbb0e8d02	-0.0021751528
35	0xba4f8a9f	-0.00079170795
36	0x3b271a57	0.0025497878
37	0x3a06bd7e	0.0005139931
38	0xb988973e	-0.00026052626
39	0xbaa4d9fa	-0.0012577169
40	0x3875e017	5.862125e-05
41	0x4101a0db	8.101771
42	0xba59ccea	-0.00083084276
43	0x36d7a315	6.4264846e-06
44	0x3a1c9160	0.00059725903
45	0x39e0f77b	0.00042908997
46	0xb99c55bc	-0.00029818516
47	0x3e195399	0.14973296
48	0xba072607	-0.0005155508
49	0x38fbb6ce	0.00012002663
50	0x3a6bdda9	0.00089975685
51	0x3a58b452	0.0008266616
52	0x3aeb0531	0.0017930624
53	0x376e1f26	1.4193158e-05
54	0x393b0a52	0.00017837554
55	0xba593af9	-0.00082866807
56	0x3ab2c578	0.0013639173
57	0x3b463f5e	0.0030250172
58	0x3916b3a3	0.00014372035
59	0x3aeca7a7	0.0018055335
60	0xba7852a2	-0.00094727625
61	0xb9f59dd3	-0.0004684763
62	0x38bc1224	8.9679175e-05
63	0xba17e1f4	-0.00057938625
64	0xbaaaa4f8	-0.0013019135
65	0x3a6f93f3	0.00091391726
66	0xbadf7da9	-0.0017051
67	0x3a496d3c	0.00076838187
68	0x3a73ae20	0.0009295661
69	0x3982db21	0.00024958796
70	0x39b62a87	0.0003474543
71	0x407a325f	3.9093244
72	0x37e12bdd	2.6842516e-05
73	0x3a49d08c	0.00076986174
74	0xba5824ac	-0.00082452106
75	0x3ad43c3f	0.0016192271
76	0x39ab4bc1	0.00032672103
77	0x391a6b2a	0.00014726506
78	0xb972c512	-0.00023152333
79	0x38802daf	6.112025e-05
80	0xba51b372	-0.0007999457
81	0x3a7cb6f2	0.0009640298
82	0xb92da054	-0.00016558293
83	0xbaec3eb3	-0.0018024057
84	0x38d75060	0.0001026697
85	0xbb09ca81	-0.0021025243
86	0x3ab746c6	0.0013982884
87	0x3a0dc6cc	0.0005408346
88	0x39ccac9b	0.00039038513
89	0xb8e7dfe4	-0.00011056641
90	0xba853785	-0.0010163641
91	0xb8da5a9d	-0.00010411928
92	0x40628df2	3.5399137
93	0x3a9386c9	0.0011255379
94	0x374d4983	1.2236068e-05
95	0xbfb635bf	-1.4235152
96	0xba37e62e	-0.00070151954
97	0xba9ba3fe	-0.0011874435
98	0x3a5ace1f	0.00083467545
99	0xb982989f	-0.00024909244
100	0x3a6529c8	0.00087418826
101	0xb9281b6f	-0.00016031948
102	0xb9e566b1	-0.00043754795
103	0xba904309	-0.0011006306
104	0x392e0c1b	0.00016598443
105	0xb88516cb	-6.34618e-05
106	0x3a0710bb	0.00051523343
107	0x3aa7360f	0.00127572
108	0x3a33b2fa	0.00068549777
109	0xb97776ec	-0.00023600057
110	0xba8993c9	-0.0010496314
111	0xb9fdc8ff	-0.00048405674
112	0xba637979	-0.00086774636
113	0xb81d2d10	-3.7473685e-05
114	0x3ac9238d	0.0015345678
115	0xb9cf89c4	-0.0003958476
116	0xba86ff42	-0.0010299461
117	0xbb2c70ea	-0.002631242
118	0xb97daf44	-0.00024193252
119	0xba322ee7	-0.000679715
120	0xb9cb38da	-0.00038761535
121	0x3a2290ce	0.0006201387
122	0xb9d6179e	-0.00040834857
123	0x3a5c74d8	0.0008409745
124	0xb958edc9	-0.00020687947
125	0xb83c83e3	-4.4945522e-05
126	0x3b1c6c91	0.0023868422
127	0x3a2e65b1	0.00066527264
128	0xba47512d	-0.00076033437
129	0xb7bf3ed1	-2.2798225e-05
130	0x398124fa	0.00024632347
131	0x38be3a49	9.0707625e-05
132	0xb8655ee4	-5.468623e-05
133	0x38a6f6dc	7.961478e-05
134	0x3a4355a4	0.0007451421
135	0x3aab1629	0.0013052869
136	0xbaaab018	-0.0013022451
137	0x37fadecb	2.9906068e-05
138	0x3b4caf62	0.0031232466
139	0xb8294f62	-4.036667e-05
140	0xbaa4c81c	-0.0012571844
141	0x3a5a4b79	0.00083272863
142	0xbaeaee5a	-0.0017923818
143	0xb964ed72	-0.0002183223
144	0xba51756d	-0.0007990215
145	0x3a2aa5de	0.00065097015
146	0x3944a4db	0.0001875343
147	0x3927f658	0.00016018131
148	0x38c7d786	9.529204e-05
149	0x4089aa32	4.302026
150	0xba3bd34e	-0.0007164971
151	0xbaca0fd9	-0.00154161
152	0x392adb9d	0.00016294276
153	0xba233fc0	-0.0006227456
154	0x3a2261b5	0.0006194369
155	0x36987f60	4.5447814e-06
156	0xba71a6de	-0.00092182856
157	0x3a854add	0.0010169406
158	0x39e66321	0.00043942875
159	0xba40f7b7	-0.0007361131
160	0xba87e718	-0.0010368554
161	0x3a8adf3e	0.0010595096
162	0x3aa33b8a	0.0012453657
163	0xbb4ef2db	-0.0031577859
164	0xba5b8cd2	-0.0008375171
165	0x3a2aa951	0.00065102155
166	0x3ac6d510	0.0015169699
167	0x3b0caf44	0.002146677
168	0xc085a91a	-4.1768923
169	0x38eacac9	0.00011195761
170	0xb790f0d7	-1.7278287e-05
171	0xba1cf2f2	-0.00059871294
172	0x3a36301c	0.0006949918
173	0xba1955d4	-0.0005849276
174	0xba2b9e19	-0.0006546691
175	0x3b1846d5	0.0023235579
176	0x3abe8ae0	0.0014537238
177	0xba7c3fc0	-0.00096225366
178	0xbaa391be	-0.0012479348
179	0x38a0c70d	7.6664706e-05
180	0xba280d8c	-0.000641071
181	0x407da458	3.9631557
182	0x3a1d14d9	0.0005992181
183	0x361fd48a	2.381656e-06
184	0x398d7a68	0.00026984815
185	0x39c733c4	0.00037994806
186	0x3acfa7fe	0.0015842912
187	0xba43b6d4	-0.0007465903
188	0xba231c56	-0.0006222179
189	0x39ab2a24	0.0003264706
190	0xba8b5a70	-0.0010631811
191	0x3af25c68	0.0018490674
192	0x3ab5b75e	0.0013863852
193	0x3a9b2177	0.0011835535
194	0x3a8c4ac5	0.0010703435
195	0xba908c3e	-0.0011028124
196	0x39ad884c	0.0003309868
197	0xb98d7903	-0.00026983776
198	0xb9ce57fb	-0.00039356932
199	0xbaa1b94e	-0.001233855
200	0xba72863b	-0.0009251569
201	0xba6f3b36	-0.00091259496
202	0xbaaa6f58	-0.0013003154
203	0x3a901001	0.0010991098
204	0x3ac5bab4	0.0015085549
205	0xba8a4dfc	-0.0010551806
206	0xba8cf1c8	-0.0010753209
207	0x3fd10963	1.633099
208	0xb8d4fec5	-0.00010156402
209	0x3a82512c	0.0009942404
210	0xb9e4933d	-0.0004359725
211	0xbae240b4	-0.0017261715
212	0xba58c3b5	-0.0008268909
213	0x3b127eb2	0.0022353348
214	0xb7c9484d	-2.3994735e-05
215	0xb8d2233e	-0.00010020145
216	0xba407e55	-0.00073430437
217	0x3a38b65d	0.0007046217
218	0xba111abc	-0.0005535295
219	0xb9c2f944	-0.0003718828
220	0x38b81206	8.777161e-05
221	0xba2348fc	-0.0006228832
222	0x3b0dfb36	0.0021664626
223	0xb9af91c6	-0.0003348721
224	0x3a8c7194	0.0010715001
225	0x3b03b3dc	0.0020096218
226	0x3b417617	0.002951985
227	0x39d968ac	0.00041467452
228	0xba9390c7	-0.0011258357
229	0xb8f09b39	-0.00011473004
230	0xb950dfb0	-0.00019919756
231	0xb981a1fd	-0.00024725488
232	0x38d31a33	0.00010066144
233	0x3a9624d1	0.0011455064
234	0x3abb298f	0.0014279353
235	0x38e25893	0.00010793018
236	0xb9f3dbf5	-0.00046512453
237	0xb9ad113b	-0.0003300997
238	0xb985f11e	-0.00025547383
239	0x3abc32f0	0.0014358442
240	0x3af6fe5c	0.0018844116
241	0x393d2f54	0.00018042076
242	0x393931c6	0.00017661517
243	0xba2a06fe	-0.0006486027
244	0xb9b0868d	-0.00033669584
245	0xb9a6628b	-0.00031735408
246	0xbb4235d1	-0.0029634128
247	0x3a9c39e1	0.0011919105
248	0xba184f27	-0.00058101345
249	0x39d7db2c	0.0004117129
250	0xc09c5450	-4.885292
251	0x3961e174	0.0002154166
252	0x3a7b4c32	0.0009586244
253	0xba80442a	-0.000978594
254	0xbb0515bd	-0.0020307146
255	0x39f7b48e	0.00047246035

weight f4 [2, 128]
0	0x38f90344	0.000118738535
1	0x3a00317d	0.0004890187
2	0x3a8086e2	0.0009805823
3	0xb92ca4e2	-0.00016464622
4	0x3aa3950e	0.0012480335
5	0x3aa3481a	0.0012457401
6	0x3a12115a	0.00055720436
7	0x3a3acd00	0.00071258843
8	0x3a400f3e	0.000732649
9	0xb924ccb0	-0.00015716511
10	0x3dd0ecfc	0.10201451
11	0x390206c6	0.0001240029
12	0x3a0a2852	0.00052702904
13	0x3e2bffa5	0.1679674
14	0x3a861533	0.0010229707
15	0x3a52b943	0.00080384704
16	0xbce155fb	-0.027506819
17	0x3a87ff99	0.0010375857
18	0x3a902e6d	0.0011000164
19	0x3a3ae770	0.0007129824
20	0x3d046bc6	0.032329343
21	0xbd90ae77	-0.070645265
22	0x3a129839	0.0005592141
23	0xbf21871f	-0.63096803
24	0x3ab93556	0.0014130275
25	0x3a6c42d1	0.0009012642
26	0x3b320849	0.0027165583
27	0x3ce1a10b	0.027542612
28	0x3a8c7543	0.0010716099
29	0xb994598c	-0.00028295477
30	0xbc3566b6	-0.0110718515
31	0xbd7da401	-0.061923984
32	0x39a79601	0.00031964484
33	0x3ea3c314	0.3198477
34	0x3c530fd2	0.01288219
35	0x3b2369e8	0.0024934951
36	0x391d0b62	0.00014976927
37	0x3a761d06	0.000938848
38	0x3aa94b31	0.0012916086
39	0x3ac84184	0.0015278314
40	0x3e266bb0	0.16252017
41	0x38f74c0c	0.00011792043
42	0x39c27286	0.0003708789
43	0x3a793aed	0.0009507377
44	0xba08ea29	-0.0005222881
45	0x3d833cef	0.064081065
46	0x399ce051	0.00029921767
47	0x3a7699c9	0.0009407071
48	0x3989dc6f	0.00026294912
49	0xbdbfe381	-0.09369565
50	0x39e0ae28	0.00042854366
51	0xbc1160d6	-0.008873185
52	0xbcbc16a9	-0.022960024
53	0x399ae4b5	0.0002954357
54	0x3a9d3354	0.0011993446
55	0xb929600b	-0.00016152875
56	0xbc80926c	-0.01569482
57	0x3aa070d8	0.0012240661
58	0x390b8bc5	0.00013308141
59	0x3bbf9378	0.005846437
60	0xbb704986	-0.0036664917
61	0x3bbcf9de	0.005767091
62	0x39ad5ce5	0.00033066343
63	0x3a49d545	0.0007699321
64	0x3aa3a262	0.0012484307
65	0x391e487f	0.00015095061
66	0x3a0c27e2	0.0005346519
67	0x3c8c2df6	0.01711176
68	0x3a8deb8f	0.0010827648
69	0xba3000fe	-0.0006714015
70	0x3d3f5791	0.04671437
71	0xb937835c	-0.00017501175
72	0x3a751cab	0.000935028
73	0x394ad146	0.00019342182
74	0x3a864124	0.0010242802
75	0x3a81cd1f	0.000990305
76	0xbe79c0ca	-0.2438995
77	0x3d8b99b1	0.06816424
78	0x399ff617	0.00030510194
79	0x3b008d23	0.0019615374
80	0x38cb5b82	9.696839e-05
81	0x37f958eb	2.9724519e-05
82	0x3e4c0d0b	0.1992685
83	0xba5ed018	-0.00084996363
84	0x3a73699c	0.00092854514
85	0x39709078	0.00022942002
86	0x3ad256e9	0.001604763
87	0x3a7bb383	0.00096016395
88	0x39c26eb5	0.00037085047
89	0x3a6101c8	0.0008583334
90	0x3a1f9d5d	0.00060888176
91	0x3a5f51e4	0.00085189776
92	0x3e27ea2a	0.1639792
93	0x3a6d7a3c	0.0009059047
94	0x3aacbdd3	0.0013179131
95	0x39ab3a77	0.0003265922
96	0x3a1d49bf	0.0006000064
97	0x398a0f39	0.00026332753
98	0x3caf8e57	0.021430178
99	0xbab2f736	-0.0013653997
100	0x39c9e61f	0.0003850916
101	0x3966bd6e	0.00022005077
102	0x39d4e5c9	0.00040606994
103	0xbd90fff4	-0.07080069
104	0x3986ef5c	0.00025736808
105	0xb8f3f552	-0.000116328374
106	0x3a8237ed	0.000993488
107	0xbe666df6	-0.22502884
108	0x3a65e60d	0.0008769937
109	0x3a0121a0	0.000492597
110	0xb8d4bb0f	-0.0001014379
111	0xbae6b648	-0.0017601931
112	0x3a912b05	0.0011075443
113	0x39eb3dd2	0.00044868753
114	0x395813d9	0.00020606759
115	0x398724df	0.00025776678
116	0xbaa72b36	-0.0012753967
117	0x38fcd6b1	0.00012056286
118	0xbe8697f5	-0.2628781
119	0x3a81c865	0.0009901641
120	0x392e8112	0.00016642016
121	0xbe8412bb	-0.2579554
122	0x395a5b84	0.00020824192
123	0x3aabfd25	0.0013121708
124	0x37d973fe	2.5922429e-05
125	0x396e6a19	0.00022736973
126	0x3be59b04	0.0070070047
127	0x39851e7a	0.00025390444
128	0x3a8d3b9e	0.0010775214
129	0x3a3e9650	0.0007270323
130	0x3a946dcf	0.0011324229
131	0x3a91f4ad	0.0011135541
132	0x3a657bb6	0.0008754091
133	0x3a5a8ec3	0.0008337313
134	0xb9d6c5fa	-0.00040964765
135	0x3a02c014	0.00049877283
136	0x39c27c69	0.00037095256
137	0x3a8f0201	0.0010910631
138	0xbbc88f97	-0.006120633
139	0x3aabd11b	0.0013108583
140	0x3a964269	0.0011463884
141	0x3d0a4309	0.033755336
142	0x3a9a74dd	0.0011784096
143	0x3e57e95b	0.21085112
144	0x3a65f38a	0.0008771947
145	0x3a85d931	0.0010211823
146	0x3a29933d	0.00064687786
147	0x3a77d7d1	0.00094544614
148	0x3c84029c	0.016114525
149	0x3d2488d8	0.040169567
150	0x3a8dcca5	0.0010818435
151	0xbd1ae29a	-0.03781376
152	0x39edf2a0	0.00045384932
153	0x39ec3917	0.00045055963
154	0x3ab52277	0.0013819475
155	0x3aeca15e	0.0018053462
156	0x3ab39cd2	0.0013703352
157	0x3b0b8345	0.002128796
158	0x3c65806b	0.014007668
159	0x3de564d6	0.112008736
160	0x3aae49df	0.0013297162
161	0xb9f3feea	-0.00046538498
162	0xbe49fef6	-0.19726166
163	0x3b22b105	0.002482475
164	0x365db961	3.303947e-06
165	0x3a4f6cfc	0.0007912663
166	0x39cf24fa	0.00039509666
167	0x3a3ffb09	0.0007323479
168	0xbd622474	-0.055210546
169	0x3a6fc86b	0.0009146991
170	0x3aba91d7	0.0014234137
171	0x3e5496d0	0.20760655
172	0x3acfeba9	0.0015863079
173	0xbd051d5b	-0.0324987
174	0x3a28d791	0.00064408133
175	0x3a80d068	0.0009827735
176	0x3ad8482f	0.0016501005
177	0xbe0e7d2e	-0.1391494
178	0x3a8aeebe	0.0010599715
179	0x3d665cb6	0.05624076
180	0x3e79e790	0.2440474
181	0x3a6c8ab6	0.0009023355
182	0x399b40e5	0.00029612254
183	0x3ad14316	0.0015965428
184	0xb8c213c0	-9.2543196e-05
185	0xb942f3f2	-0.00018592158
186	0x3aa4a720	0.0012562014
187	0xbd6503f5	-0.055911977
188	0x39a8fa42	0.00032229914
189	0xbceffa54	-0.02929417
190	0x3ab11910	0.0013511498
191	0x3abee9f6	0.0014565575
192	0x3a5db995	0.0008458135
193	0x3a52fb2d	0.00080482924
194	0x3aa20394	0.0012360686
195	0x3ae25a0d	0.0017269269
196	0x3a784d5b	0.0009471976
197	0x3c284bec	0.010272007
198	0xbd997234	-0.07492486
199	0x3aa8f491	0.0012890269
200	0x3aab1d0c	0.0013054921
201	0x3a61129b	0.0008585841
202	0x3a023dec	0.00049683335
203	0x3a849c7a	0.0010117434
204	0xbe7de297	-0.24793468
205	0x39565218	0.00020439213
206	0xbabf531b	-0.0014596911
207	0xbcd38dda	-0.025824476
208	0x3a6d915f	0.00090624945
209	0x3a5b3538	0.0008362117
210	0x3ac41c55	0.0014962057
211	0xbc34de69	-0.011039355
212	0x3a8eccf1	0.0010894818
213	0x3ad3ddd5	0.0016164134
214	0x3ace6f5c	0.001574974
215	0x3a60d914	0.0008577269
216	0x3a86d6ea	0.0010287438
217	0x3a975044	0.0011544307
218	0x3ab6de76	0.0013951797
219	0x3ad969ef	0.0016587357
220	0xbe640fba	-0.22271624
221	0x3f0a0a4b	0.53921956
222	0x3acbd0aa	0.0015549858
223	0x3a01c7a5	0.0004950709
224	0x3a418cfb	0.00073833734
225	0x3aa12e05	0.001229704
226	0x39ef5681	0.00045650083
227	0xbdd1aacf	-0.10237657
228	0x3ae58501	0.0017510952
229	0xbba1862b	-0.004929324
230	0x3a4fd04f	0.0007927464
231	0x3ccef8ca	0.025265116
232	0x3a4479c2	0.000749495
233	0x3a8292b1	0.000996193
234	0x3ab4653f	0.0013763084
235	0xbcd2903a	-0.025703538
236	0x3a4919af	0.00076713687
237	0x3ad7b9e9	0.0016458604
238	0x3a991260	0.001167845
239	0xb99e6ac6	-0.0003021566
240	0x3a4b0357	0.0007744333
241	0x3c8a17a8	0.016856983
242	0x3a5d88ee	0.0008450885
243	0x3a43786f	0.00074566057
244	0xba81e289	-0.0009909432
245	0x39bf8583	0.00036529833
246	0xbc8fd49a	-0.017557431
247	0x3a15b3fc	0.00057107187
248	0x3a97c129	0.0011577952
249	0xbe351c88	-0.17686665
250	0x3aa30e14	0.0012440109
251	0x3ab55405	0.0013834244
252	0x3a67eb6d	0.0008847032
253	0x3ab0f8c3	0.0013501871
254	0x3ba1d1cd	0.0049383403
255	0x3aa04a59	0.0012229189

bias f4 [2]
0	0x3dcd2f6e	0.10018812
1	0xbdb2ec8e	-0.087365255

W f4 [128, 128]
0	0x3d3cfef6	0.046141587
1	0xbce54d71	-0.027991029
2	0xbc55b2b4	-0.013043094
3	0xbda9dec9	-0.08294446
4	0x3e0838e2	0.13302949
5	0x3d007473	0.031361055
6	0xbe4b8a10	-0.19876885
7	0xbd5f8dab	-0.054578464
8	0x3db99c13	0.09062972
9	0xbd8b648f	-0.068062894
10	0xbd92399c	-0.07139894
11	0xbb2b744a	-0.0026161843
12	0x3ddecdb0	0.108790755
13	0x3dc5671b	0.096388064
14	0x3d71646b	0.058933657
15	0x3cb2bdb0	0.021818966
16	0xbdc5649e	-0.09638332
17	0xbe009ef9	-0.12560643
18	0xbc9d46e4	-0.019198842
19	0x3ca4942c	0.020090185
20	0xbdadbbca	-0.084830835
21	0x3a9e84b7	0.0012093995
22	0xbd7a84e4	-0.06116189
23	0x3d62747f	0.05528688
24	0xbbaf543d	-0.005350618
25	0xbd15ece6	-0.036602877
26	0x3d80cbe5	0.0628889
27	0x3e3a52e6	0.18195686
28	0xbe090a48	-0.13382828
29	0xbd36676b	-0.04453222
30	0xbcb50cd2	-0.02210084
31	0x3dae208d	0.08502302
32	0xbc402d62	-0.01172957
33	0x3d7ba570	0.06143707
34	0x3dc95450	0.098305345
35	0xbe4a99a9	-0.19785179
36	0x3c2f82fc	0.010712381
37	0xbde497de	-0.11161779
38	0xbb0aa332	-0.00211544
39	0x3d9dfd15	0.07714287
40	0x3d279625	0.040914673
41	0xbc2d7ab3	-0.010588336
42	0x3b7dab73	0.0038706928
43	0x3d43ef45	0.047835607
44	0xbdbecc72	-0.093163386
45	0x3d219d3b	0.039456587
46	0xbb4f2091	-0.0031605104
47	0xbd4a2838	-0.04935476
48	0xbe0b6038	-0.13610923
49	0x3b81c461	0.003960178
50	0xbe402ab7	-0.18766294
51	0xbe036c6d	-0.1283433
52	0xbd004dc7	-0.031324174
53	0x3e3c6d53	0.18401079
54	0x3cb574f0	0.022150487
55	0xbbb59ae7	-0.0055421474
56	0x3df474ae	0.119363174
57	0xbd987a6c	-0.07445225
58	0xbc7a3aaa	-0.015272776
59	0xbdf57081	-0.11984349
60	0xbd5a938f	-0.05336338
61	0xbde73f5a	-0.1129138
62	0x3d2ad771	0.041709367
63	0x3c34bb7c	0.011031028
64	0x3d575ab4	0.052576736
65	0xbdf7298e	-0.12068473
66	0xbc8878a4	-0.016659088
67	0x3cee8182	0.029114489
68	0x3cdc197b	0.026867619
69	0x3dd33d84	0.103144675
70	0x3dc0d438	0.094154775
71	0xbdb78d7b	-0.08962532
72	0xbb02868f	-0.001991663
73	0xbe0b8153	-0.13623552
74	0x3deeab5c	0.11653778
75	0xbcc28160	-0.023743331
76	0x3dfba895	0.12288014
77	0xbe6477bc	-0.223113
78	0x3d4b5012	0.049636908
79	0xbce74e8c	-0.028235696
80	0xbc39b274	-0.01133405
81	0xbbd491e6	-0.006487119
82	0xbd381989	-0.044946227
83	0x3dc122cf	0.09430467
84	0x3d523833	0.051323127
85	0xbdb709f1	-0.08937443
86	0xbd5a43f8	-0.053287476
87	0xbd649056	-0.055801712
88	0xbd4bac28	-0.049724728
89	0x3ce403f4	0.027833916
90	0x3c6defe7	0.014522529
91	0x3cb1c18c	0.021698736
92	0x3d9cf424	0.07663754
93	0xbdedb1c1	-0.116061695
94	0xbe031ac6	-0.12803182
95	0x3ca1f709	0.019771116
96	0x3e093621	0.13399555
97	0xbc0905ca	-0.008363197
98	0xbddcad7b	-0.10775276
99	0x3cf8ded2	0.030379687
100	0xbd8c5cbd	-0.06853626
101	0xbb8e9438	-0.004351165
102	0x3e288200	0.16455841
103	0xbd6172ea	-0.05504123
104	0xbd9c6285	-0.076359786
105	0xbd0df70b	-0.034659427
106	0xbdc420bb	-0.09576555
107	0x3c99b736	0.01876412
108	0xbc366962	-0.011133524
109	0xbdab8f02	-0.08376886
110	0x3e02abb1	0.12760808
111	0x3beb10f0	0.00717365
112	0xbd9b833e	-0.07593392
113	0xbdcc9f89	-0.099913664
114	0x3df9f1be	0.12204312
115	0xbd40b4cd	-0.047047425
116	0xbd13a645	-0.03604724
117	0x3cb6046f	0.022218911
118	0xbcad2a82	-0.021138433
119	0x3d99fe26	0.07519178
120	0x3e05dee1	0.13073303
121	0xbdaf417e	-0.085574135
122	0x3bfad1d5	0.0076544085
123	0x3d59f8be	0.053215735
124	0x3c6e6d35	0.014552404
125	0xbe018991	-0.12650134
126	0xbe0732bc	-0.13202947
127	0x3e05a72f	0.13052057
128	0x3de24890	0.110489964
129	0x3d8a48eb	0.06752189
130	0xbd77a6f2	-0.060461946
131	0xbd2af025	-0.041732926
132	0x3daea55f	0.08527636
133	0x3d9ad0f5	0.07559387
134	0xbdf9d40d	-0.121986486
135	0x3dcd76e0	0.10032439
136	0x3ceac8bb	0.028660169
137	0xbbde91d2	-0.0067922855
138	0xbd7ef915	-0.062249262
139	0xbd3b5867	-0.045738604
140	0xbc16f9e0	-0.009214848
141	0x3d9360bf	0.07196187
142	0x3e301bb6	0.17198071
143	0x3cff7d88	0.031187788
144	0xbe067daf	-0.13133882
145	0xbd1efc93	-0.038815092
146	0x3cebbbdb	0.0287761
147	0x3c21e2fc	0.009880777
148	0xbdffe60e	-0.12495051
149	0xbdb84a59	-0.08998556
150	0x3d4c3fca	0.04986552
151	0x3cec9150	0.028877884
152	0xbc542982	-0.012949349
153	0x3daf4ae7	0.08559208
154	0x3e643b3a	0.22288218
155	0xbd5133da	-0.05107484
156	0x3c667f51	0.0140684405
157	0x3dcabb22	0.09898974
158	0xbc7b6e6a	-0.015346149
159	0xbd59e1e2	-0.053193934
160	0xbd8c1b39	-0.0684113
161	0xbd02f21b	-0.03196917
162	0x3d1b3d1d	0.03790008
163	0x3cf07cab	0.029356321
164	0xbce7444b	-0.028230807
165	0xbe07bc48	-0.13255417
166	0x3e906715	0.28203645
167	0xbdb1c999	-0.0868103
168	0x3d9bd4cb	0.076089464
169	0x3c20d7dd	0.009817091
170	0xbdc1e135	-0.09466783
171	0x3c6b9bc1	0.014380396
172	0xbd4bb5bd	-0.049733866
173	0xbb2a1474	-0.0025952132
174	0xbe1384c6	-0.14406118
175	0x3dc77c08	0.09740454
176	0x3cf6adcf	0.030112175
177	0xbc6d9615	-0.014501114
178	0xbdc1fe53	-0.094723366
179	0xbcb58fae	-0.022163238
180	0xbced2fe4	-0.0289535
181	0xbdd922ea	-0.106023625
182	0xbd6f8395	-0.058475096
183	0xbd07dc77	-0.033169236
184	0xbdcda55a	-0.10041304
185	0x3c159675	0.00913011
186	0x3d60c7d0	0.054878056
187	0xbd4337d8	-0.04766068
188	0xbdbb18e6	-0.091356084
189	0x3da868d8	0.08223122
190	0x3d9bc9e7	0.07606869
191	0x3dbe6afa	0.09297748
192	0x3d268912	0.040658064
193	0x3d84b548	0.06479889
194	0x3d6058a4	0.054772034
195	0x3d5b5ffa	0.053558327
196	0x3e29816a	0.16553274
197	0x3c95c61c	0.018282942
198	0xbddc94ae	-0.10770546
199	0xbd46b880	-0.048515797
200	0xbdb15175	-0.08658115
201	0xbd1b8e19	-0.03797731
202	0x3d9f216d	0.07770047
203	0x3dbb9870	0.091599345
204	0x3d7e7934	0.062127307
205	0xbcef4946	-0.029209744
206	0x3e22745f	0.15864705
207	0xbd79fc52	-0.061031647
208	0xbc8a33c8	-0.016870394
209	0xbe0417f7	-0.12899767
210	0x3d669ca6	0.056301735
211	0x3e29b24b	0.1657192
212	0x3d5e4534	0.054265216
213	0xbd46cc55	-0.04853471
214	0xbd57e6d7	-0.05271038
215	0xbe1ddf5d	-0.15417238
216	0x3d844055	0.06457583
217	0x3e163fc6	0.14672765
218	0xbe0becf7	-0.13664614
219	0x3d8e8b65	0.06960181
220	0xbcb10348	-0.02160801
221	0x3dfc11c0	0.12308073
222	0x3d57acde	0.052655093
223	0xbd076063	-0.033050906
224	0xbe1a6aea	-0.15079847
225	0x3d1960e3	0.037445914
226	0x3db97833	0.09056129
227	0x3e03486c	0.12820596
228	0x3cedfda7	0.029051615
229	0x3e459eff	0.19298933
230	0xbcb6ad3c	-0.022299401
231	0xbd053c57	-0.032528248
232	0x3caca001	0.02107239
233	0xbe02af75	-0.12762244
234	0x3d914155	0.07092539
235	0x3c72d19f	0.014820485
236	0x3e0850db	0.13312094
237	0x3d417e20	0.047239423
238	0x3d08726a	0.03331224
239	0x3d925e80	0.07146931
240	0x3d117305	0.03551008
241	0x3e331d53	0.17491655
242	0x3d1d8436	0.038456164
243	0xbd8698c3	-0.06572106
244	0xbe419b30	-0.18906856
245	0xbcb2f6ba	-0.021846164
246	0xbd27dd4f	-0.04098254
247	0x3cb8ed48	0.022574082
248	0x3dcb21a3	0.09918525
249	0x3dc48f4a	0.09597643
250	0xbe1025a4	-0.14076859
251	0x3d564e0a	0.052320518
252	0x3d5a8e55	0.053358395
253	0xbe1bd11a	-0.15216485
254	0x3e72c6de	0.23708674
255	0xbd1b9325	-0.037982125
