LeakyRNN_11.28/1202/sp_3_128_d10_r7_5/model_37.pth (torch, 137244 bytes, 5 tensors)

weight f4 [128, 128]
0	0x3f2ca5d6	0.67440546
1	0x3e770a36	0.24124989
2	0xbde295ba	-0.11063714
3	0xbf21944b	-0.631169
4	0xbf1c0d38	-0.6095767
5	0xbd561005	-0.05226137
6	0x3e9378a9	0.28802994
7	0xbe75ec48	-0.24015915
8	0x3eeb0887	0.45904943
9	0xbea1985f	-0.31561562
10	0xbdd5117d	-0.10403726
11	0x3e6c6bef	0.23088048
12	0x3e53c9a2	0.20682386
13	0xbdce4381	-0.10071469
14	0x3d81d94c	0.06340274
15	0xbee83115	-0.45349947
16	0xbe2809c6	-0.16409978
17	0xbeff9815	-0.49920717
18	0xbf4e2510	-0.805253
19	0xbf0fc329	-0.56157166
20	0xbe16ec60	-0.14738607
21	0x3d2da633	0.042394828
22	0xbed8b2f0	-0.42324018
23	0xbf89e791	-1.0773793
24	0xbdfbf713	-0.12302985
25	0xbf80a8ac	-1.0051475
26	0x3e00d766	0.12582168
27	0xbeac4990	-0.33649874
28	0xbf39dfac	-0.7260692
29	0xbfccfc15	-1.6014429
30	0xbee2d858	-0.44305682
31	0xbeac523c	-0.3365649
32	0xbe86862d	-0.26274243
33	0x3ddc6be0	0.10762763
34	0xbec27c6b	-0.37985548
35	0xbe8d580f	-0.27606246
36	0x3e1ccdbb	0.15312855
37	0xbe21f79e	-0.15817115
38	0xbe011d67	-0.12608872
39	0xbf5904e6	-0.847731
40	0xbf0b00a8	-0.54297876
41	0x3e164f0d	0.14678593
42	0xbd837725	-0.064192094
43	0x3e65b34e	0.2243168
44	0x3bad2df4	0.005285019
45	0x3dc092b6	0.09402983
46	0xbe81bb83	-0.25338373
47	0xbe2538ea	-0.16134992
48	0xbef99e81	-0.4875374
49	0x3ddccf3a	0.10781713
50	0xbe0c2c53	-0.13688783
51	0x3e9151cb	0.28382716
52	0xbe9bd1a1	-0.30433372
53	0xbec36ac1	-0.38167384
54	0xbf411163	-0.75417155
55	0x3b919790	0.0044431165
56	0x3e21ed8c	0.15813273
57	0xbe8c7860	-0.2743559
58	0xbdbf3c5a	-0.09337683
59	0x3cdc1c96	0.0268691
60	0x3dff85a8	0.12476665
61	0xbf0dfe28	-0.55465937
62	0x3e8edcf0	0.27902937
63	0xbc14f083	-0.009090546
64	0xbf3d0980	-0.7384262
65	0x3f6dfa38	0.9295993
66	0xbf169797	-0.5882506
67	0x3e1945dd	0.14968057
68	0xbeaf6884	-0.34259427
69	0xbea08990	-0.31354952
70	0xbd2f1904	-0.042748466
71	0x3cf74f97	0.030189319
72	0x3f7183e5	0.9434188
73	0x3ef5c684	0.48003018
74	0xbe96fa83	-0.29488
75	0xbead68e3	-0.33869085
76	0xbec17251	-0.3778253
77	0xbe82a973	-0.25519904
78	0xbe6d0ad5	-0.23148663
79	0xbf104b97	-0.5636534
80	0xbf671aa0	-0.90275
81	0xbf3db738	-0.74107695
82	0xbf2b666f	-0.66953176
83	0xbcff72a0	-0.031182587
84	0x3e7ff878	0.24997127
85	0xbea4fef0	-0.32225752
86	0xbffb04b9	-1.9610816
87	0xbec5aff6	-0.3861081
88	0xbe02cf59	-0.1277441
89	0xbe1cea38	-0.15323722
90	0xbe5505b7	-0.20802961
91	0x3e757356	0.23969778
92	0xbf830004	-1.023438
93	0x3e8a9fb0	0.27074957
94	0x3e8feb1c	0.28109062
95	0xbe9f4c07	-0.31112692
96	0x3e0a2f5f	0.13494633
97	0x3e7b629b	0.24549334
98	0x3eee560c	0.46550024
99	0xbe6a67b5	-0.22891124
100	0xbf283e70	-0.6572027
101	0xbea4c987	-0.32185003
102	0xbdbef701	-0.09324456
103	0x3f37e38c	0.71831584
104	0xbe9c6d34	-0.30552065
105	0xbefc51d4	-0.4928118
106	0xbf371a4b	-0.71524495
107	0xbe2f5fa7	-0.17126332
108	0xbe104136	-0.14087376
109	0x3c915cfc	0.017744534
110	0xbeb304e6	-0.34964675
111	0xbe81e600	-0.2537079
112	0xbebceff0	-0.36901808
113	0x3f0f650e	0.5601357
114	0x3e93a4ef	0.28836772
115	0xbee202e3	-0.44142827
116	0x3eaea17e	0.34107584
117	0xbe86a93e	-0.26300997
118	0x3ec33a3c	0.38130367
119	0x3eafd9cd	0.34345856
120	0xbe3152f1	-0.17316796
121	0xbe4a108a	-0.19732872
122	0xbf259c6d	-0.6469181
123	0x3d312ba7	0.04325452
124	0x3e69523c	0.22785276
125	0xbe620e4b	-0.22075765
126	0x3e02bf92	0.12768391
127	0xbeb3725d	-0.3504819
128	0xbdbcf5cf	-0.09226572
129	0x3ea63f9f	0.32470414
130	0xbd8bebaf	-0.068320625
131	0xbf6540f4	-0.89552236
132	0xbfa402a6	-1.2813308
133	0xbf19e062	-0.60108006
134	0x3ef5c7a4	0.48003876
135	0xbf31f68e	-0.6951684
136	0xbf193b22	-0.59855855
137	0xbea953ff	-0.33071896
138	0xbe1f8d92	-0.15581349
139	0x3ed34d4c	0.4126991
140	0x3ba2434f	0.0049518715
141	0xbca41dfa	-0.020033825
142	0xbe41dc77	-0.18931757
143	0x3e185f2c	0.14880055
144	0xbeb4efda	-0.35339242
145	0x3e392dff	0.18083952
146	0xbadb0992	-0.0016711226
147	0xbf923d84	-1.1425023
148	0x3c979ddb	0.018507889
149	0xbf6bd697	-0.92124313
150	0xbe3b4c92	-0.18290928
151	0xbe001afa	-0.1251029
152	0xbedb1aea	-0.4279397
153	0xbe26c179	-0.16284741
154	0x3e5d4b0d	0.21610661
155	0x3db63c4a	0.08898218
156	0xbe9f6d16	-0.31137913
157	0xbc90a980	-0.017658949
158	0x3dc447be	0.09583996
159	0xbf3d1970	-0.7386694
160	0xbe64d821	-0.22348072
161	0x3e61185e	0.21981952
162	0x3e18a22b	0.14905612
163	0xbec76b87	-0.38949224
164	0x3ccb4806	0.024814617
165	0x3f2dfd16	0.67964303
166	0xbe6f523f	-0.23371218
167	0xbfb11008	-1.3833017
168	0xbefedadd	-0.49776354
169	0xbec37645	-0.3817617
170	0x3e61304c	0.2199108
171	0xbf1f8cb6	-0.6232408
172	0x3eef1214	0.4669348
173	0x3e818df5	0.25303617
174	0xbe614b6f	-0.22001432
175	0xbf6754b1	-0.90363604
176	0xbf4dc0da	-0.80372393
177	0xbef454b2	-0.47720867
178	0x3ed8fd2d	0.42380658
179	0x3f8ca0c6	1.0986564
180	0xbe85fd88	-0.26169991
181	0x3f05e01b	0.5229508
182	0x3f3c279a	0.7349793
183	0x3f5dba3e	0.8661231
184	0x3f15fc50	0.58588123
185	0xbecbc67f	-0.39799878
186	0xbf1cf64e	-0.6131333
187	0xbf19f314	-0.6013653
188	0x3e3e0650	0.18557096
189	0xbdef7384	-0.11691955
190	0xbca712ba	-0.020394672
191	0xbee75b01	-0.45186618
192	0x3ed9f4bb	0.42569527
193	0x3dfd040f	0.1235429
194	0xbbe4f20f	-0.0069868634
195	0xbebd5204	-0.36976635
196	0x3e532649	0.20620073
197	0x3ee74617	0.45170662
198	0x3e36e539	0.17860879
199	0xbe07efc1	-0.13275053
200	0xbef663f5	-0.48123136
201	0xbf443fe4	-0.7665999
202	0xbecca5ac	-0.39970148
203	0xbf422513	-0.7583782
204	0xbea4966b	-0.3214601
205	0xbea7ca50	-0.3277154
206	0xbe89b3e9	-0.26895073
207	0x3e9228e8	0.28546834
208	0xbee8922f	-0.4542403
209	0xbd1b70bc	-0.03794931
210	0x3d88a455	0.06671969
211	0xbe98b17a	-0.29822904
212	0x3e668599	0.22511901
213	0x3e170b4d	0.14750405
214	0x3cf0a9f6	0.029377919
215	0xbf2cf7e1	-0.67565733
216	0x3d865075	0.06558315
217	0x3f20d48b	0.62824315
218	0xbea564e2	-0.3230353
219	0xbf09b23d	-0.53787595
220	0xbe497ee0	-0.19677305
221	0x3ddd963b	0.1081967
222	0x3e0dc5d8	0.13845003
223	0xbf29d844	-0.6634562
224	0x3f05d300	0.52275085
225	0xbf7dc486	-0.99127996
226	0x3e0ba1fa	0.13636008
227	0xbeb236a5	-0.34807315
228	0xbf9484ce	-1.1603029
229	0xbde4138f	-0.11136543
230	0xbe890025	-0.26757923
231	0xbe74c2d8	-0.23902452
232	0xbeb0a1d8	-0.34498477
233	0x3e1744e9	0.14772381
234	0xbe9dc447	-0.3081381
235	0xbe5902cb	-0.21192472
236	0xbe548922	-0.20755437
237	0xbe7de109	-0.24792875
238	0xbd2027f9	-0.03910062
239	0xbcae3c6f	-0.021269051
240	0xbf3dd90e	-0.74159324
241	0x3d59d014	0.053176954
242	0x3dc211df	0.09476065
243	0xbe97a243	-0.29615983
244	0xbddc6a06	-0.1076241
245	0xbea876c2	-0.32903105
246	0xbe22119f	-0.15827034
247	0xbe293683	-0.16524701
248	0xbea777ce	-0.3270859
249	0xbf075106	-0.52858007
250	0x3f1afa8a	0.6053854
251	0xbd7389c9	-0.059457574
252	0xbe6d7cc8	-0.23192132
253	0x3f07d61d	0.53061086
254	0x3e19fa8c	0.15036982
255	0xbf292959	-0.66078717

weight f4 [128, 3]
0	0xbe6c0375	-0.23048194
1	0x3e2e0096	0.16992411
2	0xbe8e4ebe	-0.2779445
3	0xbec23842	-0.37933546
4	0x3dfe4dc2	0.12417175
5	0x3f78d959	0.97206646
6	0xbd953c38	-0.072868764
7	0xbcfdbcb6	-0.030973773
8	0xbd3ec47c	-0.0465741
9	0x3f93b510	1.1539631
10	0x3f99334f	1.1968783
11	0x4094e9ac	4.6535244
12	0x3f3b6f9b	0.7321717
13	0xbf63a55f	-0.8892421
14	0xbf0cbd26	-0.5497612
15	0x3dd91235	0.10599176
16	0xbdebec16	-0.11519639
17	0xbe24b892	-0.16086033
18	0xbd52c9fa	-0.05146215
19	0xbdf701ef	-0.12060916
20	0x3ea23b15	0.316857
21	0xbee679e7	-0.4501488
22	0xbec4f12f	-0.38465258
23	0x3eddba38	0.43306136
24	0xbf9dca7c	-1.2327418
25	0x3fdee912	1.7414877
26	0xbf736107	-0.95069927
27	0xbc4b723e	-0.012417374
28	0xbc1043fb	-0.00880527
29	0xbae9e818	-0.0017845659
30	0xbd00cd40	-0.03144574
31	0xbe0585be	-0.130393
32	0x3c901778	0.017589316
33	0xbe934a73	-0.28767738
34	0x3f1e4161	0.6181851
35	0x406b5c43	3.6775062
36	0x3e308dcc	0.17241591
37	0x3fc7c1b4	1.5605989
38	0xbfbdbc0b	-1.4823011
39	0xbc142a4a	-0.009043286
40	0x3cd3ff9a	0.025878716
41	0x3b312ad3	0.0027033582
42	0xbb745e04	-0.0037287483
43	0x3c37dd89	0.011222252
44	0x3c6833f3	0.014172542
45	0xc0430ec7	-3.047777
46	0x3e6eb556	0.23311362
47	0x404d94b2	3.2122006
48	0xbc8926e0	-0.01674217
49	0xbdbfa0e6	-0.09356861
50	0xbd7eecdd	-0.06223761
51	0x3f860a62	1.0471919
52	0x3fcda9d1	1.6067449
53	0x3e08f5c3	0.13375
54	0xbd5a7a6d	-0.05333941
55	0xbe6ebcd9	-0.23314227
56	0xbf56b973	-0.83876723
57	0x3fc00c61	1.5003778
58	0xc0009e73	-2.009671
59	0x40262420	2.595955
60	0xbdf52628	-0.11970168
61	0xba43b9b8	-0.0007466334
62	0x3cdeb8ca	0.027187724
63	0x3c98823f	0.018616794
64	0xbe55c78d	-0.20876904
65	0xbe281412	-0.16413906
66	0x3e0277e9	0.12741055
67	0xbece7c75	-0.40329328
68	0x3fac4f4d	1.3461701
69	0xc017f840	-2.374527
70	0x3fa379a1	1.2771493
71	0x3face009	1.350587
72	0xbe5ae0b5	-0.21374781
73	0x3d34e5de	0.04416453
74	0x3f2095d2	0.6272861
75	0x3ef71d74	0.48264658
76	0xbf7c0638	-0.9844699
77	0x3b9f1f7b	0.0048560477
78	0x3d072de6	0.033002757
79	0xbd82af21	-0.063810594
80	0xbdef2f99	-0.116790004
81	0x3fa0036e	1.2501047
82	0x3f2721ce	0.65285957
83	0x40c1b58a	6.0534105
84	0x3e1e5edb	0.15465872
85	0xbd183c4d	-0.037166882
86	0x3e168ea2	0.14702848
87	0x3f139225	0.57644874
88	0x3ef3c316	0.47609776
89	0xbe8ee0f7	-0.2790601
90	0xbdc4aa29	-0.09602768
91	0x3d65dda2	0.05611957
92	0x3d2a9957	0.041650143
93	0xbc2ab93d	-0.010420141
94	0xbb55a16b	-0.0032597433
95	0xbc5e3e1f	-0.0135646155
96	0xb9ee66a2	-0.00045471365
97	0x3b0ffbbf	0.002197012
98	0xbb4ea7f3	-0.003153321
99	0x3c14be64	0.009078596
100	0x3d5e3425	0.054248948
101	0x3e1e12f9	0.15436925
102	0x3d007c5f	0.03136861
103	0x3bb5889e	0.0055399677
104	0xbbf550eb	-0.007486453
105	0xbc54710c	-0.012966406
106	0xb96cc232	-0.00022579057
107	0xbb14884f	-0.0022664254
108	0x3e406866	0.18789825
109	0xbd54bb70	-0.051936567
110	0xbe94f98d	-0.29096642
111	0x3f919369	1.1373111
112	0xbfebe814	-1.84302
113	0xbf1e9b9b	-0.61956185
114	0x3b132af9	0.0022456034
115	0x3b9082e5	0.004410135
116	0xba14c24f	-0.0005674706
117	0x3d64c1ec	0.055849
118	0x3fe3083a	1.7736886
119	0x3fe754fd	1.8072811
120	0x401ee1ef	2.48254
121	0xbff12026	-1.8837936
122	0xbf814078	-1.0097799
123	0x3b6ed739	0.00364442
124	0x3c2494f7	0.010045282
125	0x3cd5e447	0.026109828
126	0x3f14409d	0.5791109
127	0x3efb16cf	0.4904084
128	0xbf02ea7e	-0.51139057
129	0xbdd3b9dc	-0.10338184
130	0xbe14fbbc	-0.14549154
131	0x3cb16538	0.02165471
132	0xbdff4696	-0.12464635
133	0x3ed47cbb	0.41501412
134	0xbf4d28d9	-0.80140454
135	0x3f569692	0.838235
136	0x40256615	2.5843556
137	0xbe83bd82	-0.2573052
138	0x4010f746	2.2650924
139	0x3fac2df0	1.3451519
140	0x3ec3ebb7	0.38265774
141	0xbf8e4a50	-1.1116428
142	0xbea205cc	-0.31645048
143	0x3e01825e	0.12647387
144	0xbef464c7	-0.47733137
145	0xbea4d1f9	-0.32191446
146	0xbf359eb8	-0.7094531
147	0x3b011c2c	0.001970063
148	0xbd7fd6fb	-0.06246088
149	0xbca1db8d	-0.01975801
150	0x3dcf8656	0.101330444
151	0x3f0792c6	0.52958333
152	0xbdde36ff	-0.108503334
153	0x3e9f5dc5	0.31126228
154	0x3e80d5f1	0.25163224
155	0xbf80a5bf	-1.0050582
156	0xbc8e91be	-0.01740348
157	0x3c88d80e	0.016704585
158	0xbad5535f	-0.0016275457
159	0x3f82937b	1.0201257
160	0x3fc8e31a	1.5694306
161	0x3f1f1247	0.62137264
162	0xbd89e197	-0.06732481
163	0xbf2fc99f	-0.68667024
164	0xbe844091	-0.2583051
165	0xbf313c85	-0.6923297
166	0xbf2ae8be	-0.66761386
167	0x401d25f5	2.4554417
168	0xbca98548	-0.020693436
169	0x3ce7b0c7	0.028282536
170	0xbd145237	-0.03621122
171	0xbbe91ad3	-0.0071137934
172	0x3bc9282e	0.006138823
173	0xbb7190e9	-0.0036860055
174	0xbd1e1010	-0.038589537
175	0xbcfee422	-0.031114642
176	0x3bb0e2bd	0.005398123
177	0xbdaa8f0b	-0.083280645
178	0xbd4fd378	-0.05073878
179	0x3c470f4c	0.012149643
180	0xbf92bb2b	-1.1463369
181	0x3fbbddbb	1.4677042
182	0x3f3cc416	0.73736703
183	0x3e029c5d	0.1275496
184	0xbea69973	-0.32538947
185	0x3e570cbb	0.2100095
186	0xbe70a22c	-0.23499364
187	0xbdd21e48	-0.10259682
188	0x4048b550	3.1360664
189	0xbec56c00	-0.3855896
190	0xbfa6c5e1	-1.3029138
191	0xbe9d8d74	-0.30771983
192	0x3eba2721	0.36357978
193	0xbf8ebc20	-1.1151161
194	0x3e1e0fe8	0.15435755
195	0xbfa399f1	-1.2781354
196	0xbfb57475	-1.4176165
197	0xc051e2dd	-3.2794716
198	0x3edb3ede	0.428214
199	0x3d7fa0b2	0.06240911
200	0x409455fc	4.635496
201	0xbf1c702c	-0.6110866
202	0x3fa6e037	1.3037175
203	0xbe8400bc	-0.2578181
204	0x3bb85b73	0.005626136
205	0xbd1b6a68	-0.037943274
206	0xbcb434c4	-0.021997817
207	0x3ec3b4e5	0.3822395
208	0xbe3a6f73	-0.18206577
209	0xbeaebc88	-0.34128213
210	0xbfe4fd0d	-1.7889725
211	0x3f99058a	1.1954815
212	0x3eac6e85	0.3367807
213	0x3d299cf5	0.04140945
214	0x3d80dcbd	0.062921025
215	0xbce69122	-0.028145377
216	0x3dcde373	0.10053148
217	0xbeff17d4	-0.49822867
218	0x3d2bc86a	0.041939177
219	0xbf1967d7	-0.5992407
220	0xbefe2ffc	-0.49645984
221	0x3dcec841	0.10096789
222	0xbb5d2998	-0.0033746716
223	0xbbedc76c	-0.007256439
224	0xbb556170	-0.0032559298
225	0xbd9ba3e8	-0.07599622
226	0x3dd98833	0.10621681
227	0xbed8dcbd	-0.4235591
228	0x3fa5eef8	1.2963552
229	0xbecab0b7	-0.39587948
230	0x3fe63771	1.7985669
231	0xbf829438	-1.0201483
232	0x3ef2e08b	0.47436938
233	0x3e789a4f	0.24277614
234	0xbf91c3cd	-1.1387879
235	0x3fa0dbc1	1.2567064
236	0xbeb014d3	-0.34390888
237	0xbdbb423d	-0.09143493
238	0x3de57cef	0.1120547
239	0x3e0c373e	0.13692948
240	0x3e8bc444	0.27298176
241	0xbf956b49	-1.1673366
242	0xbe7a8b6e	-0.2446725
243	0x3e94645f	0.28982827
244	0xbe06c9ab	-0.13162868
245	0x3ec5aa25	0.38606372
246	0x3f19f8c2	0.601452
247	0x3f3b3571	0.7312842
248	0xbecba729	-0.3977597
249	0x3e0d4f7e	0.13799855
250	0xbdeff352	-0.117163315
251	0x3f8cc325	1.0997053
252	0xbf427b87	-0.7596974
253	0x3f88ffb0	1.070303
254	0xbecec1cc	-0.4038223
255	0x3f9fa404	1.2471929

weight f4 [2, 128]
0	0x3dc496ee	0.095991
1	0xbe8c2df5	-0.27378812
2	0x3c743283	0.014904621
3	0xbbc9bcd6	-0.006156544
4	0xbb711b7d	-0.0036790066
5	0x3da5b039	0.080902524
6	0x3eeaa523	0.45829114
7	0xbe89c3c6	-0.26907176
8	0xbe3a6a17	-0.18204533
9	0xbccfbb8a	-0.02535798
10	0x3d94c091	0.072632916
11	0xbdd7bb9b	-0.1053383
12	0x3daa0717	0.083021335
13	0xbc3d5a1e	-0.01155713
14	0x3d05371d	0.032523263
15	0xbe8831a0	-0.2660036
16	0xbe80a0e9	-0.25122765
17	0x3e797580	0.24361229
18	0xbb90044d	-0.004395044
19	0x3e2e0b9b	0.16996615
20	0x3ec2fdbf	0.38084218
21	0xbd8c48a7	-0.06849795
22	0xbd973142	-0.07382442
23	0x3dad45be	0.08460568
24	0x3e3e4a1f	0.18582962
25	0xbdffb96e	-0.1248654
26	0x3ddac888	0.106827796
27	0x3e49cdb7	0.1970738
28	0x3defe697	0.117139034
29	0xbcdf547f	-0.02726197
30	0xbbfad769	-0.0076550734
31	0x3d2bd252	0.041948624
32	0xbd0116e5	-0.031515975
33	0x3eddedf2	0.433456
34	0x3d528b89	0.051402602
35	0x3a0015c8	0.0004886058
36	0xbf01de01	-0.50729376
37	0x3c68c685	0.014207487
38	0xbca5de0e	-0.020247485
39	0x3e843d7a	0.25828153
40	0xbd628bc6	-0.05530908
41	0x3ea8c7c6	0.32964915
42	0x3d906353	0.070501946
43	0x3c993989	0.018704193
44	0xbd24ab2a	-0.040202297
45	0xbdda11de	-0.10647939
46	0x3c8502ca	0.016236681
47	0x3d8c9e5e	0.06866144
48	0xbe1416ed	-0.1446187
49	0xbcdb51cc	-0.026772402
50	0xbea6af0e	-0.3255543
51	0x3da34ce5	0.07973651
52	0x3bcc678c	0.0062379297
53	0xbdbcd429	-0.09220154
54	0xbc9ce9eb	-0.01915451
55	0x3f08a96f	0.53383535
56	0x3c0153ba	0.007893497
57	0xbd000b04	-0.031260505
58	0x3eae8150	0.34083033
59	0xbda2b31b	-0.07944318
60	0x3e44b996	0.1921142
61	0xba978c55	-0.0011562208
62	0x3e83cf21	0.25743964
63	0xbcb35338	-0.021890268
64	0x3c37fafc	0.011229273
65	0x3daf6412	0.08564009
66	0xbe818bc7	-0.25301954
67	0x3dca4862	0.09877087
68	0xbe234ffc	-0.1594848
69	0x3ebc64d7	0.36795685
70	0x3d1919dd	0.03737818
71	0x3ed14758	0.40874743
72	0xbe6aa574	-0.22914678
73	0x3ebc8d17	0.36826393
74	0xbd07208d	-0.032990027
75	0xbea0bb25	-0.3139278
76	0x3df7f02b	0.12106355
77	0xbd903150	-0.070406556
78	0xbd0b2825	-0.03397383
79	0xbe3d5a69	-0.1849152
80	0xbcf659b1	-0.030072065
81	0x3eecbee4	0.46239388
82	0x3ca00881	0.019535305
83	0xbdfb8593	-0.12281337
84	0xbd9050af	-0.07046639
85	0xbdc5a05e	-0.09649728
86	0x3e529004	0.2056275
87	0xbeaafa07	-0.3339388
88	0x3e38d566	0.18050155
89	0x3d9b2393	0.075751446
90	0x3e1a5717	0.15072285
91	0x3e683fa3	0.22680525
92	0xbebe3e2b	-0.37156805
93	0xbe2c4574	-0.1682337
94	0x3db0e14d	0.08636723
95	0x3a743e94	0.0009317186
96	0xbf00c98b	-0.5030753
97	0x3bbda4f4	0.005787486
98	0x3ebf8d2f	0.37412402
99	0xbc93d51c	-0.018045954
100	0xbe50c0fb	-0.20386116
101	0x3d66b236	0.0563223
102	0x3cd17303	0.025567537
103	0x3d72a5e4	0.059240237
104	0xbe45ffd9	-0.1933588
105	0xbd0e43d8	-0.03473267
106	0xbea60894	-0.3242842
107	0xbcdc61b3	-0.026902055
108	0x3c038801	0.008028031
109	0x3b41cfbe	0.0029573287
110	0xbe31114e	-0.17291757
111	0xbc6d791a	-0.014494205
112	0xbeb52b45	-0.35384575
113	0xbc08396a	-0.00831447
114	0xbe543ca1	-0.20726253
115	0xbe80d5b9	-0.25163057
116	0x3d555dda	0.052091457
117	0x3c33652a	0.010949412
118	0xbe23d508	-0.15999234
119	0xbdd57554	-0.10422769
120	0xbe16c5c8	-0.14723885
121	0xbe41d499	-0.18928756
122	0x3e851035	0.25988927
123	0xbe1487c3	-0.14504914
124	0xbccd3d08	-0.025053516
125	0x3f052778	0.5201335
126	0x3d1fbc19	0.038997743
127	0x3e97045f	0.29495522
128	0xbe83e985	-0.257641
129	0xbde45352	-0.111487046
130	0x3e8b88eb	0.27252898
131	0x3e49ea72	0.1971834
132	0xbc94b6da	-0.018153597
133	0xbe157c5f	-0.14598225
134	0x3cd57995	0.026058951
135	0x3e5173e1	0.2045436
136	0x3d4ab1d0	0.04948598
137	0xbb375ece	-0.0027980092
138	0x3dca6080	0.09881687
139	0x3ee18f58	0.44054675
140	0xbd9b15ed	-0.075725414
141	0x3d88e911	0.06685079
142	0x3d4439b5	0.047906596
143	0x3d8c6ad0	0.0685631
144	0xbe4a10e9	-0.19733013
145	0x3bf957e2	0.0076093534
146	0xbe02a784	-0.12759215
147	0xbea6bda3	-0.32566556
148	0x3d754041	0.05987573
149	0xbe2de40c	-0.16981524
150	0xbe8b7963	-0.27241048
151	0xbdfea2d8	-0.12433404
152	0xbe332e3b	-0.17498104
153	0xbab2c32b	-0.0013638487
154	0xbf199563	-0.5999357
155	0xbe5a2f32	-0.21307066
156	0xbec20811	-0.3789678
157	0x3e2d7285	0.16938217
158	0xbec76733	-0.38945922
159	0xbd90a6ff	-0.07063102
160	0x3d29f113	0.041489672
161	0xbda92339	-0.08258671
162	0x3c337550	0.010953262
163	0xbc59bdf6	-0.013289919
164	0x3d0789a9	0.033090267
165	0x3dcd5433	0.10025825
166	0x3cf145a3	0.02945215
167	0x3d592261	0.053011302
168	0xbcf3b9fa	-0.029751766
169	0xbc41be9b	-0.011825229
170	0x3daf7fab	0.085692726
171	0x3e3dbacc	0.18528289
172	0x3dfb76d0	0.12278521
173	0xbd0ae77b	-0.033912163
174	0x3c00c374	0.0078591
175	0x3d7eb351	0.06218273
176	0x3d4b373f	0.049613234
177	0x3abe1242	0.0014501291
178	0x3d908bfa	0.070579484
179	0x3e381041	0.1797495
180	0xbb5240d6	-0.0032082102
181	0x3db3adfd	0.0877342
182	0x3dfd1948	0.12358338
183	0x3e8e367a	0.27775937
184	0x3cb34f03	0.021888262
185	0x3d4e0ef1	0.050307218
186	0x3de0c958	0.10975903
187	0xbb5033ad	-0.0031769082
188	0x3a437ea0	0.0007457528
189	0x3de3c78e	0.111220464
190	0xbe510752	-0.20412949
191	0x3e784df4	0.24248487
192	0xbe1a271e	-0.15053985
193	0xbe1a1448	-0.15046799
194	0xbe80fe8e	-0.2519421
195	0xbe24c1c9	-0.16089548
196	0xbd0b90ce	-0.034073643
197	0x3de5c454	0.11219087
198	0xbd96618d	-0.07342825
199	0xbeed4b5c	-0.46346557
200	0x3df6068e	0.12012969
201	0x3e07e871	0.13272263
202	0x3d298bb5	0.041393
203	0xbe63c082	-0.22241405
204	0x3e3f1757	0.18661247
205	0xbcc5fdd5	-0.024168888
206	0xbe0de57c	-0.13857073
207	0x3e79f0a3	0.24408202
208	0xbd34b6ee	-0.044119768
209	0xbd356201	-0.044282917
210	0xbe064927	-0.13113843
211	0xbf36bba6	-0.7138008
212	0x3da1789f	0.07884335
213	0xbe0e29bb	-0.13883106
214	0x3cb719b9	0.022351133
215	0x3f2b011a	0.66798556
216	0x3dc11133	0.094271086
217	0xbd660687	-0.05615857
218	0xbd1bf447	-0.038074758
219	0x3e8c7e51	0.27440122
220	0x3e24b8e1	0.1608615
221	0x3e4320f4	0.1905554
222	0xbdc95e9b	-0.09832498
223	0x3bd2ffbd	0.006439178
224	0xbf02d4b5	-0.51105815
225	0x3ea4089c	0.32037818
226	0x3d9e0ff5	0.07717887
227	0x3d22bf21	0.039733056
228	0x3e0e6fc8	0.13909829
229	0x3dbca7fb	0.09211727
230	0x3d144f20	0.036208272
231	0x3e553cae	0.20823929
232	0xbca72de3	-0.020407623
233	0x3daa8fea	0.08328231
234	0xbe7824d6	-0.24232802
235	0x3d32e620	0.043676496
236	0x3dd0e636	0.10200159
237	0x3d64b7a0	0.05583918
238	0xbe8b5679	-0.2721441
239	0x3d11f452	0.035633393
240	0x3e0a26ab	0.13491313
241	0x3dd4db37	0.103933744
242	0x3e864576	0.2622487
243	0x3e022bba	0.12711993
244	0x3e4cecf1	0.20012261
245	0x3d8b1ba8	0.067923844
246	0x3e03f4c6	0.12886342
247	0x3db2a691	0.08723176
248	0xbe30ef85	-0.1727887
249	0xbdbc0bb2	-0.09181918
250	0x3d288447	0.041141775
251	0x3d094065	0.033508677
252	0x3dc9b074	0.09848109
253	0xbdd4f7c8	-0.10398823
254	0x3c5ddd91	0.013541595
255	0x3dbd2437	0.09235423

bias f4 [2]
0	0xbbc4afa5	-0.006002384
1	0x3c0ffbc9	0.008788058

W f4 [128, 128]
0	0xbc436ac4	-0.01192731
1	0x3e1a77b5	0.15084727
2	0x3d39ee6e	0.0453934
3	0x3d53db95	0.05172308
4	0x3e519033	0.20465164
5	0x3caa479e	0.020786103
6	0x3d6875d3	0.05675299
7	0xbe218d7f	-0.15776633
8	0x3d058ec7	0.032606866
9	0xbdf48dae	-0.11941086
10	0xbbd121ac	-0.006382188
11	0x3c999900	0.018749714
12	0xbd91577b	-0.07096764
13	0x3bbf2ec1	0.005834431
14	0x3d62d911	0.055382792
15	0x3d4585f8	0.048223466
16	0xbc3e24d5	-0.011605461
17	0x3ce3dd48	0.027815476
18	0x3d3abf79	0.04559276
19	0x3e599684	0.21248823
20	0xbdd9d884	-0.10637
21	0xbca98c6d	-0.020696843
22	0xbda5fe0f	-0.081050985
23	0x3d562282	0.052279003
24	0xbc7a9a4c	-0.015295576
25	0xbe100110	-0.14062905
26	0x3ddefc25	0.108879365
27	0xbd86e923	-0.06587436
28	0xbda5b8aa	-0.080918625
29	0xbb23d546	-0.0024998947
30	0x3d9cd9c4	0.07658723
31	0xbe6ce685	-0.23134811
32	0x3da44959	0.080218025
33	0x3d761995	0.06008299
34	0xbdf35a42	-0.1188245
35	0xbd0230e3	-0.031784903
36	0xbd4b3aa5	-0.049616475
37	0x3e72bcbb	0.23704807
38	0x3d4c73ca	0.049915113
39	0x3d1e4c41	0.03864694
40	0x3bed6985	0.007245245
41	0x3cdad765	0.026714036
42	0xbdaa1409	-0.08304603
43	0xbca5390b	-0.020168802
44	0x3d90fa26	0.07078962
45	0x3e387b8e	0.18015882
46	0xbd83beb6	-0.064328596
47	0x3ad6cf2c	0.0016388646
48	0x3c5cd8a9	0.01347939
49	0xbd1782b8	-0.036989897
50	0x3cb00595	0.021487037
51	0x3e04f934	0.12985688
52	0xbd989bd7	-0.07451599
53	0xbd1ca0cd	-0.03823929
54	0xbd173a12	-0.036920615
55	0x3dfa6dff	0.12228011
56	0xbcae972b	-0.021312317
57	0x3dd74ea1	0.10513044
58	0xbdbac735	-0.09120027
59	0xbd75db65	-0.060023684
60	0x3dfbecca	0.12301023
61	0xbd825448	-0.063637316
62	0x3dd0026f	0.10156714
63	0xbc876603	-0.016528135
64	0xbc37cace	-0.011217786
65	0x3e1341c7	0.14380561
66	0xbce5a5a6	-0.028033089
67	0xbc542f0f	-0.012950673
68	0xbd819615	-0.06327454
69	0x3d6b6a0a	0.057474174
70	0xbe00ef6e	-0.12591335
71	0xbd2b6a12	-0.041849203
72	0xbcee6c7f	-0.02910447
73	0x3ddd494f	0.10804998
74	0x3d85f7a5	0.06541375
75	0xbdf864e1	-0.12128616
76	0x3e185cc0	0.14879131
77	0x3c8ce98e	0.017201211
78	0x3dd42604	0.103588134
79	0xbdfe8169	-0.12427027
80	0xbd866246	-0.06561713
81	0x3cf58931	0.029972645
82	0x3ddb7b50	0.10716879
83	0xbd981f99	-0.07427902
84	0x3c43fe22	0.011962445
85	0x3d17359e	0.036916368
86	0xbd868817	-0.06568926
87	0xbd271f0a	-0.040801086
88	0xbc18eb46	-0.009333437
89	0x3b9632a7	0.004583675
90	0xbcefaafb	-0.029256335
91	0x3d7c9633	0.06166668
92	0xbe6420ac	-0.22278088
93	0x3da0e4be	0.07856129
94	0x3ce6eb41	0.02818835
95	0xbc57a635	-0.013162185
96	0x3dcd6e29	0.10030777
97	0xbda0751a	-0.07834835
98	0x3d7277df	0.05919635
99	0xbd1bbd7e	-0.03802251
100	0x3dea1dba	0.11431451
101	0x3b23a962	0.0024972786
102	0xbd2538aa	-0.040337242
103	0xbc0d67d6	-0.008630713
104	0xbcdf0754	-0.027225174
105	0x3cba0154	0.022705711
106	0x3dbacfb1	0.09121645
107	0x3e4e0357	0.20118462
108	0x3dd22bb3	0.10262241
109	0xbcba7545	-0.022760997
110	0x3d4c5730	0.049887836
111	0x3c52826c	0.012848478
112	0x3c44781e	0.011991529
113	0xbd8eec4c	-0.06978664
114	0xbdc304d3	-0.095224045
115	0xbd60a7e3	-0.05484761
116	0xbdb1ea96	-0.08687322
117	0x3d2ca193	0.042146277
118	0x3a1336e0	0.0005615782
119	0x3d9f063a	0.077648595
120	0x3d795dec	0.060880587
121	0xbb565e03	-0.0032709844
122	0x3d660efe	0.05616664
123	0x3d526207	0.051363017
124	0x3c5fc974	0.01365887
125	0xbda376c8	-0.0798164
126	0xbd06797a	-0.032830693
127	0x3d946dcb	0.07247504
128	0x3de3e49b	0.111275874
129	0xbbf0ff93	-0.0073546856
130	0x3dbd7932	0.09251632
131	0xbe774d65	-0.24150617
132	0xbd6ae6fb	-0.057349186
133	0xbcdfa754	-0.027301468
134	0xbe3d630a	-0.18494812
135	0xbcb2ff4a	-0.021850247
136	0xbcde05a4	-0.027102299
137	0xbc11993d	-0.0088866325
138	0x3dc273f3	0.09494772
139	0x3dc7263f	0.09724092
140	0xbd5e6923	-0.054299485
141	0x3d35606a	0.0442814
142	0x3d96811f	0.07348847
143	0xbcc09b00	-0.02351141
144	0x3d4b5987	0.049645927
145	0x3d9ce651	0.07661117
146	0xbddd4260	-0.10803676
147	0xbd4cda81	-0.05001307
148	0xbd853430	-0.065040946
149	0x3e8434a5	0.25821415
150	0xbd5f0b07	-0.054453876
151	0x3df9d26a	0.121983364
152	0x3d46f2af	0.048571285
153	0x3cab5a38	0.020917043
154	0x3dd3b165	0.1033657
155	0x3d12a164	0.035798445
156	0xbce8e815	-0.028430978
157	0x3ca84564	0.0205409
158	0xbd0c801e	-0.03430187
159	0x3e3879d4	0.18015224
160	0x3da4d685	0.08048729
161	0x3e249de8	0.16075861
162	0x3de1c8f5	0.11024658
163	0xbd70fb48	-0.05883339
164	0x39cd087c	0.00039106968
165	0x3e52075d	0.20510621
166	0x3db511e4	0.08841303
167	0x3d2fb6c1	0.042898897
168	0xbe0ad526	-0.13557872
169	0x3db668de	0.089067206
170	0x3da26d5b	0.07931014
171	0x3e38e30c	0.18055362
172	0x3e5e521f	0.21711014
173	0x3e308bbb	0.17240803
174	0x3d093049	0.033493314
175	0xbb02d09f	-0.0019960774
176	0xbdcece84	-0.100979835
177	0xbdcdde77	-0.100521974
178	0x3d79f799	0.061027143
179	0x3e610b54	0.21976978
180	0xbe10b36e	-0.14130947
181	0x3d719240	0.058977365
182	0x3db4fa5a	0.08836813
183	0x3e83499d	0.256421
184	0x3dbd315d	0.09237931
185	0xbe7dd836	-0.24789509
186	0x3cc354dc	0.023844175
187	0xbdb22f07	-0.08700376
188	0x3d76f195	0.060288984
189	0xbd66b04f	-0.056320485
190	0xbd82c716	-0.06385629
191	0xbdcb954c	-0.099405855
192	0x3d909442	0.07059528
193	0x3c7aecc4	0.015315238
194	0xbc8bc027	-0.017059399
195	0xba9f2a3f	-0.0012143328
196	0x3df58be1	0.119895704
197	0x3d4fd0ca	0.050736226
198	0xbd42c962	-0.047555335
199	0x3dcec254	0.10095659
200	0xbdab32dd	-0.08359311
201	0xbd430fb8	-0.047622412
202	0xbddf2ecc	-0.10897598
203	0x3dea650f	0.11445057
204	0xbda81e92	-0.08208956
205	0xbd0f51a0	-0.034989953
206	0xbd39b668	-0.04533997
207	0xbd25d04a	-0.040481843
208	0xbcd5a649	-0.026080268
209	0xbd9408b0	-0.072282195
210	0x3db85747	0.09001022
211	0x3c1a6f2f	0.009425922
212	0x3d12cbab	0.035838764
213	0x3d0b11dd	0.033952583
214	0xbc19ccd6	-0.009387216
215	0xbdd0939f	-0.101844065
216	0xbd8e2964	-0.069414884
217	0xbcc60942	-0.024174336
218	0x3be1bdeb	0.006889095
219	0xbd1869ac	-0.03721015
220	0x3c957443	0.018243914
221	0x3ddff51a	0.10935421
222	0x3e2a8d18	0.16655385
223	0xbe2dad9c	-0.16960758
224	0x3cdcbbf2	0.026945088
225	0xbd6f71df	-0.058458205
226	0x3c97a06f	0.018509118
227	0xbd1643b0	-0.036685646
228	0x3e04a7ce	0.12954637
229	0x3dcc8880	0.09986973
230	0xbd106070	-0.03524822
231	0xbc7b8256	-0.015350899
232	0x3dc384d8	0.09546822
233	0x3dfff7ad	0.12498412
234	0x3c9a6ec8	0.018851653
235	0x3d476c55	0.048687298
236	0x3dc0f19b	0.094210826
237	0xbdd24ddb	-0.10268756
238	0x3d4a0d43	0.049329054
239	0x3dffb402	0.12485506
240	0xbd674cf0	-0.056469858
241	0xbe2159fa	-0.1575698
242	0x3cd0e7e5	0.0255012
243	0xbd5dec18	-0.054180235
244	0xbdfbabb4	-0.12288609
245	0xbe198421	-0.1499181
246	0xbccad232	-0.024758432
247	0x3d023c14	0.031795576
248	0x3c02fff8	0.007995598
249	0xbdf147ce	-0.11781274
250	0xbd864842	-0.06556751
251	0xbd41a83d	-0.047279585
252	0x3da44aa9	0.08022053
253	0x3d10b442	0.035328157
254	0x3df14765	0.117811956
255	0xbd89e28c	-0.067326635
