data_1216/1216_1/sp_L1_2_16_d30_r7/model_148.pth (torch, 5980 bytes, 5 tensors)

weight f4 [16, 16]
00000000: f6b4 9d3f 17a3 783f 2d57 3d3d aeb5 6f3f
00000010: 80d7 683f e7db ad3e d20a 71bf 9631 2ebf
00000020: 312d cebf 9f6e 693d aa85 493f a6d8 edbe
00000030: ad54 a13e d7fb b33e 194d ffbd 650f 7fc0
00000040: 233c 263d 68c4 9f3f 5fb7 a1be 5234 41be
00000050: 51d3 38bf 80eb b53e 3bb6 d2bb acb4 1ebe
00000060: 3062 9cbf 8204 933f 332b c9be e837 82be
00000070: 8452 2d3f e24e 25bf 6d02 f3be 2d69 b9bc
00000080: 5413 923e 6a17 d03f e8a8 1c40 69af 3bc0
00000090: 987a 433e f39f 82bf d92f 14bf 4cc9 87be
000000a0: d931 12c0 ce73 353f bc28 2abf 0af9 f4bf
000000b0: aad3 3b3f 1e65 cdbf e406 bebe 5bfd 043f
000000c0: a4bc 77bf 83c2 1340 740e 3f3f 5cd8 833f
000000d0: 8d60 37bf cde3 05be 328f ccbf 1819 18bd
000000e0: 4d49 803e be44 06be 52ad 743e 443e e6be
000000f0: 82e6 84be 92cc d93f f85b 93bd 34d4 4abf
00000100: 1fd2 3dbf 0ac9 2540 11de fbbe e969 e1bd
00000110: 57c1 4a3e 3c23 7abf 28f3 8ebe 6187 243f
00000120: f980 c23e c99a fabf 004f 7bbd d2d3 f23d
00000130: 762d 9d3f 9d36 c9bf f266 9d3e e2a5 debf
00000140: b303 bb3e b397 f13f 4c86 1a3f 9e70 43bf
00000150: 09e0 033f e5a7 ec3f 2211 26bf 8e7f 5bbe
00000160: 96b1 8b3f c637 80bf ce22 93be 9ec9 29bf
00000170: 070a 06bf a806 febf 3df1 4ebf cbc2 96be
00000180: 0784 f33d 06d5 84be 8576 1abe aea5 863d
00000190: eb9d 933e 7f6f 1ebf 33e1 7a3f 3aba 1d3e
000001a0: 630f 57be 9fcc 3cbf c6bb 49bf 75ce 403f
000001b0: 1179 b53e b60f 513e b32f c53e b2c3 e8bd
000001c0: a7ba ee3e 1702 62be 56ca 4bbb acca 513f
000001d0: d4bb 7dbf 3360 dd3e 0663 e3bf 05c2 c63f
000001e0: 6f37 43bf 2d40 063f 2a63 96bc e584 383f
000001f0: 230e 96bc 0639 03bd c2d1 6a3d 9544 6d3f
00000200: dba9 803e b9f8 b53f c3f5 693f 4aac 673f
00000210: 2141 733e 8388 e0bf 7fd8 04bf 4818 3ebe
00000220: 136b 1c3f fd0e 52bd b7c4 8cbf b627 59bf
00000230: d972 63bf a3f7 5b3d ca1e d7bc a53f ec3e
00000240: fbd4 753f 2440 8abf a018 88c0 88b9 c73e
00000250: c575 d3be 6be2 b53e 17eb babc f89e e0bf
00000260: fd5d 283f 47ba 3bbf 3325 90be 5945 c23c
00000270: 72b4 0dbf b9c0 193f 9ff6 7c3f f535 c8be
00000280: 53c1 58bf 4728 edbf 989d 3d3f bea7 b93f
00000290: ebf3 9f3c bde7 db3e 9434 c4be 54df b0bf
000002a0: b727 c53f 3dd4 d1bf 6eb9 94bd 4475 4d3f
000002b0: 917b debe 6aed babe 5072 6e3e 44bf ed3f
000002c0: 88fa 1040 2b33 a93f b41a bd3e 44f1 563f
000002d0: a7c5 183f d91b e83f 2a9b 85bf 2399 64bf
000002e0: ab0a 1bc0 d606 1ec0 e3ac 45be 3eb4 11bd
000002f0: 2e97 88bf 896e ba3f 15d2 36bf 19cb 0a3e
00000300: 91c3 933d 4d7d dc3d 2663 76bf 06fa bd3c
00000310: 9135 b33e 9c9d 17be 87b4 633d fea7 8e3f
00000320: 9dd0 103e 80be 90bf d2b5 f9bf 2ad7 403f
00000330: 70b4 94be ce78 1d3f 6002 22be 6fe9 863e
00000340: 80cc e6bf d9ec 973f 4235 593f e0c8 823e
00000350: 38e5 883f 0a40 75be a8c5 00bf 11de 5dbe
00000360: 0279 b63f d451 2e3e e19e 92bc 7aed 26c0
00000370: 48e5 a23d e1ec 9d3f 5f74 02c0 8d42 4abf
00000380: 9dd8 f73f 4924 b4bd abec b53d e646 c43f
00000390: 0ec9 79bf 1954 f93d 2494 363e f9c5 bdbf
000003a0: 7a4f 0b3f 8a22 2a3e 8775 653d bbb4 6b3f
000003b0: 67e3 a2bf 5918 96bf fb29 483f f1d9 f0bd
000003c0: 4f8e 01c0 3b6b 0c3f 7b47 b53e 1270 46c0
000003d0: 487a a73f af5e f8bf eede 63be 1b95 d03e
000003e0: 7f3e 813b 37bf 3d3f d39a 763f c6d2 843d
000003f0: 4ea0 31bf 6ff5 90bf ceef 0abf 0de8 903f
1.232085 0.97123855 0.046225715 0.93636596 0.90953827 0.33956835 -0.94157135 -0.6804441
-1.6107541 0.056990262 0.7871958 -0.46454352 0.31509915 0.35153076 -0.12465877 -3.9853146
0.040584695 1.2481813 -0.31585214 -0.18867615 -0.72197443 0.35531235 -0.006430415 -0.15498608
-1.2217464 1.1485751 -0.3929077 -0.25433278 0.67704034 -0.6457349 -0.47462788 -0.02263316
0.2853037 1.6257145 2.4478092 -2.9325812 0.19089735 -1.0205063 -0.5788551 -0.26520765
-2.2842925 0.7087983 -0.66468406 -1.9138501 0.7336985 -1.6046484 -0.37114632 0.5194909
-0.9677222 2.308747 0.7463143 1.0300403 -0.716317 -0.1307518 -1.59812 -0.037133306
0.25055924 -0.1311216 0.23894241 -0.4496938 -0.25957114 1.7015555 -0.07195276 -0.79230046
-0.74148744 2.5903955 -0.4919286 -0.11006529 0.19800316 -0.97710013 -0.27919888 0.6426907
0.37989023 -1.9578487 -0.061354637 0.11856808 1.2279499 -1.5719792 0.30742604 -1.7394373
0.3652626 1.887442 0.6036117 -0.76343715 0.51513726 1.8488737 -0.6486989 -0.21435377
1.091357 -1.0017021 -0.2873749 -0.6632327 -0.5235905 -1.9845781 -0.8083685 -0.2944549
0.118904166 -0.25943774 -0.15084274 0.0657457 0.2883142 -0.6188888 0.97999877 0.15403071
-0.21001963 -0.73749727 -0.78802145 0.7531503 0.3544393 0.2041615 0.38512954 -0.11365451
0.4662678 -0.2207111 -0.0031095943 0.8194988 -0.9911473 0.43237457 -1.7764595 1.552796
-0.7625646 0.52441674 -0.018357832 0.7207778 -0.018317288 -0.032036804 0.057328947 0.9268277
0.2512959 1.4216529 0.9139063 0.9049727 0.23755313 -1.754166 -0.51892847 -0.1856395
0.6110088 -0.051283825 -1.0997533 -0.8482622 -0.8884712 0.05370296 -0.026259799 0.46142307
0.9602811 -1.0800824 -4.253006 0.39008737 -0.4130079 0.35524306 -0.022817178 -1.7548513
0.65768415 -0.7333111 -0.2815338 0.023714708 -0.5535346 0.60059696 0.98813814 -0.39103666
-0.8466999 -1.8527917 0.74068594 1.4504316 0.019525489 0.4295024 -0.38321364 -1.3818154
1.5402745 -1.6392895 -0.072619304 0.8025706 -0.4345365 -0.36509258 0.23285794 1.8573995
2.2652912 1.321874 0.36934435 0.8396189 0.59676594 1.8133498 -1.0437977 -0.8929617
-2.4225261 -2.4691672 -0.19304232 -0.035572283 -1.0671136 1.4564983 -0.7141431 0.13554038
0.07215036 0.10766087 -0.9624504 0.02319051 0.35001805 -0.14806217 0.055592086 1.1145017
0.1414208 -1.1308136 -1.9508612 0.75328314 -0.29043913 0.6151246 -0.15821218 0.2634997
-1.8031158 1.1869155 0.8484689 0.2554388 1.0694952 -0.2395021 -0.503016 -0.21666743
1.4255679 0.17023402 -0.017898025 -2.6082444 0.07953888 1.2337915 -2.0383527 -0.790078
1.936298 -0.08795983 0.088830315 1.5334136 -0.9757241 0.121742435 0.17829949 -1.4826041
0.54418147 0.16614738 0.056020286 0.9207265 -1.2725648 -1.172618 0.7818906 -0.11760319
-2.0243108 0.5485112 0.35406098 -3.1005902 1.3084192 -1.9403895 -0.2225301 0.40738758
0.0039442177 0.74119896 0.96329993 0.06485514 -0.6938523 -1.13249 -0.5427216 1.1320816

weight f4 [16, 3]
00000000: affc c3c0 82b9 72bc 2699 cf3b fc7b bf3b
00000010: 76c3 5cc0 fe38 2a41 1424 ab3a 9013 e73b
00000020: 1c62 9b40 0fed 2b3f 2b14 a3bc 00b0 d13e
00000030: 288b 16bc fe52 163d 71a7 8bbe f4f0 87bf
00000040: 4e36 ddbc 1d30 0a3c d1d2 6b40 707c 843d
00000050: 2d3f cfbf 12cc 783d cefb 6940 51d5 593b
00000060: 9e5d 3540 175c 69bf 87ca 94bf e23b 6b3b
00000070: 5e25 23bc 059a 8140 4b6d d23a 6e89 63ba
00000080: 16e7 3fba d6a1 bebb 8445 933b c436 2c3b
00000090: d5d7 0d3b 3a80 923b 337e e93e 98ba d33c
000000a0: 541d 00c0 ee30 d5bb 914d 7ebb 49c1 2d3c
000000b0: 83bf a2bb 738b f1ba 6e82 3d3f 199d 99bb
-6.124595 -0.014814736 0.0063353954 0.0058436375 -3.44943 10.638914 0.0013057017 0.0070518926
4.8557262 0.671586 -0.019907078 0.4095459 -0.009188451 0.03670024 -0.27276185 -1.0620408
-0.027003434 0.008434323 3.6847422 0.06469047 -1.6191155 0.06074149 3.655994 0.0033238719
2.833839 -0.9115614 -1.1624306 0.0035893847 -0.0099576395 4.050051 0.00160543 -0.00086798414
-0.0007320506 -0.005817632 0.004494371 0.002627776 0.0021643538 0.004470852 0.45604095 0.02584581
-2.00179 -0.006506077 -0.0038803557 0.010605165 -0.0049666776 -0.00184284 0.74027145 -0.004687917

weight f4 [2, 16]
00000000: d7fa 89bd ad3c 0c3d ab78 1ebe 82af d23e
00000010: 46bf 7fbd 7ae2 0b3e 048a 15bd 2318 b6bd
00000020: 46b1 94be aa57 3cbe 675b 35be 0287 36be
00000030: 8caa 443e a28d 83bd f768 ee3d 96f4 173e
00000040: 0406 5dbd 5c4a 4abc 040d 99bd c591 16bd
00000050: a3c7 c13e d101 7ebe 2161 81ba 3c57 d43d
00000060: d6ab 94be 179f 7f3e d2b9 b63d fd91 9e3e
00000070: cbdf e9be c304 633e db5c e0bd 2d2a 573b
-0.06737297 0.034237552 -0.15475719 0.41149527 -0.062438272 0.13660613 -0.036508575 -0.088913225
-0.290415 -0.18392816 -0.17710648 -0.17824939 0.19205683 -0.06423499 0.11641114 0.14839396
-0.053960815 -0.01234683 -0.07473186 -0.03676011 0.37847623 -0.2480538 -0.0009870866 0.10368201
-0.2903735 0.24963032 0.08922161 0.30970755 -0.45678553 0.22169785 -0.10955211 0.0032831535

bias f4 [2]
00000000: 60ff ca3d fff4 5e3d
0.0991199 0.054432865

W f4 [16, 16]
00000000: ae48 c13d a494 e8bd d80a 243e 8d58 cb3c
00000010: 4131 6d39 0e72 c23e c1a0 2ebe 5c12 6b3c
00000020: 4347 01bf fa6c df3d 51da 6cbe 201a 6d3d
00000030: a09c 0d3e acd8 323e e778 64be 0992 26be
00000040: edfa 1ebe 3c41 bfbe e0f3 3a3e ce0b 3ebe
00000050: 0ed3 a3b9 a358 5a3e 9120 1b3d ec48 87bd
00000060: 7eb2 72be c0c8 193d 0269 d3be 8065 22bc
00000070: 7878 c13e a094 afbe 9b6e 1dbe 2d0e ecbe
00000080: bf27 2cbe a128 debd be3b 0c3e 48b6 c3be
00000090: 433b 64bd c75e 0fbe 70d2 853c e4c6 bb3d
000000a0: e928 a7be 3a7f de3e fdf2 223b c4f0 50bf
000000b0: f7d5 dbbd 2d8f c4bd 7615 3e3e 1d09 76bd
000000c0: a4d8 333e f74c dc3e 0418 233e fb72 b9be
000000d0: 6f6f b3be 0e67 84bd 2b9b 8abe ec22 e4bd
000000e0: 8ef5 3cbe 61ea bd3c 662f f8bd b784 a33e
000000f0: ad34 aabe 0ca9 1c3f fa2f 9cbe 8599 ffbe
00000100: af2c 8e3d 46f1 0b3e 87d4 2f3e f21a 43bc
00000110: b161 d0be 09b8 69bc 7972 bb3e 5dc1 8fbe
00000120: d181 393d 42c1 66be 60b0 edbe bfee a63e
00000130: 4586 2f3e 6e95 af3e 6de7 acbe f1c6 0b3e
00000140: 8369 fe3e 16b1 ebbe 5d75 f53e 2432 0fbf
00000150: 8922 e13e d6d6 8cbe 5e46 c9be e4fe 87bd
00000160: 133a 793e e5d9 17bf 2382 663e e4bf 8bbd
00000170: db8f c5bd 52b6 95bd 65eb 823d 014c aa3e
00000180: 7f96 fc3d c418 43be c655 b63c 956a b0be
00000190: d885 373e 47fc 51be 1bb4 fb3e 205a 613e
000001a0: b632 443d fb89 07be b283 0dbe 5ccc 293f
000001b0: 1da3 b23d 465d a93d b8dd 843e f507 6bbe
000001c0: decc 993d 725f cc3d 5a3b 0b3d 62b6 17be
000001d0: 1cb9 e0bd d4a1 59be 4e5f 80bd a146 02bd
000001e0: 7812 71bd b313 75be c7ec b0be ea3b 5d3d
000001f0: 5c81 bbbd 1532 d0bd 3be1 a9be 1fd6 893e
00000200: 9386 e43c aee6 9e3e 2d0d 1dbe faed 503e
00000210: 2154 65bd 242e 34be 1fe7 3fbe 6ca0 abbd
00000220: d5bd 3ebe 36cb ce3e 4198 42be 7eab 87be
00000230: 32ed a239 4c19 6c3e dd17 cbbd a346 d3be
00000240: cafc b43e 438a 0bbe 56cb 6bbe d9d8 16bd
00000250: 9b86 ee3a f1ae 7b3e 5253 0cbe 02c3 88bd
00000260: d20a 8e3e 4208 59be d543 25be f3e5 0b3d
00000270: 2407 e3bd 7df3 203e 0ded c73e b530 843e
00000280: f72e fc3d 3bad 113e 1d13 6d3d cd1e 873e
00000290: abec 00be 6620 0bbe a946 163d 0ba2 be3e
000002a0: 5f93 8abd b69c 213e 7e8b debc c5c1 4f3e
000002b0: f95a 2b3d 0d10 c2be 676e 4a3c eec1 6dbe
000002c0: ea44 153f 21a2 d83e 41f5 b23e 63d9 04be
000002d0: 4d0a 54bc 756c 873e 582f 11bd a502 76bd
000002e0: 7cf2 16be 4fc3 043e 8007 953e 0542 1c3b
000002f0: 804b 9a3e 6c85 ed3e a4cc 943d d5fa 033e
00000300: 7aa2 c53d 4f18 26bd 2d9a c8be 1be0 96bd
00000310: 2c2d 80be 3a8b 43be 0c64 253e b04b f23e
00000320: 935a 30be 4a63 18bf fb17 fcbe e7bf fa3e
00000330: e5fb 8fbe 1c57 1d3d 7c71 dcbc 7fd5 013f
00000340: 88fa 74bd 4b84 e5bc a83d 92b6 438a b13e
00000350: ba1e 3a3f 3a70 d83d c08c 9c3d 5e14 27be
00000360: 0fb8 48be e933 14be 5ce7 b83d b44f 5c3c
00000370: 4614 9fbd 0794 973e edfe f0be d698 39be
00000380: 95f9 ee3e 0c43 6dbe 2e9e e53c 8e24 963e
00000390: c092 b6be a783 61be c44c bbbe facd f63d
000003a0: 5fe7 903d 4c61 973e 9bdb 0dbd ec48 883e
000003b0: 26c0 a7bc 5db1 183e 43b4 533e e809 c339
000003c0: 2f85 383e 847a a8be fefe 1d3e 942b 073e
000003d0: ff6b 2b3f d684 6ebe 5da2 083c 8117 84bd
000003e0: 2d52 32be 4d5e ec3d 5aaf 8a3d 5725 4ebd
000003f0: 6d78 acbe a935 f23e 8429 173e 6435 a8be
0.09437691 -0.11356476 0.16019762 0.024822498 0.0002262043 0.37977642 -0.1705351 0.014347639
-0.5049936 0.109094575 -0.23130156 0.057886243 0.13829279 0.17465466 -0.22311746 -0.16266645
-0.15525408 -0.37354457 0.18257093 -0.1855919 -0.0003124703 0.21322875 0.037872855 -0.066057056
-0.23700902 0.037544966 -0.41291052 -0.009911895 0.37787223 -0.3429308 -0.15374224 -0.46104565
-0.16812037 -0.10847593 0.13694665 -0.38225007 -0.05572058 -0.14000998 0.016335696 0.09168795
-0.326484 0.4345644 0.002486407 -0.8161738 -0.1073417 -0.09597621 0.18562874 -0.060067285
0.1756311 0.4302747 0.1592713 -0.36220536 -0.35045955 -0.064649686 -0.2707151 -0.11139473
-0.18453047 0.02318305 -0.121184155 0.3193719 -0.33243313 0.61195445 -0.30505353 -0.49921814
0.069421165 0.13666257 0.17170916 -0.01190828 -0.40699533 -0.014265069 0.36610773 -0.28077212
0.04528982 -0.2253466 -0.46423626 0.32604024 0.17141064 0.34293693 -0.33770314 0.13650109
0.49689874 -0.46033543 0.47941104 -0.55935884 0.4397166 -0.27507657 -0.39311498 -0.066404134
0.2433856 -0.59316856 0.2251058 -0.068237096 -0.09646579 -0.073101655 0.06392554 0.3326111
0.12333392 -0.19052416 0.022257697 -0.34456316 0.17922151 -0.20506392 0.49160847 0.22007036
0.047899924 -0.13236229 -0.13819769 0.6632745 0.08722518 0.082697436 0.25950408 -0.22952254
0.075097784 0.09979142 0.03399215 -0.14815667 -0.10972807 -0.21253139 -0.06268178 -0.03180564
-0.058855504 -0.23933296 -0.34555647 0.054012217 -0.09155533 -0.101658024 -0.3317965 0.26921174
0.027896201 0.3103537 -0.15337057 0.20403281 -0.055988435 -0.17595726 -0.1874051 -0.083802074
-0.18627103 0.40389413 -0.19003393 -0.26498026 0.00031075772 0.23056525 -0.09916661 -0.4126483
0.35349113 -0.13626961 -0.23026785 -0.036827896 0.0018198075 0.24578454 -0.13703659 -0.0667782
0.2774263 -0.21194556 -0.16139157 0.034154844 -0.11085346 0.15717883 0.39048043 0.2581841
0.12313645 0.14226238 0.057879556 0.26390687 -0.12590282 -0.13586578 0.03668848 0.37233004
-0.0676639 0.15782437 -0.027166124 0.20288761 0.041834805 -0.3790287 0.0123554235 -0.2321851
0.5830828 0.42311195 0.3495274 -0.12973551 -0.012941909 0.26449934 -0.03544554 -0.060061116
-0.14740938 0.1296513 0.29107285 0.0023843062 0.30135727 0.46390855 0.072655946 0.12888654
0.096501306 -0.040550526 -0.39180127 -0.073669635 -0.25034463 -0.1909608 0.16151446 0.4732337
-0.17222051 -0.59526503 -0.49237046 0.48974535 -0.28121868 0.038413152 -0.026909582 0.50716394
-0.059809238 -0.028017184 -4.358317e-06 0.34675798 0.72703135 0.105682805 0.076440334 -0.16316363
-0.19601463 -0.14472927 0.09028503 0.013446737 -0.07767539 0.29605123 -0.47069493 -0.18124709
0.4667479 -0.23170108 0.028029528 0.29324764 -0.35658836 -0.22022878 -0.36582005 0.12051006
0.070753805 0.2956642 -0.03463326 0.26618135 -0.020477366 0.14911409 0.20674233 0.0003720068
0.18019556 -0.32905972 0.15429303 0.13200217 0.66961664 -0.2329286 0.008339492 -0.064497955
-0.1741416 0.11541424 0.06771727 -0.05032858 -0.33685628 0.47306564 0.1476193 -0.32853234
