LeakyRNN_11.28/1202/ta_3_128_d10_r7_3/model_1.pth (torch, 137244 bytes, 5 tensors)

weight f4 [128, 128]
000000 66 76 e1 be 0d 85 b8 3d 48 76 5d 3d 52 84 bf bc
       -0.44035643 0.090097524 0.05406788 -0.023378525
000010 b9 91 ed 3d 10 60 b6 bd 2c b9 95 3d 68 94 86 3d
       0.1160006 -0.08905041 0.07310709 0.06571275
000020 85 13 b0 bd 1d 1b 2d 3e 26 73 b7 3b 86 fb 88 3d
       -0.08597473 0.16904874 0.0055984436 0.06688599
000030 e7 aa ef 3a bf 36 c2 3d dd d5 5c bd 5b 4c e0 3d
       0.0018285186 0.09483098 -0.053914893 0.10952064
000040 41 5d 4b 3d 19 23 30 3d e0 9f 10 bd 69 c3 88 3a
       0.04964948 0.04300222 -0.03530872 0.0010434213
000050 a5 0e b6 3c 0d 27 a5 3d 25 99 0b bd 0b 3f 8b 3c
       0.02222378 0.08064089 -0.034081597 0.016997835
000060 1c c5 fb 3c a8 56 fb 3c 72 86 14 3e 04 5f 23 be
       0.030733638 0.03068097 0.14504412 -0.15954214
000070 3b b2 f1 ba 1a 2d bc bd 85 09 4b bd a9 32 9e 3d
       -0.0018439958 -0.0918829 -0.049569625 0.077245064
000080 73 e4 15 be ac e5 8a 3c 37 9e c2 3c 71 d5 84 3d
       -0.14637928 0.01695522 0.023757083 0.06486023
000090 8e c1 0d 3d 65 61 aa 3d 44 28 8d bd b1 16 2f 3e
       0.034608416 0.08319358 -0.06892446 0.170985
0000a0 55 c9 ab 3c a4 1d 7a bd 87 74 5d bd 0e 33 74 3c
       0.020970026 -0.061063424 -0.054066207 0.0149047505
0000b0 21 d4 81 3d 6d 9a bd bc b2 c1 8a bb 13 cc 3d 3d
       0.063392885 -0.023144925 -0.004234516 0.0463372
0000c0 ef f5 71 3d 33 5c a2 bc ed 79 6d 3e 24 d7 2c 3d
       0.05907243 -0.019819355 0.23191042 0.04219736
0000d0 50 41 b0 3d 0f 99 c3 3a 72 2d 07 be f0 d7 dd 3d
       0.08606207 0.0014922934 -0.1320093 0.108322024
0000e0 5c d7 af 3b 10 ef a9 3d 03 a5 07 bc c1 91 d4 bc
       0.005366249 0.08297551 -0.008279088 -0.025948407
0000f0 f1 5d fb 3d 18 59 ca bd 7c 01 6a bd ab cf a9 bd
       0.12273777 -0.098802745 -0.05713032 -0.08291563
000100 ec 0f ba 3d 22 60 9d bd 27 81 04 be 56 4a 5d 3d
       0.09085068 -0.076843515 -0.12939893 0.05402597
000110 91 4d d9 3d 4b 3a 0c be 73 d9 f0 bd a1 e7 76 3b
       0.10610498 -0.13694112 -0.11760225 0.0037674683
000120 0f 14 c1 bd e8 dd 2f 3d 2f 3e ab 3c e2 3f ec bd
       -0.09427654 0.042936236 0.020903675 -0.11535622
000130 6d a6 07 3e 34 ae f2 bd 38 77 a8 bc d5 e6 8a 3c
       0.1324708 -0.11849633 -0.02056466 0.016955772
000140 f7 f5 eb bd cf 04 03 bc 22 be 30 bc 60 36 2f 3c
       -0.115215234 -0.007996752 -0.010787519 0.010694116
000150 be 51 d2 bd 7d 06 4c bd 82 15 f4 bc 2a 65 aa bd
       -0.10269497 -0.049810875 -0.029795412 -0.08320077
000160 cf 3a 5d 3d 3e 9e 81 3b e3 c2 32 bd 14 c6 a3 3d
       0.054011162 0.0039556315 -0.04364289 0.07996765
000170 a3 21 25 3d 1b dd 94 bb 65 fa 76 bd a6 71 1a 3e
       0.04031528 -0.0045429594 -0.06029739 0.15082416
000180 f1 7c df 3d ad 73 9a 3d 8d d6 3f 3e ec 42 00 be
       0.109125026 0.07541595 0.18734188 -0.12525529
000190 bf be 08 3d 27 6c 85 3d a8 88 c0 bd a5 11 21 3e
       0.033385035 0.06514769 -0.09401065 0.15729387
0001a0 c6 28 df 3d 65 53 e1 3d ff 8a 12 bb c2 30 c5 bd
       0.10896449 0.11002234 -0.002236068 -0.096284404
0001b0 80 27 40 3a ff ef 2e be 1d 72 2b 3e cb 0c 7a bd
       0.00073301047 -0.17083739 0.1674275 -0.061047357
0001c0 9a 8a 46 be dd 04 1f 3e 8c 23 b0 3d f8 56 fc bd
       -0.1938881 0.15529199 0.0860053 -0.123212755
0001d0 c3 6f a5 bd 35 fa 7f bd 8a f3 a8 3d 52 e4 ac 3d
       -0.080779575 -0.062494475 0.082495764 0.08441986
0001e0 4d 74 8c bb 81 8a 25 3d 65 f3 f4 3b 69 b1 01 bc
       -0.004286325 0.04041529 0.007475304 -0.007915833
0001f0 6a be 33 3d a8 56 21 3e 42 30 e3 3c 08 9c 90 3d
       0.043882765 0.15755713 0.027732972 0.070610106
000200 76 97 ad 3d 4a 7d 40 bd 08 f5 ad bd 5f 6a 0f 3e
       0.084761545 -0.046994485 -0.084940016 0.14005421
000210 2f 66 78 bd aa 51 58 3d 08 dd f9 3d e1 ee 81 bb
       -0.060644325 0.052812256 0.122003615 -0.003965244
000220 9e 5e b4 bd 7d 48 3e be 72 36 53 bd 99 c2 80 3d
       -0.08807109 -0.1858234 -0.051565595 0.062871166
000230 df 00 2a be e3 23 2a 3d 5b 93 fb bd ab 2d 03 3e
       -0.16601895 0.04153813 -0.12283965 0.1281039
000240 8e 94 62 3d 68 03 23 3c ad 0c 4b 3e 8c 89 72 bc
       0.055317454 0.009949543 0.19829054 -0.014803302
000250 8f cf 94 3c 76 32 83 3d 1f d0 10 bc ee c7 5d be
       0.018165378 0.06406109 -0.008838682 -0.21658298
000260 6b 64 64 3d 08 5b 85 be d5 a8 1f bd 35 6d be 3c
       0.05575983 -0.26046014 -0.03897937 0.023245433
000270 fa 31 37 3e 20 0a 62 3e fd 39 c1 3c 6a 0c fd 3c
       0.17890158 0.22074175 0.023587221 0.030889709
000280 9c 79 0d be ce f9 4f 3d 9f d8 5c 3c 82 ba 4e be
       -0.13815922 0.05077534 0.013479381 -0.20188335
000290 32 19 2a bd a5 5f 14 bd de 54 f3 bc b6 37 51 3c
       -0.041527934 -0.036224026 -0.029703554 0.01276963
0002a0 df d0 6c 3e af be 0c 3e de 8b 3b 3c 17 55 c6 bc
       0.23126553 0.13744615 0.011446921 -0.024210496
0002b0 7d 5b 0e be ff 2a 52 be 81 38 30 3c e9 4d a7 bd
       -0.13902088 -0.20524214 0.010755659 -0.08169157
0002c0 cc 3d bd 3d ba 62 6a 3e fd ce 08 3c 86 d2 27 3e
       0.092403024 0.22889224 0.008350131 0.16388902
0002d0 85 33 6b 3e 7e 7f d6 3c 15 fb f6 3d aa 92 f6 bd
       0.22968872 0.02618384 0.12059609 -0.12039693
0002e0 b1 5e 1e be 4b b2 3d bd ed e9 6d 3b 6a 5f 3e 3d
       -0.1546581 -0.04631261 0.003630276 0.046477713
0002f0 92 5f 17 bc 40 a3 41 3a e6 a8 04 3b 01 58 1d 3e
       -0.009239094 0.0007386692 0.0020242273 0.15365602
000300 c1 14 bb bd 93 80 a3 3d 70 4c ab 3d 79 5a 51 3c
       -0.09134818 0.07983508 0.08364189 0.012777918
000310 7f 5c ff bd 10 f7 d4 bd fc 1e 7c 3d e6 db a6 3d
       -0.12468814 -0.10398686 0.061552987 0.08147411
000320 d0 1e 99 bc ad 5d d3 3c ca 19 75 3b 22 2c 07 3e
       -0.01869145 0.025801504 0.0037399405 0.13200429
000330 69 bc ca bd f8 4c f5 3c 73 ba 20 be 20 aa b6 3c
       -0.09899218 0.029943928 -0.15696125 0.022297919
000340 c4 04 69 3d 49 38 96 bd a1 41 93 3d 9c 7a bc bb
       0.05688931 -0.07334954 0.07190252 -0.005751921
000350 a3 d6 b7 3c 68 39 c7 3b 3e 3b 14 bd fd 27 b6 3c
       0.022441214 0.0060798414 -0.03618931 0.022235865
000360 f1 bd 96 3c 24 15 e2 3c 06 06 c5 3d 18 e7 8f 3d
       0.018401118 0.027597971 0.096202895 0.070264995
000370 7a c0 30 3d 0b 1c 75 3d 42 54 a4 3d 5e a3 4b 3d
       0.04315231 0.059841197 0.080238834 0.049716346
000380 61 3e d5 3d 80 e8 0c bc 22 86 83 bb b1 46 f2 bc
       0.104122885 -0.008600354 -0.0040137926 -0.029574724
000390 40 19 6a bd b5 f9 37 bd 85 b5 cd 3d 40 ca 52 be
       -0.057152987 -0.044915874 0.10044388 -0.20584965
0003a0 fa aa 04 be ad 10 06 be 46 3c 10 3c aa 95 10 be
       -0.12955847 -0.13092299 0.008803433 -0.14119592
0003b0 07 14 54 bd 3f 64 7f bc 3d f0 13 3d e9 61 36 3b
       -0.051776912 -0.015587865 0.03611778 0.0027829355
0003c0 06 66 70 bd 2d 7f 3e bb 33 00 ff bc cb 68 c1 3d
       -0.058691047 -0.0029067502 -0.031128025 0.09443816
0003d0 e3 d0 87 bb 4e 97 67 3d b1 7f 43 bd 42 b7 f7 3d
       -0.0041447743 0.05654078 -0.047729198 0.120955005
0003e0 1d 01 aa bd e0 29 aa be 4c 3e 75 3c 3e c8 d6 bd
       -0.083009936 -0.33235073 0.014968466 -0.10487412
0003f0 89 88 19 be 91 4b 65 bd 37 90 85 3c da 4f 81 3d
       -0.1499349 -0.05598027 0.016304119 0.063140586

weight f4 [128, 3]
000000 5f ba 80 bf 9f e7 18 bf 86 24 2a be 52 51 44 bd
       -1.0056876 -0.59728426 -0.16615495 -0.047929116
000010 36 7d 98 bf a5 c3 29 3f c4 58 7d 3e 1e 6d 2f be
       -1.1913211 0.66314155 0.24740893 -0.17131469
000020 99 57 a0 be f1 0e 81 bf a6 3f 38 3f 81 24 94 be
       -0.31316832 -1.0082685 0.7197212 -0.289341
000030 82 47 87 bf cf a4 38 bf 69 36 d0 bd ee 90 89 bf
       -1.0568697 -0.7212648 -0.10166628 -1.0747354
000040 19 d6 be 3d 35 bc 28 3f 65 f1 97 be 2d df fd 3e
       0.0931818 0.6591218 -0.29676357 0.49584332
000050 af 83 f2 be bd 78 8e 3e b0 8b 08 be 7b 4f 8a 3e
       -0.47366092 0.2782649 -0.13334537 0.27013764
000060 3a d8 11 3f 03 a3 1d bf 23 c7 91 bc a5 0b 6d be
       0.5697056 -0.6157686 -0.017795151 -0.23148973
000070 7b eb c8 3d cf 9d 42 3f e7 78 84 bf 48 65 d1 be
       0.09810539 0.76022047 -1.0349396 -0.40897584
000080 f3 cc ab bf 1e f6 57 bf 04 e3 33 bf bb fc 10 3e
       -1.342192 -0.8435992 -0.70268273 0.14158909
000090 d2 7b 90 3f ea 87 6f 3f 84 ab ad bd b2 98 ad 3d
       1.1287787 0.93566763 -0.0847998 0.0847639
0000a0 af 1d 30 3f 06 0c 38 3e 0e 7b 35 bf 67 cc 89 3e
       0.68795294 0.17973337 -0.7089089 0.2691376
0000b0 b9 85 6a bd 3a 05 6e be 0e d8 35 3f 04 59 e0 3e
       -0.057256434 -0.23244181 0.710328 0.43817914
0000c0 fc eb 34 be 60 be a2 bd 22 3f 89 bd 68 c8 c4 bd
       -0.17668146 -0.079464674 -0.06701495 -0.09608537
0000d0 65 81 19 be 34 b4 12 3f 84 cb 20 bf 57 2c 44 bf
       -0.14990766 0.5730622 -0.6281054 -0.7663016
0000e0 f8 25 80 be 03 96 1c 3f 47 68 45 bf 7e b0 64 bc
       -0.25028968 0.611664 -0.7711224 -0.013958095
0000f0 fd db d0 3e df 6a fa 3e 5c 8b 92 be 41 13 9b 3f
       0.40792838 0.4890966 -0.28621948 1.2115251
000100 20 c1 37 3f b0 09 55 be 1a 0b 69 3f 34 82 86 3d
       0.7177906 -0.20804477 0.91032565 0.06567803
000110 16 c8 27 be 07 b5 6e bf 51 89 8f 3e 72 1a 14 3f
       -0.1638492 -0.93244976 0.28034452 0.5785285
000120 31 1c d1 3d 87 cb 1f be 20 80 fe 3e 97 1c 36 3f
       0.10210455 -0.15604983 0.49707127 0.71137375
000130 a3 98 3b 3f a5 b2 46 bd 83 5b 69 bf fd 05 90 3e
       0.7327978 -0.048510212 -0.9115526 0.2812957
000140 97 15 d2 be ac 8f 20 bf 98 81 40 3f f1 83 4d 3e
       -0.41032097 -0.62719226 0.75197744 0.20069863
000150 82 01 51 bf e2 4c 52 bf 5a f7 44 be 19 18 4e bf
       -0.81642926 -0.82148564 -0.19234982 -0.8050552
000160 4a 8b 2c 3f ac 59 90 be 9d 54 87 bf 2c 6f 71 3f
       0.6740004 -0.28193414 -1.0572697 0.9431026
000170 0f c1 5b be ed 72 f2 3e 67 4d 81 3f af df 48 3e
       -0.21460365 0.47353306 1.0101746 0.19616579
000180 fb 4b 09 3f d8 ff 11 3f 3f 04 e7 3d af 63 52 3f
       0.5363156 0.5703101 0.11280107 0.82183355
000190 87 bf 04 3e 89 6d f4 be 1f 66 03 bd f2 69 97 bf
       0.12963687 -0.4773982 -0.032079812 -1.1829207
0001a0 e9 91 fb bd 73 5c bc 3f 9b b8 1a be c8 ec 61 be
       -0.122836895 1.4715713 -0.15109484 -0.22062981
0001b0 12 1c 48 bf 3d 20 0e 3f 81 ea e4 be c3 00 a0 3d
       -0.7816783 0.5551794 -0.44710162 0.07812645
0001c0 59 f9 5b 3e e0 4c 97 be ff 68 35 3e 88 1c 0c bf
       0.21481837 -0.29550838 0.17715834 -0.54731035
0001d0 e8 d2 68 3e 3c 89 c4 be 15 9b 91 be 84 6a 1f 3f
       0.22736704 -0.38385952 -0.2843863 0.62271905
0001e0 15 95 11 3e bf 07 38 bf c8 9c 61 3e af fa b2 3d
       0.14217027 -0.7188682 0.22032464 0.0873922
0001f0 2d 93 56 bf 22 02 66 bf f6 34 3a 3f f9 94 38 3f
       -0.8381832 -0.89847004 0.7273706 0.72102314
000200 32 a1 46 3e 3e f9 a6 3d 69 d2 d5 be 1a 02 d7 bc
       0.19397429 0.08153008 -0.41762093 -0.02624612
000210 4d 71 04 3f d0 e0 86 3f fb 41 9f be 96 6e c7 be
       0.51735383 1.0537357 -0.31105027 -0.38951558
000220 7b 7d c1 3e 9d 02 b8 3d 2d da 1a bf 71 e8 de be
       0.37791047 0.089848734 -0.6048916 -0.43536714
000230 e6 8d d9 be de b3 c4 3d bf 36 ec 3d 94 77 b1 3e
       -0.42491072 0.096046194 0.115338795 0.34661543
000240 ce 0c 31 bf 8b 00 7b bf 0e 36 9d 3d 84 b0 ad 3e
       -0.69160163 -0.98047704 0.07676326 0.33923733
000250 ad 3a 1e bf df fc fc bd 1f de 27 bf df 7f c6 3e
       -0.6180828 -0.12352919 -0.65573305 0.38769433
000260 31 4d 86 3e 93 4c 67 bf 7c 60 49 bf 5a 2b b1 bc
       0.26230767 -0.9035122 -0.7866285 -0.021627117
000270 78 db 4c bf 83 46 a6 3e fa e0 20 bf 05 1e 87 bf
       -0.8002238 0.3247567 -0.62843287 -1.0556036
000280 8e be 18 3e 9a 3a 8e 3d dc 2c 0d bf b4 78 f8 3e
       0.14916441 0.06944771 -0.55146575 0.4852959
000290 d5 83 61 bf 88 05 72 be ce cb b0 3e ca b7 68 be
       -0.88091785 -0.23634923 0.3453049 -0.2272636
0002a0 25 2e 84 3f 65 e6 e4 be de af ea be 69 5d 91 bf
       1.0326582 -0.44707027 -0.458373 -1.1356632
0002b0 bf fd d6 3e 3d 37 32 be ef 89 cc be 1d 01 42 3f
       0.41990468 -0.17403884 -0.39948985 0.7578295
0002c0 e0 cb 83 bf 66 f3 8c 3f 0f 80 bb bd 2d 46 85 be
       -1.0296593 1.1011779 -0.091552846 -0.26030102
0002d0 40 db 49 3f d9 d7 60 bf a0 48 ad 3d f8 63 67 3f
       0.78850174 -0.8782936 0.08461118 0.90386915
0002e0 9d 42 6e 3e bc 6e 9d 3e 4c 4e 8a 3e 21 3c 6e 3f
       0.23267598 0.30748546 0.2701286 0.930605
0002f0 b8 22 11 3f 4d 71 8f 3e 9f 43 45 bf 41 0c 34 be
       0.566936 0.2801613 -0.77056307 -0.175828
000300 9a 5c 3f 3f 3f de 04 bf 92 d4 55 bf 28 5a e5 3e
       0.74750674 -0.5190162 -0.8352748 0.44795346
000310 56 87 bf 3e 99 1d 23 bf e7 d0 39 be db 90 32 3e
       0.3740794 -0.6371704 -0.18146096 0.1743807
000320 04 73 5b 3e 37 04 4e be c7 c9 af 39 ce c8 08 3e
       0.21430594 -0.20118795 0.00033528937 0.13357851
000330 5d 32 72 bf c7 f2 63 3f 40 34 da 3e 22 f7 8f be
       -0.946081 0.89042324 0.4261799 -0.28118235
000340 8d 9d ca be 9a 87 23 bd bc 4f 98 bc 76 04 40 3e
       -0.39573327 -0.03992424 -0.018592708 0.18751702
000350 fe 75 86 3f 2f 75 6c bf 11 e0 4c 3f b3 86 fa 3e
       1.0504758 -0.9236631 0.800294 0.48930892
000360 aa ea 12 bf e2 f4 72 3f d1 04 e7 be 62 5d 80 3f
       -0.5738932 0.9490491 -0.45120862 1.0028498
000370 c1 49 29 3f 82 49 b2 be f0 27 4d bf 65 56 65 bf
       0.66128165 -0.34821707 -0.80139065 -0.8958495
000380 5f 91 ad bd 75 37 0a bf b6 3b 9d bf c8 10 b9 3e
       -0.08474993 -0.5399087 -1.2283847 0.36145616
000390 38 6e 1e 3e 27 01 7b 3f 89 2f b4 3e ba 84 3a 3f
       0.15471733 0.98048633 0.35192516 0.72858775
0003a0 b7 0f 53 3e 24 6c 19 be f7 95 18 3f 3d 85 51 be
       0.20611463 -0.14982659 0.5960383 -0.20460983
0003b0 8d 31 2d bf 99 8a bd 3c 3e a0 32 be aa 6e a8 3e
       -0.67653733 0.023137378 -0.1744394 0.3289693
0003c0 a0 24 8f bd b6 3a 91 bf 55 7c 95 3e 05 46 c3 3e
       -0.069894075 -1.1346042 0.2919642 0.38139358
0003d0 a1 23 22 bf 6e a8 fa be 97 9c 86 bf 89 1e 14 be
       -0.63335615 -0.48956627 -1.0516537 -0.14464773
0003e0 59 7e 50 be e6 64 86 3f af db 9b 3e b8 f7 61 be
       -0.20360698 1.0499542 0.30441043 -0.22067153
0003f0 f4 d9 14 3d 7e c0 d8 3e 0f 25 88 3e f3 a1 15 bf
       0.03634067 0.4233436 0.26590773 -0.5845024

weight f4 [2, 128]
000000 29 52 93 bd ad 9b 37 3c fd 49 46 bd 79 7d b3 bc
       -0.07193405 0.01120655 -0.048410404 -0.021910416
000010 99 21 17 bc 59 b4 1d bd ad 64 1d 3d 09 4a a5 bd
       -0.009224319 -0.03850207 0.03842609 -0.08070762
000020 f5 c6 5b bd 86 74 31 bd 9c 0a 98 bc 2c f6 0c 3b
       -0.053656537 -0.043324016 -0.018559746 0.0021509035
000030 ca 1f 6e bc 3b 84 46 bc 49 04 81 bd 47 90 c5 3d
       -0.014533946 -0.012116487 -0.062996455 0.09646659
000040 d0 d3 93 bc 3b b7 b7 bc 8d 82 74 3c 64 9e 56 3c
       -0.018045336 -0.022426238 0.014923704 0.013099287
000050 3a 63 95 bc 09 96 78 3c c7 b0 1c 3d fc 49 99 bd
       -0.018235791 0.01517249 0.038254526 -0.074848145
000060 5d 18 16 bc 45 78 4f 3c f4 06 a9 bd c7 c9 5b 3d
       -0.009161082 0.012662952 -0.08253279 0.053659227
000070 1d 41 4c 3d ae b8 c4 bc 21 2d 48 bd 06 7a fc bd
       0.049866784 -0.024013843 -0.048871163 -0.123279616
000080 91 ae 02 bd 0a dd 2c be dd 46 78 bc cd 35 3f bd
       -0.03190476 -0.16881195 -0.015153614 -0.046682168
000090 c0 c0 69 bd eb 11 f1 3c d6 b5 19 3d a2 ab a5 3d
       -0.057068586 0.02942749 0.037526928 0.08089377
0000a0 9f c5 f4 3b d2 ba 44 bd e5 5c 26 bd df e1 67 be
       0.0074698473 -0.04802973 -0.040615935 -0.22644757
0000b0 d9 5d 7e bd 26 e7 1d be 0e 1f c8 bc de 91 9b 3b
       -0.06210122 -0.15420207 -0.02442887 0.0047476133
0000c0 a9 e1 56 3d 0a 3d 37 3e e1 50 1d bc a4 01 cc bc
       0.0524613 0.17894378 -0.009601803 -0.024903126
0000d0 98 e8 b4 3d 6a ce c6 bc 56 f9 dd 3c e8 90 41 bc
       0.08833426 -0.024268348 0.027096432 -0.0118143335
0000e0 45 95 4f 3c 8b 09 9a bd f5 9c 53 bd ca 8c 07 bd
       0.012669866 -0.075213514 -0.051663358 -0.03309325
0000f0 d1 53 b8 bd 33 d9 54 bd 89 cf ce 3b 23 d8 a4 3d
       -0.09000362 -0.05196495 0.006311361 0.08049037
000100 25 05 04 bc b0 6e 23 3d 12 cd 23 3d 55 31 d7 3c
       -0.008057867 0.03990048 0.039990492 0.02626864
000110 6a d3 b8 bb 28 91 f1 3c 45 ba ab bd 37 ee 32 3d
       -0.005640437 0.029488161 -0.083851375 0.04368421
000120 3f d7 02 bd 18 23 37 bd 31 53 7d ba a8 5c ba 3d
       -0.031943556 -0.044711202 -0.00096635806 0.09099704
000130 0a d0 a9 3b c5 b6 1d 3d 29 a9 0a 3c ad a7 aa 3c
       0.005182271 0.03850438 0.0084631825 0.020831907
000140 6b 69 47 3d 20 5a 9a bd cb bb a9 3c 4d 29 c6 3d
       0.04868452 -0.07536721 0.02071943 0.09675846
000150 4e 93 ac 3d d6 bb 7f 3d a1 ab 99 3c 1c cd 4c 3d
       0.08426534 0.062434994 0.018758597 0.050000295
000160 34 c4 19 3c 6b 9c cc 3b 9c 74 b1 3d 77 d6 72 3d
       0.009385157 0.0062442324 0.086648196 0.05928656
000170 8b 76 52 3d 81 4a 1d 3d 7a bf f3 3b 26 60 2e bd
       0.051382583 0.03840113 0.0074385973 -0.042572163
000180 81 63 88 3d 92 45 45 3e d9 73 48 bc 97 ed 3c bd
       0.06659604 0.1926482 -0.0122346515 -0.04612502
000190 22 d3 bc bd 8f a5 6b bb c5 58 2b bb a3 6b cb bd
       -0.09219958 -0.0035956835 -0.002614544 -0.099326394
0001a0 97 66 25 bc d7 fc a4 bd 82 87 66 3d 77 31 b7 bc
       -0.01009526 -0.08056038 0.056281574 -0.022362454
0001b0 b3 6b 1e 3d ac d8 2c bd 78 5f d4 bd 5c 6a 78 3d
       0.03867693 -0.042198822 -0.10369772 0.060648307
0001c0 ac 96 15 be f1 cf 86 3c 18 df 00 be ea 87 03 3c
       -0.14608258 0.016456576 -0.12585104 0.00802801
0001d0 44 75 95 bb 72 97 f5 3d 5b df 09 3a 4b 32 00 3c
       -0.0045610983 0.119917765 0.0005259418 0.007824491
0001e0 4e 29 6f bd fa e9 7c bc 28 c5 5e 3d 0f f4 2e bc
       -0.058389 -0.015436644 0.05438724 -0.010678305
0001f0 75 63 bb bc 4c 80 a2 bd 42 93 05 3d 29 15 54 3d
       -0.022874573 -0.07934627 0.03261114 0.051777992
000200 94 45 36 3c e0 bd f5 bc 7c f8 7d bc 1d 0e c7 3d
       0.011124987 -0.029997766 -0.015501138 0.09719489
000210 24 74 c1 3c 2b 04 1f 3d 98 0d 1a bc cf a7 dc bd
       0.02361495 0.038822334 -0.009402655 -0.107741944
000220 38 37 b3 bc 9d 56 90 bb 44 47 fe 3d 80 0e c5 bd
       -0.021876916 -0.0044048564 0.124159366 -0.09621906
000230 20 26 c3 bb 0f df 9b bc ac a2 46 3d c0 5c 9d bd
       -0.0059554726 -0.019027261 0.04849498 -0.07683706
000240 03 7e 8b 3d 03 b6 0d 3d 6e b3 e5 bd 03 a5 92 bd
       0.06811144 0.034597408 -0.11215864 -0.0716038
000250 12 2b fd bc 31 43 92 bd 31 1d 53 bd fa f2 91 3d
       -0.030904327 -0.07141722 -0.05154151 0.07126422
000260 bc 64 3f 3d c3 36 87 3d 8f af c9 bd 6d ce 2d 3c
       0.046726927 0.06602242 -0.09847938 0.010608298
000270 4a 35 56 bc 84 1a 01 bd 31 dd 24 3d 8e ff 5a 3d
       -0.013074229 -0.031519428 0.040250007 0.053466372
000280 01 11 78 3c 42 1b bd 3d 91 64 8b 3c 68 7c 02 3d
       0.015140773 0.09233715 0.017015727 0.031856924
000290 66 f6 a1 bb c1 0f 6f 3d ec c3 7c 3d 42 ae 16 3d
       -0.004942703 0.058364633 0.061710283 0.03678728
0002a0 01 8d 12 bd 04 42 15 bc 97 b7 e4 bd 6d 51 2a bc
       -0.035779003 -0.009109978 -0.111678295 -0.01039539
0002b0 de df 5c 3c 44 65 f5 3d e2 80 b3 3c a8 2c e7 3d
       0.0134811085 0.119822055 0.021912042 0.112878144
0002c0 63 ee cb 3d 98 3a 9a b9 95 87 82 bd 2a d3 27 be
       0.09957578 -0.00029416825 -0.063735165 -0.16389146
0002d0 22 92 a3 bd 53 ef 2d 3c e2 20 2d bd 50 1c 82 bd
       -0.07986857 0.010616141 -0.042267688 -0.063530564
0002e0 09 2b 7d 3c 78 7d ad 3c ec f7 88 3c 79 5d 9e bd
       0.015452155 0.021177992 0.01671978 -0.07732672
0002f0 0e 7c a6 3b a0 78 22 be dc 18 fb 3d e3 47 d6 bd
       0.0050807064 -0.15866327 0.12260601 -0.1046293
000300 56 f8 97 39 b8 84 18 3e a2 d3 f0 b8 e0 2b e7 bd
       0.0002898599 0.14894378 -0.000114835115 -0.11287665
000310 8c 24 88 3d 46 a6 e1 3c 98 0e 30 3d d2 e9 41 bc
       0.06647596 0.027545106 0.042982668 -0.011835532
000320 00 a3 c0 bd f1 a3 68 bd 93 b6 8d bc 70 b3 c0 bd
       -0.0940609 -0.05679697 -0.017298972 -0.09409225
000330 53 d5 27 bd 3d 7b 97 bd 33 b2 63 3c 90 c7 aa bb
       -0.040974926 -0.07396553 0.0138974665 -0.005211778
000340 bd 76 1a 3d 8b 52 4c bd 52 dc 18 bd 3c b2 e7 bc
       0.037710894 -0.049883407 -0.03731949 -0.028283231
000350 f5 59 01 3e 6f 1f da bd b4 eb ce 3b 97 24 11 be
       0.12631972 -0.10650527 0.006314719 -0.14174114
000360 5e a7 84 3d b6 4d f5 bc 5e 3d 8e bd 62 d8 22 be
       0.06477235 -0.029944282 -0.069452986 -0.15902856
000370 8e b4 8b bd fc c2 83 3d 30 80 b2 3d 26 66 dc bd
       -0.068215474 0.06433675 0.08715856 -0.10761671
000380 24 54 0e be 89 fd cf bd d2 a6 b0 3c 3e 30 7f bd
       -0.13899285 -0.1015578 0.021563921 -0.062301867
000390 ed 04 7d 3d f5 88 09 3d 96 85 00 bd 91 72 9c bd
       0.061772276 0.033577878 -0.031377397 -0.07639039
0003a0 9f e5 03 bd 1f d9 42 3d 81 82 b3 bd a6 b5 ef bc
       -0.032201406 0.047570344 -0.08765126 -0.029261421
0003b0 d4 e9 11 3d c0 34 50 bd 62 5c e9 bc fa d1 24 3c
       0.035623387 -0.050831556 -0.028486434 0.010059828
0003c0 0f 36 22 bd d5 b8 a8 bc 22 23 1a 3e 05 e7 f8 3c
       -0.039602336 -0.020595947 0.15052465 0.030383596
0003d0 16 de 18 3c 03 68 2c 3e da b0 14 bc d5 90 99 3d
       0.009330293 0.16836552 -0.009075368 0.07498328
0003e0 a4 b3 9a bc 2d ee 18 3e 51 fd b3 bd 18 c5 41 bb
       -0.018884487 0.14934607 -0.08788551 -0.002956694
0003f0 1d 31 69 3e 38 54 4e bd 55 21 97 3d d4 fe 5f 3c
       0.22772641 -0.050373286 0.073794045 0.013671596

bias f4 [2]
000000 04 6b 1d bb 6c 8f f4 bb
       -0.0024020085 -0.0074633863

W f4 [128, 128]
000000 42 4e 15 3d d1 c8 17 3d c1 ad ea 3d 82 fc 49 3d
       0.036451586 0.037056748 0.11458922 0.049313076
000010 88 d2 b5 3d 45 20 d2 bd b6 3d 77 3d e0 f3 cb 3c
       0.08878046 -0.10260061 0.060361587 0.024896562
000020 8f d2 05 bd fd 90 30 3e b3 63 49 3c f0 f9 37 3c
       -0.032671507 0.17242809 0.012291837 0.011229023
000030 69 28 82 3c e5 cd 80 3d 13 db 1e bd cb 24 72 3d
       0.01588841 0.06289271 -0.038783144 0.05911712
000040 5a cd 82 3d 25 1a 84 3d 2a 79 e2 bd 39 a4 5b bd
       0.06386824 0.06450299 -0.110582665 -0.05362341
000050 15 f3 95 3d 4b cf f7 3c 9d c8 e3 3c a4 4a a0 bc
       0.07321755 0.030250212 0.02780562 -0.019566841
000060 09 c0 a5 3d d9 52 a2 ba 1d c3 3c 3e 50 8b 04 be
       0.080932684 -0.001238431 0.18433805 -0.12943769
000070 4c 06 e1 3c b7 7b 53 bd ed 88 65 3c ef 84 b5 bc
       0.027468823 -0.051631656 0.014009696 -0.022158114
000080 25 d7 96 bd 90 a8 99 bc 40 cf 03 3e 59 8c ca bd
       -0.07365254 -0.018757135 0.12872028 -0.098900504
000090 76 4d 13 3b 07 e9 e1 3b b2 1a 5d bd 2c fe e6 3d
       0.002247659 0.006894234 -0.053980537 0.11278948
0000a0 64 59 9b 3b bb 0e b2 bd 13 c4 db bd 24 d0 3a bd
       0.004740881 -0.08694216 -0.107307576 -0.045608655
0000b0 8d 75 a9 bd d9 62 28 bc db 70 19 3d a0 04 27 bd
       -0.08274374 -0.010277473 0.037461143 -0.040775895
0000c0 5b 14 b8 3d 2c b8 11 3d f6 a3 23 3e 47 c6 b2 bc
       0.089882575 0.03557603 0.15980515 -0.021823062
0000d0 f6 df b1 3c 62 8d 7f 3c 10 61 8c bd 3a b5 19 3e
       0.021713238 0.015597673 -0.06854451 0.15010539
0000e0 e7 26 c2 3c 2e 27 13 3e 85 01 da ba 65 f7 93 bd
       0.02370019 0.14370415 -0.0016632533 -0.07224921
0000f0 b8 96 bd 3d 4c 07 04 be cb 79 15 bc e5 be 49 bd
       0.09257263 -0.12893409 -0.009123276 -0.049254317
000100 fc 13 8e 3c b1 37 87 3d 2f c0 20 be 37 c3 2b bd
       0.017343514 0.06602419 -0.15698312 -0.04193422
000110 18 eb 8b bd a8 d0 b5 bd f5 7b d6 bc 3d dc 1a bd
       -0.0683195 -0.08877689 -0.026182154 -0.03780769
000120 d9 46 17 be 3f 46 17 3d ce 2c a5 3d f4 e3 b2 bd
       -0.1477312 0.036932226 0.080651864 -0.08734885
000130 ca 47 83 3c 5f 2b 50 be 8f 4c 08 bd e2 cb d9 3c
       0.016025443 -0.20329045 -0.033276137 0.026586477
000140 85 21 e8 bc ac 69 c2 3c 92 7e 31 bd 61 58 95 3a
       -0.028336296 0.023732029 -0.043333597 0.0011394137
000150 95 8f 42 bd 89 7c 2e be ac 2a c9 bc cc af 8d bd
       -0.04750021 -0.17039694 -0.02455648 -0.06918296
000160 c8 dd 06 3e d3 b3 b3 3c f5 35 29 bd 6d 58 01 3d
       0.1317054 0.021936333 -0.041311223 0.03157847
000170 eb e9 70 3d 52 7a 07 bc 2a bc 43 3c e9 0e 5f 3d
       0.05881683 -0.0082689095 0.011946717 0.05445758
000180 39 52 12 3e b0 fb 57 3d f5 3e bc 3d 51 2e b0 bd
       0.14289178 0.052730262 0.091916956 -0.08602584
000190 85 2b b6 bc 07 e0 38 3d 08 3e ab bd c8 36 11 3e
       -0.022237549 0.045135524 -0.08361441 0.14181054
0001a0 56 39 59 3c 62 e9 32 3e b6 2f 91 3c e6 2e 0f be
       0.013258299 0.17471841 0.017722946 -0.13982734
0001b0 e8 1a ba 3c 46 07 cd bd 92 bd e4 3d 00 c0 fa 3c
       0.022717908 -0.10011153 0.1116897 0.03060913
0001c0 b5 20 a6 bd 9d cd 1f 3d 48 87 2f 3b 2a f0 ca bd
       -0.08111707 0.039014447 0.0026783515 -0.09909089
0001d0 f9 7c 4e bd 2f 80 b5 bd 13 8e 8e 3b 59 1e 90 3c
       -0.050412152 -0.0886234 0.0043504327 0.017592596
0001e0 4b e5 c4 bc 1f e6 32 3d 20 de 85 3d dd bc 9b bb
       -0.024035117 0.04367649 0.065365076 -0.004752739
0001f0 b6 36 f7 bc 39 4d aa 3d 7e cb 32 3a 7b 50 0e 3e
       -0.030177455 0.0831551 0.0006820484 0.13897888
000200 63 0c bf 3c 33 ca f1 bc 16 11 97 bd f9 ca 2b 3e
       0.023321336 -0.029515361 -0.07376306 0.16776647
000210 8b bc 13 bd ff 2d ab 3c 82 04 26 3e 83 86 56 3b
       -0.03606848 0.020895956 0.16212657 0.0032733984
000220 1d 2c 19 be 36 a4 0a be cb ac cf 3c 6a d3 ba 3c
       -0.14958234 -0.13539204 0.025350949 0.022805888
000230 07 2c a7 3c ca d3 cf 3c 76 bb c3 bd 58 dd 3d 3e
       0.020406736 0.025369544 -0.0955724 0.18541467
000240 00 84 ca 3d cf 87 89 3c db 50 4c 3e 20 a6 38 bd
       0.09888458 0.016788391 0.19952719 -0.045080304
000250 39 e0 f9 36 b4 a0 d5 3d 48 a7 75 bc 2e 07 3f be
       7.446881e-06 0.10431042 -0.014993496 -0.18655083
000260 c9 ef 04 3d c7 be 17 be f9 01 80 bd 71 c8 d8 3c
       0.03245524 -0.1481887 -0.06250376 0.026462765
000270 57 bb 87 3d 70 da 4d 3e 39 3e 9a 3d c3 e6 2f 3e
       0.06627529 0.20102859 0.07531399 0.17177872
000280 61 ab 2c be 39 46 67 3d 63 5c 91 bd 1a 0f 08 be
       -0.16862251 0.056463454 -0.070976995 -0.13287011
000290 af 7e f6 b9 81 5b ad 3a 3f b6 d5 3c 01 9a d3 bb
       -0.00047015163 0.0013226123 0.026087878 -0.0064575677
0002a0 0b 8e 57 3e 03 2c 26 3d cb c5 d3 38 dd 98 51 3d
       0.21050279 0.040569317 0.00010098106 0.051171172
0002b0 29 c7 b2 bd 86 dd dc bd fe 3e 2e bd 8c ba a1 bd
       -0.08729393 -0.1078444 -0.042540543 -0.07896909
0002c0 7b bc 21 3a 62 d2 3c 3e 67 94 d1 bb 24 ac 09 3e
       0.00061697484 0.1843963 -0.0063958648 0.13444573
0002d0 77 61 31 3e ab c8 20 3c 7e 41 ed 3d c1 08 08 be
       0.17322336 0.009813468 0.11584757 -0.1328459
0002e0 ec 11 e3 bd 23 18 28 3d db fc 14 3e a0 45 c4 3c
       -0.11087403 0.041038644 0.14549582 0.023958981
0002f0 54 60 c1 3c 63 f8 92 bc 4b f8 03 3e 85 b7 20 3e
       0.023605503 -0.017940706 0.12887685 0.15695007
000300 51 93 3e bd cb 47 8c 3d 76 2a bb 3d 23 5b 92 bd
       -0.04652721 0.06849631 0.09138958 -0.07146289
000310 9e 64 1a bd 62 48 00 be 1b 78 b0 3d 57 66 7f 3d
       -0.037693612 -0.12527612 0.08616658 0.06235346
000320 42 85 cd bc a2 7d 95 bc 7d 77 61 bd a7 b2 b7 ba
       -0.025087956 -0.018248383 -0.055045594 -0.0014015035
000330 f0 4c 22 bd 89 93 22 bc 56 39 ab bd 5d c9 8c 3d
       -0.039624155 -0.00992287 -0.08360545 0.068743445
000340 3e cf bc bc 9b 45 9e bd 9e 44 80 bc 1a c9 b3 bd
       -0.02304804 -0.0772812 -0.01565772 -0.087785915
000350 04 8a 3c bc ac f7 8f 3b 5f 64 d1 bc f3 d9 c4 bc
       -0.011507515 0.0043935385 -0.025560556 -0.024029708
000360 c5 ff 43 bc 9a 68 a5 3c ec 99 2b 3d 82 38 ac 3d
       -0.011962836 0.02019148 0.04189484 0.084092155
000370 1d 21 00 3d 5f 87 3a 3d 06 61 85 3d fe d9 fa 3d
       0.03128158 0.045539256 0.065126464 0.1224861
000380 71 c8 57 3d 81 d4 9c 3c af 59 a9 3d 69 99 cb bc
       0.05268139 0.019144299 0.08269059 -0.024853425
000390 fb 38 cd ba 45 ad cf bd 57 3a 0d 3d ac cd 0d be
       -0.001565724 -0.101404704 0.034479465 -0.13847989
0003a0 56 5e d4 bd fb 30 8f bd b5 f5 86 bd 5b d4 03 be
       -0.10369556 -0.06991764 -0.06589834 -0.12873976
0003b0 50 76 36 bd 33 7d 3d bd e5 1d 26 3d 10 78 5a bc
       -0.044546425 -0.046261977 0.040555853 -0.013334289
0003c0 f3 d0 b4 bd 8a 7e 8c 3c 7f e7 0d 3c 60 12 0e 3e
       -0.088289164 0.017150182 0.00866115 0.13874197
0003d0 43 cf 42 bc a9 1f 85 bb 34 55 02 3d be 1a 31 3e
       -0.011890235 -0.004062612 0.031819537 0.17295358
0003e0 e4 55 00 bc ce 34 78 be 41 11 d2 bc a9 0b 0b be
       -0.007832978 -0.24238893 -0.025642993 -0.13578667
0003f0 a1 12 b2 bd b1 2f c3 bc 63 a7 b5 3c d7 ba 8d 3d
       -0.086949594 -0.023826452 0.022174543 0.069204025
