LeakyRNN_11.28/1202/sg_3_128_d10_r7_1/model_204.pth (torch, 137244 bytes, 5 tensors)

weight f4 [128, 128]
-0.19027697 -0.18996833 -0.20653489 -0.28311786 -0.228419 -0.18986413 -0.22224209 -0.26860452
-0.29085737 -0.22371306 -0.2913479 -0.2390648 -0.25936893 -0.23522165 -0.23072815 -0.4100542
-0.31644338 -0.5370826 -0.46437043 -0.20062558 -0.5089058 -0.26930988 -0.5492682 -0.18992995
-0.19022653 -0.52255285 -0.3058405 -0.19014905 -0.32471463 -0.2389891 -0.27185303 -0.22032668
-0.18590252 -0.2905054 -0.62341595 -0.33564413 -0.23850517 -0.3221774 -0.19007048 -0.20344052
-0.23032999 -0.4764264 -0.26085824 -0.18172054 -0.27226508 -0.1901319 -0.2934243 -0.34611747
-0.58959687 -0.23101321 -0.5904798 -0.19028534 -0.20955852 -0.1898981 -0.21414357 -0.190652
-0.3333786 -0.34316903 -0.6405712 -0.2774325 -0.24378645 -0.24268675 -0.24705438 -0.26088986
-0.29159558 -0.25343278 -0.21372382 -0.23889393 -0.28979415 -0.23620516 -0.49123222 -0.2083973
-0.19010904 -0.23332405 -0.225661 -0.23740233 -0.17689146 -0.24065347 -0.27425215 -0.24746607
-0.19019397 -0.22373348 -0.31726262 -0.2004929 -0.21922591 -0.7422242 -0.36312822 -0.2674466
-0.38410988 -0.28683034 -0.2553714 -0.26116902 -0.25064746 -0.30701923 -0.2430454 -0.22857963
-0.20451449 -0.18994354 -0.21004878 -0.2480109 -0.21094812 -0.33194414 -0.19004698 -0.2841161
-0.29080808 -0.19011916 -0.20678245 -0.18999642 -0.42709878 -0.37515914 -0.27184615 -0.19040787
-0.19034582 -0.3630258 -0.19032907 -0.32390305 -0.46331245 -0.19012038 -0.33653647 -0.19027433
-0.21184714 -0.43586 -0.18519412 -0.19014525 -0.4144786 -0.1901592 -0.47827634 -0.23384759
-0.1914078 -0.19122061 -0.20768018 -0.28385183 -0.22997575 -0.19118322 -0.22389576 -0.26908582
-0.29256755 -0.22459204 -0.2924087 -0.24031074 -0.26065347 -0.23677057 -0.23525114 -0.41274455
-0.3187605 -0.539361 -0.4682727 -0.20247924 -0.51137614 -0.26977563 -0.54902667 -0.19118452
-0.1913445 -0.5250409 -0.30609968 -0.19129236 -0.32805958 -0.2424732 -0.27428138 -0.22201318
-0.18759024 -0.29380718 -0.6244107 -0.33837214 -0.2404966 -0.32329372 -0.19129167 -0.20450841
-0.23104312 -0.47955275 -0.26373017 -0.18352158 -0.27238396 -0.19131342 -0.29418683 -0.3474359
-0.593399 -0.23250066 -0.5902832 -0.19136783 -0.21159548 -0.19121453 -0.2153851 -0.19197989
-0.33640894 -0.34729898 -0.64106286 -0.2777874 -0.24330541 -0.24441591 -0.24809457 -0.2642632
-0.29425928 -0.25581732 -0.2140767 -0.23936945 -0.29226536 -0.23894334 -0.49373442 -0.20947297
-0.19128647 -0.23628013 -0.22747493 -0.23935981 -0.17865121 -0.24320921 -0.27872092 -0.24949098
-0.19141081 -0.22257997 -0.31737292 -0.20169252 -0.2210215 -0.7481739 -0.36355656 -0.26703548
-0.38561395 -0.2891337 -0.25657314 -0.26239446 -0.25204185 -0.30724835 -0.243691 -0.230771
-0.20545882 -0.19119841 -0.2109375 -0.2521343 -0.21150823 -0.33477616 -0.19130753 -0.2868253
-0.2930164 -0.19130626 -0.20821312 -0.1912244 -0.4286349 -0.3777322 -0.27349022 -0.19147754
-0.19151703 -0.36451098 -0.19147213 -0.32595018 -0.46646175 -0.19131851 -0.33953637 -0.19142134
-0.21405077 -0.43129218 -0.18736719 -0.19137184 -0.41661584 -0.19135846 -0.47996524 -0.23514174
00000000: f7d7 42be 0f87 42be e27d 53be d3f4 90be
00000010: ace6 69be be6b 42be 6e93 63be 8886 89be
00000020: 42eb 94be 0915 65be 8d2b 95be 67cd 74be
00000030: 01cc 84be f2dd 70be 0044 6cbe a0f2 d1be
00000040: de04 a2be 3f7e 09bf f6c1 edbe cb70 4dbe
00000050: a747 02bf fce2 89be d79c 0cbf ff7c 42be
00000060: beca 42be 06c6 05bf 2097 9cbe 6fb6 42be
00000070: ff40 a6be 8fb9 74be 5230 8bbe 519d 61be
00000080: 3b5d 3ebe 20bd 94be 3098 1fbf 8cd9 abbe
00000090: b33a 74be 70f4 a4be d6a1 42be b652 50be
000000a0: a0db 6bbe 29ee f3be 368f 85be f314 3abe
000000b0: 5466 8bbe f0b1 42be b63b 96be 4f36 b1be
000000c0: d2ef 16bf ba8e 6cbe af29 17bf 29da 42be
000000d0: 8296 56be a674 42be 7448 5bbe 473a 43be
000000e0: 9ab0 aabe dab3 afbe 79fc 23bf a20b 8ebe
000000f0: 28a3 79be e082 78be d3fb 7cbe 5b93 85be
00000100: 044c 95be f1c1 81be 6bda 5abe 9ca0 74be
00000110: e65f 94be c4df 71be ca82 fbbe 1a66 55be
00000120: f2ab 42be 80ec 6ebe ad13 67be 9919 73be
00000130: 0923 35be dd6d 76be c76a 8cbe bf67 7dbe
00000140: 35c2 42be 641a 65be 3f70 a2be 034e 4dbe
00000150: c27c 60be 6802 3ebf f1eb b9be c3ee 88be
00000160: 0daa c4be 6ddb 92be 0ac0 82be f2b7 85be
00000170: dd54 80be a031 9dbe e5e0 78be c710 6abe
00000180: 3f6c 51be 8f80 42be 0717 57be 92f6 7dbe
00000190: c902 58be 95f4 a9be ad9b 42be aa77 91be
000001a0: cce4 94be 99ae 42be c7be 53be 6c8e 42be
000001b0: b1ac dabe dc14 c0be 6b2f 8bbe 48fa 42be
000001c0: 04ea 42be 85de b9be a0e5 42be 9fd6 a5be
000001d0: 4a37 edbe ebae 42be 824e acbe 46d7 42be
000001e0: 75ee 58be 0b29 dfbe 87a3 3dbe 70b5 42be
000001f0: 8a36 d4be 18b9 42be a3e0 f4be be75 6fbe
00000200: 6800 44be 56cf 43be 1daa 54be 0755 91be
00000210: c37e 6bbe 89c5 43be ee44 65be 9ec5 89be
00000220: 6acb 95be 75fb 65be 98b6 95be 0514 76be
00000230: 5f74 85be fc73 72be ade5 70be 4153 d3be
00000240: 9434 a3be 9013 0abf 70c1 efbe b856 4fbe
00000250: 8ce9 02bf 0820 8abe 038d 0cbf e0c5 43be
00000260: d0ef 43be 1569 06bf 19b9 9cbe 25e2 43be
00000270: 6df7 a7be e54a 78be 9c6e 8cbe 6c57 63be
00000280: a817 40be e56d 96be 61d9 1fbf 1d3f adbe
00000290: be44 76be c186 a5be f7e1 43be a76a 51be
000002a0: 9196 6cbe f087 f5be a407 87be 15ed 3bbe
000002b0: e975 8bbe aae7 43be a89f 96be 1ee3 b1be
000002c0: ffe8 17bf a714 6ebe cd1c 17bf eef5 43be
000002d0: 7cac 58be becd 43be e98d 5cbe 6096 44be
000002e0: cb3d acbe 2cd1 b1be b21c 24bf 263a 8ebe
000002f0: 0e25 79be 2a48 7abe 810c 7ebe 824d 87be
00000300: 27a9 96be 7dfa 82be ec36 5bbe 441d 75be
00000310: cea3 95be 90ad 74be c2ca fcbe 1580 56be
00000320: 9ae0 43be 6bf3 71be 30ef 68be bd1a 75be
00000330: 58f0 36be d60b 79be 82b4 8ebe 907a 7fbe
00000340: 3201 44be 01ec 63be b47e a2be 7c88 4ebe
00000350: 7653 62be 5388 3fbf 1624 babe e0b8 88be
00000360: 316f c5be 5509 94be 8e5d 83be 9158 86be
00000370: a10b 81be a84f 9dbe 228a 79be 3c4f 6cbe
00000380: cc63 52be 84c9 43be 0000 58be bf17 81be
00000390: 9d95 58be c867 abbe 1fe6 43be c4da 92be
000003a0: 3f06 96be cae5 43be d235 55be 54d0 43be
000003b0: 0976 dbbe 1d66 c1be e906 8cbe b012 44be
000003c0: 0a1d 44be 2fa1 babe 4511 44be f1e2 a6be
000003d0: 13d4 eebe 00e9 43be b6d7 adbe f503 44be
000003e0: 2030 5bbe 54d2 dcbe 2fdd 3fbe fbf6 43be
000003f0: ac4e d5be 79f3 43be 01be f5be ffc8 70be

weight f4 [128, 3]
0.000287305 -0.0017121468 0.00038219086 0.0005166952 -0.0018178525 0.00030267594 -0.039237984 -0.010465902
0.008384776 -0.1323433 -0.05196664 -0.11682658 -0.016301868 0.04507002 -0.035701897 0.00053257024
-0.0019262811 0.00036045982 -0.04619711 -0.061378725 0.12486629 -0.053108945 0.02337062 -0.05045841
-0.0184749 0.35710716 1.5201074 -0.007822794 0.19225839 -0.0371416 -0.21049783 0.025804237
-0.27546892 0.18605877 0.06000055 0.21007916 -0.09704228 -0.09653988 -0.0383827 -0.01827303
0.074584775 -0.07661948 -0.04603176 0.26347023 -0.08243688 0.0597856 0.083305515 -0.40980217
0.14771867 -0.057453934 -0.16396387 0.30651367 -1.0105263 0.12002935 0.33968717 -0.08642313
0.0011964608 0.006268713 -0.0007341187 0.038759843 -0.33824793 0.0796209 -0.27667964 -0.1390794
0.022224242 -0.056202598 -0.0854105 -0.085092194 -0.30343533 0.0005572172 -0.001776691 0.000322892
0.00035100416 -0.0016442322 0.00040263112 -0.10920827 0.30940288 -0.1525401 -0.20333928 -0.09832282
-0.3057921 0.00042460073 -0.0016334187 0.00038318173 0.015483307 -0.08470281 0.06237646 0.26841044
-0.11296936 -0.011211154 0.10290095 -0.056679342 -0.19620535 0.16732499 0.16004388 -0.056833323
-0.015914088 0.14250813 -0.02455559 0.10556247 -0.11656402 -0.113756925 0.20967363 -0.111450955
-0.17979912 -0.063793525 0.041426007 0.052792687 0.076656975 0.11621271 -0.03658843 0.27867326
-0.20970576 -0.05845281 0.00046734515 -0.0017846127 0.00036210942 -0.036879398 -0.04352012 -0.01455957
-0.09212896 -0.03122185 -0.06747299 -1.7490972 1.5675055 -0.749136 -0.07031513 -0.11415651
0.16116236 -0.036269236 0.015693849 0.027824005 0.08126486 -0.010772126 -0.0346359 0.00039965103
-0.0017454821 0.0003533864 0.043593753 0.0029031273 -0.1649231 0.030843796 0.12454136 0.013964555
-2.8723521 0.26857445 0.8341985 0.0009381849 0.001663735 0.05930971 1.8331034 2.7173378
-1.3095781 0.00021945641 -0.0016224894 0.00046983073 0.033512276 0.004401291 -0.006085867 0.0005045574
-0.001955942 0.00035396978 -0.016310638 0.050572805 -0.049381975 -0.0009458621 -0.0030622284 -0.00020037814
-0.117700875 0.0816049 0.024528947 0.39422676 -0.50775445 0.025808476 0.31826022 -0.04285093
0.19066574 0.019097153 0.0012289236 -0.004952369 -0.06189352 0.06144407 -0.020139612 -0.05530584
0.051246554 -0.09460368 -0.036718715 -0.067376114 0.016119275 0.1142798 -0.08209841 -0.11285965
-0.2108652 -0.0038554298 -0.027939744 -0.07844984 -0.15987484 -0.15251128 0.021556875 -0.012789179
0.064285636 -0.028849117 0.059247065 0.099277794 -0.061833058 0.019734014 -0.13481718 0.09829886
-0.02701376 -0.15683267 0.21255861 0.019075856 -0.21691848 0.005952517 -0.005417046 -0.01345871
0.00047243695 -0.0017044052 0.00035225382 -0.09649151 0.10442423 -0.06585859 -0.046172794 -0.0064154007
-0.055564623 0.15077066 -0.061194904 0.050283697 -0.008120661 0.036202732 -0.017264685 0.097755484
0.19263464 -0.06822605 -0.2491912 0.2026626 -0.08266492 0.06117991 -0.08252734 -0.009378986
0.00033377577 -0.0018706911 0.00042362532 -0.18770418 -0.0008631996 0.023491956 0.03608767 0.057216372
-0.09803812 -0.0060246508 0.0067016706 0.056823958 0.03718277 0.066323295 0.04093515 0.17878257
00000000: 6da1 9639 1d6a e0ba ca60 c839 d472 073a
00000010: 0245 eeba 7ab0 9e39 02b8 20bd 2d79 2bbc
00000020: 4d60 093c 0185 07be f9da 54bd c642 efbd
00000030: 7f8b 85bc 579b 383d 273c 12bd 2f9c 0b3a
00000040: 457b fcba 19fc bc39 2e39 3dbd 4268 7bbd
00000050: e6b9 ff3d c488 59bd be73 bf3c 7aad 4ebd
00000060: ac58 97bc c0d6 b63e e192 c23f 2d2b 00bc
00000070: 62df 443e ca21 18bd be8c 57be 6863 d33c
00000080: 430a 8dbe 3186 3e3e 23c3 753d fe1e 573e
00000090: 1abe c6bd b3b6 c5bd 2e37 1dbd 52b1 95bc
000000a0: e7bf 983d adea 9cbd cc8b 3cbd 92e5 863e
000000b0: abd4 a8bd bfe1 743d 159c aa3d 97d1 d1be
000000c0: 9043 173e d154 6bbd 25e6 27be 5cef 9c3e
000000d0: ed58 81bf f3d1 f53d 7aeb ad3e 9cfe b0bd
000000e0: 90d2 9c3a c769 cd3b df71 40ba a4c2 1e3d
000000f0: d52e adbe 4810 a33d f4a8 8dbe d56a 0ebe
00000100: 9d0f b63c b234 66bd b3eb aebd d144 aebd
00000110: e05b 9bbe 3712 123a dbdf e8ba d549 a939
00000120: fb06 b839 4783 d7ba 3c18 d339 96a8 dfbd
00000130: 0e6a 9e3e 7933 1cbe 2c38 50be 7a5d c9bd
00000140: c890 9cbe f29c de39 7018 d6ba c8e5 c839
00000150: b2ad 7d3c ab78 adbd 757e 7f3d 186d 893e
00000160: 7b5c e7bd fdae 37bc bcbd d23d 9928 68bd
00000170: 0eea 48be 3e57 2b3e 8be2 233e 0fca 68bd
00000180: 435e 82bc a7ed 113e ce28 c9bc 2331 d83d
00000190: 1eb9 eebd 64f9 e8bd afb4 563e 6640 e4bd
000001a0: 431d 38be 2ea6 82bd 51ae 293d 253d 583d
000001b0: 55fe 9c3d ee00 ee3d c0dd 15bd 43ae 8e3e
000001c0: 1bbd 56be 376c 6fbd 0106 f539 aae9 e9ba
000001d0: 81d9 bd39 da0e 17bd 2742 32bd 438b 6ebc
000001e0: 1cae bcbd f7c4 ffbc 472f 8abd 6be2 dfbf
000001f0: 05a4 c83f 60c7 3fbf 6101 90bd e3ca e9bd
00000200: bf07 253e 0d8f 14bd 6390 803c 2bef e33c
00000210: 316e a63d 927d 30bc 60de 0dbd 4188 d139
00000220: a9c8 e4ba b846 b939 5d8f 323d 6542 3e3b
00000230: 9ae1 28be 21ac fc3c 8a0f ff3d 97cb 643c
00000240: 9ed4 37c0 9782 893e 088e 553f 86f0 753a
00000250: af11 da3a bdee 723d 22a3 ea3f dde8 2d40
00000260: 41a0 a7bf e21d 6639 b6a9 d4ba 9d53 f639
00000270: 2b44 093d b438 903b f46b c7bb 4644 043a
00000280: 432f 00bb 0595 b939 e39d 85bc 6e25 4f3d
00000290: c144 4abd bbf3 77ba abaf 48bb 991c 52b9
000002a0: 280d f1bd 7820 a73d eef0 c83c 17d8 c93e
000002b0: 32fc 01bf 4c6c d33c 01f3 a23e 7584 2fbd
000002c0: e13d 433e a271 9c3c d513 a13a 7b47 a2bb
000002d0: 0f84 7dbd c7ac 7b3d d4fb a4bc 6088 62bd
000002e0: e8e7 513d 93bf c1bd 5d66 16bd 7dfc 89bd
000002f0: 920c 843c 870b ea3d 3623 a8bd f622 e7bd
00000300: 0ced 57be 61ab 7cbb e4e1 e4bc 4faa a0bd
00000310: 3bb6 23be eb2b 1cbe 0b98 b03c b489 51bc
00000320: 30a8 833d fc54 ecbc 0dad 723d 2852 cb3d
00000330: a944 7dbd 3aa9 a13c 840d 0abe ea50 c93d
00000340: f64b ddbc be98 20be f7a8 593e f844 9c3c
00000350: e11f 5ebe 550d c33b 7a81 b1bb ec81 5cbc
00000360: 6ab1 f739 5966 dfba b5ae b839 579d c5bd
00000370: 5fdc d53d dee0 86bd af1f 3dbd 4838 d2bb
00000380: bb97 63bd a063 1a3e 82a7 7abd 47f6 4d3d
00000390: 850c 05bc 5149 143d ab6e 8dbc 0734 c83d
000003a0: 0442 453e 19ba 8bbd fa2b 7fbe c986 4f3e
000003b0: 3a4c a9bd c997 7a3d 1804 a9bd 52aa 19bc
000003c0: a0fe ae39 fa31 f5ba 071a de39 8635 40be
000003d0: 5848 62ba 3472 c03c aad0 133d b75b 6a3d
000003e0: 36c8 c8bd 6f6a c5bb b099 db3b 3dc0 683d
000003f0: f64c 183d 82d4 873d 9eab 273d c712 373e

weight f4 [2, 128]
-0.023701707 -0.023087366 -0.0021771942 0.1447579 0.035728186 -0.022547957 -0.21604724 -0.11038897
-0.13889506 -0.017563809 -0.23101097 0.3195028 0.519301 -0.38247466 -0.2844114 0.064368926
-0.21665862 0.1653828 -0.2659552 0.0727845 0.12649278 0.13135862 0.00010979479 -0.022843739
-0.023423502 -0.35960597 -0.087700546 -0.023185674 0.20949794 -0.1358418 -0.07140343 0.48789692
0.37251452 -0.4451137 0.30572662 0.3296729 0.013982077 0.2555817 -0.022982704 0.12626614
0.42984775 0.1443518 0.1993766 0.12261442 0.23227252 -0.02333891 -0.36802876 0.20997398
-0.08224089 -0.24294326 0.047412734 -0.023378115 0.010677583 -0.022649411 0.08393262 -0.051116858
0.10904417 0.19503936 -0.3124131 -0.020647889 -0.215747 -0.0005770602 0.11710964 -0.14324342
0.31278753 0.30540717 0.025558027 -0.17759378 -0.3783537 0.06514084 0.06833826 -0.00091056543
-0.023221646 0.25561365 0.20111102 0.03085356 0.38149902 -0.026522204 0.4088587 -0.025325969
-0.023058765 0.068082385 -0.12309453 0.0454678 -0.15744105 0.12070595 0.125848 -0.24367867
0.25468138 -0.30149996 0.042458165 -0.2883048 -0.16903202 -0.25002965 -0.03852209 0.038490385
0.017063988 -0.022775378 -0.010318711 0.023336742 -0.49343237 -0.20478918 -0.023138177 0.13980822
0.14081734 -0.0233181 0.3835096 -0.022420742 -0.017526872 -0.23520818 0.100941494 -0.02413792
-0.023995616 -0.26195753 -0.023284975 0.2094443 0.010070484 -0.023206118 -0.007275796 -0.023497898
-0.20160718 0.09717471 -0.52699643 -0.023017794 0.061507147 -0.023057442 -0.17742851 -0.030535093
-0.010029843 -0.011058322 -0.36750987 0.14071079 -0.017177356 -0.01157028 0.12921183 0.005194635
0.35347736 0.05143954 -0.19859715 -0.064186454 0.23097923 -0.10853559 0.6546938 -0.31973717
0.08315551 -0.38882086 -0.15746863 0.06807202 -0.30098727 0.08375294 -0.029864011 -0.011067122
-0.00987631 0.07791422 -0.05843502 -0.01009709 -0.09569999 -0.002019547 -0.2492444 0.69015545
-0.080555364 0.37979686 0.20295402 0.013306793 -0.20197123 -0.55696154 -0.010766636 -0.0012401928
-0.08411279 0.115721874 -0.33683738 0.17790294 0.09406077 -0.010425454 0.18136537 -0.11600282
-0.16612197 0.18505526 -0.31199834 -0.009480575 -0.038757987 -0.011572843 0.037073273 -0.07000276
0.08727855 0.13532172 0.8123935 -0.14207183 -0.28418 -0.056275133 -0.010475524 0.18917857
-0.03089696 0.077916555 -0.38329738 0.015930792 0.14549556 -0.027662415 0.09527011 -0.030997429
-0.010444083 0.25833187 0.15768324 0.12776282 -0.14892699 -0.2316912 0.11496373 -0.15627019
-0.01066166 0.19123015 -0.33856237 0.14993171 0.04888108 -0.0047885017 0.07139545 -0.05978647
0.1617674 0.061261263 0.021346835 0.11191673 0.055157937 -0.31491575 0.06521716 0.16052455
0.07848811 -0.011023156 -0.10147548 -0.15537436 -0.44465086 -0.19063345 -0.01116586 -0.1850748
-0.14953765 -0.010490225 -0.004810302 -0.010682105 0.0018822228 0.49464494 0.2679669 -0.009394383
-0.008947224 0.1385642 -0.01002566 -0.24149747 -0.29961336 -0.010606056 0.21155542 -0.010142935
-0.19623402 -0.013626109 0.08392419 -0.010751727 -0.02910303 -0.01056833 -0.07893942 0.067628615
00000000: 152a c2bc b721 bdbc 42af 0ebb 6a3b 143e
00000010: b857 123d 7eb6 b8bc 7d3b 5dbe 9d13 e2bd
00000020: 823a 0ebe fae1 8fbc 248e 6cbe df95 a33e
00000030: e9f0 043f b8d3 c3be 5f9e 91be dbd3 833d
00000040: c2db 5dbe 1c5a 293e 482b 88be 0a10 953d
00000050: 5387 013e e082 063e a141 e638 cb22 bbbc
00000060: a5e2 bfbc 461e b8be 589c b3bd e2ef bdbc
00000070: a186 563e 1d1a 0bbe f63b 92bd a0cd f93e
00000080: 39ba be3e f1e5 e3be 3388 9c3e e3ca a83e
00000090: 1515 653c 9bdb 823e 3946 bcbc e94b 013e
000000a0: 0115 dc3e f5d0 133e 6129 4c3e 451d fb3d
000000b0: d9d8 6d3e 3e31 bfbc 446e bcbe 6b03 573e
000000c0: e96d a8bd 1ec6 78be db33 423d 7683 bfbc
000000d0: 07f1 2e3c 428b b9bc dee4 ab3d e95f 51bd
000000e0: 8d52 df3d 66b8 473e 9cf4 9fbe c325 a9bc
000000f0: c8ec 5cbe db45 17ba 2ed7 ef3d 67ae 12be
00000100: b025 a03e 545e 9c3e 115f d13c 25db 35be
00000110: 93b7 c1be 9068 853d eef4 8b3d 03b3 6eba
00000120: 523b bebc cbdf 823e 0cf0 4d3e 9bc0 fc3c
00000130: d753 c33e 1845 d9bc ed55 d13e 6878 cfbc
00000140: bce5 bcbc c76e 8b3d fc18 fcbd 723c 3a3d
00000150: 3a38 21be ae34 f73d 4cde 003e e786 79be
00000160: 9965 823e 345e 9abe 9de8 2d3d b09c 93be
00000170: bb16 2dbe e303 80be 57c9 1dbd 18a8 1d3d
00000180: c7c9 8b3c 6e93 babc d00f 29bc b22c bf3c
00000190: 2ba3 fcbe 41b4 51be 468c bdbc e329 0f3e
000001a0: 6c32 103e 9a05 bfbc 5f5b c43e b4ab b7bc
000001b0: 8494 8fbc 6ada 70be 6aba ce3d e3bc c5bc
000001c0: 7492 c4bc 4c1f 86be 22c0 bebc 9178 563e
000001d0: acfe 243c c21a bebc cd69 eebb aa7e c0bc
000001e0: 1d72 4ebe 8903 c73d 3de9 06bf d08f bcbc
000001f0: ebee 7b3d f6e2 bcbc d2af 35be bb24 fabc
00000200: 3654 24bc f72d 35bc 412a bcbe 7d16 103e
00000210: 87b7 8cbc 4691 3dbc 1b50 043e c237 aa3b
00000220: fcfa b43e 44b2 523d 0d5d 4bbe 3074 83bd
00000230: d285 6c3e e847 debd 039a 273f 97b4 a3be
00000240: 704d aa3d 8713 c7be 753f 21be 5869 8b3d
00000250: 011b 9abe a986 ab3d 5fa5 f4bc e052 35bc
00000260: 3fd0 21bc 7e91 9f3d 8f59 6fbd 446e 25bc
00000270: 5bfe c3bd 605a 04bb ed39 7fbe 07ae 303f
00000280: 36fa a4bd bc74 c23e 2ed3 4f3e bc04 5a3c
00000290: 8cd1 4ebe 0895 0ebf 8b66 30bc f78d a2ba
000002a0: 5443 acbd 97ff ec3d f375 acbe 302c 363e
000002b0: efa2 c03d 86cf 2abc d8b7 393e e392 edbd
000002c0: e11b 2abe 207f 3d3e 3fbe 9fbe 6a54 1bbc
000002d0: b2c0 1ebd 069c 3dbc 25da 173d 9b5d 8fbd
000002e0: 19bf b23d c791 0a3e 05f9 4f3f 477b 11be
000002f0: 0a80 91be c180 66bd 88a1 2bbc 07b8 413e
00000300: 9f1b fdbc b792 9f3d 8e3f c4be 4b81 823c
00000310: cafc 143e 4a9c e2bc fa1c c33d 52ee fdbc
00000320: a91d 2bbc 1344 843e b777 213e 42d4 023e
00000330: 5180 18be 7540 6dbe 1b72 eb3d 4b05 20be
00000340: 3eae 2ebc d6d1 433e 0c58 adbe b387 193e
00000350: 8737 483d dde8 9cbb c737 923d a8e2 74bd
00000360: 5aa6 253e 17ed 7a3d 8fdf ae3c 9934 e53d
00000370: 4aed 613d a33c a1be 9390 853d 8c60 243e
00000380: 60be a03d 789a 34bc 60d2 cfbd 751a 1fbe
00000390: 47a9 e3be 6a35 43be 03f1 36bc 4084 3dbe
000003a0: 6620 19be 31df 2bbc bd9f 9dbb ff03 2fbc
000003b0: ebb4 f63a 1a42 fd3e f532 893e e6ea 19bc
000003c0: 6197 12bc c6e3 0d3e aa42 24bc 1d4b 77be
000003d0: ec66 99be 06c5 2dbc fca1 583e 8e2e 26bc
000003e0: 92f1 48be 0b40 5fbc 72e0 ab3d 0328 30bc
000003f0: 7a69 eebc ca26 2dbc feaa a1bd df80 8a3d

bias f4 [2]
-0.09701859 0.031763818
00000000: afb1 c6bd c71a 023d

W f4 [128, 128]
-0.08507169 -0.10936276 0.0052793277 -0.13279991 0.19276208 0.040790066 -0.15037498 -0.010809585
-0.016018076 0.1195706 0.18108065 -0.05713563 0.17211308 0.14325304 0.0771446 -0.21380754
-0.009410964 0.06771886 -0.106064335 -0.017109232 0.12802209 -0.09001048 0.06157143 -0.21209526
-0.1594424 0.10864474 0.07544677 -0.05231746 -0.10394545 0.01444939 -0.0949966 -0.007528949
-0.054435294 -0.3113768 -0.10320698 -0.013018095 0.024921386 0.1488878 -0.13136314 -0.037903503
-0.07982397 0.035712738 -0.002929478 -0.19982131 0.09394649 0.12732178 0.2082434 -0.066543825
0.07205886 0.09606183 -0.037477903 0.12000777 -0.19722082 -0.008909641 0.044836234 -0.05925051
0.0075425813 -0.119049296 0.0874136 -0.11736343 0.20056012 0.001595175 -0.105259724 0.13088259
-0.26687288 -0.03794176 0.055381756 0.03193653 -0.044432838 -0.16400257 0.012910226 0.09748414
-0.1700652 -0.025339156 -0.07941949 0.12446086 0.17221835 0.00059532287 -0.16280402 -0.043295894
0.046546485 0.02487144 -0.012195841 0.0027457632 -0.13319702 0.031180935 0.09051711 0.04467981
-0.010444846 -0.011688469 -0.04215447 -0.1694228 -0.1931533 0.1749886 0.21415769 -0.07724756
-0.1289521 -0.015278921 -0.0047813673 -0.1097507 0.022134792 -0.004487609 -0.04149207 -0.21674216
0.13328749 0.042337123 0.105288856 0.07253429 0.011219133 -0.19793901 -0.05083707 -0.05446518
-0.27017584 0.17256515 -0.010098152 0.05561743 0.15680182 -0.030133596 -0.1592253 -0.06296443
0.24190968 0.0125276735 0.04287184 -0.002033959 -0.097224265 -0.017092569 -0.050473455 0.24061562
0.15094641 0.06816919 0.2626569 -0.046462912 0.12369765 -0.10121795 -0.14883167 0.013200819
0.15001464 0.0010033541 -0.01910783 0.010910136 0.08641208 0.042503558 0.02245758 0.15883736
-0.07280553 0.20597415 0.045381483 0.0879358 0.011117174 -0.051432297 -0.12616609 0.08303939
0.14764774 -0.21479821 -0.116510995 0.034406625 -0.16781312 -0.12923017 -0.16228315 -0.050247446
-0.008796551 -0.22286955 0.030684954 -0.08736022 0.04984859 -0.1262194 -0.09283532 0.035479378
0.104791015 -0.07432491 -0.083739355 0.20489962 -0.0707004 -0.054124948 -0.09834439 -0.025013877
0.006130088 -0.11524347 -0.046757326 0.07627063 0.12508753 0.18834643 -0.24938962 0.022428483
-0.0603294 -0.038891725 0.1757495 -0.10559845 -0.035202023 -0.15649259 0.26000065 -0.10938483
0.0073216655 0.04623501 0.1573691 0.073574066 0.07167771 0.2212243 -0.028177116 0.074288696
-0.008148819 -0.08785703 0.0059640906 -0.13574685 0.025109446 0.044905208 -0.40961957 -0.097789116
-0.22816983 -0.22994784 -0.087198205 -0.24660374 0.058042306 -0.17268966 0.015408745 0.047338556
0.099829145 -0.022281168 -0.077809855 -0.004252274 0.016349122 -0.23969845 -0.09624807 -0.023393473
-0.27769506 -0.04603372 -0.02205542 -0.072421804 0.05791561 -0.08355679 0.023244565 0.0016250411
-0.074455924 -0.0408083 -0.055389903 0.14695248 -0.038241014 -0.19439769 0.14019077 -0.08164304
0.0062144417 0.03415681 0.12882894 0.1011369 -0.20688793 0.026506668 -0.0035459732 -0.10053189
-0.15526155 -0.020552788 0.13963163 0.08146395 -0.018302904 0.11483255 0.09907222 0.079418294
00000000: 113a aebd 95f9 dfbd 36fe ac3b b3fc 07be
00000010: 6c63 453e 7c13 273d e6fb 19be b01a 31bc
00000020: 5738 83bc 6ee1 f43d 356d 393e 0d07 6abd
00000030: 693e 303e edb0 123e fdfd 9d3d 5df0 5abe
00000040: 7230 1abc 30b0 8a3d 4238 d9bd a928 8cbc
00000050: 3918 033e 6a57 b8bd 5332 7c3d 802f 59be
00000060: de44 23be 2281 de3d d683 9a3d d54a 56bd
00000070: 5ae1 d4bd 22bd 6c3c 948d c2bd 67b5 f6bb
00000080: 8bf7 5ebd c86c 9fbe 2e5e d3bd d949 55bc
00000090: ef27 cc3c 0b76 183e 0f84 06be b440 1bbd
000000a0: c07a a3bd 8547 123d 7cfc 3fbb f59d 4cbe
000000b0: 0467 c03d a460 023e c23d 553e 2148 88bd
000000c0: 9893 933d 11bc c43d 6e82 19bd a2c6 f53d
000000d0: 41f4 49be bef9 11bc 33a6 373d aab0 72bd
000000e0: c227 f73b 1ed0 f3bd e705 b33d 3d5c f0bd
000000f0: a25f 4d3e 3115 d13a 6992 d7bd 1606 063e
00000100: 90a3 88be d268 1bbd fbd7 623d e1cf 023d
00000110: 35ff 35bd 4af0 27be 6a85 533c c4a5 c73d
00000120: 9225 2ebe 1094 cfbc b0a6 a2bd 56e5 fe3d
00000130: 025a 303e 710f 1c3a 19b6 26be 0957 31bd
00000140: 87a7 3e3d 31bf cb3c 11d1 47bc 43f2 333b
00000150: cd64 08be 296f ff3c 0961 b93d 2d02 373d
00000160: dc20 2bbc fe80 3fbc 2aaa 2cbd 2c7d 2dbe
00000170: fbc9 45be 3630 333e 274c 5b3e f833 9ebd
00000180: 050c 04be 7154 7abc 04ad 9cbb fac4 e0bd
00000190: 0654 b53c cb0c 93bb 97f3 29bd a8f1 5dbe
000001a0: 847c 083e b169 2d3d afa1 d73d dc8c 943d
000001b0: 74d0 373c 86b0 4abe 883a 50bd e116 5fbd
000001c0: 7d54 8abe ebb4 303e b872 25bc 1acf 633d
000001d0: a890 203e bbda f6bc f50b 23be 7ff3 80bd
000001e0: 2cb7 773e df40 4d3c 629a 2f3d 2b4c 05bb
000001f0: 841d c7bd b705 8cbc 41bd 4ebd f163 763e
00000200: b291 1a3e 4a9c 8b3d f77a 863e e54f 3ebd
00000210: 3255 fd3d 5b4b cfbd 5467 18be 3f48 583c
00000220: 709d 193e fa82 833a 0688 9cbc 6dc0 323c
00000230: d1f8 b03d 3618 2e3d f5f8 b73c 43a6 223e
00000240: 111b 95bd e3ea 523e efe1 393d af17 b43d
00000250: cf24 363c acaa 52bd af31 01be 8e10 aa3d
00000260: f830 173e 10f4 5bbe 519d eebd f6ed 0c3d
00000270: 34d7 2bbe ea54 04be 8e2d 26be 44d0 4dbd
00000280: 691f 10bc ea37 64be 035f fb3c eae9 b2bd
00000290: 092e 4c3d a93f 01be 7220 bebd d352 113d
000002a0: ac9c d63d a937 98bd 8a7f abbd 35d1 513e
000002b0: 5fcb 90bd 1fb2 5dbd c968 c9bd e7e9 ccbc
000002c0: e8de c83b c504 ecbd 9c84 3fbd c733 9c3d
000002d0: f216 003e e3dd 403e fe5f 7fbe f0bb b73c
000002e0: f61b 77bd ee4c 1fbd adf7 333e 0044 d8bd
000002f0: ff2f 10bd 983f 20be ce1e 853e 2705 e0bd
00000300: 95ea ef3b ec60 3d3d 5e25 213e 00ae 963d
00000310: c3cb 923d 9f88 623e b2d3 e6bc ac24 983d
00000320: a082 05bc 63ee b3bd 6b6e c33b 3901 0bbe
00000330: 53b2 cd3c 86ee 373d a8b9 d1be a945 c8bd
00000340: 5aa5 69be 7277 6bbe f994 b2bd b185 7cbe
00000350: c5bd 6d3d 8fd5 30be f674 7c3c 13e6 413d
00000360: 3973 cc3d ff86 b6bc c65a 9fbd a956 8bbb
00000370: 98ee 853c 8373 75be b51d c5bd aba3 bfbc
00000380: 0c2e 8ebe db8d 3cbd 91ad b4bc e251 94bd
00000390: eb38 6d3d d31f abbd 636b be3c 55ff d43a
000003a0: 597c 98bd 9b26 27bd 86e0 62bd b67a 163e
000003b0: 9ca2 1cbd 3010 47be 2b8e 0f3e 7734 a7bd
000003c0: 84a2 cb3b 03e8 0b3d bceb 033e dd20 cf3d
000003d0: 6eda 53be 8324 d93c 8f63 68bb aae3 cdbd
000003e0: e2fc 1ebe 525e a8bc 98fb 0e3e 92d6 a63d
000003f0: f9ef 95bc 542d eb3d 60e6 ca3d 0fa6 a23d
