LeakyRNN_11.28/1202/sg_3_128_d10_r7_1/model_3.pth (torch, 137244 bytes, 5 tensors)

weight f4 [128, 128]
0.07318112 -0.11196118 0.041087776 -0.36425453 0.08665523 0.07127999 -0.31008944 -0.26893893
0.3052485 0.21197641 -0.030019278 -0.011637737 0.13932115 0.11474732 -0.017826451 -0.3762345
-0.2014117 0.10260733 -0.24602085 -0.24642164 -0.05307502 -0.2459317 -0.26096606 -0.22166263
-0.07493412 0.032379113 -0.14358772 -0.019722844 0.05535575 0.026009781 -0.114647746 0.008966597
-0.052918494 -0.2960928 -0.33288762 0.03687331 0.008684274 0.26757556 -0.103369124 -0.27203798
-0.3345716 0.062071927 -0.092249155 -0.17314799 0.121693835 0.20551594 0.2671787 -0.39630935
0.05463814 0.11174737 0.11076689 0.213777 -0.34954122 -0.039202638 -0.061915036 -0.15159191
0.016394788 -0.17603752 0.08322951 -0.12953085 0.1976467 -0.108397625 -0.17324468 -0.058593012
-0.3962824 -0.05766181 0.11168716 -0.06429183 -0.13855428 -0.20164026 -0.103923544 0.2922899
-0.18660231 -0.18111911 -0.07451177 0.19251317 0.07284408 0.01097756 -0.3707275 -0.12419698
0.15204732 0.0074577155 -0.1761578 0.03690385 -0.28704894 0.2958897 -0.021408508 -0.063363746
-0.18286695 -0.063323386 -0.09156823 -0.16384965 -0.25194746 0.24036418 0.26974154 0.046816185
-0.23424175 0.019684203 -0.29766694 -0.40044028 0.040265962 -0.14373541 -0.05785448 -0.33688852
0.05455223 0.22443698 0.18367215 0.047204852 0.23038873 -0.33092436 -0.27217644 0.068990044
-0.49871603 0.118136175 0.27751717 -0.13289581 0.09941352 0.0056428714 -0.18926041 0.010604693
0.16191012 -0.16014679 -0.069250405 0.019843295 -0.13526917 0.0058435607 -0.13242385 0.3757608
-0.011204227 0.18133278 0.23124793 -0.11086154 -0.019765902 0.009018718 -0.13507134 -0.2190326
0.5412439 -0.13441482 0.021669868 0.13602507 -0.05848519 -0.10949308 0.079471335 0.118345864
-0.07551644 -0.022684898 0.013789241 0.16208994 -0.041258715 -0.16761045 -0.10799777 0.086949565
0.016392503 -0.30904073 -0.36553743 0.06082886 -0.19607583 -0.2982489 -0.32624662 0.16073775
-0.053995606 -0.45465437 -0.018628985 -0.20681703 0.044898245 -0.30322978 -0.0079977615 -0.12147967
-0.00048739024 -0.2503043 -0.10079855 0.16251318 -0.16786762 -0.07924107 -0.2753778 -0.05913156
0.051264614 -0.18162349 -0.20990534 -0.10801729 0.20272061 0.24919894 -0.3478537 0.14556883
-0.14466004 -0.26634812 0.07876193 -0.22841944 0.025018433 -0.35455337 0.17100862 -0.13218066
-0.014475591 0.10544236 0.20373984 0.16260651 0.0794863 0.04229615 -0.14772828 0.12313719
0.037353545 -0.2636497 -0.31004116 -0.32851654 -0.038279045 0.11037413 -0.47105595 -0.1834383
0.03258541 -0.35193494 0.014887392 -0.37706128 -0.11592466 -0.29257914 -0.08330938 0.03632497
0.023811836 -0.18859899 -0.19769023 -0.055265196 -0.204658 -0.34687036 -0.14720601 -0.25065795
-0.32222417 -0.08332309 -0.122833565 -0.23346747 -0.07435601 -0.19151504 0.15435998 -0.10660305
-0.24246919 -0.119337365 -0.0980895 0.2924889 -0.33342472 -0.18329182 0.0667603 -0.19293536
-0.1284822 0.034224503 0.11178681 -0.0878316 -0.34952214 0.06640194 -0.22825296 0.037041165
-0.087517515 -0.32704487 0.26965836 0.19541962 0.25745782 0.33806953 0.15644659 0.01591031
00000000: fcdf 953d e74b e5bd a84b 283d 927f babe
00000010: 4c78 b13d 3efb 913d 0bc4 9ebe 5db2 89be
00000020: 8849 9c3e 5810 593e fdea f5bc 35ac 3ebc
00000030: 34aa 0e3e a500 eb3d c708 92bc cfa1 c0be
00000040: de3e 4ebe cb23 d23d e4ec 7bbe f455 7cbe
00000050: 3165 59bd 85d5 7bbe 589d 85be 87fb 62be
00000060: 0f77 99bd f69f 043d a908 13be cd91 a1bc
00000070: b6bc 623d 7712 d53c 70cc eabd a2e8 123c
00000080: 10c1 58bd 7a99 97be 3f70 aabe 7808 173d
00000090: 7c48 0e3c aaff 883e 31b3 d3bd 9048 8bbe
000000a0: f84c abbe 223f 7e3d 20ed bcbd b54d 31be
000000b0: 9e3a f93d c572 523e a6cb 883e 0fe9 cabe
000000c0: 3ecc 5f3d cedb e43d c0d9 e23d 5ce8 5a3e
000000d0: 11f7 b2be f292 20bd 9f9a 7dbd e93a 1bbe
000000e0: 5d4e 863c 2e43 34be 3c74 aa3d bca3 04be
000000f0: e663 4a3e 93ff ddbd 0e67 31be 3aff 6fbd
00000100: 87e5 cabe ca2e 6cbd 3dbc e43d 6fab 83bd
00000110: 2ce1 0dbe c97a 4ebe ded5 d4bd 06a7 953e
00000120: ad14 3fbe 4a77 39be a099 98bd 2c22 453e
00000130: 472f 953d 39db 333c ffcf bdbe fc5a febd
00000140: 4bb2 1b3e da5f f43b b662 34be 7e28 173d
00000150: 14f8 92be db7e 973e e560 afbc dac4 81bd
00000160: 7941 3bbe b1af 81bd 2088 bbbd 34c8 27be
00000170: 42ff 80be 0722 763e 901b 8a3e 54c2 3f3d
00000180: 12dd 6fbe c440 a13c cd67 98be 8206 cdbe
00000190: eced 243d 602f 13be d2f8 6cbd a77c acbe
000001a0: 2972 5f3d cfd2 653e 8d14 3c3e e059 413d
000001b0: 06eb 6b3e eb6e a9be b65a 8bbe a74a 8d3d
000001c0: b557 ffbe 61f1 f13d bb16 8e3e d715 08be
000001d0: 5199 cb3d d6e7 b83b 7bcd 41be 4ebf 2d3c
000001e0: c4cb 253e 85fd 23be 28d3 8dbd 688e a23c
000001f0: 0084 0abe 577b bf3b 1e9a 07be b863 c03e
00000200: ef91 37bc 4daf 393e 42cc 6c3e 600b e3bd
00000210: 1aec a1bc 3fc3 133c 2450 0abe 154a 60be
00000220: f68e 0a3f 0aa4 09be 0285 b13c 284a 0b3e
00000230: 2b8e 6fbd e83d e0bd dec1 a23d 515f f23d
00000240: 5da8 9abd aed5 b9bc 45ec 613c e8fa 253e
00000250: e6fe 28bd 13a2 2bbe ef2d ddbd 9d12 b23d
00000260: 9249 863c 963a 9ebe b927 bbbe af27 793d
00000270: 1ac8 48be 14b4 98be cc09 a7be 7098 243e
00000280: 7f2a 5dbd 75c8 e8be d09b 98bc d8c7 53be
00000290: 39e7 373d ef40 9bbe 0b09 03bc 55ca f8bd
000002a0: 6988 ffb9 e327 80be 786f cebd db69 263e
000002b0: 7de5 2bbe 2449 a2bd 52fe 8cbe ef33 72bd
000002c0: d8fa 513d 82fb 39be 6df1 56be 2b38 ddbd
000002d0: fe95 4f3e 022e 7f3e e119 b2be ff0f 153e
000002e0: c321 14be c85e 88be ef4d a13d c9e6 69be
000002f0: 75f3 cc3c 0588 b5be e21c 2f3e 5e5a 07be
00000300: 072b 6dbc 2af2 d73d 2da1 503e 5282 263e
00000310: b7c9 a23d ba3e 2d3d 1546 17be 5a2f fc3d
00000320: 0800 193d 18fd 86be b7bd 9ebe 5233 a8be
00000330: 7dca 1cbd d50b e23d 3f2e f1be 40d7 3bbe
00000340: 4778 053d d130 b4be 3fea 733c 2d0e c1be
00000350: e869 edbd efcc 95be 1c9e aabd 7ec9 143d
00000360: 0a11 c33c 1820 41be 4f6f 4abe c25d 62bd
00000370: de91 51be fe98 b1be 2cbd 16be 3d56 80be
00000380: 91fa a4be 4ca5 aabd 2a90 fbbd 1912 6fbe
00000390: f747 98bd 851c 44be 8b10 1e3e b352 dabd
000003a0: d849 78be 2667 f4bd 26e3 c8bd 1bc1 953e
000003b0: a5b6 aabe dab0 3bbe a0b9 883d d990 45be
000003c0: d690 03be fe2e 0c3d 7cf0 e43d 0ee1 b3bd
000003d0: 91f4 b2be befd 873d 25bb 69be 7ab8 173d
000003e0: 623c b3bd 6d72 a7be a910 8a3e 151c 483e
000003f0: 83d1 833e 7317 ad3e 8933 203e 5756 823c

weight f4 [128, 3]
0.941423 1.3304527 -0.1872925 1.2208183 -1.0890434 0.80448 -0.42756835 -0.1832603
3.432595 -1.5806807 0.2478809 -1.4858638 1.2440778 1.355655 1.8118664 1.6086724
-1.743873 -0.07248775 -1.033317 -0.90388185 0.48313686 -2.4302664 -0.057896357 -2.741081
-0.631363 1.5907803 8.053276 -1.0087284 1.3960862 -1.0720563 -3.3519673 -2.48913
-0.64886904 1.4018854 1.1073222 5.1208863 -2.0924084 1.8892921 -2.6547194 -0.65863544
0.2762988 0.23817214 -2.378742 -0.55276215 1.5802023 2.0283022 -2.5686407 0.6706247
2.2457488 0.51849294 -2.1197038 -0.14419466 0.31346402 5.8835826 2.504098 -0.111054376
0.4725529 2.3702235 -0.49002457 -0.53523135 -2.676873 -0.48610216 -1.6732924 0.48488173
1.3890904 -0.41123673 -2.1110609 -3.7138023 0.018489778 1.2128296 -1.0785912 -0.5374543
0.41989407 0.8964189 -1.10695 1.0717007 -1.5911571 1.71782 -2.2601116 -1.2745476
-2.7179615 1.4584792 -0.88378525 0.1833209 -0.87789494 1.0171561 0.25954422 -1.0076803
2.952255 1.0197328 0.6404583 0.50261843 1.913864 1.8822391 0.54609907 6.688251
0.40454656 0.49019065 -0.061076377 0.5340209 0.5743128 1.4427488 -0.15694103 -0.14826818
-4.027632 1.646236 -0.10508973 -1.5496769 2.0506933 -0.3919419 -2.4616346 -0.5933761
0.821286 3.0104218 1.5369495 -1.2388649 0.4775511 -2.6042364 -2.9197288 -2.3929863
-1.1270999 -0.6053594 -3.632992 -0.46600717 2.953636 -2.0016577 -0.9108747 0.020413293
2.20655 1.670703 -0.937616 0.038314577 1.4831116 1.8904781 -1.6746795 1.3069679
0.41317558 -0.15013246 -2.5484474 1.9884242 -2.6817708 2.2088385 -3.028359 1.833619
-2.4186428 0.8896455 4.212578 -1.3640379 1.2288319 -0.7578703 1.7643541 2.5751028
-4.047106 0.14648323 0.8679312 0.33624417 -0.64346105 -1.1464015 -0.46906033 0.2806841
-1.2994024 -0.51273686 -2.1955714 0.64915997 -1.5263712 -1.2622011 -1.7449354 0.2789054
1.1284473 1.7372843 -0.8679575 -1.7189428 0.27914602 1.6758844 -1.0271373 0.6067478
-0.24203919 1.7284417 1.8576902 -0.27669293 -2.2052174 -0.13970058 -0.8577052 -1.2347564
-0.2985678 -1.8555307 0.20411645 0.5496619 -0.81185764 -0.43371433 -3.1548564 -1.3501872
0.25132826 -0.34929097 0.4448465 1.4704343 -2.1574175 -1.0497259 -0.74083716 -0.39234573
1.0814235 1.0310593 -0.7711704 2.4389427 1.183267 -1.1102705 0.8587117 2.41689
0.5493577 1.3844696 3.4893005 -0.8837951 2.3587039 -0.38764504 0.87676173 0.16120192
0.44949362 -1.0217413 -0.15229118 -0.50714356 -1.64305 -1.824153 -2.72775 2.605812
-2.1139646 0.60009634 1.1960644 1.7989458 -0.2612025 -0.8718274 -2.646596 0.85274225
-1.7323815 1.024762 -2.2443519 -1.58563 -2.971555 -0.35150906 0.13986176 1.0249426
-0.8679716 -1.0427738 0.22762153 -2.0013368 2.0035439 -0.20893854 -1.8299277 -2.3583775
-0.84500057 1.2346749 0.076630734 2.8721876 -2.6567204 0.34129134 -1.888455 0.919349
00000000: 1901 713f 464c aa3f 9bc9 3fbe c643 9c3f
00000010: c665 8bbf 67f2 4d3f 3dea dabe 97a8 3bbe
00000020: a3af 5b40 bf53 cabf 7ed4 7d3e c930 bebf
00000030: f13d 9f3f 1a86 ad3f 3deb e73f fae8 cd3f
00000040: 3b37 dfbf 7574 94bd bb43 84bf cd64 67bf
00000050: b75d f73e 7c89 1bc0 bb24 6dbd df6d 2fc0
00000060: 01a1 21bf b09e cb3f 38da 0041 031e 81bf
00000070: f4b2 b23f 2439 89bf a286 56c0 e84d 1fc0
00000080: 481c 26bf fb70 b33f bcbc 8d3f 4dde a340
00000090: 05ea 05c0 53d4 f13f ece6 29c0 559c 28bf
000000a0: 0977 8d3e 66e3 733e 4f3d 18c0 d281 0dbf
000000b0: 1244 ca3f b4cf 0140 9c64 24c0 0fae 2b3f
000000c0: 59ba 0f40 f4bb 043f 3aa9 07c0 c4a7 13be
000000d0: 5b7e a03e 4f46 bc40 2443 2040 7a70 e3bd
000000e0: 74f2 f13e beb1 1740 80e4 fabe ec04 09bf
000000f0: e351 2bc0 62e2 f8be 722e d6bf 6b42 f83e
00000100: b7cd b13f 9f8d d2be 9f1b 07c0 f0ae 6dc0
00000110: e077 973c 003e 9b3f 470f 8abf 9b96 09bf
00000120: 5bfc d63e b67b 653f 8ab0 8dbf 7d2d 893f
00000130: 09ab cbbf 87e1 db3f aba5 10c0 6024 a3bf
00000140: 15f3 2dc0 72af ba3f c03f 62bf 79b8 3b3e
00000150: b9bd 60bf 2c32 823f fbe2 843e abfb 80bf
00000160: bff1 3c40 9b86 823f 13f5 233f 9aab 003f
00000170: 7ff9 f43f 36ed f03f 26cd 0b3f 2706 d640
00000180: ba20 cf3e 45fa fa3e 392b 7abd 98b5 083f
00000190: 2a06 133f feab b83f 26b5 20be 9dd3 17be
000001a0: 5de2 80c0 dcb7 d23f 4939 d7bd d05b c6bf
000001b0: 8f3e 0340 9cac c8be 6c8b 1dc0 7fe7 17bf
000001c0: cd3f 523f c0aa 4040 c3ba c43f 2093 9ebf
000001d0: 9481 f43e cfab 26c0 d6dc 3ac0 b026 19c0
000001e0: cf44 90bf d5f8 1abf f182 68c0 7e98 eebe
000001f0: 5f08 3d40 291b 00c0 162f 69bf c739 a73c
00000200: 1d38 0d40 99d9 d53f 9a07 70bf bfef 1c3d
00000210: 9ad6 bd3f 30fb f13f e65b d6bf b94a a73f
00000220: c08b d33e 53bc 19be c319 23c0 af84 fe3f
00000230: 22a2 2bc0 9c5d 0d40 a2d0 41c0 07b4 ea3f
00000240: 0bcb 1ac0 cfbf 633f 70cd 8640 cb98 aebf
00000250: 5d4a 9d3f ca03 42bf 5bd6 e13f 7cce 2440
00000260: e481 81c0 b3ff 153e bd30 5e3f 3228 ac3e
00000270: ddb9 24bf 49bd 92bf ad28 f0be d4b5 8f3e
00000280: d152 a6bf b942 03bf 3e84 0cc0 592f 263f
00000290: 2260 c3bf ce8f a1bf 0b5a dfbf b0cc 8e3e
000002a0: f670 903f 555f de3f 7632 5ebf 5106 dcbf
000002b0: 3aec 8e3e 6183 d63f 3c79 83bf d353 1b3f
000002c0: 1fd9 77be 943d dd3f cbc8 ed3f b2aa 8dbe
000002d0: 4822 0dc0 ab0d 0fbe 9192 5bbf 7f0c 9ebf
000002e0: e1dd 98be 0882 edbf e703 513e a4b6 0c3f
000002f0: e7d5 4fbf ce0f debe 2be9 49c0 efd2 acbf
00000300: 19ae 803e 44d6 b2be ecc2 e33e 3137 bc3f
00000310: 2113 0ac0 6b5d 86bf 81a7 3dbf 8ae1 c8be
00000320: 166c 8a3f c0f9 833f 6c6b 45bf a317 1c40
00000330: 4b75 973f 581d 8ebf 88d4 5b3f 53ae 1a40
00000340: b5a2 0c3f 4d36 b13f b350 5f40 6540 62bf
00000350: 01f5 1640 6979 c6be 7573 603f 1e12 253e
00000360: 0724 e63e 6bc8 82bf 38f2 1bbe 29d4 01bf
00000370: 764f d2bf d87d e9bf 7593 2ec0 a0c5 2640
00000380: 324b 07c0 ea9f 193f a318 993f db43 e63f
00000390: 56bc 85be 1530 5fbf d461 29c0 514d 5a3f
000003a0: adbe ddbf 672b 833f 76a3 0fc0 edf5 cabf
000003b0: f52d 3ec0 fff8 b3be ec37 0f3e 5231 833f
000003c0: 6333 5ebf 9d79 85bf 9e15 693e e715 00c0
000003d0: 103a 0040 fcf3 55be 123b eabf a8ef 16c0
000003e0: f551 58bf d409 9e3f 93f0 9c3d ecd1 3740
000003f0: b507 2ac0 bdbd ae3e e5b8 f1bf 755a 6b3f

weight f4 [2, 128]
0.004245405 0.012878355 0.10931424 -0.0014972938 -0.13452685 0.085109666 -0.15250315 -0.14933684
0.23101896 -0.09430718 -0.09133121 0.5097392 0.020112086 -0.04659846 -0.24566865 -0.011558935
-0.03769612 0.032391276 -0.2342203 -0.06722284 0.11285147 -0.07773767 -0.16456556 0.08693683
0.030721074 -0.29697785 -0.051000703 0.065370284 -0.15913197 -0.12937449 -0.011437157 0.24768314
-0.006882275 -0.15758842 0.2764753 0.20221174 0.21445404 0.46520048 0.013021101 0.19045562
0.2772632 0.07435734 -0.19934137 0.06256868 -0.042309467 -0.0044445675 -0.3180388 0.130063
-0.4961602 -0.30300447 0.48338568 -0.025855763 0.0067241057 0.08669492 -0.016618863 -0.12569824
0.20153342 0.13772592 -0.09795528 -0.013277199 -0.36394683 0.009932359 0.11271678 0.02017372
0.023190636 0.061359268 -0.31807348 -0.16460706 -0.20511577 -0.08795805 -0.120082185 0.044448953
0.089711465 0.2723549 0.15335166 -0.14023505 0.39219174 -0.10719687 0.27786753 -0.011223725
-0.025624936 -0.12726574 -0.3671193 -0.28289708 -0.029619243 0.08825153 -0.13483706 -0.14208958
0.37097344 0.03511863 0.07276897 -0.29055282 0.016433258 0.07267769 -0.14888963 0.028740397
-0.1691175 0.13807593 -0.067020215 0.03719426 -0.056997433 0.09695027 0.09758718 -0.1719786
0.09360172 0.1130492 0.1245368 0.024257876 -0.063469574 0.037412237 0.41481674 -0.099651836
-0.15418398 -0.16685759 0.044434752 0.2146707 -0.21813735 0.05317364 -0.05554749 -0.025050374
-0.41273126 0.25650543 -0.261992 -0.09646308 0.35662183 -0.024711687 0.15900445 -0.024584712
0.19328427 -0.06777695 -0.31114978 -0.014978603 -0.077109486 -0.06090996 -0.13877878 -0.1140514
0.98975325 0.15623336 -0.07817157 -0.39873934 0.24726108 -0.122034915 -0.006680525 -0.04118794
0.16977572 -0.6484524 -0.26956847 0.039305855 -0.26605722 -0.014226711 -0.010801893 -0.119263895
0.19238834 0.0640149 -0.036674947 -0.12792407 0.1571129 0.0046790782 -0.31353083 0.7384844
-0.03126113 0.024745243 0.12238193 0.2017913 -0.079100296 -0.15019475 -0.035592988 0.094795994
0.124125265 0.009110129 -0.07248508 -0.07079129 0.2299021 0.07164275 0.408247 -0.096999526
0.06482178 0.0064247875 -0.00519651 0.12131237 -0.1527545 -0.08662277 -0.15210289 -0.05944864
0.046188522 -0.13853514 0.17511855 0.009212708 -0.1540116 -0.013894383 -0.061829537 0.14389081
-0.1331264 0.1043562 -0.19851846 0.09348597 0.09798111 -0.085673995 -0.018965425 -0.013908549
-0.116072826 0.15640976 -0.10800951 -0.0076947804 0.053536724 -0.01689801 0.07240494 -0.10359955
-0.13655865 -0.0067304713 -0.48445302 -0.015838116 -0.0070479917 0.08591039 -0.09122128 -0.14093068
0.14820427 0.08668233 -0.07012715 0.050536625 -0.107128076 0.08733095 0.15680638 0.1731208
-0.049414787 -0.0056023253 0.024310099 0.1459337 -0.4070858 -0.013702361 -0.05318242 -0.04017661
-0.16515464 0.07778598 -0.14421238 -0.15822482 0.10668897 0.34986028 0.12337604 0.16489245
0.107196674 0.20689175 -0.046164643 -0.007825713 -0.14260969 -0.12092758 -0.10904397 -0.13008413
-0.09143427 -0.05892915 0.13563511 -0.11902125 0.5341606 -0.09305911 0.009436095 0.11173037
00000000: 0a1d 8b3b bcff 523c 25e0 df3d d840 c4ba
00000010: 68c1 09be fa4d ae3d c929 1cbe c2eb 18be
00000020: 3c90 6c3e 1f24 c1bd dc0b bbbd 457e 023f
00000030: 1ac2 a43c 07de 3ebd 9090 7bbe b061 3dbc
00000040: 3f67 1abd b7ac 043d 72d7 6fbe 21ac 89bd
00000050: ac1e e73d ed34 9fbd e083 28be f00b b23d
00000060: c3aa fb3c 7b0d 98be 1de6 50bd dbe0 853d
00000070: 7ef3 22be bf7a 04be ea62 3bbc a6a0 7d3e
00000080: b584 e1bb dc5e 21be 2c8e 8d3e 9810 4f3e
00000090: d799 5b3e c22e ee3e 7556 553c cc06 433e
000000a0: 71f5 8d3e a948 983d 2520 4cbe 0224 803d
000000b0: b14c 2dbd bca3 91bb fbd5 a2be 3c2f 053e
000000c0: b608 febe 6723 9bbe 547e f73e 77cf d3bc
000000d0: e355 dc3b 1b8d b13d 4824 88bc 0ab7 00be
000000e0: c75e 4e3e 0608 0d3e c79c c8bd 9c88 59bc
000000f0: 3d57 babe 55bb 223c 0ed8 e63d 5b43 a53c
00000100: 4afa bd3c db53 7b3d 87da a2be c18e 28be
00000110: de09 52be 5a23 b4bd a6ed f5bd 1b10 363d
00000120: a5ba b73d 1a72 8b3e 3808 1d3e c799 0fbe
00000130: 5bcd c83e 088a dbbd a744 8e3e b7e3 37bc
00000140: 63eb d1bc f351 02be 10f7 bbbe e3d7 90be
00000150: 0ea4 f2bc 38bd b43d ba12 0abe ee7f 11be
00000160: 3bf0 bd3e 8dd8 0f3d e607 953d 57c3 94be
00000170: 0a9f 863c 0ad8 943d 8676 18be fb70 eb3c
00000180: 232d 2dbe c763 0d3e e541 89bd 0259 183d
00000190: 2476 69bd dd8d c63d cadb c73d 281b 30be
000001a0: 42b2 bf3d 5786 e73d 260d ff3d 74b8 c63c
000001b0: 56fc 81bd 933d 193d dc62 d43e 4316 ccbd
000001c0: 68e2 1dbe b7dc 2abe 3701 363d a3d2 5b3e
000001d0: 665f 5fbe 9acc 593d c485 63bd 7136 cdbc
000001e0: 8351 d3be ae54 833e d123 86be 6f8e c5bd
000001f0: 2397 b63e 2a70 cabc 10d2 223e e165 c9bc
00000200: 50ec 453e a4ce 8abd 064f 9fbe d168 75bc
00000210: 94eb 9dbd b97c 79bd 061c 0ebe c893 e9bd
00000220: 7860 7d3f a3fb 1f3e 6b18 a0bd 9027 ccbe
00000230: 0232 7d3e 71ed f9bd 4ee8 dabb afb4 28bd
00000240: b0d9 2d3e fa00 26bf e104 8abe 2dff 203d
00000250: a738 88be 2717 69bc 6cfa 30bc a140 f4bd
00000260: 7301 453e 3e1a 833d 7838 16bd 87fe 02be
00000270: 34e2 203e f452 993b 1d87 a0be 500d 3d3f
00000280: ac0b 00bd 89b6 ca3c 61a3 fa3d 61a2 4e3e
00000290: 56ff a1bd a7cc 19be f4c9 11bd 6724 c23d
000002a0: 6335 fe3d a742 153c 0f73 94bd 06fb 90bd
000002b0: 756b 6b3e 6fb9 923d c005 d13e b0a7 c6bd
000002c0: 48c1 843d 0687 d23b 7c47 aabb 9f72 f83d
000002d0: ad6b 1cbe 4767 b1bd dcc0 1bbe 6b80 73bd
000002e0: 2d30 3d3d 28dc 0dbe 4752 333e e6f0 163c
000002f0: 38b5 1dbe 44a5 63bc f840 7dbd 1d58 133e
00000300: 4952 08be b4b8 d53d 6c48 4bbe 9275 bf3d
00000310: 52aa c83d d975 afbd 615d 9bbc afe0 63bc
00000320: 97b7 edbd e129 203e 1734 ddbd 7f24 fcbb
00000330: 5349 5b3d b26d 8abc 0b49 943d 002c d4bd
00000340: 08d6 0bbe 498b dcbb 3a0a f8be f0be 81bc
00000350: d7f2 e6bb c9f1 af3d 39d2 babd 2250 10be
00000360: dcc2 173e 8186 b13d d39e 8fbd 7eff 4e3d
00000370: f765 dbbd 92da b23d da91 203e 9446 313e
00000380: 2967 4abd b693 b7bb f925 c73c a56f 153e
00000390: 8d6d d0be de7f 60bc cfd5 59bd 3b90 24bd
000003a0: 4c1e 29be 424e 9f3d 69ac 13be b005 22be
000003b0: bf7f da3d e320 b33e 94ac fc3d 91d9 283e
000003c0: ee89 db3d 6edb 533e 2317 3dbd 6b37 00bc
000003d0: 4608 12be e1a8 f7bd 7252 dfbd c634 05be
000003e0: e441 bbbd b15f 71bd eee3 0a3e 6ac1 f3bd
000003f0: c0be 083f c695 bebd da99 1a3c e4d2 e43d

bias f4 [2]
-0.09534844 -0.042844553
00000000: 0b46 c3bd c57d 2fbd

W f4 [128, 128]
-0.08507169 -0.10936276 0.0052793277 -0.13279991 0.19276208 0.040790066 -0.15037498 -0.010809585
-0.016018076 0.1195706 0.18108065 -0.05713563 0.17211308 0.14325304 0.0771446 -0.21380754
-0.009410964 0.06771886 -0.106064335 -0.017109232 0.12802209 -0.09001048 0.06157143 -0.21209526
-0.1594424 0.10864474 0.07544677 -0.05231746 -0.10394545 0.01444939 -0.0949966 -0.007528949
-0.054435294 -0.3113768 -0.10320698 -0.013018095 0.024921386 0.1488878 -0.13136314 -0.037903503
-0.07982397 0.035712738 -0.002929478 -0.19982131 0.09394649 0.12732178 0.2082434 -0.066543825
0.07205886 0.09606183 -0.037477903 0.12000777 -0.19722082 -0.008909641 0.044836234 -0.05925051
0.0075425813 -0.119049296 0.0874136 -0.11736343 0.20056012 0.001595175 -0.105259724 0.13088259
-0.26687288 -0.03794176 0.055381756 0.03193653 -0.044432838 -0.16400257 0.012910226 0.09748414
-0.1700652 -0.025339156 -0.07941949 0.12446086 0.17221835 0.00059532287 -0.16280402 -0.043295894
0.046546485 0.02487144 -0.012195841 0.0027457632 -0.13319702 0.031180935 0.09051711 0.04467981
-0.010444846 -0.011688469 -0.04215447 -0.1694228 -0.1931533 0.1749886 0.21415769 -0.07724756
-0.1289521 -0.015278921 -0.0047813673 -0.1097507 0.022134792 -0.004487609 -0.04149207 -0.21674216
0.13328749 0.042337123 0.105288856 0.07253429 0.011219133 -0.19793901 -0.05083707 -0.05446518
-0.27017584 0.17256515 -0.010098152 0.05561743 0.15680182 -0.030133596 -0.1592253 -0.06296443
0.24190968 0.0125276735 0.04287184 -0.002033959 -0.097224265 -0.017092569 -0.050473455 0.24061562
0.15094641 0.06816919 0.2626569 -0.046462912 0.12369765 -0.10121795 -0.14883167 0.013200819
0.15001464 0.0010033541 -0.01910783 0.010910136 0.08641208 0.042503558 0.02245758 0.15883736
-0.07280553 0.20597415 0.045381483 0.0879358 0.011117174 -0.051432297 -0.12616609 0.08303939
0.14764774 -0.21479821 -0.116510995 0.034406625 -0.16781312 -0.12923017 -0.16228315 -0.050247446
-0.008796551 -0.22286955 0.030684954 -0.08736022 0.04984859 -0.1262194 -0.09283532 0.035479378
0.104791015 -0.07432491 -0.083739355 0.20489962 -0.0707004 -0.054124948 -0.09834439 -0.025013877
0.006130088 -0.11524347 -0.046757326 0.07627063 0.12508753 0.18834643 -0.24938962 0.022428483
-0.0603294 -0.038891725 0.1757495 -0.10559845 -0.035202023 -0.15649259 0.26000065 -0.10938483
0.0073216655 0.04623501 0.1573691 0.073574066 0.07167771 0.2212243 -0.028177116 0.074288696
-0.008148819 -0.08785703 0.0059640906 -0.13574685 0.025109446 0.044905208 -0.40961957 -0.097789116
-0.22816983 -0.22994784 -0.087198205 -0.24660374 0.058042306 -0.17268966 0.015408745 0.047338556
0.099829145 -0.022281168 -0.077809855 -0.004252274 0.016349122 -0.23969845 -0.09624807 -0.023393473
-0.27769506 -0.04603372 -0.02205542 -0.072421804 0.05791561 -0.08355679 0.023244565 0.0016250411
-0.074455924 -0.0408083 -0.055389903 0.14695248 -0.038241014 -0.19439769 0.14019077 -0.08164304
0.0062144417 0.03415681 0.12882894 0.1011369 -0.20688793 0.026506668 -0.0035459732 -0.10053189
-0.15526155 -0.020552788 0.13963163 0.08146395 -0.018302904 0.11483255 0.09907222 0.079418294
00000000: 113a aebd 95f9 dfbd 36fe ac3b b3fc 07be
00000010: 6c63 453e 7c13 273d e6fb 19be b01a 31bc
00000020: 5738 83bc 6ee1 f43d 356d 393e 0d07 6abd
00000030: 693e 303e edb0 123e fdfd 9d3d 5df0 5abe
00000040: 7230 1abc 30b0 8a3d 4238 d9bd a928 8cbc
00000050: 3918 033e 6a57 b8bd 5332 7c3d 802f 59be
00000060: de44 23be 2281 de3d d683 9a3d d54a 56bd
00000070: 5ae1 d4bd 22bd 6c3c 948d c2bd 67b5 f6bb
00000080: 8bf7 5ebd c86c 9fbe 2e5e d3bd d949 55bc
00000090: ef27 cc3c 0b76 183e 0f84 06be b440 1bbd
000000a0: c07a a3bd 8547 123d 7cfc 3fbb f59d 4cbe
000000b0: 0467 c03d a460 023e c23d 553e 2148 88bd
000000c0: 9893 933d 11bc c43d 6e82 19bd a2c6 f53d
000000d0: 41f4 49be bef9 11bc 33a6 373d aab0 72bd
000000e0: c227 f73b 1ed0 f3bd e705 b33d 3d5c f0bd
000000f0: a25f 4d3e 3115 d13a 6992 d7bd 1606 063e
00000100: 90a3 88be d268 1bbd fbd7 623d e1cf 023d
00000110: 35ff 35bd 4af0 27be 6a85 533c c4a5 c73d
00000120: 9225 2ebe 1094 cfbc b0a6 a2bd 56e5 fe3d
00000130: 025a 303e 710f 1c3a 19b6 26be 0957 31bd
00000140: 87a7 3e3d 31bf cb3c 11d1 47bc 43f2 333b
00000150: cd64 08be 296f ff3c 0961 b93d 2d02 373d
00000160: dc20 2bbc fe80 3fbc 2aaa 2cbd 2c7d 2dbe
00000170: fbc9 45be 3630 333e 274c 5b3e f833 9ebd
00000180: 050c 04be 7154 7abc 04ad 9cbb fac4 e0bd
00000190: 0654 b53c cb0c 93bb 97f3 29bd a8f1 5dbe
000001a0: 847c 083e b169 2d3d afa1 d73d dc8c 943d
000001b0: 74d0 373c 86b0 4abe 883a 50bd e116 5fbd
000001c0: 7d54 8abe ebb4 303e b872 25bc 1acf 633d
000001d0: a890 203e bbda f6bc f50b 23be 7ff3 80bd
000001e0: 2cb7 773e df40 4d3c 629a 2f3d 2b4c 05bb
000001f0: 841d c7bd b705 8cbc 41bd 4ebd f163 763e
00000200: b291 1a3e 4a9c 8b3d f77a 863e e54f 3ebd
00000210: 3255 fd3d 5b4b cfbd 5467 18be 3f48 583c
00000220: 709d 193e fa82 833a 0688 9cbc 6dc0 323c
00000230: d1f8 b03d 3618 2e3d f5f8 b73c 43a6 223e
00000240: 111b 95bd e3ea 523e efe1 393d af17 b43d
00000250: cf24 363c acaa 52bd af31 01be 8e10 aa3d
00000260: f830 173e 10f4 5bbe 519d eebd f6ed 0c3d
00000270: 34d7 2bbe ea54 04be 8e2d 26be 44d0 4dbd
00000280: 691f 10bc ea37 64be 035f fb3c eae9 b2bd
00000290: 092e 4c3d a93f 01be 7220 bebd d352 113d
000002a0: ac9c d63d a937 98bd 8a7f abbd 35d1 513e
000002b0: 5fcb 90bd 1fb2 5dbd c968 c9bd e7e9 ccbc
000002c0: e8de c83b c504 ecbd 9c84 3fbd c733 9c3d
000002d0: f216 003e e3dd 403e fe5f 7fbe f0bb b73c
000002e0: f61b 77bd ee4c 1fbd adf7 333e 0044 d8bd
000002f0: ff2f 10bd 983f 20be ce1e 853e 2705 e0bd
00000300: 95ea ef3b ec60 3d3d 5e25 213e 00ae 963d
00000310: c3cb 923d 9f88 623e b2d3 e6bc ac24 983d
00000320: a082 05bc 63ee b3bd 6b6e c33b 3901 0bbe
00000330: 53b2 cd3c 86ee 373d a8b9 d1be a945 c8bd
00000340: 5aa5 69be 7277 6bbe f994 b2bd b185 7cbe
00000350: c5bd 6d3d 8fd5 30be f674 7c3c 13e6 413d
00000360: 3973 cc3d ff86 b6bc c65a 9fbd a956 8bbb
00000370: 98ee 853c 8373 75be b51d c5bd aba3 bfbc
00000380: 0c2e 8ebe db8d 3cbd 91ad b4bc e251 94bd
00000390: eb38 6d3d d31f abbd 636b be3c 55ff d43a
000003a0: 597c 98bd 9b26 27bd 86e0 62bd b67a 163e
000003b0: 9ca2 1cbd 3010 47be 2b8e 0f3e 7734 a7bd
000003c0: 84a2 cb3b 03e8 0b3d bceb 033e dd20 cf3d
000003d0: 6eda 53be 8324 d93c 8f63 68bb aae3 cdbd
000003e0: e2fc 1ebe 525e a8bc 98fb 0e3e 92d6 a63d
000003f0: f9ef 95bc 542d eb3d 60e6 ca3d 0fa6 a23d
