data_1216/1216/sp_2_64_d30_r7/model_158.pth (torch, 37660 bytes, 5 tensors)

weight f4 [64, 64]
000000 69 12 9c be 44 36 20 3e 04 95 20 be ed 10 bc bd
       -0.30482796 0.156457 -0.15681845 -0.09182916
000010 26 ac 8b 3f c5 25 d6 bd 62 2a 06 be 6e c3 f2 bf
       1.091191 -0.10456423 -0.13102105 -1.896589
000020 7b 5f e6 bd 22 e4 cc bd b9 5c fa bd 34 58 cf be
       -0.1124868 -0.100044504 -0.12224717 -0.4049698
000030 ef e7 86 3f 5e 7b 08 be 7c 12 69 bd f3 0e 02 3e
       1.053953 -0.13328311 -0.056902394 0.12701015
000040 89 d7 ea bf e7 a8 68 3f 98 75 ae be 7c f6 d6 be
       -1.8347026 0.90882725 -0.34074092 -0.41984928
000050 01 88 67 be a4 15 07 be b0 24 fd bd 56 16 73 be
       -0.22610475 -0.13191849 -0.12360513 -0.23738989
000060 d4 8b 21 40 89 d7 fa be 5a 57 e5 bd 11 ed d3 3d
       2.5241594 -0.48992565 -0.111983016 0.10347951
000070 2b b2 92 bf 50 02 2f 3f d9 c6 e0 bf 1f bd a5 bd
       -1.1460623 0.68362904 -1.7560683 -0.080927126
000080 1c f4 27 be 93 3f bb be 5c fe d7 3f 55 ec 0a bf
       -0.16401714 -0.3657194 1.6874499 -0.54266864
000090 0b 92 50 3f 3f ce f2 bd f0 99 11 bf f4 9b 33 3e
       0.81472844 -0.118557446 -0.56875515 0.1753996
0000a0 0b c0 40 bf 74 dc 79 3f 0d 5e 93 bf a0 f8 08 3f
       -0.75293034 0.9760201 -1.1513077 0.5350437
0000b0 45 72 0d 3e 0c ce 0c be aa 2e d3 bd a4 56 02 3e
       0.13813122 -0.13750476 -0.10311635 0.12728363
0000c0 40 6a 88 be bf 06 69 be 19 a2 2c be f6 01 ea be
       -0.26643562 -0.2275648 -0.1685871 -0.4570462
0000d0 0b c6 89 bf d1 6f 88 bf b3 0c 70 3e 39 85 0c be
       -1.0763563 -1.0659124 0.23442344 -0.13722695
0000e0 24 3b f4 bd 38 b3 87 bd a1 18 b5 3f 70 ce 1a bf
       -0.11925343 -0.0662598 1.4148141 -0.6047125
0000f0 e4 15 00 be 22 8e 0e c0 9b 08 29 bf b1 82 01 bf
       -0.1250835 -2.227425 -0.66028756 -0.50590044
000100 c7 f9 50 be 57 ee 19 bc fa e5 eb bd 6b f1 f2 bd
       -0.20407782 -0.009395204 -0.11518474 -0.11862453
000110 88 ff 28 bf 14 fd 00 be b9 a8 f8 bd 33 2e e8 be
       -0.6601491 -0.12596542 -0.12141556 -0.45347747
000120 07 be f3 bd c2 16 f4 bd ca 3d 59 be 32 cd fa be
       -0.11901479 -0.11918403 -0.21214977 -0.48984677
000130 b2 c1 85 be dd 3a f2 bd 40 7a 07 be 0f 3d 97 be
       -0.2612434 -0.118276335 -0.13230228 -0.29538772
000140 0a 28 a6 be cd fd 03 3f 2d 84 c7 be 62 1d 90 be
       -0.32452422 0.51559144 -0.3896803 -0.28147417
000150 a5 f4 8b be e8 72 fd bd be 25 f1 bd 77 cb 26 bf
       -0.27335086 -0.12375432 -0.11774777 -0.6515421
000160 18 b9 52 bf 58 e7 20 bd ba 24 8c be ba 44 52 be
       -0.8231368 -0.039283127 -0.2737177 -0.2053403
000170 91 35 dc be 3f 8f 48 be 69 80 ab be ea fb 02 be
       -0.43009618 -0.19585894 -0.33496407 -0.1279141
000180 0f 51 a8 be 89 04 15 be 9b b3 5e be 2c 88 0c 3f
       -0.32874343 -0.14552511 -0.21748202 0.5489528
000190 f5 d3 4e be 1f 2f f2 bd 64 81 58 be 8a 45 1b be
       -0.20198043 -0.11825394 -0.21143109 -0.15163246
0001a0 61 f6 b5 bd e5 c0 b4 be 95 65 4b be b7 56 9b be
       -0.08884884 -0.35303417 -0.19862969 -0.30339596
0001b0 d6 6c bc bd e0 05 fa bd 8c 91 f6 bd 82 f2 62 bb
       -0.09200446 -0.12208152 -0.120394796 -0.003462941
0001c0 59 a8 2a be d8 1c 84 be e5 2b 9e be 93 23 46 bf
       -0.16665782 -0.25803256 -0.30892864 -0.7739803
0001d0 25 1f 03 bf 1e 27 92 3c 08 ad d5 be 65 fd 09 be
       -0.512194 0.017840918 -0.41733575 -0.13475569
0001e0 ae 07 f2 bd b1 0e 0e be ae 13 a8 3d 5b bf 1f be
       -0.11817871 -0.13872792 0.082068786 -0.1560034
0001f0 0f 6d f0 bd f3 c9 0a bf 61 48 87 be 51 55 b0 bd
       -0.11739551 -0.542144 -0.26422408 -0.08610023
000200 4a ac 63 be 07 d8 e9 bd 14 34 dd bd 89 d1 e7 bd
       -0.22233692 -0.11418157 -0.10800949 -0.113192625
000210 f5 89 10 bf d0 b0 f1 bd 27 df e0 bd f5 ff bb be
       -0.56460506 -0.118013024 -0.10980063 -0.36718717
000220 8f 92 db bd 82 de de bd 37 c9 04 be 45 bd 08 bf
       -0.10721313 -0.10882284 -0.12967382 -0.534138
000230 c3 25 3c be cd dd e0 bd 4c 03 ee bd 06 4e aa be
       -0.1837378 -0.10979805 -0.116217226 -0.33262652
000240 cc 71 00 bf 11 fb f8 bd 5b d1 a4 be 47 1c 8d be
       -0.5017364 -0.12157262 -0.32190976 -0.27560636
000250 dd 15 37 be fe 39 e8 bd bf cd d8 bd 47 be be be
       -0.17879434 -0.11339186 -0.10586118 -0.37254545
000260 0d ea 37 bf 91 91 4b be 74 19 95 be cc af 18 be
       -0.7184151 -0.19879748 -0.29120982 -0.14910811
000270 5a e0 0c bf 24 5c 2e be 8c e7 82 be 5c 05 f8 bd
       -0.55029833 -0.17027336 -0.2556728 -0.12110397
000280 86 24 7d be 67 56 01 be a7 69 ce be 2c 89 71 be
       -0.24720964 -0.12630616 -0.4031498 -0.23587483
000290 54 ef 12 be 67 a4 db bd d3 c8 7a be 7f ce 2f be
       -0.14349109 -0.10724717 -0.24490671 -0.17168616
0002a0 5e 1f 38 be 2c 39 9e be 3a ba 16 be 8e e7 99 be
       -0.17980716 -0.30902994 -0.14719477 -0.30059475
0002b0 a3 bf 08 be 1d 30 e6 bd 96 c7 e6 bd 78 f1 53 be
       -0.13354354 -0.11239646 -0.11268537 -0.20697582
0002c0 55 98 eb bd 07 db 75 be c2 d0 98 be 52 ba 01 bf
       -0.115036644 -0.24009334 -0.2984677 -0.5067493
0002d0 9f 66 db be 7d fa 6f be ca 12 98 be 3f 2d f4 bd
       -0.4285173 -0.23435397 -0.29701835 -0.119226925
0002e0 ea 82 db bd 71 c5 f2 bd 10 f5 8c be 18 e2 02 be
       -0.10718329 -0.11854065 -0.27530718 -0.1278156
0002f0 65 9e d9 bd c8 77 38 bf 86 11 6e be a0 a7 8d be
       -0.106259145 -0.7205777 -0.23248872 -0.2766695
000300 88 7e 90 be 54 d9 1d be 2c 7f 16 be 7e af 19 be
       -0.28221536 -0.15414935 -0.1469695 -0.15008351
000310 9b d9 fe be 76 a6 13 be ec 18 1b be 0e e8 1c be
       -0.49775395 -0.14418969 -0.15146226 -0.15322897
000320 86 8d 1a be b5 99 13 be cf 98 2a be 1a 34 3e bf
       -0.1509305 -0.14414103 -0.16659854 -0.7429825
000330 42 6e 3f be f3 ee 18 be df 16 31 be 7b f2 dc be
       -0.18694404 -0.14934902 -0.17293881 -0.43153748
000340 55 82 34 bf 92 63 38 be f2 11 b5 be b8 a2 89 be
       -0.7051137 -0.18006733 -0.35365254 -0.26881957
000350 44 90 2e be 18 7d 10 be a5 d0 12 be 76 a3 a4 be
       -0.1704722 -0.1411022 -0.14337404 -0.3215596
000360 f6 75 35 bf b0 3d 2b be d1 ab 80 be 60 d3 1e be
       -0.7088312 -0.1672275 -0.25131086 -0.1551032
000370 ff 70 fc be cd 0d 29 be 66 ae a5 be c3 d6 14 be
       -0.4930496 -0.16509171 -0.32359618 -0.1453505
000380 4f 15 b9 be 02 ce 36 be 55 2f 38 be 95 76 45 be
       -0.3614907 -0.17852023 -0.17986806 -0.19283517
000390 85 27 48 be fa fc 13 be 38 4b a1 be e1 06 80 be
       -0.19546326 -0.14451972 -0.315027 -0.25005248
0003a0 c8 ca 50 be 6e 9d a3 be f7 45 64 be 0c 3f 40 be
       -0.20389855 -0.31956047 -0.22292314 -0.1877405
0003b0 43 e0 0c be f8 68 16 be 72 20 18 be dd 4b 4d be
       -0.13757424 -0.1468848 -0.14856127 -0.20048471
0003c0 80 c6 05 be 56 62 64 be 10 ed 92 be 9c fc cc be
       -0.13064003 -0.22303137 -0.2869649 -0.40036476
0003d0 a3 72 dc be a0 6d b8 be 03 70 a3 be fd 7a 20 be
       -0.4305621 -0.36021137 -0.31921396 -0.15671916
0003e0 e2 82 13 be eb aa 21 be 8e ed 68 be d4 94 33 be
       -0.14405397 -0.15787856 -0.2274687 -0.17537242
0003f0 f9 60 13 be 55 5d 41 be a7 a6 78 be 37 c3 84 be
       -0.14392461 -0.1888326 -0.24282323 -0.25930187

weight f4 [64, 3]
000000 9d 67 a0 be 13 c6 99 3d 19 0d 5b be f3 6e 85 3a
       -0.3132905 0.07508483 -0.21391715 0.001018016
000010 4e 05 0a bb df 6e 07 3b 70 c5 10 3b ea 0e f0 ba
       -0.002106029 0.002066545 0.0022090338 -0.0018314992
000020 3d c0 c9 3a 96 f5 50 3b 3d 41 4a ba 33 f8 10 3a
       0.0015392374 0.0031884662 -0.000771541 0.00055301486
000030 c9 2b e7 3f 2e c2 ab bf 45 85 ad bd 49 ad 0c 3b
       1.8060237 -1.3418634 -0.08472685 0.002146559
000040 17 bf 64 ba f1 94 0b 3a 65 58 a5 3b 01 21 85 bb
       -0.00087259844 0.0005324623 0.005045938 -0.0040627723
000050 ad e5 50 3b 7f 31 9c bf ed cc 54 3f 18 4e b2 be
       0.0031875179 -1.2202605 0.8312519 -0.34825206
000060 3d bf 05 3c 1b e0 3e 3b fa 1c 6a 3c e2 b5 17 3b
       0.008163271 0.0029125276 0.014289135 0.0023149182
000070 78 21 c2 ba 25 cb cf 3a 57 7c f2 3c 3f 53 9a 3c
       -0.0014811 0.0015853388 0.029600305 0.018838523
000080 93 6d 9b bd ff 2e 0c be e2 7e 6c bd 19 bc c4 3c
       -0.07589259 -0.13689803 -0.057738192 0.024015473
000090 1d 53 98 bd c6 92 09 3e b6 0b 85 be de c3 20 3b
       -0.074377276 0.13434896 -0.25985497 0.0024530808
0000a0 61 eb 03 bb 2d c8 05 3b b3 66 20 3c 6c 83 b7 ba
       -0.002012931 0.0020413504 0.00979011 -0.0014000959
0000b0 a9 ef c4 3c e7 c7 52 be fa 7d 9a bd 75 82 56 ba
       0.02404006 -0.20584069 -0.07543559 -0.0008182892
0000c0 af 46 dc 3e aa c9 10 bf cc 2c 65 3e f0 e4 72 bd
       0.43022677 -0.56557715 0.2238037 -0.059300363
0000d0 47 d0 46 bd da 40 55 3c 5e 2a e7 bd de 6d c1 bc
       -0.048538473 0.01301595 -0.11287378 -0.02361196
0000e0 15 4d 0d 3f 62 bc 74 be ef 03 ba 3e ed 5b bd bd
       0.5519574 -0.23899987 0.36331126 -0.09246049
0000f0 d7 49 81 3d 46 87 05 be a2 7f 99 3d af b4 00 3b
       0.06312912 -0.13039884 0.07495047 0.0019638946
000100 5c 1e 95 ba c9 5a 2f 3a bf fd 34 3b dd 8d 47 bb
       -0.0011376846 0.0006689248 0.0027617065 -0.0030449547
000110 c9 4f 0e 3b a8 03 be 3d eb 43 6b 3f 9e d0 c2 bb
       0.0021715036 0.09278041 0.9190051 -0.0059452793
000120 17 9f e0 be d0 5a db be 9a 81 72 40 d8 a6 5b bc
       -0.43871376 -0.42842722 3.7891603 -0.013406478
000130 7a 60 f2 bd 66 31 ee be 2e 2c 8e 3d 51 e0 de 3d
       -0.11834808 -0.46522063 0.0694202 0.10882629
000140 f5 a2 91 3c 1f 63 8d 3d 57 af c3 bd 59 40 95 3d
       0.0177779 0.069036715 -0.09554928 0.07287664
000150 c9 95 36 bf 42 4b 7b 3e 6a 3c b2 3e f1 d1 8a bc
       -0.71322304 0.24540427 0.34811717 -0.016945811
000160 0f 56 8d 3a 65 6f 2d be fc 8f 55 bd f6 ad 1f 3d
       0.0010783094 -0.16937025 -0.052139267 0.03898426
000170 92 c2 9f 3d 7d 92 12 3b 4b 75 89 ba dc 2e 18 b9
       0.07800783 0.0022365146 -0.0010487227 -0.00014513306
000180 49 4e 34 be 01 bf 3a be b0 ce 33 be 6e 59 83 3b
       -0.17607988 -0.18236925 -0.17559314 0.0040084636
000190 eb 6a ad bb 87 72 ce 3c 90 89 18 be 67 d6 9e 3c
       -0.0052922866 0.025201095 -0.14896226 0.019389344
0001a0 cc f2 ab 3f 74 92 e2 bc ec 52 d3 3c 8f ce 58 be
       1.3433471 -0.027657725 0.025796376 -0.21172546
0001b0 7a 11 77 3d fe 70 15 bd ad f2 31 be 21 b2 23 3b
       0.0603194 -0.03648471 -0.1737773 0.0024978
0001c0 86 d7 10 bb bd 7b df 3a 94 d3 56 3d 2a 6a 18 3d
       -0.0022101118 0.0017050427 0.05244787 0.03721062
0001d0 8e 01 6b 3d 17 db dc 3d 30 c0 0c be 41 39 5b 3d
       0.05737453 0.107839756 -0.13745189 0.0535214
0001e0 3d 87 48 3a 4e 07 5f bd 22 5b 27 bf 0a f5 4b 3e
       0.00076495466 -0.054450326 -0.6537343 0.19917694
0001f0 c7 01 5e be da 6a 79 bd 1b 37 be 3d a5 34 56 bc
       -0.21680366 -0.060892917 0.09287854 -0.013074075
000200 39 af 13 be 59 c1 a9 bd 65 1b 2e bd b5 2c 44 be
       -0.14422311 -0.08288831 -0.042506594 -0.1915768
000210 3d 9d 15 3b d1 6c 28 bc 13 a2 dc 3d 95 c2 3f 3b
       0.0022829317 -0.01027985 0.10773101 0.0029260267
000220 c4 3e 8f ba d3 f1 45 3b 1d a8 34 3b a6 46 c2 ba
       -0.001092874 0.0030203953 0.0027566024 -0.001482208
000230 ca af e7 3a a0 d4 9e bc cb 21 70 bd cf b4 3e be
       0.0017676291 -0.019388497 -0.058625977 -0.1862366
000240 c0 d0 16 bb ed fe f6 3a cb c5 76 3b da 3f 99 3d
       -0.0023012608 0.0018844284 0.0037654515 0.07482882
000250 e6 ce df bd c6 4e 36 3d 29 ca 1e 3c 10 9e e8 bc
       -0.109281346 0.044508718 0.009691753 -0.028395683
000260 bb f4 38 3c 8c 8a b4 3f 7d 6f c2 3f 49 6b a1 be
       0.011288817 1.4104781 1.5190274 -0.31527165
000270 93 d0 69 3d e8 58 0c 3f ac 5c 85 bf e9 32 ac 3d
       0.057083678 0.5482316 -1.0418906 0.08408148
000280 65 4a a1 3d b9 68 3c bf 67 8a 23 bf 1e 25 e9 3e
       0.07875518 -0.73597294 -0.6388306 0.4553613
000290 c0 1f d0 bc ea 3e a2 3b 99 b9 0e bb 94 ba 56 3c
       -0.025405765 0.0049513476 -0.0021778105 0.013106007
0002a0 0f 2f 41 3b ac cd 13 bb f3 05 12 3b 97 42 48 3d
       0.0029477512 -0.002255301 0.0022281378 0.04889163
0002b0 1c 4f 80 3d 7f fa 12 3d a8 76 85 bd 34 fa 18 be
       0.06265089 0.035883423 -0.065167725 -0.14939195
0002c0 65 a1 12 3f f6 fd d5 3b d3 24 07 bc 71 19 34 3d
       0.5727752 0.0065305186 -0.008248526 0.043969575
0002d0 59 5b 35 3b e1 37 27 bb 76 e8 05 3b ef 94 31 bf
       0.0027672856 -0.0025515484 0.0020432747 -0.6936788
0002e0 62 19 c3 bf 1a 00 41 bf 33 f6 6b 3d 48 b7 3b bc
       -1.5242121 -0.7539078 0.05760784 -0.011457272
0002f0 42 86 af be e1 77 1a 3e e5 3c 50 3e 7b 7e 83 be
       -0.34282118 0.15084793 0.2033573 -0.25682434

weight f4 [2, 64]
000000 16 2b c7 be 75 b5 09 bc c1 8a ba 3c 35 10 ac 3c
       -0.3890006 -0.008405079 0.022771241 0.021003822
000010 23 7f ca 3c d3 6e 8d 3c 69 93 d9 3c 34 e1 fd 3d
       0.024718827 0.01726476 0.026559548 0.1239647
000020 06 f1 62 3c c3 00 bf 3c ab d3 da 3d 2a c8 f1 3d
       0.01385141 0.023315793 0.10684904 0.118057564
000030 c1 76 fa bd f6 ae ad 3c ce 4d 47 3d a4 11 06 3e
       -0.12229682 0.021201592 0.048658185 0.13092667
000040 28 bd b6 bd 67 76 05 bc 97 98 c1 bd c3 96 66 bd
       -0.089227974 -0.008145905 -0.09452932 -0.05629612
000050 94 56 59 3e 6f df ad 3c 09 f0 d1 3c 2e b8 1e be
       0.21224433 0.021224706 0.025627153 -0.15499946
000060 1b 33 45 bd 47 20 02 3e 9d d3 d5 bd 0f 31 8b bd
       -0.04814444 0.12707625 -0.10440753 -0.067964666
000070 d0 e3 ae 3d 33 c1 50 3c b8 7c e2 bc 73 71 83 3c
       0.085395455 0.012741375 -0.027647361 0.016045308
000080 2c c4 99 be c7 b7 69 ba 42 49 b7 3e 52 23 14 bc
       -0.3003248 -0.00089156296 0.3579808 -0.009041624
000090 3e 59 4d 3d 46 96 c5 3c ff ae 43 be 91 00 99 3c
       0.050133936 0.024119508 -0.19109724 0.018677028
0000a0 3e 63 8c bd 74 eb d1 3e 18 00 2b be 7f b0 d8 be
       -0.068548664 0.4099995 -0.16699255 -0.42322156
0000b0 37 a8 4d 3d 0f 39 85 3c ee 88 94 3c 94 44 20 be
       0.05020925 0.01626256 0.0181317 -0.1565116
0000c0 25 0c f7 3a 54 9e 2d be 4a 01 7b bc d1 03 f5 3d
       0.0018848224 -0.16954929 -0.015320132 0.119636185
0000d0 eb 21 e9 3b 3f 9f 98 3c a9 1b 61 3e 4b e3 99 3c
       0.007114639 0.018630622 0.21983208 0.01878514
0000e0 7f 15 cc 3c ef 9d 2f 3d 5b aa 88 3e 6a 22 55 bd
       0.024912594 0.042875227 0.2669247 -0.052034773
0000f0 8c 85 ca 3c 75 be ea 3c 5e 73 a0 3e fc 9b 48 be
       0.024721883 0.02865527 0.31338018 -0.19590753
000100 26 bc f4 bd d5 38 07 3b 10 20 1f 39 75 20 25 3c
       -0.11949949 0.002063324 0.00015175366 0.010078539
000110 8a d5 c7 bd bb e8 2f 3a 10 b9 bf bb 39 94 51 bd
       -0.09757526 0.00067104 -0.0058509186 -0.051166747
000120 69 87 11 3c 06 d1 8b 3a 15 2c 51 be 7b f8 28 3e
       0.008882382 0.0010667152 -0.20426972 0.16501038
000130 c3 52 05 3f ac d9 2e 3b 7a ea 56 3d e4 03 06 3e
       0.5207941 0.0026680036 0.052469708 0.13087422
000140 d4 7f 98 3c b9 52 ae 3c 5b ec f6 be 08 f4 48 3e
       0.01861564 0.02127968 -0.482272 0.1962434
000150 7d ed 7f 3e c5 68 b4 3b 46 e6 e6 ba 7c 0b a3 3d
       0.24992938 0.0055056536 -0.0017616234 0.07961175
000160 a9 d2 22 3d ad d4 77 be c2 16 7b 3e 46 c0 e9 3b
       0.039751682 -0.24202223 0.245204 0.0071335165
000170 f3 46 fb bc c6 0e cf 3d 63 3a 99 3d eb e0 4a ba
       -0.03067348 0.1011024 0.074818395 -0.0007739204
000180 a2 a7 96 be 7b 55 ce 3c fb 5e 25 be f7 86 87 3c
       -0.2942477 0.025187245 -0.16149513 0.016543848
000190 71 5c 83 bd 31 1c 81 38 cd 6c 07 be ab b1 8d bd
       -0.06414116 6.1564504e-05 -0.13225098 -0.06918653
0001a0 c5 dd 84 bd 6c 38 eb bd de aa 0c 3e 91 66 96 bd
       -0.06487612 -0.11485371 0.13737056 -0.07343782
0001b0 65 51 08 3e f1 8c 13 3c cd bc c0 3b 07 93 14 bd
       0.133123 0.009005771 0.005881882 -0.03627303
0001c0 39 18 3f 3c bd b7 67 3e 33 61 18 be 45 34 34 bc
       0.01166349 0.22628684 -0.14880829 -0.01099879
0001d0 46 f9 2c 3e 0b 78 64 3d f3 26 06 be 98 59 d4 3b
       0.16891965 0.055778544 -0.13100795 0.006480407
0001e0 c6 11 eb ba 6f e0 de 3d d7 9e 8d 3e c5 87 0a 3d
       -0.0017934374 0.10882651 0.27660248 0.033820886
0001f0 27 d5 a9 ba 74 f9 4b 3d ba 34 a4 bd 0f 4a cd be
       -0.0012957201 0.049798444 -0.08017869 -0.40095565

bias f4 [2]
000000 78 3f 19 be dc a3 e3 3c
       -0.14965618 0.027788095

W f4 [64, 64]
000000 4e 9b 3c be ae 38 51 bd 76 39 0b be 09 a0 0a 3e
       -0.18418619 -0.051079445 -0.13596138 0.13537611
000010 30 8a f6 3d cf af ee 39 c5 3a 62 bc 0d 09 7b bd
       0.12038076 0.00045525885 -0.013807957 -0.06128793
000020 44 87 68 3d b8 5b 68 3e 46 59 a8 3d 13 21 ed bd
       0.056769624 0.22691238 0.082201526 -0.11578574
000030 c8 60 ba bd cf d5 cd bc 58 a0 0c 3c d9 76 12 be
       -0.09100491 -0.025126366 0.008583151 -0.1430315
000040 9e 1f b1 bc 1a 20 83 3e 64 36 1b be 01 d7 a9 3c
       -0.021621522 0.2561043 -0.15157467 0.020732405
000050 8c 1f 5a bd 7d a7 8a bc e1 c8 4d 3e 23 8f dd bc
       -0.05325274 -0.016925568 0.2009616 -0.027045792
000060 98 bd 03 bd e6 47 3f 3e bb c2 0b 3d 01 07 28 bb
       -0.032163233 0.18679771 0.034121256 -0.002563894
000070 cf 50 40 3d 38 65 61 3d 09 07 82 3d 9f af cf 3d
       0.046952065 0.05502817 0.06348998 0.10140919
000080 1c 3b f9 3d 2d 14 bb 3c f2 ee 27 3e 21 b1 0a 3d
       0.12169477 0.022836769 0.16399744 0.03386033
000090 e2 f2 21 3e b3 db a0 bd e6 5f c5 3d e6 97 fd bd
       0.15815309 -0.07854404 0.09637432 -0.12382488
0000a0 c6 c5 e0 3c f2 38 74 3d f7 ab 3a 3e 63 27 de 3d
       0.027438056 0.05962462 0.18229662 0.10847356
0000b0 b8 49 84 bc 83 15 dc bd e4 8e 88 bc 54 fe e0 bd
       -0.016148433 -0.107462905 -0.016669698 -0.10986009
0000c0 9f f2 c3 bd 23 89 6a be e1 9f 36 bd 5b 96 10 3e
       -0.09567761 -0.22903876 -0.044586066 0.14119856
0000d0 46 06 5d bd ba c9 47 be 0e 11 2d 3e 0f bf 89 3b
       -0.05396106 -0.19510546 0.16901037 0.004203684
0000e0 a4 dc 28 bd 89 4a e9 3d c6 70 3a 3c 8b c2 41 bd
       -0.041226044 0.113911696 0.011379426 -0.04730467
0000f0 12 29 c6 bd bc 5f 66 be b8 45 17 bd ea ae 88 bd
       -0.09675802 -0.22497457 -0.036931723 -0.06673987
000100 97 7e 79 bd 71 cb f3 bd 82 fc 5a be 69 be 9b 3d
       -0.06091174 -0.11904038 -0.21385387 0.07604677
000110 e0 87 3e bd 86 d3 92 bd a0 67 dd bd 26 57 83 bd
       -0.0465163 -0.07169251 -0.108107805 -0.064131066
000120 e7 da 48 bd 2c 8d 17 be 14 21 ab be 52 2a c6 3d
       -0.049036887 -0.14799947 -0.33423674 0.09676041
000130 94 9b 6c 3e 9e 35 f5 bd 02 f3 ee 3d 7b 15 16 be
       0.23106223 -0.11973117 0.11667444 -0.14656632
000140 08 fb 85 3d cc 1e 73 bd 20 71 e1 3d 93 04 04 3e
       0.06542021 -0.059355542 0.11007905 0.1289237
000150 85 2d 86 be 4e dc 49 3e 9d 0c bb bd a1 d3 14 be
       -0.26206604 0.19712946 -0.09133265 -0.14533855
000160 b0 5b 4b 3d 5e 07 48 bd 73 21 e7 bd 9b 21 b1 3d
       0.049647987 -0.04883515 -0.11285677 0.08648988
000170 1a af af bd e6 d0 41 3e 89 e5 46 3e 2f eb 96 3e
       -0.0857832 0.18927345 0.19423498 0.29476306
000180 f1 1c 01 3e 4c e1 84 bd ca 25 1f 3d 20 93 91 3d
       0.12608697 -0.064882845 0.038854398 0.0710814
000190 49 53 39 3b dc 61 75 3d a6 67 02 be 20 a7 e2 3c
       0.0028278402 0.05990778 -0.12734851 0.027667582
0001a0 97 34 9a 3d d4 48 2d 3e 31 00 78 be df aa 81 3d
       0.07529562 0.16922313 -0.24218823 0.06331419
0001b0 67 5a eb 3d cc 92 cf bc 26 28 8f be 1b be 09 3e
       0.11491852 -0.025338553 -0.27960318 0.13451426
0001c0 e9 d2 21 be 5a b2 e6 bd 71 44 06 3d d9 df 51 be
       -0.15803112 -0.112644866 0.032780115 -0.20495547
0001d0 11 e2 2a be 96 f2 df 3d c9 0e 82 3e 62 13 4e 3e
       -0.166878 0.109349415 0.25401905 0.20124581
0001e0 91 c2 e1 bd 40 85 db 3d 95 6c 06 bc 4e 31 2a be
       -0.11023439 0.10718775 -0.008204599 -0.16620371
0001f0 20 3e 09 bc 29 50 86 be c4 9c 49 bd bf b1 bd 3d
       -0.008376628 -0.26233032 -0.04922177 0.09262418
000200 3a 80 81 be 14 e4 44 3e e0 92 c5 3d 1c 2d 8b 3b
       -0.25293142 0.1922763 0.09647155 0.004247321
000210 0e 72 b6 bd a8 e5 d5 3d b5 9e 25 3e 05 01 15 3e
       -0.08908473 0.10444194 0.16173823 0.1455117
000220 1e 1a a8 3d cf e9 b7 bb 12 ad 8e 3e d7 63 0e 3e
       0.082081065 -0.005612589 0.27866417 0.13905273
000230 3d d7 87 bd 5f fe 04 3c 61 50 4f 3e 2b 18 9f bc
       -0.0663285 0.008117287 0.20245506 -0.019420704
000240 fd c3 5e bd 57 aa 01 be c7 a6 26 3e d6 43 17 3d
       -0.054386128 -0.12662636 0.16274558 0.036929928
000250 03 fd bc bd 81 0d a0 bd 0b 11 4e 3d 99 ee 3d 3e
       -0.09227946 -0.07815076 0.050309222 0.18548049
000260 af d3 a3 be 71 77 1a bd 81 e2 f8 3d 86 c6 ad bb
       -0.3199744 -0.037711564 0.12152577 -0.005303207
000270 80 50 14 3e 37 31 13 3e 7e 43 d2 bd 0e fd 33 3e
       0.14483833 0.14374243 -0.10266779 0.17577001
000280 67 d5 18 3e 1b d6 67 3e 84 1e e2 bc fb 64 05 3e
       0.14925157 0.22640269 -0.027602442 0.13026802
000290 7e f1 c2 bd fa 28 97 3d 9c 93 4a 3e bf de 6b 3c
       -0.09518717 0.073808625 0.19782871 0.0143963685
0002a0 b9 26 ae bd eb 41 05 be cf ba 6b 3d d4 8f 30 bd
       -0.085034795 -0.13013427 0.0575512 -0.043105915
0002b0 00 ff 6b bc 2f 9c 96 bc 47 3a 72 bd 28 4a d5 bd
       -0.014404058 -0.018385021 -0.05913761 -0.10414535
0002c0 12 5a 62 3d 0d 3b de 3c 79 fa ee 3d 8d e8 c1 bd
       0.05526168 0.027127767 0.116688676 -0.09468184
0002d0 77 31 29 be 93 ae 90 bc 0e ef cc bc 3b 20 05 3d
       -0.16522776 -0.017661368 -0.025016334 0.03250144
0002e0 d3 b5 a0 3d 9a 6e b0 3d 0e 31 d0 3d ce 75 82 3d
       0.0784718 0.086148456 0.101656064 0.06370126
0002f0 cc d7 44 bd 3e b7 2f 3c b7 63 17 3e d6 de c7 3d
       -0.048057362 0.010724841 0.14784132 0.097592995
000300 b0 5e f1 3d 66 06 f0 3d 8a 84 23 3d d0 e4 a7 bd
       0.11785638 0.117199704 0.03992132 -0.081979394
000310 96 b7 2e bd db 8d 85 3e 3d ca 92 bd 46 bf ff bd
       -0.04265555 0.2608479 -0.0716748 -0.124876544
000320 0f 99 cd bc e4 e5 01 3d 0e 5b eb bd 2c 45 64 3e
       -0.025097398 0.03171338 -0.11491977 0.22292012
000330 c8 73 79 3e ec 5c 1f be af c6 17 bd ac c1 67 be
       0.24360573 -0.1556279 -0.037054714 -0.22632474
000340 c9 a5 8e bd 23 32 ee bd 50 e6 0b bd ff c0 00 be
       -0.06965215 -0.116306566 -0.03415519 -0.12573622
000350 b2 dc 3d bd 65 5a 6c 3e d9 fe 88 bb 1f 67 f2 bc
       -0.04635305 0.23081358 -0.004180771 -0.029590188
000360 9b 84 2b bc 9f db ec 3d 04 eb 36 b9 6b 84 2d 3d
       -0.010468627 0.11565327 -0.00017444423 0.04236261
000370 8a d4 ce bc df c8 b1 3c 87 9d 26 be e9 9b a6 3d
       -0.02524783 0.021702228 -0.1627103 0.08135206
000380 01 7c 96 be 02 00 d0 3c 79 57 fa bb 42 29 78 3d
       -0.29391482 0.025390629 -0.007639822 0.06058622
000390 f0 70 42 be d1 01 2c 3e 5c eb f9 bd c1 49 ad 3c
       -0.18988395 0.16797568 -0.12203094 0.021153333
0003a0 44 f3 f6 bd 33 f7 7a bc 7e b6 6c 3e 2a bd f2 3d
       -0.12058118 -0.015317726 0.2311649 0.118524864
0003b0 62 0a 81 3e ea 73 2e be 7d d8 8d 3c e3 36 a2 3c
       0.25203234 -0.17036405 0.017315144 0.019801563
0003c0 82 02 91 bc 90 28 ef 3d 2d 75 ee 3b d3 b1 0d be
       -0.017701391 0.116776586 0.007277152 -0.13837366
0003d0 13 23 05 be 85 34 17 be 8a 92 1b be c2 61 18 3d
       -0.13001661 -0.14766128 -0.15192619 0.037202604
0003e0 7e fc 9d bd 2e a5 9d be 39 92 d0 3d 08 5e af 3d
       -0.07714175 -0.30790085 0.1018414 0.08562857
0003f0 42 47 4b 3e 1e 1d 85 bc e8 29 23 3c 5d e7 96 3d
       0.19851401 -0.016249236 0.009958722 0.07368348
