LeakyRNN_11.28/1202/sp_3_128_d10_r11_1/model_46.pth (torch, 137244 bytes, 5 tensors)

weight f4 [128, 128]
000000 23 e7 c6 bd 76 b6 f8 bd 05 d7 83 be 30 aa 35 be
       -0.097120546 -0.12144177 -0.25749984 -0.17740703
000010 85 ed f9 bd 85 da c7 be bc 0c 21 be 3f 31 a0 be
       -0.122035064 -0.39033905 -0.15727514 -0.31287572
000020 74 6d 18 be eb 30 05 be 3b d8 03 bf e9 ea 66 be
       -0.14885503 -0.13006942 -0.51501817 -0.22550549
000030 9e 27 2b be 84 1a fd be bd 45 a0 be 8a 15 71 bf
       -0.16714332 -0.49434292 -0.31303206 -0.9417349
000040 3e a3 ca bd cf d0 1b be c8 81 56 be 42 88 e9 bd
       -0.09894417 -0.15216373 -0.20947945 -0.11402942
000050 71 16 ac be 68 61 14 bf 4f 5e 1a be 22 c8 e2 bd
       -0.3361087 -0.5796113 -0.15075038 -0.110733286
000060 ca e0 3a be 47 60 0d bf d5 f0 0e be d6 17 dd be
       -0.18249813 -0.5522503 -0.13959058 -0.43182248
000070 9d 19 c7 bd 16 ea ee be dc 89 4c bf 3f 06 b9 be
       -0.09721682 -0.46662968 -0.79897857 -0.36137578
000080 87 50 0f be c3 1f dd bd 20 19 de bd 4d 6d 28 be
       -0.13995562 -0.10797074 -0.10844636 -0.16447945
000090 21 d0 d0 be e4 00 45 be 00 3f fa bd 6b d0 b8 be
       -0.4078379 -0.19238621 -0.122190475 -0.3609651
0000a0 c1 19 16 be cb 46 5e be d0 be f5 bd f3 57 1d be
       -0.14658262 -0.21706693 -0.11999285 -0.15365581
0000b0 dd 9c 17 be a1 cc 25 be dd eb 8c be a1 b1 05 be
       -0.14805932 -0.16191341 -0.275237 -0.13056041
0000c0 33 fc 73 be 61 23 d0 be 5f f1 0e be 5d 2e f3 bd
       -0.23826675 -0.40651992 -0.13959263 -0.118740775
0000d0 14 9f ee bd 51 e4 30 be 25 f6 fb be fb 92 8b be
       -0.116514355 -0.17274596 -0.4921123 -0.27260575
0000e0 cf 2f ad be cf be 1c be 78 69 12 be fe 5e eb be
       -0.33825538 -0.15307163 -0.14298046 -0.4597091
0000f0 ec 1f 39 be f9 e4 98 be ed dd 33 be ca d3 53 be
       -0.18078583 -0.29862192 -0.17565127 -0.2068626
000100 c4 14 00 bf be 58 3b be 03 cd 7c be fb 34 dd bd
       -0.50031686 -0.18295571 -0.24687581 -0.10801121
000110 33 4b 28 be bf 93 10 be 78 6e db be d9 fc a9 be
       -0.16434936 -0.1411886 -0.42857718 -0.3320072
000120 cc 49 23 be 0e 65 24 be b9 5b 9c be f2 f6 da be
       -0.1594612 -0.16054174 -0.3053873 -0.4276653
000130 1b ae 23 be 16 7a a2 be d2 60 c9 be d7 e5 0e be
       -0.15984385 -0.3173377 -0.3933168 -0.13954864
000140 30 4a 41 be d6 6f fe bd c7 dc 1c be 02 61 71 be
       -0.18875957 -0.12423675 -0.15318595 -0.23572162
000150 cb c1 1f be 09 95 c0 be 7f f3 1b be 6b 8d 44 be
       -0.1560127 -0.37613705 -0.15229605 -0.19194572
000160 d5 a7 2b be ea ff 3a be 5b 3f 59 be 47 75 a8 be
       -0.16763242 -0.18261686 -0.21215574 -0.32901976
000170 4b d3 23 be fa e5 9b be b2 da e1 bd d3 2c b7 be
       -0.1599857 -0.30448896 -0.11028041 -0.35776386
000180 1a 8d 29 be 87 51 dc bd a9 b6 2c be 0d 0d 6a bf
       -0.16557732 -0.107577376 -0.16866554 -0.91426164
000190 6c 7e 61 bf b6 e0 82 be 5a f0 fe bd 72 89 9a be
       -0.8808353 -0.25562066 -0.12448187 -0.30182987
0001a0 ac 6c cd bd dc f5 23 be 0e 23 01 be 4f f8 09 be
       -0.10030493 -0.16011757 -0.12611029 -0.13473628
0001b0 7e 7e c7 bd 30 73 d3 bd e3 87 cd bd bf 1d c4 be
       -0.09740923 -0.10324705 -0.10035684 -0.38303944
0001c0 03 dd 46 be 2a 5a a8 be cc bb 0c be ad 46 03 bf
       -0.19420247 -0.3288129 -0.13743514 -0.5127972
0001d0 ae ba 07 be 0e 6e a7 be 50 63 85 be bd 9a 62 be
       -0.13254806 -0.32701153 -0.26052332 -0.2212934
0001e0 5b 5c a0 be cd 40 bd be 5a 85 f7 bd 47 dc f2 bd
       -0.31320462 -0.36963502 -0.12085982 -0.11858421
0001f0 8d 10 fd bd d6 be 05 be be e6 c4 be f6 b1 18 be
       -0.123566724 -0.1306108 -0.38457292 -0.14911637
000200 eb 41 73 be 7a f2 0b bd b1 29 87 3e 07 c9 1c bf
       -0.23755614 -0.03416679 0.26398996 -0.61244243
000210 f0 a9 c3 be dd fb 80 bf a7 52 26 be 0b 95 7e be
       -0.3821559 -1.0076863 -0.16242467 -0.24861543
000220 00 c6 50 be f1 a0 bc be d1 74 b8 be 41 3e ab be
       -0.20388031 -0.3684154 -0.36026624 -0.33445933
000230 7f 00 4f be c2 c6 18 be 54 19 58 be 60 3a 99 be
       -0.20215033 -0.1491957 -0.21103412 -0.2992735
000240 fc ef 6e be be 41 6d bd 89 7e 81 bd 59 24 88 be
       -0.23333734 -0.057924025 -0.06322963 -0.2659023
000250 db 0a 83 be 8d ac 51 bf 0a 1f 61 be ed 44 20 be
       -0.2559422 -0.81903917 -0.21984497 -0.15651293
000260 bd 58 cf be 6d bb 4e bd 31 7e ae be d4 a1 d4 be
       -0.4049739 -0.050471712 -0.3408065 -0.41529715
000270 72 0b 5a be 54 9f 2b bf 66 58 6d bf 99 16 39 bf
       -0.21293429 -0.6703999 -0.9271301 -0.72300106
000280 d3 53 67 be 48 21 0a be 7a fc 75 be b1 0d 2f be
       -0.2259057 -0.13489258 -0.24022093 -0.17095067
000290 b7 61 32 be 86 f9 21 be 21 a5 8e be 02 45 59 be
       -0.17420088 -0.15817842 -0.27860358 -0.2121773
0002a0 4e 96 d8 be 26 d5 15 bf c4 5c 5b be 31 fc 04 bf
       -0.42302173 -0.58528364 -0.21422106 -0.51947314
0002b0 03 38 72 be 7f 4d 3d 3c 55 de 9c be f3 a3 17 be
       -0.2365418 0.011554121 -0.30638376 -0.14808635
0002c0 5c d0 34 3e cd 2d a5 3c b0 82 02 bf b5 4f 6f be
       0.17657608 0.020163441 -0.50980663 -0.2337025
0002d0 51 4b 03 bf e8 3d 8f bd 6e fb 95 be 97 fb ab 3d
       -0.512868 -0.069942296 -0.29293388 0.08397596
0002e0 30 f1 90 be 4f a4 d7 be 23 6e b1 be a3 4c d2 bd
       -0.2830901 -0.42117545 -0.3465434 -0.102685235
0002f0 f0 83 cd bd e3 52 ba 3c 11 0f 2e bf 79 b1 26 3a
       -0.10034931 0.022744602 -0.6799174 0.0006358843
000300 df 39 f7 be 8c 0b 8e be 8a d2 05 bf d7 a6 6a be
       -0.4828634 -0.27743185 -0.5227438 -0.22915207
000310 59 44 00 be 6a f3 c7 be 2b b0 58 bd 90 1c 3a bf
       -0.12526073 -0.39052898 -0.052902382 -0.7269983
000320 c0 2a aa be 59 88 56 be 54 54 18 3e 55 ee 71 be
       -0.3323574 -0.2095045 0.14875919 -0.23626073
000330 d2 ff f1 bd 89 d2 03 bb 07 6d cf 3e 04 57 ba 3c
       -0.11816372 -0.0020114502 0.4051287 0.02274657
000340 80 80 c7 be ac f6 4e 3c ee 3b bd bd 8c f1 a6 3c
       -0.38965225 0.012632053 -0.09239946 0.02037885
000350 ab 06 8b be 28 de 99 be 03 ed 1e 3c 11 c5 9d be
       -0.27153525 -0.30052304 0.009700063 -0.30814412
000360 08 f9 2b be 0c 39 45 3e 71 1d 71 be 5b fd e1 be
       -0.16794217 0.19260043 -0.23546387 -0.44138607
000370 6a 4c 9c be 31 2f d4 bc e2 6a e4 be 16 91 a4 bd
       -0.3052705 -0.025901409 -0.44612795 -0.080354854
000380 0e eb 99 bd e0 86 8b be 20 15 89 be 11 ce ec bd
       -0.07515536 -0.2725134 -0.2677393 -0.115627415
000390 13 34 29 3d d9 93 98 3e d6 fb ec bd fd 99 ad be
       0.041309427 0.298003 -0.115714714 -0.33906546
0003a0 92 89 80 be 87 77 94 be 72 f7 3a bf 6b d3 58 be
       -0.25104958 -0.28997442 -0.7303382 -0.211744
0003b0 3b c4 44 be 3b c8 74 be e2 bb 3e be 2b d7 07 bf
       -0.19215481 -0.23904507 -0.18626359 -0.53062695
0003c0 35 98 7d be 0f fd 43 3d 45 00 7d 3d e4 b9 5d be
       -0.24765094 0.047848757 0.061767835 -0.21652943
0003d0 84 44 31 be 76 40 84 be cf e0 80 be a3 eb d9 be
       -0.17311293 -0.2583043 -0.25171515 -0.4256259
0003e0 6c 41 b1 be c0 75 24 bf 3f 62 39 be 9b 38 60 be
       -0.34620225 -0.6424217 -0.18103884 -0.21896593
0003f0 23 43 58 bd e6 19 92 be 4d f6 cd be c8 0e 01 bf
       -0.0527984 -0.28535384 -0.40226975 -0.5041318

weight f4 [128, 3]
000000 af b1 07 3b 6d 78 a8 bb 9f 70 21 bb 7f c7 2e bc
       0.0020705273 -0.005141309 -0.0024633778 -0.010667681
000010 94 87 25 3b 88 2f c7 3b f8 90 6a be af 72 f0 be
       0.0025257813 0.006078664 -0.22906864 -0.46962497
000020 ec 0a e0 be d7 64 b2 bc c8 30 ec 3d a8 e5 2e 3e
       -0.43758333 -0.0217766 0.11532742 0.17079794
000030 c4 94 a6 3b 4c dd 35 3c a8 dd 16 3d 31 0a f3 3d
       0.005083652 0.011100125 0.03683248 0.11867178
000040 d1 a4 d1 3e 8f 0f 7d 3f ed a6 00 be c0 4a 86 bd
       0.40946057 0.98851866 -0.12563677 -0.06557226
000050 dd 90 2a 3d 9a 67 c3 3b 1b 0b b2 3d 5a 90 6f 3f
       0.04164206 0.005963278 0.086935245 0.9357964
000060 67 be 93 bb 49 73 96 bb 65 27 8c bd 99 54 74 3b
       -0.0045087817 -0.00459138 -0.068434514 0.003728187
000070 35 ce 13 bc 85 fa b4 bd 0e f4 7a 3f d7 70 ae 3e
       -0.009021332 -0.08836845 0.9802865 0.34070465
000080 4d 55 2f 40 b7 5f 84 be 2b 51 d5 bc 9f 29 3c bd
       2.7395813 -0.25854275 -0.02603968 -0.04593813
000090 df ac 92 3c 67 d3 85 bc c1 93 ee be 15 27 a5 3f
       0.017904697 -0.016336156 -0.46597102 1.2902552
0000a0 53 85 02 40 7e 62 c4 3d 72 73 37 be 35 56 50 be
       2.0393875 0.095890984 -0.17915133 -0.20345385
0000b0 18 eb 0a 3e fd c8 0a bf a6 de 07 40 27 ac 98 40
       0.13566244 -0.54212934 2.1229644 4.7710147
0000c0 0b 27 71 3b c5 07 77 3b 15 fc fd ba dc 91 09 bd
       0.0036796953 0.003769384 -0.0019377494 -0.033586368
0000d0 13 8e d2 bd d5 5f ac bd 18 89 c2 3d 58 97 22 bf
       -0.10281005 -0.08416716 0.09498805 -0.6351218
0000e0 de f4 78 3d fb 42 45 3c 8f 58 d1 3c 52 d0 10 3c
       0.0607804 0.012039895 0.025554923 0.00883873
0000f0 03 95 5f bd 57 48 07 3e 22 c6 a7 3f e0 c6 d1 be
       -0.054585468 0.13211189 1.310734 -0.40972042
000100 48 fb e8 3e 9e d3 d9 be 2b 6b 6c bc aa 7d 81 3c
       0.45504212 -0.42544264 -0.014429848 0.015806992
000110 7f 0e 84 3c a6 2c fa 3b 57 11 38 3b c2 b8 54 bb
       0.016120194 0.007634717 0.0028086507 -0.0032458757
000120 87 61 92 bd d7 ce 50 3d 19 89 77 bc 9c de 8b 3e
       -0.07147508 0.050978508 -0.01510837 0.27318275
000130 c9 1a 9f 3e 95 d8 a1 3f 1b c4 c6 3b ac 73 6d 3b
       0.31075123 1.264422 0.006065858 0.0036232276
000140 ce b5 16 3c 37 aa 0d bf 9a 3b e6 bf fd 03 01 3a
       0.009198619 -0.5533785 -1.7986939 0.0004921554
000150 92 3b 9b 3b b4 03 0e 3b eb e6 ff ba 2d 19 76 be
       0.004737326 0.0021669688 -0.0019523775 -0.24033041
000160 e9 f2 06 3e 12 4b 3a bf a6 9e 44 40 0c c4 0e 40
       0.131786 -0.727708 3.0721831 2.2307158
000170 2a 56 4e bf 02 0b 02 be ea 5f 9d 3e e3 8e c4 bb
       -0.80600226 -0.12699512 0.3073724 -0.0059984787
000180 11 3f 96 3d 8b bf f7 bd ad e6 95 bd 02 67 ac ba
       0.07336248 -0.12097081 -0.073193885 -0.0013153257
000190 09 c0 d2 3a eb 10 9a bb 88 3b bb 3b fc 0b 4c bb
       0.001607896 -0.004701724 0.005713884 -0.0031135073
0001a0 b7 55 17 bb 47 28 b8 bd 2f 82 c3 bd 4e f7 22 be
       -0.0023091862 -0.08992057 -0.09546315 -0.15914652
0001b0 20 fc 1c 3f e9 c6 9a be 0c d1 12 3f b4 8b 6a bc
       0.6132221 -0.3022988 0.5735023 -0.014315534
0001c0 34 30 68 bd b8 1d 0c 3f 60 a4 37 3c f3 a6 1f bc
       -0.056686595 0.5473285 0.011208624 -0.009744394
0001d0 87 c1 ec 3b ed 43 1b bd 00 79 80 be 4b e6 2b 3f
       0.0072252187 -0.037906576 -0.25092316 0.67148274
0001e0 ad d9 c8 3c 91 1f 6e bb 43 50 6a 3c 40 8e a1 bd
       0.024517858 -0.0036334733 0.014301362 -0.0788846
0001f0 ab 7b 01 3e 11 45 cd 3d da d5 0c 3c 57 e4 5f bc
       0.12644832 0.10022939 0.008595908 -0.01366528
000200 f2 d9 cf 3b f1 8c 5e 3c 63 21 13 3d aa a5 a8 bd
       0.00634312 0.013583408 0.035920512 -0.08234723
000210 86 ba 1d bd 25 7b 12 bc bf 34 69 be 6f bd 31 3d
       -0.03850796 -0.008940493 -0.22774027 0.04339355
000220 4a 17 16 3c da 31 b7 be b3 ef f9 bd 7d d3 0e be
       0.009160826 -0.3578022 -0.12203922 -0.13947864
000230 b1 2c 79 bf 50 7c 18 3b 43 96 6e bc f4 95 3a bd
       -0.9733382 0.0023267455 -0.014562192 -0.045553163
000240 3d 6f 2c bd 61 6b a2 bd c3 8c 5b be ce 5c da 3f
       -0.042098273 -0.07930637 -0.21440415 1.7059572
000250 6c 60 74 3f 81 68 6f 3b 4e 7d c8 bc 3e a9 c9 3c
       0.9545963 0.0036530795 -0.024473812 0.024616834
000260 e4 26 d5 3b f7 ab 1b 3b 85 bd 98 3b 8e e0 04 3c
       0.0065048803 0.0023753622 0.0046612644 0.008110179
000270 e3 ca 31 3c cc 4e ab bc b8 90 cc b9 a1 24 c6 3d
       0.010851595 -0.020911597 -0.00039017736 0.09674955
000280 fa 6b 25 3d 9c af 0a 3e 43 13 06 40 3d c8 88 bf
       0.040386178 0.13543552 2.0949256 -1.0686108
000290 cd 23 85 40 5a 2c 10 bf 19 09 7c be b7 45 35 be
       4.16062 -0.56317675 -0.24612845 -0.17702375
0002a0 d9 d2 9e 3c 4b 32 2b c0 15 6b 9c be 4b f4 ed b9
       0.01938765 -2.6749446 -0.30550447 -0.00045386175
0002b0 4d 04 f3 bc bb 4a c4 3e 0d a7 aa bb 99 ef 49 3d
       -0.029665137 0.38338265 -0.0052079023 0.049300764
0002c0 f5 16 69 3d ac 49 04 bf 40 54 1e 3f 89 c1 55 3e
       0.05690666 -0.51674914 0.61847305 0.20874609
0002d0 f5 5e 17 3d d8 26 2e 3d 3b cf 58 be 0f 40 b3 3e
       0.036955792 0.042517513 -0.21172802 0.3500981
0002e0 ad aa e6 be 40 8b 15 40 ee 34 a8 3d 3d 47 ca bc
       -0.4505209 2.3366241 0.082132205 -0.024692172
0002f0 c2 41 a0 bd 07 60 d3 bd f6 6f 1f 3d 2e 2f f3 3c
       -0.07825042 -0.1032105 0.038925134 0.029685583
000300 4f 4f 4d 3e 43 52 77 be de 23 b1 3f 11 31 02 3f
       0.20049785 -0.24152474 1.3839071 0.5085612
000310 f3 72 86 be 7d 8a 9d bd d4 f0 87 3e cd 05 b5 bd
       -0.26259574 -0.0769243 0.26550925 -0.08838997
000320 2f dc 97 3c 57 56 f3 3b 13 42 15 3b c8 b2 cf ba
       0.018537609 0.007426064 0.002277498 -0.0015846128
000330 46 aa 54 3d 08 95 42 bd 17 81 fd bb 09 c6 12 bc
       0.051920198 -0.04750541 -0.007736336 -0.008958348
000340 5e 4f 01 bc f9 fa 52 3d 6b a4 36 bf 1e b2 36 3e
       -0.007892458 0.051508877 -0.7134463 0.17841384
000350 34 6d 05 bf 8a e4 a8 bd 5b ae db 3e c5 4b f5 bc
       -0.52119756 -0.08246715 0.4290646 -0.029943356
000360 9b ed be bd fd 4c 8d bc f6 6d 75 3e 92 a9 2b 3c
       -0.093226634 -0.017248625 0.23967728 0.01047744
000370 d7 10 8f bc 86 d8 00 be ae dd ad be 3c dc 9b be
       -0.017464085 -0.12582597 -0.3395819 -0.30441463
000380 ff ad 6e bd 4e 20 d2 bd 2d 04 34 3f b4 50 46 bf
       -0.058271404 -0.10260068 0.7031887 -0.77466893
000390 f3 8a dc bb 84 aa 34 3b 61 75 58 3c ec 89 ed 3e
       -0.006730431 0.0027567456 0.013211579 0.4639429
0003a0 cf 2d 81 be 92 74 bf 3e 73 1d b3 3d 9b 6e e7 bd
       -0.25230262 0.37393624 0.08745851 -0.11300393
0003b0 32 1b d8 bf 84 29 36 bc 15 77 0b bc c0 b0 a3 bc
       -1.6883299 -0.0111182965 -0.008512278 -0.019981742
0003c0 f6 d0 25 3d 6f ac a7 bc 9a cb 7f be e7 5b c8 ba
       0.040482484 -0.020467965 -0.24980012 -0.0015286178
0003d0 3f 94 4f 3c d0 27 cb 3a 71 91 2f 3d 66 85 75 3b
       0.012669622 0.0015499536 0.042863313 0.0037463545
0003e0 cf da 84 bd 1e b4 41 be 21 c0 78 3d 96 ef fa 3e
       -0.06487047 -0.18916366 0.060730103 0.49010915
0003f0 77 bf 51 3d ab 1e 4e 3d 04 03 33 be cf f7 a7 be
       0.051207986 0.050322216 -0.17481619 -0.3280625

weight f4 [2, 128]
000000 a0 8d ab 3c ec e3 6c 3d 03 00 55 3e 15 dd 62 be
       0.020941556 0.05783455 0.20800786 -0.22154649
000010 55 80 59 bc 34 e6 3d be 38 15 00 be ca 27 22 ba
       -0.013275226 -0.18544847 -0.12508094 -0.00061857386
000020 4c a0 e5 bd 20 e3 66 3e 36 7f d4 3d ec ec 91 3d
       -0.11212215 0.22547579 0.10375826 0.071252674
000030 d3 54 f0 be fb 39 83 bd b4 30 08 3e 6b 71 b6 bd
       -0.46939716 -0.06407543 0.13299829 -0.089083515
000040 c9 5a 6d 3c 69 45 c6 be f7 b2 bc be ca 56 c0 3d
       0.014486977 -0.3872483 -0.3685529 0.09391554
000050 ba ff 36 3f 2d d5 21 3e 03 17 92 be 6d 47 91 3c
       0.7148396 0.15803976 -0.28533182 0.017734254
000060 56 1f 34 3e 96 26 6d 3d 4a cb 20 3d 52 70 49 be
       0.17590079 0.057898127 0.03925637 -0.19671753
000070 f2 39 68 3c 08 a8 d8 bd 04 12 64 bc 13 f8 da bb
       0.0141739715 -0.105789244 -0.013920311 -0.006682405
000080 00 28 1b be c0 78 af bc 5d f9 a9 3c fc d7 a9 3b
       -0.15151978 -0.021419883 0.020748788 0.005183218
000090 4a 26 8b be 87 95 e5 be fc cf d4 bd e4 88 55 be
       -0.2717765 -0.44840643 -0.10391232 -0.20853001
0000a0 48 cf 3a be 49 ed 27 3c 8b bb ae bd d9 cf c9 3d
       -0.18243134 0.010249444 -0.08531865 0.09854097
0000b0 e8 4e 24 bd 38 d9 08 be cc af b6 be fd a9 37 3e
       -0.040114313 -0.13364112 -0.35680997 0.17935939
0000c0 9c 53 23 be 50 b7 67 bd 6a fe 69 3c ae 4e 30 3e
       -0.15949863 -0.056571305 0.014281848 0.17217514
0000d0 24 91 1d be 79 7b d9 3d b2 a0 89 3d 13 c4 1b bd
       -0.15387398 0.10619254 0.06720103 -0.038028788
0000e0 8f 40 10 3e d5 4e ac 3e f0 4c 86 3e e9 bf b0 3d
       0.14087127 0.33653894 0.26230574 0.08630354
0000f0 60 31 6c bd 95 8c 5f be 7b 62 72 be be e9 33 be
       -0.057664275 -0.21830972 -0.2367038 -0.17569634
000100 d3 35 88 be 6a 7b 9d be f8 c4 86 3c 03 2b ba 3c
       -0.26603565 -0.3075822 0.016451344 0.022725588
000110 d0 8c 32 3c c4 49 7c be 0a e4 a0 be 05 aa b8 3c
       0.01089783 -0.24637514 -0.3142398 0.02254201
000120 50 c5 c7 3e 4f cb dd 3e 18 6a e0 3d 4d 5f 8d 3d
       0.39017725 0.43319175 0.10957736 0.06902943
000130 0c 98 38 bc af d3 8f 3d a7 95 4c 3e 24 28 ee 3c
       -0.01126672 0.07022797 0.19978963 0.029071875
000140 b2 9d 90 3d e3 9a e2 3d ac 9f 48 be bb 4c 6f 3d
       0.07061328 0.110646985 -0.1959216 0.058422785
000150 7f d9 83 3e c8 f8 92 3e 75 81 91 3d 2f 0f 73 3e
       0.25751874 0.2870543 0.0710477 0.23736261
000160 89 74 be 3d 13 a7 07 be 6f 5b bd 3d 26 7f 05 3c
       0.09299571 -0.13247328 0.09245955 0.00814799
000170 8d e8 92 be 2f bf 82 3c 1f f0 cb b9 46 8b f5 3d
       -0.28693047 0.015960304 -0.0003889808 0.11989455
000180 b7 39 81 3c df 6b 17 be 2b 99 95 bd d3 a5 c0 3c
       0.01577459 -0.14787243 -0.07304605 0.023516571
000190 42 7d 33 3d ae 5c 82 3c 6d b4 ae 3d bf 6b 0c 3e
       0.043820627 0.015913334 0.08530507 0.13712977
0001a0 7b 9a 6e 3c c7 a5 fb 3e 3e 6a 1c bc 06 ef 69 3e
       0.014563198 0.49149916 -0.0095468145 0.22845086
0001b0 f5 08 82 3c 57 18 99 3c c3 23 f6 3b 11 c0 12 bd
       0.015873412 0.018688364 0.0075115873 -0.0358277
0001c0 ce bb 8f 3c 49 6f ee 3d 3c 38 e6 bc 50 c8 9f bd
       0.017545607 0.1164232 -0.028102987 -0.078018785
0001d0 4a ac 3b bc 97 87 fa 3d 5b 0f 57 3e ff 1d 47 bc
       -0.011454651 0.12232893 0.21001951 -0.012153148
0001e0 37 84 58 be 41 b4 61 be 5c 58 4c be 32 02 00 be
       -0.21144186 -0.22041418 -0.19955581 -0.12500837
0001f0 e8 cb ca 3c 2e b4 ed bb 19 43 53 3e ef 90 1d be
       0.024755433 -0.007254145 0.20631064 -0.15387319
000200 de 70 80 3a be 43 d7 bd f7 cd 0a be 91 70 21 3e
       0.0009799262 -0.10510968 -0.13555132 0.15765597
000210 d0 e2 1c 3e 37 46 8e 3e 01 06 0f bd cf d9 f1 3d
       0.15320897 0.27787945 -0.034917835 0.11809122
000220 9c 7b 29 bd ea 25 3b bd c4 7b 57 bd 97 58 76 be
       -0.04137765 -0.045690455 -0.052608266 -0.24057232
000230 f9 86 35 3d cd cb 23 bd 87 41 05 3e 3d 4c 01 3d
       0.044318173 -0.03998928 0.13013278 0.031566847
000240 4b 0a 8f bb b2 fb 86 bd 2c be 08 3f 67 83 ad bc
       -0.0043652407 -0.06590976 0.5341518 -0.021180822
000250 b6 05 36 be 23 d4 f9 bd 39 91 04 3e 4a 10 96 3c
       -0.17775616 -0.12198665 0.12946023 0.018318314
000260 c8 4c 51 bd 9a fe 90 3e 47 71 4f be 70 ab 99 3d
       -0.051098615 0.28319246 -0.20258056 0.07503402
000270 f5 cd 88 bb 6d 5b c8 bb 29 95 a5 3c d3 01 97 be
       -0.0041749426 -0.0061144144 0.020212727 -0.2949358
000280 ae 80 f3 bc cb ea 65 3c 11 b9 48 3c 41 67 bc 3d
       -0.029724445 0.01403303 0.0122511545 0.091993816
000290 f4 90 af 3d 0d 32 0b 3e e9 72 73 bd 2e b0 c1 bd
       0.085725695 0.13593312 -0.05943576 -0.09457432
0002a0 96 f1 c7 3d c9 e7 b8 bd b5 a0 fe 3c 4f f6 15 3e
       0.09762876 -0.090285845 0.03108249 0.1464474
0002b0 db 1c f1 3e 7e 92 72 3e 66 32 42 bd 51 e2 a7 3e
       0.47092327 0.23688695 -0.047411345 0.32789853
0002c0 15 d7 97 3e 97 3a c7 bd c9 f3 57 be 26 d6 1b be
       0.29656282 -0.09727972 -0.2108909 -0.1521841
0002d0 93 31 d1 3c e6 7c e2 3d aa be 52 be b7 1f 10 3d
       0.025536334 0.11058979 -0.20580545 0.035186496
0002e0 91 17 90 bd 3b 11 02 3e 2a 42 ce be b6 46 ec bc
       -0.07035745 0.12701885 -0.40284854 -0.028842311
0002f0 a5 ba 0e be 53 43 31 3f de 27 58 3c da 71 c2 be
       -0.13938387 0.69243354 0.013193099 -0.37977487
000300 24 94 c1 be 2c 2a 90 bc 9b ce 04 3d 7a 40 96 bb
       -0.37808335 -0.017598234 0.032423597 -0.004585323
000310 1a 8f 29 bd 63 e7 e6 3d 9f 89 0a be 4d 99 d1 3c
       -0.041396238 0.11274602 -0.13529061 0.025585795
000320 f3 40 02 3e 6f 60 79 3e 24 ea 15 be cb a8 76 3d
       0.12720089 0.24353193 -0.14640099 0.060219567
000330 ae cf bd be cf 5f a5 bd e0 78 13 3e 22 75 f6 bd
       -0.3707251 -0.08074915 0.14401579 -0.1203406
000340 78 aa 98 3e 88 f8 88 be 01 55 5f be ce 73 1a 3f
       0.29817557 -0.26752114 -0.2180977 0.60332954
000350 51 a9 1f 3e f3 ed 90 bd af 99 83 3d f2 62 99 3e
       0.15591933 -0.07076635 0.06425797 0.29958302
000360 09 8c 80 be 47 3a 7d 3d af 3a 26 3d 05 6d 82 be
       -0.25106838 0.061823156 0.04058331 -0.254738
000370 38 a7 9b be 30 96 22 be 2b 55 be bd 7f 76 0c 3e
       -0.30401015 -0.15877604 -0.09293588 0.13717078
000380 16 f5 8f 3d 6b 1f 16 be 34 b5 36 be 6e 92 b0 bc
       0.07029168 -0.14660423 -0.17842561 -0.021554198
000390 c0 d7 ca bc 6d c7 c7 bc ed 09 bc bd 96 82 ab bb
       -0.02476108 -0.024387086 -0.09181581 -0.005234073
0003a0 16 3d 4c 3b cc 39 3c 3c 8a 0f 96 3e 9e 3b a2 be
       0.003116434 0.011488389 0.2930873 -0.3168611
0003b0 70 ff 24 bb 89 25 41 bb a8 59 10 bc ce 1b aa 3c
       -0.0025176667 -0.0029471836 -0.008810438 0.020765211
0003c0 b6 82 5c 3b 0c 7f 15 be fd 89 82 bd 84 7f 7e 3c
       0.0033647246 -0.14599246 -0.063739754 0.015533332
0003d0 c5 06 b4 3d f6 44 25 3d bd f7 18 3e f2 2b c0 be
       0.08790354 0.04034897 0.14938255 -0.37533528
0003e0 96 cb 15 3e c0 f7 a7 bc ea 62 84 3e d2 e0 79 bd
       0.14628443 -0.020503879 0.25856715 -0.06100542
0003f0 a0 52 8a 3d 46 5f 71 3d 3d 99 8d 3d 86 1d 79 3d
       0.06754041 0.05892875 0.069139935 0.06081917

bias f4 [2]
000000 ca 43 47 3d c1 70 ca bc
       0.048648633 -0.024711968

W f4 [128, 128]
000000 55 75 ba 3d 28 bb 3e 3e 92 50 0a bd 1e e5 0a 3c
       0.091044106 0.18626082 -0.033768244 0.008477477
000010 54 e8 03 bd 1e af ea 3d fe 90 bf 3d 89 f4 3d bc
       -0.032203987 0.11459182 0.09353827 -0.011593946
000020 18 78 65 bb a4 56 a4 bd 2b dc 2c 3d ce fe 64 bd
       -0.0035014208 -0.08024338 0.042202156 -0.055907063
000030 b4 3f fa bd 23 0c a1 bd 3b fe 3e bd 59 d1 cd bc
       -0.12219182 -0.07863643 -0.04662917 -0.025124239
000040 1a 42 92 bd 69 80 bf 3a 66 94 0f 3d 66 31 0f 3d
       -0.07141514 0.0014610413 0.035053633 0.03495922
000050 7a 8a 43 3d 40 b5 b1 bd 0f a7 e8 bb 0c 02 89 3d
       0.047739483 -0.08677149 -0.007099993 0.066898435
000060 a1 c3 82 bd c6 c9 f3 3c 5d 54 35 be b6 86 9c bc
       -0.063849695 0.029759299 -0.17707963 -0.019107204
000070 e0 1f b1 3d db 56 60 3d 35 d5 13 3d 3e 7a 42 be
       0.08648658 0.05477033 0.036092002 -0.18991944
000080 5a dd 16 3e 5b e7 20 bd 5a 11 c8 3d f6 94 82 bc
       0.14732876 -0.039283138 0.097689345 -0.01594017
000090 de 11 99 bc 82 7e 40 3e a6 a6 da 3b 94 37 f0 3c
       -0.018685278 0.18798259 0.006672698 0.029323377
0000a0 0a 1a 28 3c 5e 48 1e 3c 86 f0 39 3c fe 93 46 3d
       0.010260114 0.009660808 0.011348849 0.04848098
0000b0 c7 99 ec 3d 1a 35 9a bd 53 2d c6 bd 83 a9 a4 3a
       0.11552768 -0.075296596 -0.09676614 0.0012562725
0000c0 32 0d 70 be 07 91 b5 bd c4 d3 4c 3d 3b b1 7c bd
       -0.23442534 -0.088655524 0.050006643 -0.061692458
0000d0 aa 2e 71 3e 14 f9 07 3e 33 e0 ab 3d 59 d6 88 bd
       0.23552957 0.1327861 0.08392372 -0.066815086
0000e0 51 e7 b2 bd 21 ca 91 3d 33 c9 1f be 90 6f 6e bc
       -0.08735526 0.07118631 -0.15604095 -0.014552966
0000f0 27 c8 20 bd 94 37 50 3c c3 12 89 bc 36 2d cc bd
       -0.03925338 0.012708563 -0.01673258 -0.09969561
000100 00 ce 80 bd 1f 48 9d bd 61 e7 ae bd 9d bf 49 bc
       -0.062892914 -0.07679772 -0.08540226 -0.012313751
000110 13 fe 95 bc e2 89 cf 3d dc 64 0c bd a6 fc 73 3d
       -0.018309629 0.10133721 -0.034275874 0.059567116
000120 af 0e 06 bb c2 ef 08 bd 81 4c 06 be 91 5e 5f bd
       -0.002045553 -0.033431776 -0.13115121 -0.054533545
000130 71 f4 1b be aa 03 13 3d c5 9e 83 3d 2b 04 26 bd
       -0.15229966 0.035892166 0.06426767 -0.04053132
000140 0b 2a 5c 3d fe 04 c0 bb 89 ef 06 3b 1a f3 8d bd
       0.053751033 -0.00585997 0.0020589551 -0.069311336
000150 aa 6e bd bc 98 4a 49 3d eb a8 ee bd d6 9c 47 bd
       -0.023124058 0.049143404 -0.11653312 -0.048733555
000160 a3 de c5 3c 02 18 62 bd d3 08 98 bd 82 da eb 3d
       0.024154013 -0.055198677 -0.07423558 0.115162864
000170 c4 37 36 be b1 c0 14 bc 5e 67 ab bc 2b 6d b4 3d
       -0.1779471 -0.009079144 -0.020923313 0.08809885
000180 08 25 b1 3d 19 09 13 3d 29 bb 3b bd 08 d8 27 bc
       0.08649641 0.035897348 -0.045832787 -0.010244377
000190 dd 48 4d bd de ba 2f be 0d 1a bc 3d 52 88 db 3d
       -0.050118316 -0.17161128 0.09184656 0.107193604
0001a0 77 80 c4 bd eb 6d 37 bd 8c 1f aa 3d fa 02 09 bd
       -0.09594815 -0.04478256 0.08306798 -0.033450104
0001b0 ed b3 d3 3d c9 cf c2 bd a5 60 b2 3d 86 3c 55 bd
       0.103370525 -0.09512288 0.0870984 -0.052059673
0001c0 83 5b 4c be ca 33 34 bd ab 42 e1 bd 58 ef 89 bd
       -0.19956784 -0.043994702 -0.10999044 -0.06735104
0001d0 95 91 15 be dc 03 8e bd 71 6a 0d be db 8b 9e 3d
       -0.14606316 -0.0693433 -0.13810135 0.07741519
0001e0 b1 58 81 bd 67 d1 84 bc 73 8a dc bd bb 69 ac 3d
       -0.06315745 -0.016213132 -0.107685946 0.08418604
0001f0 71 cd 5c be a5 34 1a bd 47 b6 0d be e0 4f 38 bd
       -0.21562745 -0.037647862 -0.13839065 -0.04499805
000200 6d f3 05 bd 65 c3 41 bd a7 10 4c 3d 4d e3 93 3d
       -0.032702852 -0.047305483 0.04982057 0.072210886
000210 d7 b6 d0 bd 22 a2 0f 3d f9 f0 3c bd 68 b6 b3 bd
       -0.10191124 0.03506673 -0.046128247 -0.087750256
000220 84 e1 03 3c c2 6b 91 bd c6 e7 5f 3d 2f fc 44 be
       0.008049373 -0.07100631 0.054664396 -0.19236825
000230 35 15 84 3d 29 d6 a5 3d 0b 47 80 bc 58 4e 44 3d
       0.064493574 0.080974884 -0.015658876 0.047926277
000240 f7 dd cf 3c 0d 01 a1 bc 6a 20 6f bd 73 7e d1 3d
       0.025374396 -0.019653821 -0.05838052 0.102291964
000250 3d 9d 0a be 12 82 2d bc 41 fe 8e 3d cf 3f fa bb
       -0.13536544 -0.010590093 0.06982089 -0.007637001
000260 cf 10 be bc 88 22 00 3e 58 e6 12 be d6 41 14 be
       -0.023201374 0.12513173 -0.14345682 -0.1447824
000270 4c 68 04 3e 53 98 0e be ea 46 9d bd bb 9a 98 bd
       0.12930411 -0.13925295 -0.076795414 -0.074513875
000280 78 13 01 3e 9d bf dd bd 9a 5c dc bb 8f fd 8b bc
       0.12605083 -0.10827563 -0.006724906 -0.01708868
000290 85 b1 c4 3d 97 2b eb bd f0 5b bc bd a0 f6 98 bd
       0.09604172 -0.114829235 -0.09197223 -0.07468915
0002a0 03 60 84 bd 03 ec 02 bd ce 65 49 be 0b f8 15 3d
       -0.06463625 -0.03196336 -0.19667742 0.036613505
0002b0 b3 94 9f 3b 2a 74 8e bd f9 2a 5a 3d 4d 67 1c 3e
       0.0048700213 -0.0695575 0.05326364 0.15273781
0002c0 7d 32 bf 3b f9 f5 66 3e b4 df a6 3d 00 d4 d3 3d
       0.005834876 0.22554769 0.08148137 0.1034317
0002d0 4e 63 cf bd d1 a3 89 3b 0d 81 f2 bc 50 c4 12 bd
       -0.10126363 0.0042004366 -0.029602552 -0.03583175
0002e0 de 2d 8a 3b 7c 2e 3b be 69 9f 85 bd a7 a4 a5 bc
       0.0042168936 -0.18279451 -0.06524546 -0.020220114
0002f0 3a ca 8f 3c 65 ba 08 3e 35 f3 1e be e7 0c 1c 3e
       0.017552484 0.13352354 -0.15522464 0.15239297
000300 e3 7f 89 bd 98 b8 09 be 29 49 18 3a 07 35 64 bd
       -0.067138456 -0.13449323 0.00058092416 -0.055714633
000310 6c f5 d1 3c 72 e7 0f 3c 7c 31 99 bb e1 3f 54 be
       0.025629722 0.008783208 -0.0046750885 -0.20727493
000320 b7 0e 6b 3d 68 b9 f9 3c 84 15 0f 3d 66 85 05 3e
       0.05738708 0.030483916 0.03493263 0.13039169
000330 61 ad e8 3b e0 31 0d 3e 47 f5 73 bd f0 05 3b 3c
       0.0071007465 0.13788557 -0.059560087 0.01141499
000340 d2 e6 f4 3d a5 c6 34 3e 38 d1 08 bd ac c9 fb 3d
       0.11958088 0.17653902 -0.03340265 0.12294325
000350 83 61 3d bd 29 7a 60 3c 96 be ea 3b cf be 0d bd
       -0.046235573 0.013701 0.007163833 -0.034605797
000360 7c 37 cc bd fa 6b f9 3c 17 76 bb 3d 81 5b 1a be
       -0.0997152 0.030446995 0.09153383 -0.15073968
000370 d0 f9 cc bd c1 10 e9 bd ff a8 83 bd dd 17 44 3d
       -0.100085855 -0.11380149 -0.06428718 0.04787432
000380 85 0a 24 bd ed e3 f6 bd c0 75 2b 3d 55 b2 4b bc
       -0.040049095 -0.12055192 0.041860342 -0.012432654
000390 a4 81 30 bd 86 c4 da 3d 19 e5 ac 3d 1e b2 46 3d
       -0.043092385 0.10682015 0.084421344 0.04850971
0003a0 51 04 ca 3c 3c 10 17 3c ec 9b 29 be 10 bb 9d bd
       0.024660261 0.009220179 -0.16563386 -0.07701695
0003b0 07 56 00 bd 3f 9f 87 3c 32 a1 ad 3b 4a a1 06 bc
       -0.031332042 0.016555427 0.005298757 -0.008217165
0003c0 2b 3e 9f bd 71 51 70 3d f2 49 23 3d 10 e8 24 3d
       -0.077755295 0.05867142 0.03986544 0.040260375
0003d0 a0 ae 3a 3d e5 f8 03 bd d1 3e 7b 3d 0f 16 d3 3d
       0.04557669 -0.032219786 0.061339203 0.10306942
0003e0 9a 44 60 bd c9 68 8d 3d 3b 1b c4 bc 52 cf 5c 3d
       -0.054752924 0.06904752 -0.023938766 0.053908654
0003f0 91 33 2e bd dc d9 de 3c c3 46 36 3d b9 35 83 bd
       -0.042529646 0.027203493 0.044501077 -0.06406731
