LeakyRNN_11.28/1128/sp_2_10_64_d10_r11/model_146.pth (torch, 37660 bytes, 5 tensors)

weight f4 [64, 64]
-0.14988557 -0.4558154 -0.75318843 -0.49762046 -1.0720799 -0.28079793 -1.0820439 -0.07972606
-0.8624854 -1.1770062 -0.89162385 0.123422265 0.13339813 -0.11530614 -0.7699013 -0.6771467
0.19786328 -0.73344445 0.6892474 -0.5729881 -0.60639 -0.6350429 -0.38597068 -1.2158729
-0.23382257 -0.87117803 -0.69950557 -0.9998067 -0.32296082 -0.2320068 -1.1559736 -0.8226128
-1.1163946 0.034048256 -0.5375377 -0.9238222 0.041652717 0.5340607 -0.42413607 -0.81361157
0.22913393 0.47613785 -1.0031413 0.44058925 -0.6474515 -0.7163332 -1.5296668 -0.6844564
-0.82139474 -0.8246112 -0.8507529 -0.7224326 1.9465656 0.10347739 -0.85738724 -0.013374307
-0.9044063 -0.7390822 -0.53912175 -1.0207393 -0.3466296 0.55886877 -0.6150381 0.6484086
-1.0109293 -0.26970044 -1.562394 -0.15663986 0.39965552 -0.4913346 0.15931925 0.9751578
-0.5041049 -0.11675479 0.018304907 -0.42950913 0.22614332 -0.21187672 -0.26781088 -0.4854359
0.28971177 0.011004721 -0.8145485 -0.07748787 -0.92226505 -0.09061186 -1.8930861 0.28959045
0.5223435 -0.28601068 0.03861565 -1.0665841 -0.05786225 -0.7894995 -0.84045947 -0.88503325
0.74500245 1.2125813 -0.50352323 -0.27818105 -1.0902439 0.2962308 -0.05632225 -0.4648265
-0.212685 -1.1635087 -0.34125203 -0.95406264 -0.29208627 -0.44946477 -1.4572743 0.48030457
-0.16282816 -0.0024886818 -1.405186 0.005363681 -0.2380901 0.69860315 -0.45633632 0.12831512
-0.5524694 -0.09938866 1.3907794 -0.035842657 -0.44905302 -0.037678376 -0.75742775 0.58050185
0.19886923 0.042071022 -0.027544584 0.36636606 -0.18355998 -0.963718 0.8001769 -0.08595311
-0.11674567 -0.40734902 -0.122603185 -1.0092071 -1.7847177 0.09353331 -0.293603 -0.5164083
0.12577558 0.2437061 0.339071 -0.86133647 0.7478428 0.12488039 -0.61694854 -0.032803472
0.3823559 0.045598384 -0.04057997 -0.4114418 -0.84599197 -0.1066414 -0.24391842 0.07935763
-1.0559998 0.100458376 0.18114725 0.025461324 0.5711528 -1.2543912 0.4057139 -0.8283816
-0.1905735 0.2065871 0.5170365 -0.4034327 -0.04697985 -1.3679312 0.6680583 -1.2731152
-0.07919713 -0.2796631 -0.016475892 -0.05048025 -0.8159805 -0.463283 -0.062065326 -0.49373588
-1.0100101 -0.3401921 -0.35457668 0.119651616 -0.09226124 -1.2908123 -0.46455252 -0.8492975
0.21354118 0.051500265 -0.20681822 1.23823 -0.090761624 0.30092242 -0.32334656 -0.13636337
-0.052245036 0.07670794 0.014280504 -0.01325281 -0.29171062 0.12820196 0.17117637 -0.051034465
-0.07174897 0.21179838 -0.020594101 0.03387484 -0.6619619 -0.26814356 0.025901308 0.121431924
-0.08421351 0.37525517 0.06370796 0.08977297 -0.11998326 0.42431194 0.17741844 0.01916076
0.1231816 0.18278058 -0.17646964 -0.0938836 0.13054325 -0.14692682 -0.1736263 0.4252061
-0.21385273 -0.032168865 0.10151564 0.04254058 0.18519944 0.015415981 -0.6410039 -0.45390126
0.08281094 0.34539336 -0.14959851 -0.11885392 0.24168971 0.03481379 -0.006214103 -0.09506145
-0.15240476 0.28495327 -0.2480762 -0.057594664 0.03489919 0.099548414 0.114085205 -0.4529086
00000000: 9a7b 19be a360 e9be f5d0 40bf 1cc8 febe
00000010: ea39 89bf bfc4 8fbe 6a80 8abf 6b47 a3bd
00000020: d8cb 5cbf 24a8 96bf 7641 64bf d0c4 fc3d
00000030: 8599 083e a025 ecbd 4018 45bf 7c59 2dbf
00000040: ac9c 4a3e 04c3 3bbf 8572 303f 59af 12bf
00000050: 603c 1bbf 2c92 22bf f39d c5be b9a1 9bbf
00000060: 2f6f 6fbe 8605 5fbf cc12 33bf 55f3 7fbf
00000070: 1f5b a5be 3193 6dbe f1f6 93bf c196 52bf
00000080: 05e6 8ebf 2f76 0b3d 129c 09bf 9d7f 6cbf
00000090: 0a9c 2a3d 34b8 083f 5d28 d9be d948 50bf
000000a0: 16a2 6a3e 57c8 f33e ef66 80bf ea94 e13e
000000b0: 62bf 25bf 9d61 37bf 1fcc c3bf 8938 2fbf
000000c0: ed46 52bf b819 53bf f1ca 59bf 58f1 38bf
000000d0: 1029 f93f f4eb d33d bb7d 5bbf e91f 5bbc
000000e0: 2c87 67bf 7e34 3dbf e203 0abf 96a7 82bf
000000f0: 6f79 b1be 0612 0f3f 2373 1dbf 1bfe 253f
00000100: 2266 81bf 2d16 8abe 87fc c7bf 3366 20be
00000110: a69f cc3e 3590 fbbe 9624 233e f1a3 793f
00000120: 050d 01bf 231d efbd 2cf4 953c 9fe8 dbbe
00000130: 1d92 673e 36f6 58be 821e 89be 0e8b f8be
00000140: 1a55 943e 254d 343c 4086 50bf f6b1 9ebd
00000150: 9019 6cbf b692 b9bd a550 f2bf 3345 943e
00000160: 4eb8 053f fe6f 92be 722b 1e3d d485 88bf
00000170: f700 6dbd a41c 4abf 5a28 57bf 8a91 62bf
00000180: 7bb8 3e3f dd35 9b3f e6e6 00bf bf6d 8ebe
00000190: 1d8d 8bbf 90ab 973e 29b2 66bd bdfd edbe
000001a0: 19ca 59be daed 94bf 96b8 aebe 733d 74bf
000001b0: 558c 95be 3f20 e6be f787 babf 7bea f53e
000001c0: 6dbc 26be 2719 23bb 23dd b3bf d1c1 af3b
000001d0: e4cd 73be a8d7 323f eaa4 e9be 0a65 033e
000001e0: a26e 0dbf 488c cbbd 0f05 b23f c0cf 12bd
000001f0: 47ea e5be a454 1abd c9e6 41bf c59b 143f
00000200: 60a4 4b3e aa52 2c3d 2ea5 e1bc 5594 bb3e
00000210: 26f7 3bbe 39b6 76bf 65d8 4c3f 2f08 b0bd
00000220: 5b18 efbd 0d90 d0be 6117 fbbd b32d 81bf
00000230: a171 e4bf 648e bf3d 2253 96be 5633 04bf
00000240: 50cb 003e 188e 793e b79a ad3e 8c80 5cbf
00000250: a072 3f3f 4ac1 ff3d 57f0 1dbf ef5c 06bd
00000260: 27c4 c33e 5fc5 3a3d 2f37 26bd 80a8 d2be
00000270: ee92 58bf ce66 dabd c0c5 79be 4186 a23d
00000280: 002b 87bf 1fbd cd3d aa7e 393e 4494 d03c
00000290: 1237 123f e48f a0bf bbb9 cf3e d110 54bf
000002a0: b325 43be 928b 533e 815c 043f bb8e cebe
000002b0: f16d 40bd 5f18 afbf de05 2b3f 70f5 a2bf
000002c0: 1b32 a2bd 0030 8fbe 73f8 86bc 61c4 4ebd
000002d0: 19e4 50bf 6e33 edbe 3638 7ebd f3ca fcbe
000002e0: 0348 81bf a92d aebe 138b b5be e80b f53d
000002f0: 76f3 bcbd 5639 a5bf d4d9 edbe 906b 59bf
00000300: 8aaa 5a3e f1f1 523d 28c8 53be 527e 9e3f
00000310: 3be1 b9bd 8112 9a3e ae8d a5be d7a2 0bbe
00000320: e4fe 55bd 0d19 9d3d c6f8 693c 5022 59bc
00000330: 185b 95be 6047 033e dc48 2f3e 8409 51bd
00000340: 20f1 92bd ade1 583e f6b4 a8bc 58c0 0a3d
00000350: 5676 29bf 1d4a 89be fb2e d43c 4db1 f83d
00000360: 2278 acbd 7221 c03e 5279 823d e4da b73d
00000370: c9b9 f5bd 6a3f d93e 2ead 353e 07f7 9c3c
00000380: a246 fc3d d52a 3b3e 75b4 34be 0b46 c0bd
00000390: 21ad 053e fc73 16be 18cb 31be 9db4 d93e
000003a0: 36fc 5abe 80c3 03bd 6fe7 cf3d 083f 2e3d
000003b0: eca4 3d3e 5093 7c3c d518 24bf bf65 e8be
000003c0: c898 a93d 66d7 b03e 5a30 19be af69 f3bd
000003d0: 827d 773e e898 0e3d ad9f cbbb 94af c2bd
000003e0: fe0f 1cbe 65e5 913e b007 7ebe 62e8 6bbd
000003f0: 74f2 0e3d 0ae0 cb3d 81a5 e93d a3e3 e7be

weight f4 [64, 3]
0.14012697 -0.0049992586 0.010901034 0.01662782 0.24052836 -0.025726968 -0.06032866 0.02557932
-0.03274597 -1.015094 -0.6512711 3.9036176 0.065355785 -0.012058291 -0.0462055 0.059116736
-0.067397736 0.46060652 0.095678434 0.06158845 0.20654665 -0.021659791 0.07041312 -0.15382788
0.025194095 0.032713544 0.00795609 0.0058620237 0.00078339316 0.008508174 0.004642838 -0.0028450256
0.003047192 0.34072036 0.070281915 0.019597473 -0.44405308 0.15074293 -0.059855998 0.001593754
0.016980922 0.001177295 0.0013864975 0.006413334 0.013482958 0.018471653 0.022079393 -0.0084148
0.12471474 0.17205304 -0.062366128 -0.11731112 -0.030079687 0.02771689 -0.53399473 0.5195265
-0.25915495 -0.6597742 -0.13512953 -0.22292027 0.12296739 -0.040029377 -0.2168038 -0.3545747
-0.26363584 -0.10648991 0.056147512 0.22677661 -0.14245294 -0.0016839434 -0.0764141 0.00952923
0.13870612 -0.02781301 0.068876 -2.5208938e-05 0.003405799 0.00076322013 0.0020511844 -0.03172417
-0.00025424367 -0.09274289 0.1256594 -3.8081078e-05 1.4565895 0.8104525 -0.53525305 -0.21032897
-0.059935518 0.30925575 -0.002688578 0.030700011 0.06855597 -0.1413986 -0.056086898 0.18787341
0.11275239 -0.24652755 0.07516602 0.07670992 -0.0018804178 -0.02953606 0.053297352 -0.02409003
-0.010595685 -0.0024083238 0.00109316 0.028967302 0.0014239093 0.009157216 -0.008833665 1.0748073
-1.5677981 -0.23425402 -0.47053188 -0.021175409 -0.0011266698 -0.0011604916 -0.115734056 -0.008908819
0.32529733 0.005548775 -0.115137234 -0.43133497 1.4907076 -0.8014856 -0.23010361 0.011298944
0.024106042 -0.022071904 0.029089786 -0.017558035 0.00088442 1.9747788e-06 -0.0023462581 -0.0071103955
-0.094939984 0.19682884 -0.47936383 0.5035112 -0.2027955 0.19678085 -0.22149956 -0.28810847
0.0031669338 0.00014266216 -0.00385451 0.021073934 -0.011130918 0.008151832 -0.02664867 -0.026204322
0.072473094 0.026155466 -0.025914542 -0.03843306 0.07944891 0.05273691 0.021151055 0.3603917
0.06388574 -0.06717335 0.03677275 -0.052729443 0.3843937 0.11800327 0.057422236 -0.013190187
0.033432364 -0.09495251 0.03427074 0.0038056402 0.0013345295 0.005956065 -0.035080515 -0.12882213
0.1594593 -0.080775015 -0.14733511 -0.10183752 0.1472544 0.017249024 -0.08048569 0.24887425
-0.049890894 -0.1183172 0.00074581057 0.033354126 0.0033606065 0.124419466 0.08625999 -0.34536508
00000000: 727d 0f3e d2d0 a3bb 409a 323c 1137 883c
00000010: 114d 763e 5dc1 d2bc 2f1b 77bd b98b d13c
00000020: a320 06bd 9aee 81bf b4b9 26bf dfd4 7940
00000030: 41d9 853d 2390 45bc fa41 3dbd 6424 723d
00000040: d307 8abd 9ed4 eb3e 0ef3 c33d 2c44 7c3d
00000050: f780 533e e06f b1bc c134 903d 0e85 1dbe
00000060: d963 ce3c a3fe 053d 435a 023c 3816 c03b
00000070: a05c 4d3a de65 0b3c f322 983b 9c73 3abb
00000080: 66b3 473b e672 ae3e f7ef 8f3d e18a a03c
00000090: ed5a e3be 5b5c 1a3e 902b 75bd 83e5 d03a
000000a0: 931b 8b3c 774f 9a3a 23bb b53a f226 d23b
000000b0: a0e7 5c3c dd51 973c d8df b43c 3bde 09bc
000000c0: 716a ff3d ac2e 303e a073 7fbd d040 f0bd
000000d0: ad69 f6bc 880e e33c e1b3 08bf b0ff 043f
000000e0: f5af 84be f6e6 28bf 655f 0abe 3645 64be
000000f0: 54d6 fb3d d8f5 23bd d101 5ebe d18a b5be
00000100: 47fb 86be 6217 dabd effa 653d 2138 683e
00000110: 2fdf 11be c4b7 dcba ff7e 9cbd 7d20 1c3c
00000120: fa08 0e3e 1cd8 e3bc dc0e 8d3d c877 d3b7
00000130: d333 5f3b d612 483a 2a6d 063b 34f1 01bd
00000140: 024c 85b9 fcef bdbd dcac 003e 3fb9 1fb8
00000150: 8671 ba3f d179 4f3f 5806 09bf 7a60 57be
00000160: f27e 75bd c556 9e3e db32 30bb 977e fb3c
00000170: 1367 8c3d cbca 10be 60bb 65bd e361 403e
00000180: baea e63d b871 7cbe a4f0 993d 171a 9d3d
00000190: 5a78 f6ba 9bf5 f1bc 534e 5a3d 7458 c5bc
000001a0: 8699 2dbc f8d4 1dbb 5d48 8f3a d64c ed3c
000001b0: 78a2 ba3a 2608 163c 14bb 10bc 4993 893f
000001c0: 9cad c8bf 49e0 6fbe 8ee9 f0be 0d78 adbc
000001d0: c4ac 93ba a31b 98ba fa05 edbd 4cf6 11bc
000001e0: 5f8d a63e 80d2 b53b 12cd ebbd f0d7 dcbe
000001f0: 82cf be3f 292e 4dbf 48a0 6bbe 351f 393c
00000200: 097a c53c 23d0 b4bc b44d ee3c ded5 8fbc
00000210: 6cd8 673a 7186 0436 aec3 19bb 52fe e8bb
00000220: e56f c2bd 808d 493e 2d6f f5be 1ce6 003f
00000230: a0a9 4fbe eb80 493e c8d0 62be f482 93be
00000240: 558c 4f3b 9597 1539 f29b 7cbb 3ea3 ac3c
00000250: 745e 36bc 438f 053c 504e dabc 72aa d6bc
00000260: c66c 943d fd43 d63c bc4a d4bc fc6b 1dbd
00000270: 1cb6 a23d a802 583d fa44 ad3c 4385 b83e
00000280: 87d6 823d 2e92 89bd 069f 163d d4fa 57bd
00000290: 40cf c43e b3ab f13d 9433 6b3d a71b 58bc
000002a0: 60f0 083d 7676 c2bd 7a5f 0c3d 0c68 793b
000002b0: 61eb ae3a 182b c33b 96b0 0fbd f3e9 03be
000002c0: 4c49 233e 5f6d a5bd 04df 16be 3190 d0bd
000002d0: dcc9 163e d34d 8d3c aed5 a4bd e4d8 7e3e
000002e0: 655a 4cbd 4a50 f2bd 8082 433a 569e 083d
000002f0: 9f3d 5c3b a2cf fe3d 14a9 b03d b1d3 b0be

weight f4 [2, 64]
-0.10063475 -0.06583847 0.030847741 0.021595133 0.1653527 0.48355785 0.032783702 0.16540171
0.032207496 0.030115724 -0.018366806 0.15306064 -0.19805625 0.18190862 0.046890404 0.05831362
-0.02907449 0.08959123 0.001727185 0.086011775 0.32323232 -0.16996224 -0.07847087 0.07559485
0.2716324 0.034447134 0.04498331 0.04869603 -0.04048559 -0.35136005 -0.10373028 -0.09348178
0.11495127 -0.034541856 -0.13434604 -0.0815603 0.13815594 0.13307248 -0.037591152 -0.16840175
-0.188237 0.10363475 -0.10390346 -0.11931126 0.021736657 0.057327837 -0.12757152 -0.4818695
0.024228215 0.04415992 -0.017316593 -0.029711077 0.25871727 -0.099960364 -0.10033263 -0.117475465
0.026310807 0.0124305105 0.031460922 0.055009507 0.018816704 -0.2561482 0.00618394 -0.030356113
0.06780063 0.13354966 0.113002345 -0.068803094 0.15236169 0.3106077 0.2837533 0.10214221
0.12622954 -0.035239328 -0.056537963 -0.06261305 0.15511794 0.10597567 -0.030511107 0.025158828
0.2334769 -0.23187242 -0.0001269045 -0.016407803 -0.21894264 -0.009057122 -0.06522906 -0.010662083
-0.004312082 0.0037137726 -0.15521567 -0.08926989 0.060081642 0.021202145 0.014939563 0.17417406
-0.25619376 -0.15190877 -0.0026227564 0.019065723 -0.26694342 0.042672414 0.008905278 -0.02771255
0.2204139 -0.03839617 -0.36797053 -0.23872665 -0.0011443848 0.22085752 0.33164746 -0.18315431
0.00094198785 -0.04583896 0.10388238 0.001041594 -0.11657086 0.050263643 0.41210222 -0.14361596
-0.040134374 -0.0030913446 -0.14731559 -0.012571905 0.021352699 -0.10856553 -0.039972957 -0.32535776
00000000: 9819 cebd 52d6 86bd 67b4 fc3c 47e8 b03c
00000010: 3852 293e e594 f73e 3448 063d 115f 293e
00000020: 02ec 033d 40b5 f63c fc75 96bc eebb 1c3e
00000030: 42cf 4abe 4146 3a3e 2710 403d 43da 6e3d
00000040: a02d eebc 9b7b b73d b662 e23a f126 b03d
00000050: b57e a53e 950a 2ebe 56b5 a0bd 79d1 9a3d
00000060: 6713 8b3e 7018 0d3d 6b40 383d 7d75 473d
00000070: 38d4 25bd 77e5 b3be 8b70 d4bd 6073 bfbd
00000080: 926b eb3d c37b 0dbd 0292 09be 1609 a7bd
00000090: c078 0d3e 2744 083e 2ef9 19bd 8271 2cbe
000000a0: 33c1 40be 753e d43d 56cb d4bd 7659 f4bd
000000b0: 1311 b23c 98d0 6a3d 1ca2 02be 99b7 f6be
000000c0: 407a c63c 08e1 343d 87db 8dbc a564 f3bc
000000d0: 9776 843e 05b8 ccbd 327b cdbd fa96 f0bd
000000e0: c389 d73c 57a9 4b3c 2bdd 003d a651 613d
000000f0: 7d25 9a3c db25 83be a6a2 ca3b 62ad f8bc
00000100: 0fdb 8a3d 3ec1 083e c66d e73d a3e8 8cbd
00000110: b404 1c3e f907 9f3e 1d48 913e ef2f d13d
00000120: 5142 013e 1d57 10bd 5a94 67bd 453b 80bd
00000130: 3dd7 1e3e c609 d93d 6ef2 f9bc e319 ce3c
00000140: 9214 6f3e f76f 6dbe ab11 05b9 a869 86bc
00000150: 8032 60be 5364 14bc d096 85bd 04b0 2ebc
00000160: 5e4c 8dbb c462 733b dbf0 1ebe 22d3 b6bd
00000170: 2b18 763d 1fb0 ad3c 12c5 743c af5a 323e
00000180: d42b 83be f98d 1bbe 8de2 2bbb b82f 9c3c
00000190: cfac 88be 45c9 2e3d 71e7 113c 6e05 e3bc
000001a0: 2eb4 613e 4d45 1dbd a266 bcbe c274 74be
000001b0: 2fff 95ba 7928 623e b2cd a93e ce8c 3bbe
000001c0: bcef 763a a2c1 3bbd 49c0 d43d 1886 883a
000001d0: b4bc eebd 40e1 4d3d 10ff d23e 1010 13be
000001e0: f163 24bd 2898 4abb e6d9 16be 64fa 4dbc
000001f0: dbeb ae3c 9b57 debd afba 23bd 4b95 a6be

bias f4 [2]
-0.031954575 -0.15492633
00000000: cde2 02bd 02a5 1ebe

W f4 [64, 64]
-0.09680977 -0.011333284 0.03538417 0.22588891 0.29660895 0.11214452 0.3829948 -0.062323183
0.08288463 -0.29288816 0.037180625 0.12430853 -0.08780996 -0.22694412 0.01723172 0.11822858
0.009230213 0.113042325 -0.014412518 0.03959361 -0.15185574 0.023369677 -0.017350491 -0.15690164
-0.116533004 -0.10315391 0.04513825 -0.0978956 0.020202974 0.15379325 -0.074948795 0.05774681
0.061687026 0.049555786 0.08379827 -0.14019512 0.11192563 0.18822502 0.052215014 0.09438648
-0.18656793 0.021316495 0.032839254 0.00092952244 0.31831357 0.00043351518 -0.08772225 0.2226225
0.13349521 -0.042761095 -0.10258975 0.01489981 0.16524202 0.035993155 0.021634715 0.12134911
-0.029822223 -0.07163867 -0.23614971 0.09885856 -0.020736007 0.26261944 0.10458919 0.2146884
0.09088033 0.046991516 -0.22740705 -0.028694479 0.12566899 -0.13827266 -0.14640597 0.5082248
0.05992356 0.042619236 -0.0037426248 -0.034351777 0.033097573 0.24812682 0.028601402 0.046069134
0.04435254 -0.14722592 0.015734144 0.09858679 0.0008242949 -0.10702776 -0.16245095 0.059422787
-0.04477092 -0.09577891 0.060141735 0.22117178 0.0016781021 0.050001774 0.039484974 -0.17589128
0.24895185 0.14715916 -0.10161057 0.081831455 -0.13052753 0.15094285 0.025398027 -0.12696126
-0.07630978 0.008745821 0.13554904 -0.033372212 -0.050461706 -0.1455516 -0.04290984 0.015778843
-0.10630238 -0.027520426 0.01983158 -0.058169864 0.05475256 -0.07966213 0.23528662 0.27720624
-0.08044972 0.015234127 0.1625239 -0.044444412 -0.124896914 -0.06711346 -0.077004164 -0.090358146
0.010130271 -0.14256188 -0.27379146 -0.036848433 0.007928038 -0.14299823 0.28363198 0.004961641
-0.14508313 0.02011296 -0.0755748 -0.1827603 -0.060121328 0.16415156 0.03806715 -0.07103229
-0.027200693 0.17597646 0.29240716 -0.26349238 -0.17389332 -0.096270934 0.08516932 0.12121106
0.14559779 0.16600433 -0.33942515 -0.03958029 -0.083430514 0.0487063 -0.10400965 -0.01243519
-0.3207952 -0.14574093 0.05400225 0.044447206 0.19471577 -0.11729404 0.12246902 -0.03644031
0.13951571 0.13694611 0.23726639 0.09181008 -0.07371406 -0.058498695 0.23761302 -0.058363676
-0.036267873 0.13357566 0.06982276 0.12922184 0.37552708 0.025216583 -0.096645504 -0.009951634
-0.2598497 -0.18440777 -0.16531087 -0.048462458 -0.1950168 -0.020578302 -0.17533274 -0.013876993
-0.055255346 0.03545125 -0.14175105 -0.056082033 0.07095449 0.16889809 -0.07713908 0.034985904
-0.14649467 0.17771943 -0.24686822 -0.0371401 0.18509518 0.09556095 0.096715815 -0.31091192
-0.1712323 0.02721209 0.017514773 0.05985328 -0.0599993 -0.09268528 0.08606765 -0.14574738
-0.13547829 -0.03916177 0.23321044 0.20435905 0.076603994 0.006809182 -0.08350281 -0.021147445
0.03173726 0.089607924 -0.058194898 0.05871903 0.016218705 -0.1324744 -0.23710446 0.14503002
-0.20731387 -0.1645062 0.16232108 0.029509021 -0.1492204 -0.012363455 -0.1909754 0.12323501
-0.16006449 0.22099711 -0.09284619 -0.10148349 -0.14518937 0.019777395 -0.051416032 0.05490114
-0.26665202 0.1210178 -0.13614155 -0.08010036 0.14677614 0.15275209 -0.09593441 -0.22947578
00000000: 3344 c6bd 3daf 39bc feee 103d 6c4f 673e
00000010: 21dd 973e 07ac e53d e517 c43e 9846 7fbd
00000020: 6bbf a93d 70f5 95be b64a 183d 7895 fe3d
00000030: b5d5 b3bd 0a64 68be 8929 8d3c d321 f23d
00000040: 523a 173c bc82 e73d 7b22 6cbc e92c 223d
00000050: 1280 1bbe c471 bf3c 9e22 8ebc d3aa 20be
00000060: dba8 eebd 5b42 d3bd e3e2 383d 7d7d c8bd
00000070: b580 a53c fa7b 1d3e c17e 99bd eb87 6c3d
00000080: 89ab 7c3d 02fb 4a3d 6d9e ab3d 4f8f 0fbe
00000090: 4439 e53d 0fbe 403e 69df 553d b34d c13d
000000a0: aa0b 3fbe ee9f ae3c 7482 063d 32ab 733a
000000b0: fff9 a23e 6c49 e339 b9a7 b3bd 27f7 633e
000000c0: f8b2 083e 4226 2fbd 931a d2bd 551e 743c
000000d0: 3435 293e 8f6d 133d 493b b13c e285 f83d
000000e0: bc4d f4bc 4cb7 92bd 3bd1 71be 5b76 ca3d
000000f0: 8fde a9bc 0e76 863e db32 d63d 47d7 5b3e
00000100: 771f ba3d 2d7a 403d 65dd 68be af10 ebbc
00000110: 5faf 003e 5997 0dbe 72eb 15be 051b 023f
00000120: 6872 753d 8291 2e3d d346 75bb 73b4 0cbd
00000130: 5291 073d f514 7e3e 7d4d ea3c fdb2 3c3d
00000140: 02ab 353d 64c2 16be e4e4 803c dfe7 c93d
00000150: 7f15 583a 5f31 dbbd 8b59 26be 4f65 733d
00000160: b661 37bd bc27 c4bd 2e57 763d db7a 623e
00000170: c3f3 db3a a9ce 4c3d ffba 213d d81c 34be
00000180: 3ced 7e3e e4b0 163e 3419 d0bd 4097 a73d
00000190: 02a9 05be c390 1a3e 860f d03c 2202 02be
000001a0: 4d48 9cbd a24a 0f3c 5ecd 0a3e 4db1 08bd
000001b0: efb0 4ebd 7b0b 15be 3ac2 2fbd a242 813c
000001c0: 10b5 d9bd 8472 e1bc d675 a23c 8643 6ebd
000001d0: 3844 603d e625 a3bd faee 703e faed 8d3e
000001e0: d3c2 a4bd 8f98 793c aa6c 263e 580b 36bd
000001f0: f4c9 ffbd c872 89bd 5cb4 9dbd b10d b9bd
00000200: 70f9 253c befb 11be 652e 8cbe 62ee 16bd
00000210: 9ae4 013c 216e 12be 3638 913e 4395 a23b
00000220: ac90 14be efc3 a43c f6c6 9abd 8425 3bbe
00000230: c841 76bd 5917 283e 4dec 1b3d 6179 91bd
00000240: fdd3 debc 2c33 343e 64b6 953e 79e8 86be
00000250: 1711 32be b229 c5bd 416d ae3d 813d f83d
00000260: 9617 153e 0afd 293e 22c9 adbe f11e 22bd
00000270: 9edd aabd 4280 473d 0303 d5bd f8bc 4bbc
00000280: 453f a4be 1c3d 15be 7731 5d3d 460e 363d
00000290: 9263 473e dc37 f0bd 0ad1 fa3d 6f42 15bd
000002a0: 35dd 0e3e 9a3b 0c3e f6f5 723e ec06 bc3d
000002b0: 66f7 96bd 549c 6fbd d450 733e c00e 6fbd
000002c0: 9f8d 14bd 0fc8 083e 3cff 8e3d bb52 043e
000002d0: 1645 c03e 0293 ce3c 14ee c5bd 2e0c 23bc
000002e0: 050b 85be 64d5 3cbe 4147 29be 9280 46bd
000002f0: 7cb2 47be d493 a8bc 6d8a 33be 545c 63bc
00000300: 6e53 62bd 5435 113d 3027 11be 46b6 65bd
00000310: 9650 913d 9ff3 2c3e 18fb 9dbd 614d 0f3d
00000320: b302 16be 15fc 353e 06cb 7cbe 3820 18bd
00000330: 9789 3d3e 76b5 c33d f112 c63d d92f 9fbe
00000340: 8557 2fbe e4eb de3c 247b 8f3c b728 753d
00000350: d3c1 75bd c8d1 bdbd 3c44 b03d cd3e 15be
00000360: d2ba 0abe 1868 20bd b8ce 6e3e 8043 513e
00000370: 8ee2 9c3d 8f1f df3b 8503 abbd 683d adbc
00000380: eefe 013d 5c84 b73d c65d 6ebd 5e83 703d
00000390: 17dd 843c 5ea7 07be 83cb 72be c082 143e
000003a0: 164a 54be 5074 28be 7f37 263e e7bc f13c
000003b0: 3ccd 18be 1790 4abc 0e8f 43be a362 fc3d
000003c0: f2e7 23be 114d 623e 2526 bebd 93d6 cfbd
000003d0: 86ac 14be 3404 a23c 9e99 52bd 05e0 603d
000003e0: 9d86 88be 2ed8 f73d b168 0bbe a80b a4bd
000003f0: 7c4c 163e 0b6b 1c3e 4379 c4bd b3fb 6abe
