LeakyRNN_11.28/1202/sg_3_128_d10_r7_5/model_46.pth (torch, 137244 bytes, 5 tensors)

weight f4 [128, 128]
0	0xbe6334b5	-0.22188075
1	0x3d01dc76	0.03170439
2	0xbee1a6b3	-0.44072494
3	0x3d1f6177	0.03891131
4	0xbed2b224	-0.41151536
5	0xbeed51f0	-0.46351576
6	0xbe86505f	-0.26233193
7	0xbe45b7ac	-0.19308347
8	0xbe8f122c	-0.27943552
9	0xbf106103	-0.5639803
10	0xbe76b4c9	-0.24092402
11	0xbde6f82d	-0.112778045
12	0xbe65f566	-0.22456893
13	0x3e3acf2c	0.18243092
14	0xbdd5776d	-0.10423169
15	0x3d140fb5	0.036147792
16	0x3f624018	0.8837905
17	0xbdce48eb	-0.10072502
18	0x3e0c8dca	0.13725963
19	0xbe22a158	-0.1588186
20	0xbe7db59b	-0.24776308
21	0x3d99bf86	0.07507233
22	0xbe85201f	-0.2600107
23	0x3d2dceab	0.042433422
24	0xbcd55025	-0.026039192
25	0xbeadc59d	-0.3393983
26	0xbf2f70b6	-0.6853136
27	0x3ed16e1d	0.40904322
28	0x3db6b532	0.08921279
29	0xbe8c8cd6	-0.274512
30	0xbf0dda60	-0.5541134
31	0x3e9c890a	0.30573303
32	0xbe6386ee	-0.2221944
33	0xbecb9499	-0.3976181
34	0xbcfc8eb0	-0.030829757
35	0xbf131d49	-0.5746656
36	0xbe3e4dae	-0.1858432
37	0x3dad7307	0.08469205
38	0xbd08066f	-0.03320926
39	0xbcecf60c	-0.028925918
40	0x3db47cdd	0.08812878
41	0xbea67664	-0.325122
42	0xbf236fb7	-0.6384234
43	0x3d515e9a	0.05111561
44	0x3e8e0ae3	0.2774268
45	0xbea7ffb9	-0.32812288
46	0xbe55466c	-0.20827645
47	0xbe4e6208	-0.20154583
48	0xbe5e1795	-0.21688683
49	0xbebb5a0b	-0.36592135
50	0xbdf0e4bb	-0.11762377
51	0xbe39fe32	-0.18163374
52	0xbea66436	-0.3249833
53	0xbe338f45	-0.17535122
54	0xbf4cb7da	-0.79968035
55	0xbeea569c	-0.45769203
56	0xbefde4c6	-0.49588603
57	0xbf2c6383	-0.6733934
58	0xbcb9a32d	-0.022660816
59	0xbf08006b	-0.5312564
60	0x3e2ae538	0.16689003
61	0xbc6dd74a	-0.014516661
62	0xbf2e2f2e	-0.6804074
63	0xbde3871a	-0.11109753
64	0x3c38cc91	0.011279241
65	0xbe9fd428	-0.3121655
66	0xbf3ee811	-0.74572855
67	0xbf14158c	-0.5784538
68	0xbf080955	-0.5313924
69	0x3d9d1f8b	0.07672032
70	0xbe9f0c8b	-0.31064257
71	0x3dc84740	0.09779215
72	0x3dd40c8e	0.10353957
73	0xbf09c2a6	-0.53812635
74	0xbe68f69d	-0.22750326
75	0xbeca4267	-0.39503786
76	0xbd86db41	-0.06584788
77	0xbd9d181a	-0.07670613
78	0x3cd0af68	0.025474265
79	0x3c1815c0	0.009282529
80	0xbf259935	-0.646869
81	0xbed33ee5	-0.41258922
82	0xbe9da904	-0.3079301
83	0x3d238543	0.03992201
84	0xbe37e9d9	-0.179603
85	0xbe9f1f1e	-0.31078428
86	0x3e87f832	0.26556545
87	0xbcb133b9	-0.021631109
88	0x3ca8f9a6	0.020626854
89	0xbec04a43	-0.37556657
90	0xba5a1ee4	-0.0008320643
91	0xbe1ede7d	-0.1551456
92	0xbe22a5da	-0.1588358
93	0xbe13d095	-0.14435036
94	0xbd47c73c	-0.04877399
95	0xbe068cd2	-0.13139656
96	0x3cb21737	0.021739585
97	0xbeb62ad4	-0.3557955
98	0x3e84740b	0.25869784
99	0xbec97d81	-0.39353564
100	0x3db33d3c	0.08751914
101	0xbead58b5	-0.3385674
102	0xbd8d68d5	-0.06904761
103	0xbe551a24	-0.20810753
104	0xbeb38882	-0.35065085
105	0xbc932666	-0.017962646
106	0xbe1dbaec	-0.15403336
107	0xbe9da395	-0.30788866
108	0xbf12851e	-0.5723437
109	0xbdc3fcdc	-0.095697135
110	0xbf02f3cf	-0.5115327
111	0x3eabaa33	0.3352829
112	0xbd82934e	-0.063757524
113	0x3cb95808	0.022624984
114	0xbf364ab1	-0.7120772
115	0x3e5900d1	0.21191718
116	0xbf050960	-0.5196743
117	0xbdce996a	-0.10087855
118	0xbe7543de	-0.2395167
119	0xbc8ddec9	-0.017318146
120	0xbeb29fb7	-0.34887478
121	0xbc137639	-0.009000354
122	0xbe45ab55	-0.19303639
123	0xbeb8bd0d	-0.36081734
124	0x3e0b236a	0.13587728
125	0x3f24e0f8	0.64405775
126	0x3dece93e	0.11567925
127	0xbdf87d33	-0.12133255
128	0xbf4ccd9f	-0.8000125
129	0x3fb868f2	1.4407027
130	0xbf41220a	-0.75442564
131	0xbfc7c3a2	-1.5606577
132	0x3f668cfc	0.90058875
133	0x3ee333be	0.44375414
134	0xbf046075	-0.5170968
135	0xbf382651	-0.71933466
136	0x3ed8ce73	0.42345008
137	0xbf84f440	-1.0387039
138	0xbee4cd7c	-0.44688022
139	0xbf79e10a	-0.9760901
140	0xbd719fb0	-0.05899018
141	0xbf377221	-0.7165852
142	0xbeb9aed9	-0.3626621
143	0xbefb0537	-0.49027416
144	0xbfb3fa5a	-1.4060776
145	0x3da157b8	0.07878059
146	0xbf6cb09b	-0.9245698
147	0x3e9e0440	0.30862617
148	0xbd9e3dff	-0.077266686
149	0x3c938d9f	0.018011866
150	0x3e5d9776	0.21639809
151	0x3fa6149d	1.2975041
152	0xbf3d9093	-0.7404873
153	0xbf87ecf4	-1.0619187
154	0x3cbe2afa	0.023213852
155	0xbf8ca8fb	-1.0989069
156	0xbf05ad80	-0.52217865
157	0xbed4055b	-0.41410336
158	0x3e28a481	0.16469003
159	0xc0120824	-2.2817469
160	0xbeee8760	-0.46587658
161	0x3e332ea0	0.17498255
162	0xbfa4c8a9	-1.2873737
163	0xbcd08271	-0.025452824
164	0x3fe77abd	1.8084332
165	0xbf15c0a5	-0.5849708
166	0xbf79741c	-0.97442794
167	0xbf411462	-0.75421727
168	0x3ea98cc9	0.33115223
169	0xbde22cde	-0.11043714
170	0xbe0d1df4	-0.13780957
171	0xbf2fb915	-0.6864179
172	0xbf4ff195	-0.81228
173	0x3df1ff68	0.11816293
174	0x3f3a0588	0.7266469
175	0x3f8ba76f	1.0910472
176	0xbfff3eb1	-1.9941007
177	0x3ed90b79	0.42391565
178	0x3ec87554	0.39152014
179	0xbed04711	-0.4067922
180	0xbf38fbc4	-0.72259164
181	0x3d63bf68	0.05560246
182	0xbfa3bbd0	-1.2791691
183	0xbf3ab8ee	-0.7293843
184	0xbfcb4fa4	-1.5883679
185	0x3ebdd597	0.3707702
186	0xbf5c7ebb	-0.86130875
187	0xbf373474	-0.7156441
188	0x3eea9d1e	0.45822996
189	0xbfe63e0a	-1.7987683
190	0x3edb0229	0.42775086
191	0xbf911c6e	-1.1336801
192	0xbfefc9bd	-1.8733441
193	0xbfa676fb	-1.300506
194	0x3e824e94	0.25450575
195	0x404b5c30	3.1775017
196	0x3f84d4a0	1.0377388
197	0xbef675fa	-0.48136884
198	0xbf5fa81d	-0.87365896
199	0xbf550207	-0.8320622
200	0xbf7a2533	-0.9771301
201	0x405262bd	3.2872765
202	0x3e8e72ab	0.2782186
203	0xbf957e09	-1.1679088
204	0xbfeaf141	-1.8354875
205	0x3f283a4d	0.6571396
206	0xbf504ae2	-0.8136426
207	0xbec94cfb	-0.39316544
208	0x3e93bdbf	0.28855702
209	0xbf8c72d9	-1.0972549
210	0x40151900	2.3296509
211	0xbf815042	-1.0102618
212	0x3f66fa1b	0.9022538
213	0xbf30d1d7	-0.6907019
214	0xbfac00b1	-1.3437711
215	0xbedad8d5	-0.42743555
216	0x3f187222	0.5954915
217	0xbfaf3d45	-1.3690573
218	0xbec4b062	-0.3841582
219	0x3fe4ad1d	1.786533
220	0xbecfd0f8	-0.40589118
221	0xbf1597d2	-0.58434784
222	0xbf614bd0	-0.88006306
223	0xbf8b564e	-1.0885713
224	0x3dd925fe	0.106029496
225	0xbe4083cd	-0.18800278
226	0xbf82bcf5	-1.0213915
227	0xbea4bf1c	-0.32177055
228	0xbf4cda0a	-0.800202
229	0x3f2416c2	0.64097226
230	0xbf2fc107	-0.6865391
231	0xbf4bf4c2	-0.79670346
232	0xbf73d55b	-0.9524743
233	0xbe03d898	-0.12875593
234	0xbc5b2ca7	-0.013377345
235	0xbd75fc88	-0.060055286
236	0xbefabec5	-0.4897367
237	0xbfa1aae6	-1.2630279
238	0x3df2230b	0.1182309
239	0xbf00ac9d	-0.50263387
240	0xbeeff2df	-0.46864983
241	0x3eac2525	0.3362209
242	0x40706195	3.755956
243	0xbf05be74	-0.52243733
244	0x3f13ee9e	0.57785976
245	0xbf85934c	-1.0435576
246	0xbde9b02c	-0.11410555
247	0xbf1f8e5f	-0.62326616
248	0x3f52bb7a	0.82317317
249	0x3f1ad33c	0.6047857
250	0xbdcc2dba	-0.09969659
251	0xbe99edda	-0.3006428
252	0xbf69baf4	-0.9130089
253	0xbf19c618	-0.6006789
254	0xbed905a6	-0.42387122
255	0x402ed4cf	2.7317388

weight f4 [128, 3]
0	0xbd4926a8	-0.04910913
1	0xbd632772	-0.05545754
2	0xbca1c239	-0.019745933
3	0x3f332308	0.6997533
4	0x3e8ca40c	0.27468908
5	0xbe3a8761	-0.18215705
6	0x3dc64fe2	0.09683205
7	0x3f1d954d	0.6155594
8	0xbdae1af8	-0.08501238
9	0x3b651dd7	0.0034960413
10	0xbcd1d619	-0.025614785
11	0xbbee0598	-0.0072638504
12	0x3f1cce75	0.6125253
13	0x3e191975	0.14951117
14	0xbb256e1d	-0.0025242635
15	0x3f36b756	0.713735
16	0xbd2fad34	-0.04288979
17	0x3cc22066	0.02369709
18	0x3e2ed0c8	0.17071831
19	0xbd82d2d3	-0.06387868
20	0x3da89b1e	0.08232711
21	0xbe1e4e3f	-0.15459536
22	0xbe32ea91	-0.17472292
23	0x3e0335cd	0.12813492
24	0x3ee7ff16	0.45311803
25	0xbeb2ab73	-0.3489643
26	0x3e246045	0.16052349
27	0xbea4c41d	-0.32180873
28	0xbeb7a176	-0.35865372
29	0x3c518e80	0.012790322
30	0x3c65f802	0.01403618
31	0xbef4377b	-0.47698578
32	0x3eda6f25	0.42662922
33	0x3ea72052	0.32641846
34	0x3f1fd46b	0.624335
35	0xbb81feed	-0.003967157
36	0xbf86c9d5	-1.0530344
37	0xbf3954f3	-0.7239525
38	0x3c7b2288	0.015328057
39	0xbe3de2e1	-0.18543579
40	0x3e476b07	0.19474421
41	0xbd00331b	-0.031298738
42	0xbeb246a3	-0.34819517
43	0x3ec5ae94	0.38609755
44	0xbf39f28a	-0.7263571
45	0xbce9ba8f	-0.02853134
46	0x3ede2aa8	0.4339192
47	0xbe40ac26	-0.1881567
48	0x3e3c01b4	0.18360025
49	0x3d85fb79	0.06542105
50	0xbe5f5164	-0.21808392
51	0xbedd06b2	-0.4316917
52	0xbd9e1045	-0.07717947
53	0x3b276f26	0.0025548427
54	0xbe22963b	-0.15877621
55	0xbf096074	-0.536628
56	0x3c3506d3	0.01104899
57	0x3ddecad2	0.10878529
58	0xbe2e1a21	-0.17002155
59	0x3df73205	0.12070087
60	0x3f0d5ce9	0.55219895
61	0xbfe692ab	-1.801351
62	0xbe5bbbf8	-0.21458423
63	0x3d212d5f	0.03934991
64	0xbd2ff6b3	-0.04295988
65	0xbc8450e7	-0.016151858
66	0xbda377c1	-0.079818256
67	0xbcd94f2d	-0.026527012
68	0xbdbb7d74	-0.09154788
69	0xbc9a7b34	-0.018857576
70	0x3d1fb9d6	0.038995586
71	0x3ba10663	0.0049140914
72	0xbcf991f9	-0.030465113
73	0xbe1287df	-0.14309643
74	0xbc7e5f02	-0.015525581
75	0xbcd85fc7	-0.026412858
76	0x3da271a6	0.07931833
77	0xbcc43ca3	-0.023954695
78	0xbf9e09f2	-1.2346785
79	0x3fa2494f	1.2678622
80	0xbe9c7b6d	-0.30562916
81	0xbc546332	-0.012963103
82	0x3c454f0b	0.012042771
83	0xbcdbf408	-0.026849762
84	0xbb9333cf	-0.00449226
85	0xbd24040c	-0.040042922
86	0xbc7b20ba	-0.015327627
87	0xbf38b3ca	-0.72149336
88	0xbdb9f61c	-0.09080145
89	0xbefea035	-0.49731603
90	0x3f007f59	0.5019432
91	0xbe94432d	-0.289575
92	0x3ec1f21e	0.37880033
93	0xbf3782b7	-0.7168383
94	0xbfa6605d	-1.2998158
95	0xbfd76e9b	-1.6830629
96	0x3d17246b	0.036899965
97	0x3eaddac3	0.33955964
98	0x3d8ec0cc	0.06970367
99	0xbda5a648	-0.08088356
100	0xbdb03672	-0.086041346
101	0x3d9e351f	0.07724976
102	0xbcb19ce5	-0.021681258
103	0xbdb9f02e	-0.09079014
104	0xbd56e4aa	-0.052464165
105	0xbf1d031a	-0.6133286
106	0x3f87c0bf	1.0605696
107	0xbeabd736	-0.3356263
108	0xbf52e688	-0.8238301
109	0xbed52b6f	-0.416347
110	0x3e93d0e9	0.28870323
111	0xbc878b67	-0.016545964
112	0xbca3f2c2	-0.020013217
113	0xbc7af74e	-0.015317751
114	0xbd8b5fb4	-0.06805363
115	0xbe0c0f48	-0.13677704
116	0xbd35b913	-0.044365954
117	0xbd540ff0	-0.05177301
118	0xbd563df9	-0.052305195
119	0xbc8582d6	-0.016297739
120	0xbe1f6a59	-0.15567912
121	0xbe569132	-0.20953825
122	0x3b8e475b	0.0043420023
123	0xbf018b57	-0.5060324
124	0x3e80af03	0.25133523
125	0xbdb7941c	-0.089637965
126	0x3ebaff50	0.36522913
127	0xbe3ac5e2	-0.18239549
128	0xbe09e564	-0.13466412
129	0xbcacc5ec	-0.02109047
130	0xbd3091c3	-0.04310776
131	0xbc502aa1	-0.012705476
132	0xbc269670	-0.010167703
133	0xbcb7f7bf	-0.022457002
134	0xbc2db4fb	-0.010602231
135	0xbe2010d0	-0.15631413
136	0xbe94f8b4	-0.29095995
137	0x3e6251ba	0.22101489
138	0xbcb60ed0	-0.02222386
139	0xbca6e2fd	-0.020371908
140	0x3c4d1507	0.01251722
141	0xbf8140ee	-1.009794
142	0x3d498fbb	0.049209338
143	0xbe2ff796	-0.1718429
144	0x3e0cac8b	0.13737695
145	0xbe09956f	-0.1343591
146	0x3cbe24bf	0.023210881
147	0xbf2abe19	-0.66696316
148	0xbf1f187b	-0.6214673
149	0xbf012c5e	-0.50458324
150	0xbea8ac52	-0.3294397
151	0x3d42f122	0.047593243
152	0x3e1bec22	0.15226796
153	0x3a2a543c	0.0006497537
154	0x3bc30ca6	0.0059524355
155	0x3cc3b529	0.023890095
156	0x3ed2b7ca	0.41155845
157	0xbed47d30	-0.4150176
158	0xbd3ff914	-0.0468684
159	0xbe93afdc	-0.28845108
160	0xbf29b373	-0.6628944
161	0xbdb98f2c	-0.09060511
162	0x3ff125fd	1.8839718
163	0x40909a33	4.518823
164	0xbf3e02ec	-0.7422321
165	0xbf235403	-0.63800067
166	0x3db25aa8	0.087086976
167	0x3f0a8a17	0.5411696
168	0x400b6411	2.1779826
169	0x40534a41	3.301407
170	0xbead30cd	-0.33826295
171	0x3e113cc9	0.14183344
172	0xbee49722	-0.44646555
173	0x3b92849d	0.004471375
174	0xbc42ea2b	-0.01189665
175	0xbd43c814	-0.04779823
176	0xbc79ad9e	-0.0152391475
177	0xbe9fa6fb	-0.31182083
178	0x3d9ac80f	0.075576894
179	0x3f39d4dc	0.7259042
180	0x3de05482	0.109536186
181	0xbf2061a8	-0.6264901
182	0x3f4e0170	0.80470943
183	0x3e9a51e0	0.3014059
184	0x3f6d1385	0.9260791
185	0xbe8421c5	-0.25807014
186	0xbf421b87	-0.75823253
187	0x3f0ee1eb	0.55813473
188	0x3e09e819	0.13467444
189	0xbd2dfa26	-0.04247489
190	0xbd096094	-0.03353937
191	0xbe54ab16	-0.20768389
192	0xbcb3fd46	-0.021971356
193	0x3d39b2f0	0.045336664
194	0xbe5c23db	-0.21498053
195	0xbe88da5f	-0.26729104
196	0x3ea6afbc	0.3255595
197	0xbf037c95	-0.5136197
198	0xbe620f8c	-0.22076243
199	0xbe83ee89	-0.25767925
200	0xbe9c8946	-0.3057348
201	0xc001fb71	-2.0309718
202	0x3d3393a2	0.043841965
203	0x40e21fe7	7.0663943
204	0x3e03bd07	0.12865077
205	0xbcc46997	-0.02397613
206	0xbdca1b09	-0.09868438
207	0xbd59b938	-0.053155154
208	0xbbc78898	-0.0060892813
209	0xba9d8b88	-0.0012019733
210	0xbe62b206	-0.22138223
211	0x3af81b21	0.0018928983
212	0xbde0c382	-0.1097479
213	0xbd3e9b95	-0.046535093
214	0x3d7f7436	0.062366687
215	0xbe1cf1e4	-0.15326649
216	0xbe23bcef	-0.15990041
217	0x3def3ece	0.11681901
218	0xbe7b59d8	-0.24545991
219	0x3f813ca1	1.0096627
220	0x3f164e8a	0.5871359
221	0x404e6c52	3.2253613
222	0x3f02b394	0.51055264
223	0x3ecd42fe	0.40090173
224	0x3d7aca82	0.061228283
225	0x3ab1acfb	0.001355558
226	0x3d8ec95f	0.06972002
227	0x3d5574e6	0.052113436
228	0x3fdebbbb	1.7401041
229	0x403cc494	2.9494982
230	0xbf7988e4	-0.97474504
231	0xbd81e30a	-0.063421324
232	0x3c4c98fd	0.012487647
233	0xbc9ca837	-0.01912318
234	0xbd0c59e1	-0.034265403
235	0xbd23f0ea	-0.040024675
236	0xbc5b1022	-0.013370546
237	0xbc2dc8ad	-0.010606927
238	0x3c67fec4	0.014159862
239	0xbda21422	-0.07913996
240	0x3fb16067	1.3857545
241	0x3f1b1f87	0.6059498
242	0xbc9faa91	-0.019490512
243	0xbe694adf	-0.22782467
244	0xbea81abc	-0.32832897
245	0xbdb38b10	-0.087667584
246	0x3f009682	0.50229657
247	0x3eb92aa5	0.36165348
248	0x3fa5da1d	1.2957188
249	0xbd7f2c24	-0.062297955
250	0xbb89099a	-0.004182053
251	0xbca0712c	-0.019585215
252	0x3b8df36c	0.0043319967
253	0x3d1baa1c	0.038004026
254	0x3dbbe7b3	0.091750525
255	0x4085461e	4.164809

weight f4 [2, 128]
0	0xbda45514	-0.0802404
1	0x3e4f1294	0.2022193
2	0x3dd0d211	0.10196317
3	0xba7f1e18	-0.00097319623
4	0x3f33dced	0.7025898
5	0xbb22739d	-0.002478815
6	0xbf4baebe	-0.7956351
7	0x3f00898d	0.50209886
8	0x3ec6c5b6	0.38822716
9	0x3d575f64	0.052581206
10	0x3ed8daf7	0.42354557
11	0xbe6549a9	-0.2239138
12	0x3db1eadc	0.08687374
13	0x3e0c7591	0.13716723
14	0xbe4a14a3	-0.19734435
15	0x3e3c406d	0.18383951
16	0xbdb21f0c	-0.08697328
17	0xbe47a685	-0.19497116
18	0x3d2ba4ba	0.041905142
19	0x3ebb7974	0.366161
20	0x3d325542	0.04353834
21	0x3e8c493b	0.2739962
22	0xbdfe9f96	-0.12432782
23	0x3f7490f0	0.9553366
24	0x3d345851	0.044029538
25	0xbea8c28d	-0.3296093
26	0xbe8001c5	-0.2500135
27	0xbe00293f	-0.12515734
28	0x3d0f9ad5	0.03505977
29	0x3e230bff	0.15922545
30	0xbe70c0a5	-0.23510988
31	0xbe4874a9	-0.19575752
32	0xbe7f8386	-0.24952516
33	0x3e9105d1	0.2832475
34	0x3e9ba92c	0.30402505
35	0xbe8edc87	-0.27902624
36	0x3ef6c120	0.48194218
37	0x3cac18c2	0.0210079
38	0xbd4922ff	-0.04910564
39	0x3cdea3e4	0.027177759
40	0x3f042aed	0.51628
41	0x3dbb5a11	0.09148038
42	0xbedd8d96	-0.43272084
43	0x3c2744cb	0.010209273
44	0xb9573484	-0.00020523561
45	0x3e6f9104	0.23395163
46	0xbd8a0cb4	-0.06740704
47	0x3e9be4c0	0.3044796
48	0x3ea03a20	0.31294346
49	0xbe9c3026	-0.30505484
50	0x3e73a817	0.2379459
51	0xbe7b0174	-0.24512273
52	0xbeb390c3	-0.35071382
53	0x3df3f0d1	0.119111665
54	0x3e76983b	0.24081509
55	0x3f32226d	0.6958378
56	0xbe0c5457	-0.13704048
57	0xbeef5e22	-0.46751505
58	0x3c2312e7	0.009953237
59	0x3f193676	0.59848726
60	0x3e81a4f7	0.2532117
61	0x3dc6e76c	0.09712109
62	0xbf260f10	-0.64866734
63	0xbe62a724	-0.22134072
64	0xbe9cfaf3	-0.3066021
65	0xbe48e722	-0.1961942
66	0xbed9525f	-0.42445657
67	0xbeef95f0	-0.4679408
68	0xbedbd327	-0.42934534
69	0xbc52d107	-0.012867219
70	0xbe37304e	-0.1788952
71	0xbde3f038	-0.111298025
72	0x3d97f704	0.07420161
73	0x3f03946f	0.51398367
74	0x3e931cec	0.28733003
75	0xbe8caeb2	-0.27477032
76	0xbe89a783	-0.26885614
77	0x3e9320cd	0.28735963
78	0x3c29dbbb	0.010367329
79	0xbebe73fe	-0.3719787
80	0xbc2ddd8f	-0.010611906
81	0xbe706d67	-0.23479234
82	0xbc1dd0b0	-0.0096322745
83	0x3dcb564a	0.09928568
84	0xbe18ded2	-0.14928749
85	0x3d23245f	0.039829608
86	0x3dd333c3	0.10312607
87	0x3f0418eb	0.5160052
88	0x3f0133aa	0.5046946
89	0xbe2dae4b	-0.16961019
90	0xbf110607	-0.5664982
91	0xbf2d21a1	-0.6762944
92	0x3d81f636	0.06345789
93	0xbe4169b3	-0.18887977
94	0x3ea64174	0.32471812
95	0x3e24dbd5	0.16099484
96	0xbea47dc0	-0.3212719
97	0xbda6367d	-0.081158616
98	0xbe8e1fb9	-0.27758577
99	0xbe8c2615	-0.27372804
100	0x399dcb5a	0.00030096882
101	0x3f12cb32	0.573413
102	0xbe8d2eec	-0.2757486
103	0xbe81a74c	-0.2532295
104	0x3ea2530c	0.31703985
105	0xbf129d93	-0.5727169
106	0x3f0f545d	0.55988103
107	0xbe5b6ad6	-0.21427473
108	0xbe717a26	-0.23581752
109	0x3e7a091b	0.24417536
110	0x3ad95a47	0.0016582691
111	0xbc9f0bac	-0.019414745
112	0x3eb5b518	0.35489726
113	0x3c81d3d1	0.015848072
114	0x3dbc6edb	0.092008315
115	0x3c853180	0.016258955
116	0xbe8de637	-0.27714702
117	0x3ee61d46	0.4494421
118	0xbf29539d	-0.6614321
119	0x3c382e7c	0.0112415515
120	0xbe076f13	-0.13225965
121	0x3e31b68c	0.17354792
122	0xbe143ec6	-0.14477071
123	0x3e676932	0.22598723
124	0xbe241602	-0.1602402
125	0x3e424746	0.18972501
126	0x3daa9216	0.08328645
127	0x3e780adb	0.24222891
128	0x3d4f700c	0.050643966
129	0x3df023cf	0.1172558
130	0x3d6af82e	0.05736559
131	0x3d5b5d1e	0.0535556
132	0xbe8934d2	-0.2679811
133	0xbe29dee0	-0.16588926
134	0xbe32fe8c	-0.17479914
135	0x3ef828ad	0.48468533
136	0xbd9c5f02	-0.07635309
137	0xbf8d1bde	-1.1024129
138	0xbe5acf79	-0.21368207
139	0xbeb20f30	-0.34777212
140	0x3e22914f	0.15875743
141	0x3e711144	0.23541743
142	0xbf1f6918	-0.62269735
143	0x3eded208	0.43519616
144	0x3e480f89	0.19537176
145	0xbe8288a8	-0.25494885
146	0x3f1ea990	0.6197748
147	0x3dc95e75	0.098324694
148	0xbed22792	-0.41045815
149	0x3d8d4267	0.06897431
150	0xbe5101d1	-0.20410849
151	0x3e2d4722	0.16921666
152	0xbe438075	-0.19091971
153	0x3df226ab	0.118237816
154	0xbe06e13e	-0.1317186
155	0xbe496c7f	-0.19670294
156	0x3d9535fc	0.07285687
157	0x3e90a0db	0.28247723
158	0xbf4e1ef0	-0.80515957
159	0x3ea10ad5	0.31453577
160	0x3e9fa282	0.3117867
161	0x3d321537	0.043477263
162	0x3d6e2db3	0.05814905
163	0x3f6926bb	0.91074723
164	0xbe6eb94b	-0.23312871
165	0x3d85133d	0.0649781
166	0x3e80bad9	0.25142553
167	0x3d30db34	0.0431778
168	0xbe269d66	-0.1627098
169	0xbea3c561	-0.31986526
170	0xbdbad72c	-0.09123072
171	0x3d6d175c	0.057883605
172	0x3d7e4f2a	0.062087215
173	0x3eb9a9fe	0.36262506
174	0x3e4cfc2c	0.20018071
175	0xbdff90ed	-0.12478814
176	0x3ccff415	0.025384942
177	0x3cf33be4	0.029691644
178	0x3dc554cf	0.096353166
179	0x3df087ca	0.1174465
180	0x3e82da46	0.25557154
181	0xbbb12cb1	-0.005406939
182	0xbdeff7cd	-0.11717186
183	0xbe123fad	-0.14282103
184	0xbd7ea1db	-0.062166076
185	0xbeb26045	-0.34839073
186	0x3d520deb	0.051282804
187	0x3f4d53fe	0.80206287
188	0x3f55fd1e	0.8358935
189	0x3ea0fb80	0.3144188
190	0x3e7fdef8	0.249874
191	0xbdfa77fd	-0.12229917
192	0xbec35823	-0.3815318
193	0x3ec78153	0.38965854
194	0xbe59efeb	-0.21282928
195	0xbce11e50	-0.027480274
196	0x3cbe00ee	0.023193803
197	0xbe9de23f	-0.30836675
198	0xbf1534c3	-0.58283633
199	0xbe0cbc36	-0.13743672
200	0xbe3aad23	-0.18230109
201	0xbe14f7e3	-0.14547686
202	0x3ed30854	0.4121729
203	0x3e3788b2	0.17923239
204	0x3dd2a712	0.102857724
205	0x3e1d9d3e	0.15392014
206	0x3d2280fd	0.039673794
207	0x3d9d5a55	0.07683245
208	0xbbf53178	-0.007482704
209	0xbd26f870	-0.040764272
210	0x3db954ec	0.09049401
211	0x3e4eb77e	0.20187184
212	0xbe377884	-0.17917067
213	0x3e2325ec	0.15932435
214	0x3f02c833	0.5108673
215	0xbf33eb69	-0.7028108
216	0xbefb0c3b	-0.4903277
217	0xbdf3ec62	-0.11910321
218	0xbe43dc4e	-0.19127008
219	0xbf11e087	-0.56983227
220	0xbe4547d2	-0.19265679
221	0xbebc23e0	-0.3674612
222	0xbe40944e	-0.18806574
223	0x3e508249	0.203622
224	0x3eb72d22	0.3577662
225	0x3e0d644c	0.13807791
226	0x3da47242	0.080296054
227	0x3e224b38	0.15849006
228	0x3d75b516	0.05998715
229	0xbe55a758	-0.20864618
230	0xbd3ab1ef	-0.045579847
231	0xbf130f86	-0.5744556
232	0xbe10b77e	-0.14132497
233	0xbdf2e614	-0.1186029
234	0x3d9a7e54	0.075436264
235	0xbe750639	-0.23928155
236	0xb90b427c	-0.0001328084
237	0x3e80e63c	0.25175655
238	0x3e840931	0.25788262
239	0xbe0ce206	-0.13758096
240	0x3dd21224	0.10257366
241	0x3e942f18	0.2894218
242	0x3e1ad0de	0.15118739
243	0x3d727963	0.059197795
244	0x3e01e215	0.126839
245	0xbe092132	-0.1339157
246	0x3e996eec	0.2996744
247	0x3e49bfe0	0.19702101
248	0x3e913e3e	0.283678
249	0xbd302766	-0.043006323
250	0x3eba704d	0.36413804
251	0xbebb6885	-0.3660318
252	0x3e816438	0.25271773
253	0x3e31dffb	0.17370598
254	0xbb9ed92f	-0.0048476676
255	0x3f3b0293	0.730508

bias f4 [2]
0	0xbd0cecb7	-0.034405436
1	0x3d0ca799	0.03433952

W f4 [128, 128]
0	0xbd303de1	-0.043027762
1	0x3df2d2e8	0.118566334
2	0x3e1f9ace	0.15586397
3	0x3c9c792d	0.01910075
4	0x3dea26b5	0.11433164
5	0x3c11c531	0.008897112
6	0xbd9379a5	-0.07200936
7	0x3d894586	0.06702714
8	0x3e39d9fd	0.18149562
9	0x3da58cab	0.08083471
10	0xbe15ff5c	-0.14648193
11	0x3d482423	0.048862588
12	0xbe42c450	-0.190202
13	0x3db140ef	0.08654963
14	0x3e0774a0	0.13228083
15	0x3e08f671	0.1337526
16	0x3d56d304	0.052447334
17	0x3e24ad09	0.16081633
18	0x3e8418bb	0.25800118
19	0x3d34d54a	0.04414872
20	0xbd671ef5	-0.056426007
21	0x3e24c39f	0.16090249
22	0x3d172774	0.03690286
23	0x3c8f3659	0.01748197
24	0x3d50f6ce	0.05101662
25	0xbd372775	-0.044715364
26	0x3d2cebc2	0.042217024
27	0xbd745765	-0.05965366
28	0x3d53a361	0.051669482
29	0x3aecbf4f	0.0018062385
30	0xbe13c6a8	-0.1443125
31	0x3e172cbc	0.14763159
32	0xbdc080c3	-0.09399559
33	0xbced5947	-0.028973235
34	0x3dad74df	0.08469557
35	0x3cc1db62	0.02366418
36	0x3cafd75b	0.021464994
37	0xbb92c60c	-0.0044791754
38	0xbd6d83a2	-0.057986863
39	0x3e3c2475	0.18373282
40	0x3d6958ec	0.056969568
41	0x3d9d0b88	0.07668215
42	0x3bb8c82a	0.005639096
43	0x3dcdfc93	0.1005794
44	0x3ce60430	0.028078169
45	0x3deeaee3	0.11654451
46	0x3cfe30d5	0.031029144
47	0x3c5dd60f	0.013539805
48	0x3cad52ad	0.021157587
49	0xbdb26651	-0.087109216
50	0xbd76225d	-0.060091365
51	0x3d56561d	0.052328218
52	0x3e29feed	0.16601153
53	0x3e041d32	0.12901762
54	0xbdd0fc9b	-0.10204431
55	0xbe4e9eb7	-0.20177732
56	0x3d0efa76	0.034906827
57	0xbcba9514	-0.022776164
58	0xbdf2785c	-0.11839363
59	0x3e4c155c	0.19930023
60	0x3b0f3319	0.0021850525
61	0x3d2b9a90	0.04189545
62	0xbccfc39f	-0.025361834
63	0xbe0de312	-0.13856152
64	0x3db56140	0.088564396
65	0xbd390a0b	-0.045175593
66	0x3cc6bbc2	0.024259452
67	0x3c801550	0.015635163
68	0xbe09b3e6	-0.13447532
69	0x3dca12a3	0.09866836
70	0xbcd75504	-0.026285656
71	0xbd763d5f	-0.06011712
72	0xbcd59127	-0.02607019
73	0xbd61267c	-0.054968342
74	0x3e6a9e18	0.2291187
75	0xbd96b1a7	-0.07358103
76	0x3e3463b5	0.1761616
77	0xbd83eb17	-0.06441324
78	0x3e156eb4	0.14593011
79	0xbdd2398c	-0.102648824
80	0xbc2aa3e2	-0.010415049
81	0xbe2ae855	-0.1669019
82	0x3de41281	0.11136342
83	0xbdae48ae	-0.08509956
84	0x3d16daf2	0.036829896
85	0xbd5a9bae	-0.053371124
86	0x3dbb3be1	0.0914228
87	0xbc97143d	-0.018442268
88	0xbe12e9f9	-0.14347066
89	0xbe29b3d1	-0.16572501
90	0xbe0f19f5	-0.13974746
91	0xbe1cc17b	-0.15308182
92	0x3dc52baa	0.09627469
93	0x3deedf63	0.116637014
94	0xbd0aa8f4	-0.033852533
95	0xbb1d31f6	-0.0023986078
96	0x3e038ffb	0.12847893
97	0xbdb8bd25	-0.090204515
98	0xbe024e8a	-0.12725273
99	0x3dd64e83	0.10464194
100	0x3c3ce21c	0.011528518
101	0xbdd4c034	-0.10388222
102	0x3e4a7297	0.19770275
103	0xbd9ef253	-0.077610634
104	0x3c8b581f	0.017009793
105	0x3d973df5	0.07384864
106	0x3e1dd9a6	0.15415058
107	0x3e4ec7c2	0.20193389
108	0x3d0bc0a6	0.03411927
109	0x3e075867	0.13217317
110	0x3d5ab111	0.05339152
111	0x3d65c59a	0.05609665
112	0xbc5d3c81	-0.013503195
113	0x3d7397a2	0.05947078
114	0x3ddcd3f2	0.10782613
115	0x3e4ebe8b	0.20189874
116	0xbdacfab5	-0.08446256
117	0xbd5ced4a	-0.053937234
118	0x3d8c1202	0.06839372
119	0x3dd94d49	0.10610444
120	0xbdc23220	-0.09482217
121	0x3caa7c00	0.020811081
122	0x3d637dd8	0.055539936
123	0x3dcd7d9f	0.10033726
124	0x3dbf22f9	0.093328424
125	0x3dedba0f	0.116077535
126	0x3d6c1414	0.057636335
127	0x3c498180	0.012298942
128	0x3df2aafc	0.11849019
129	0xbe3cf1d1	-0.1845162
130	0xbda14f4a	-0.07876451
131	0x3d0c715d	0.0342878
132	0x3cc7e913	0.02440313
133	0xbe7d8f23	-0.24761634
134	0xbdf48a70	-0.11940467
135	0xbca89a59	-0.020581411
136	0x3c86c979	0.016453492
137	0x3dd38ef3	0.1033
138	0xbdb8c586	-0.090220496
139	0x3a2dbb02	0.00066272926
140	0x3d339a1d	0.043848146
141	0xbd1cf99f	-0.038323995
142	0xbcb2a7e7	-0.021808578
143	0x3df5fed6	0.12011497
144	0xbdfab386	-0.12241273
145	0x3c08709f	0.008327632
146	0x3d5ae099	0.05343685
147	0xbcf41605	-0.029795656
148	0x3e1b629f	0.1517434
149	0x3d94b8ef	0.07261836
150	0xbdd4acaa	-0.103844956
151	0xbde1aff4	-0.110198885
152	0x3dfb5fc4	0.12274125
153	0x3de3fbdf	0.11132025
154	0x3da06164	0.07831076
155	0x3d3045e6	0.04303541
156	0x3de98461	0.114022024
157	0x3d9653d1	0.073402055
158	0x3cc4e038	0.024032697
159	0xbb55a29b	-0.003259814
160	0x3dfa1d6c	0.12212643
161	0x3d901a6b	0.07036289
162	0xbdd7bf88	-0.105345786
163	0x3d2aae36	0.041670047
164	0x3dc7fbfc	0.09764859
165	0x3d842160	0.06451678
166	0x3ddfa4c9	0.10920102
167	0x3d2105a6	0.039312027
168	0xbdb6dc33	-0.089287184
169	0xbda19255	-0.07889239
170	0x3dc35b09	0.09538848
171	0x3d9e1d14	0.0772039
172	0xbdce68e3	-0.10078599
173	0xbd99365d	-0.07481072
174	0x3dca435a	0.098761275
175	0x3d1206e9	0.03565112
176	0xbdb900a5	-0.09033326
177	0x3dcfc993	0.10145869
178	0x3ca03859	0.019558119
179	0xbcae9b92	-0.021314416
180	0xbd37f3dc	-0.044910297
181	0x3db6a0d3	0.089173935
182	0x3c856476	0.016283255
183	0xbcdb1ed9	-0.026748108
184	0xbd82c7f7	-0.063857965
185	0x3c9ba3c3	0.018998986
186	0xbdbee144	-0.0932031
187	0x3de7221c	0.11285803
188	0xbc7c468a	-0.015397677
189	0xbdac4f35	-0.08413545
190	0xb81440a2	-3.5346144e-05
191	0x3717c6ec	9.0466165e-06
192	0xbe29916d	-0.16559382
193	0x3d372e7a	0.044722058
194	0x3d5d7156	0.054063164
195	0x3db1d434	0.08683053
196	0x3da74dcb	0.08169135
197	0xbdee0c59	-0.11623449
198	0x3c322d33	0.010875034
199	0x3d01b9f0	0.031671464
200	0x3d940786	0.072279975
201	0x3ca3c1ae	0.019989815
202	0xbe05b4b9	-0.13057221
203	0xbda57658	-0.08079213
204	0xbc22131b	-0.00989225
205	0xbcc423eb	-0.023942908
206	0xbd04862d	-0.032354522
207	0xbcfcc604	-0.03085614
208	0xbd874780	-0.066054344
209	0xbdef5fe9	-0.11688215
210	0x3e0d71f2	0.13812998
211	0xbdb598eb	-0.088670574
212	0x3e4830fd	0.19549938
213	0xbe32960e	-0.17440054
214	0x3c945fab	0.018112024
215	0xbdecd4d0	-0.11564028
216	0xbd2cb8af	-0.042168316
217	0x3d1510b2	0.036392875
218	0xbdc39cc8	-0.09551388
219	0x3d3a3d9d	0.045468915
220	0x3df26742	0.11836101
221	0xbd28e374	-0.04123254
222	0x3ddc395c	0.10753128
223	0xbbcc4dab	-0.0062348447
224	0x3e010737	0.12600408
225	0x3b1016d5	0.0021986265
226	0xbd8a3508	-0.06748396
227	0xbd74ef80	-0.059798717
228	0xbd91f403	-0.0712662
229	0xbbfbcc87	-0.0076842937
230	0xbd0a5a58	-0.033777565
231	0xbd80108c	-0.06253156
232	0xbdea01ed	-0.114261486
233	0xbde5f6f6	-0.11228745
234	0xbe3c7686	-0.18404588
235	0x3dfe4917	0.124162845
236	0xbdacde04	-0.084407836
237	0xbe162cfa	-0.14665595
238	0xbbe99166	-0.0071279285
239	0x3e32bac8	0.17454064
240	0xbbb1ba7b	-0.0054238415
241	0x3e3580fc	0.17724985
242	0x3e3061f0	0.1722486
243	0x3e1b9261	0.15192558
244	0xbc8f3488	-0.017481104
245	0xbddb8ba7	-0.10719996
246	0xbbf91b03	-0.007602097
247	0x3d83ceae	0.064359054
248	0x3e1f6c36	0.15568623
249	0x3cde3026	0.027122568
250	0xbdeb6a2c	-0.1149486
251	0xbd959ce8	-0.07305318
252	0xbd9a727b	-0.07541367
253	0xbd37b021	-0.044845704
254	0x3da3a914	0.079912335
255	0x3de802a2	0.11328627
