data_1216/1216/sp_2_128_d30_r7/model_76.pth (torch, 137244 bytes, 5 tensors)

weight f4 [128, 128]
00000000: c5fc 883e 9df1 5abe e041 cdbf 77e5 f1be
00000010: 473d d93e 7edc 15bd 466e 343e 9f44 2fbc
00000020: e086 f53e 241b 7e3e 578c 753e 3c8d 33be
00000030: 5450 acbe b93c e6bd 4118 08bf 23d2 a7be
00000040: dc65 d0bd 242f 83be 83f3 6d3e 53f6 073d
00000050: a65e 23bf 8d93 f3bc d7f0 22bf aaac 263e
00000060: 31f9 35bc 35b0 8dbf 6efd 843e 44d8 f4be
00000070: be69 a93e e4d4 a9bd 6b93 96be 72e3 443e
00000080: 6e2b debe 1a2d b23d 1acd f2be fea5 363e
00000090: 3916 6dbd a964 93be cc52 c63e 765f a3bd
000000a0: b118 8bbe 9e1d 713e 8d65 11be e216 c2be
000000b0: dd3d e9bb 3da8 fdbe 824f 4ebe 12b5 94bb
000000c0: fca1 1b3c 8717 f33d 4314 713d bf92 873e
000000d0: 6cbb 90bf ed9b 113c 837f 323e 54cb 0fbc
000000e0: 974c 53be 90ff a1be 1056 1ebe c980 e3be
000000f0: b803 d1bd 44c7 4dbf 9e21 68bf fc00 a93b
00000100: d963 b53d 2c2b 04be a750 223f 1219 18be
00000110: 2e35 b53e 5180 27bd 5600 62be 09b4 193e
00000120: f84d afbe b00d 51bd 9c41 323e ffdc fe3d
00000130: 5bb0 c83e 0855 763c b84e 43be 948f 04be
00000140: d673 abbe fc9d ef3d 424f 35be 57f0 45bc
00000150: f415 93bb 2626 38bf 65a7 8dbe d594 14be
00000160: e81a 84be 0748 e2be 4e07 3dbe 397c 9c3d
00000170: bb58 323e 455a 863e 5c75 0bbd 8e2e 843c
00000180: 9356 b93e 8f97 743e 961c bb3e 286b 22bf
00000190: 3b4c d63c f088 90bd 31bf 28bc bcca e03d
000001a0: e278 e9be 6b44 81bf 562b 07be 707d abbe
000001b0: 30fa 9c3e a032 26bf 6bf5 1abf 3892 7ebe
000001c0: 5c43 dabd 79ff 86be ffd2 473e 9252 4abd
000001d0: b621 a8be aef8 f8be f5f7 0e3e 7f1e 80bd
000001e0: cc68 153f 8816 d53d 85bd 91be ae99 f2bd
000001f0: bec0 d93d 4d6f af3e 35b3 a9bd a871 023e
00000200: 9daa eb3d 66ee 033f e253 5c3e 9d46 14be
00000210: f3dc 93bc 7b43 093c 66e1 163d 67e4 14bd
00000220: fc82 53be a861 123f 5148 4f3f ed32 e8bd
00000230: 832a acbd 2d54 2fbe 8c60 563e 1ab4 53be
00000240: c464 2bbe 6844 e63d db38 51bd 21bc 1c3d
00000250: a282 403f 6504 9dbe 84b0 d33d b495 c8bd
00000260: 4074 37be c830 a5bc 1cef 8cbe 9f55 58bd
00000270: ad27 dabd e7da 97bd 6386 febd dfcc 133f
00000280: ef13 083f 7e09 28be 2b3b 6dbe c03a 77be
00000290: beeb 4fbe 6a13 51bf 3f48 253e 0f42 00be
000002a0: def9 4ebd 9c9b fbbc 3693 1a3e 9ba8 e3bc
000002b0: 66fa bcbd 16d1 85be 6f74 adbe a250 20bd
000002c0: 9d84 dabd 29d3 6ebe d34b 59be 3296 a5bc
000002d0: fd19 773e 3829 3bbf 08aa b4be 8bc6 4a3f
000002e0: 2669 10be c9f1 813e 1ac7 91be d469 e6be
000002f0: 915d 13be c340 acbe ffaf 1d3e cc76 6abe
00000300: e0b9 8c3e d1cf 5dbd 6221 2d3f 8066 31be
00000310: c483 df3d 90ee 95be a654 4cbe 5f50 da3d
00000320: 8e58 20be 9d0b 3cbe 9c7b 4b3f 4a09 393d
00000330: 37d8 f73c 9ba1 af3c 87cd 80be fe96 4cbf
00000340: 9d26 88be e284 2b3f 5d61 c03c 6d7d cebb
00000350: 56c5 30be d5d3 843e b6d7 efbe a601 44be
00000360: 2a6e d2bd 320e 4ebe 64d2 20be e22e 14be
00000370: 6327 3cbd b135 213f d43e 30bf a0bf 993d
00000380: e248 26be e9a1 0abe cd52 03be 84fe a43c
00000390: 20ee d63d 3f53 79be 6d5c 4ebe 5c5d 27be
000003a0: 35e5 4b3b f047 373f 8ff0 28be ee50 87bd
000003b0: bf92 563e ad00 bfbf f984 993c fece acbd
000003c0: 5960 fd3d 34c3 1fbe 346c 6ebd b4d3 403b
000003d0: 5cf9 dbbd e2d3 2b3d 50cd 92bd 0113 c4be
000003e0: bfe8 bbbf 8c18 163e 13f2 97be 0d78 82be
000003f0: 93f7 eabc a8e1 373f a56b 78bd 74da 64be
0.26755348 -0.2138123 -1.6035728 -0.4724538 0.42429563 -0.03658723 0.17620191 -0.010697513
0.47954464 0.24815041 0.23979317 -0.17534345 -0.33655035 -0.11242051 -0.5316201 -0.3277751
-0.10175678 -0.25621903 0.23237424 0.033193897 -0.638163 -0.029733444 -0.6364874 0.16276804
-0.011106775 -1.1069399 0.25974602 -0.47821248 0.33088487 -0.08292559 -0.29409346 0.19227389
-0.4339251 0.08700009 -0.47422105 0.17836758 -0.05788252 -0.28787735 0.38735044 -0.07977192
-0.27167276 0.23546454 -0.14198895 -0.37908083 -0.0071179704 -0.49542418 -0.20147517 -0.004538187
0.009499069 0.11869722 0.058857214 0.26479146 -1.1307197 0.008887273 0.17431454 -0.008776505
-0.20634685 -0.3164029 -0.15462518 -0.44434193 -0.102057874 -0.8038218 -0.90676296 0.005157588
0.08856935 -0.12907094 0.63404316 -0.14853314 0.35392135 -0.040893856 -0.2207044 0.15010084
-0.34239173 -0.051038444 0.1740784 0.124444954 0.3919705 0.0150349215 -0.19072998 -0.12945396
-0.33486813 0.11700055 -0.17706016 -0.012081227 -0.004488701 -0.7193321 -0.27666774 -0.145099
-0.25801778 -0.44195578 -0.18459818 0.07640881 0.1741666 0.26240745 -0.03404747 0.01613548
0.36198863 0.2388594 0.36545247 -0.6344476 0.026159396 -0.07057369 -0.01029949 0.109761685
-0.4560004 -1.0099005 -0.13200125 -0.3349414 0.30659628 -0.64921 -0.6053073 -0.24860466
-0.10657379 -0.26366785 0.19514082 -0.04939515 -0.3283822 -0.48627228 0.13961776 -0.06255817
0.5836303 0.10404688 -0.28464904 -0.11845718 0.10632466 0.34264603 -0.08286134 0.12738669
0.11507151 0.5153564 0.21516374 -0.14480062 -0.018049693 0.008377905 0.03683605 -0.036350634
-0.20655435 0.5718026 0.8096972 -0.11337838 -0.08406546 -0.17121954 0.20935267 -0.20674172
-0.16737658 0.11243516 -0.051079612 0.03826535 0.7519933 -0.30667415 0.10336402 -0.097941786
-0.1791544 -0.020164862 -0.27526176 -0.05281603 -0.10652099 -0.07414799 -0.12427976 0.57734483
0.53155416 -0.16409871 -0.23167102 -0.24143505 -0.20304772 -0.8167025 0.16140841 -0.125252
-0.05053126 -0.030713849 0.15095219 -0.027790358 -0.09227447 -0.26136082 -0.33877894 -0.039139397
-0.10669825 -0.23322739 -0.21220331 -0.02021322 0.24131007 -0.7310977 -0.35285974 0.792092
-0.14102611 0.2537978 -0.28472215 -0.45002615 -0.14391162 -0.3364316 0.15399168 -0.2289688
0.2748556 -0.054153267 0.67629063 -0.17324257 0.10913804 -0.2928357 -0.19954166 0.10659861
-0.15658781 -0.18363805 0.7948549 0.045174874 0.030254466 0.021439364 -0.25156805 -0.79917896
-0.2659196 0.6699964 0.023483926 -0.006301573 -0.17262778 0.25942865 -0.46844262 -0.19141254
-0.102749184 -0.20122603 -0.15705258 -0.1447101 -0.045936 0.6297255 -0.6884587 0.07507253
-0.1623874 -0.13538326 -0.12824555 0.020140894 0.104946375 -0.24348162 -0.20152445 -0.16344208
0.003111196 0.7159414 -0.16498016 -0.06607233 0.20954417 -1.4922081 0.018740164 -0.08437918
0.123718925 -0.15601808 -0.05820866 0.002942306 -0.10740921 0.041950114 -0.071680665 -0.3829575
-1.4680403 0.14657801 -0.29676875 -0.25482216 -0.028682506 0.718287 -0.060649533 -0.22348958

weight f4 [128, 3]
00000000: a50e a3be 6699 d7be 2219 9bbe 6fc0 98be
00000010: dc95 33be e499 4f40 6016 ee3e ffc5 a03f
00000020: 752e 5abe 2e02 4d3a 152e 03b8 fc02 f039
00000030: 0e7f 01bf b035 55bd 8283 25bf a53d a6ba
00000040: fe55 ef39 490e 253a 40bd 7eba 4cf7 0abb
00000050: 2186 edbb c9c7 dbba 0fb1 59ba 91ef 77ba
00000060: 0499 96bf 5f55 03bf a0b7 c5be 4917 3cbd
00000070: 7f79 a73e 22a5 d83f 163b c43c abe0 c33d
00000080: 4edc bd3e 77de c639 1837 cfba eaa5 d539
00000090: 0e6f 243a fd05 a5b9 684e d239 11b8 09b8
000000a0: ea80 98ba 39a4 4fb9 b080 7c3c 4415 a53c
000000b0: 0f34 233e e832 1b3b 40c7 8d37 7f07 1c3c
000000c0: 44e0 17ba 0d9a 71b9 9ea6 1bb9 a7ea 943c
000000d0: 38ff 54bd f871 6d3f ce9b 74bf b2d0 723f
000000e0: 053a b2be f807 c03b 61f4 64bc 9231 b43c
000000f0: c5b7 82be 7466 e23d 47d3 8bbd 66c1 4fbb
00000100: 2dea 94ba 1b5e 2b3c fb70 853b 84f2 bc3b
00000110: a9af 403c db31 4cbd 8603 57be cd43 97be
00000120: d979 fa3d 69e9 aa3c 859c 2b3f 1675 753d
00000130: 8572 e03d 9661 fb3c 50d6 2bbd 4bdd dbbd
00000140: a533 25be 9086 3a3a 570a 7839 f7ec ad39
00000150: 7925 92bd 6c74 82bd 62a5 65bd 8b8a ec3d
00000160: 17e1 32bf 71f7 c0bd 15f9 ea39 cb8e 07ba
00000170: b0b0 d539 fce3 cdbc 52ba f8bd 8c57 483f
00000180: a169 d73d efab 93bc e243 c83e ee89 7d39
00000190: a640 83ba fc00 10ba af42 c43a a5c4 8b3b
000001a0: 6878 923c e1c9 95bd 20d2 b33d 5470 1cbd
000001b0: 759d 133b aeec 7bbb 032e 4cbd 9f15 013e
000001c0: a98c 14bc fa0e 34bd bbb8 64be 6cd7 34be
000001d0: a438 da3a b796 bfba 859d 973a fe65 e33a
000001e0: ca6d 4938 0899 b139 2995 8eb9 d3dc 01bb
000001f0: 7ab0 bdb8 f1a5 c5ba e51c 1b3a 7823 a83a
00000200: b439 3d3b 0057 51b9 6d02 9c39 4284 f939
00000210: 2b48 303a 5c5d c7ba e304 033a b8a3 443a
00000220: ca68 a5b9 bac5 2f39 5d88 8c3d d24d 94bd
00000230: 67bd 84bd 73f8 853a 6514 1cba 94c3 1d3a
00000240: f0a9 dcba 305d 9cb9 36e8 72ba 3b59 51bf
00000250: df45 473f 0ed0 1cbe b616 bcba df29 bdb9
00000260: 2319 4a39 2bfe a6bc c019 9bbc 6e1f 13ba
00000270: b396 443d 24cd 753d cd0a 483e 775b bbbf
00000280: 7b3a 913f 66ed 0dc0 89dc 173d 5220 c4bc
00000290: 3367 e6be 9533 80be 0fb0 873e 0c21 c03f
000002a0: e32f 13b9 09d8 abb9 5137 f538 573a faba
000002b0: 248d 3dbc 8996 253d 4160 56bc 80c3 95bb
000002c0: 77ab 1a3c a4ab a7bb 886e a73c 0ad0 ecbd
000002d0: 673f a1b9 a944 c9b9 340d 89b9 1742 2040
000002e0: d528 fb3f 498a d8bf 4106 043b c383 ab39
000002f0: b1c5 20bc ceff 4eba 98da 4b39 aadc 023a
00000300: 37d4 2abd c759 77bc 0c70 853e 455f 3fba
00000310: 4b02 30ba 79d7 aab9 dea2 953d 9a26 a43d
00000320: 3e93 073c 7d4f 47b9 d9a2 7eba 1956 b7b9
00000330: 8ecd 11ba 528f 42bb 78dd 873b 8770 e6b9
00000340: 89aa a7b9 49e8 3cba 4055 ed38 7c56 63b9
00000350: 08e1 cb39 0514 d9ba d004 1c3a 3b63 a539
00000360: 43f2 cb39 c27d bd38 820f c639 00e5 15ba
00000370: f34f 36b9 960f abb9 0fcf a3bd 3b33 ccbd
00000380: dae4 8e3d fa91 573d 9a0d 473d 1d05 e3bc
00000390: ea0e f73f ffd2 f6bf 2f18 5abf a7d1 2abb
000003a0: 0e60 b73a f40d 083c ea1d 77ba a264 27ba
000003b0: 3967 56ba 270c 8c3e 572a 02bc 2c06 94bf
000003c0: 2cfd bdbc a104 7f3d 9fcc 2bbd c18a a73d
000003d0: b068 ed3c 3a80 8f3e 1ea6 a2ba b6f7 f739
000003e0: b882 24b9 df63 84bb fa9b 5ebd f824 2cbd
000003f0: 1e0d b8b9 7e6e acba 2b00 7fba 8149 b7bb
-0.3184711 -0.4210922 -0.30292612 -0.29834315 -0.17537636 3.2437677 0.46501446 1.2560424
-0.21306784 0.0007820454 -3.127575e-05 0.0004577859 -0.50584495 -0.052053154 -0.6465379 -0.0012683166
0.00045649701 0.0006296379 -0.00097175315 -0.002120453 -0.0072486554 -0.0016767915 -0.0008304277 -0.00094580004
-1.1765447 -0.5130214 -0.38616657 -0.045920644 0.32709882 1.6925395 0.023953956 0.095643364
0.37082142 0.00037931252 -0.0015809266 0.00040750141 0.0006272652 -0.00031475714 0.00040112738 -3.283477e-05
-0.0011635099 -0.00019802236 0.015411541 0.020151742 0.15937828 0.0023681466 1.6901293e-05 0.009523272
-0.0005793611 -0.0002304094 -0.00014844022 0.018178297 -0.052001208 0.9275203 -0.9555024 0.94849694
-0.3480989 0.005860325 -0.01397428 0.021996293 -0.2553083 0.11054698 -0.06827407 -0.0031700968
-0.0011361294 0.010459448 0.004072306 0.005766215 0.011760631 -0.049852233 -0.20997438 -0.29543915
0.12230272 0.020863252 0.67035705 0.059926115 0.10959343 0.030686181 -0.04195243 -0.10735568
-0.16132982 0.0007115388 0.00023654975 0.00033173684 -0.071360536 -0.06369862 -0.056065924 0.115498625
-0.6987471 -0.09422196 0.0004481754 -0.0005171119 0.00040758168 -0.025133125 -0.12144913 0.78258586
0.10518194 -0.01802632 0.3911429 0.00024179343 -0.0010013774 -0.0005493311 0.0014973487 0.004265385
0.01787968 -0.07313896 0.087803125 -0.038193062 0.0022524272 -0.0038440633 -0.049848568 0.12605904
-0.009066739 -0.043959595 -0.22336094 -0.17660302 0.001664896 -0.001461706 0.001156733 0.0017349122
4.8024383e-05 0.00033874088 -0.00027195484 -0.001981546 -9.0450936e-05 -0.0015079362 0.00059170864 0.0012827953
0.0028873505 -0.00019964203 0.00029756446 0.0004759152 0.0006724621 -0.0015210318 0.00049979816 0.00075012026
-0.00031549326 0.0001676296 0.06861947 -0.072414055 -0.06481438 0.0010221138 -0.0005953967 0.0006018218
-0.0016835313 -0.0002982407 -0.00092661695 -0.8177678 0.7784099 -0.15313742 -0.001435003 -0.00036080086
0.00019273585 -0.020384869 -0.018933177 -0.00056122884 0.04799528 0.06001009 0.1953537 -1.4637288
1.1345972 -2.2176147 0.037075553 -0.023941193 -0.4500061 -0.25039354 0.2650151 1.5010085
-0.00014036852 -0.0003277662 0.00011692814 -0.0019090873 -0.011569295 0.040426765 -0.013084472 -0.0045704246
0.0094402945 -0.0051168967 0.020438448 -0.11563118 -0.0003075555 -0.00038388863 -0.00026140513 2.5040338
1.9621836 -1.6917201 0.002014533 0.00032713832 -0.009812758 -0.0007896394 0.00019441021 0.0004991988
-0.04170629 -0.015097088 0.26062047 -0.0007300268 -0.0006714209 -0.00032585466 0.07306455 0.08015175
0.008274851 -0.0001900773 -0.0009713597 -0.00034968628 -0.0005561941 -0.0029687476 0.004146274 -0.00043952858
-0.0003197978 -0.0007206244 0.0001131692 -0.00021680625 0.0003888684 -0.0016561752 0.0005951645 0.00031545185
0.00038899676 9.0356465e-05 0.00037777057 -0.00057180226 -0.00017386656 -0.00032627274 -0.07998478 -0.09970709
0.06977244 0.05262945 0.048596956 -0.0277124 1.9301426 -1.9283141 -0.8519315 -0.0026064904
0.0013990419 0.008304108 -0.000942676 -0.000638554 -0.00081788335 0.27353022 -0.007944665 -1.1564384
-0.02319201 0.062260274 -0.04194319 0.08180762 0.028980583 0.28027517 -0.0012409126 0.0004729607
-0.00015688955 -0.004040226 -0.05434797 -0.042027444 -0.00035104988 -0.0013155488 -0.0009727503 -0.005593479

weight f4 [2, 128]
00000000: e8a9 583e 04e6 8fbe a492 b93b d831 35bc
00000010: 0610 fdbe a108 213c e7eb 433a 0628 9f3a
00000020: 5116 e43d a6e7 babd be3e a33e 10e4 133c
00000030: e343 1fbc 6952 a2bb fc29 61bd 82ce 58bd
00000040: 026e d5bb 0eb7 863e f306 c6bc e813 4fbe
00000050: a511 793d b953 983d 7378 963d 8132 63be
00000060: 70da 923e 6d44 1ebe d109 d3bd baf5 37bc
00000070: 6918 19be 9455 b63e f70f e3bb 8aa8 a1be
00000080: 5251 063e b241 babb 9567 52bd 7c75 dcbe
00000090: 84a7 64be 29fd afbe 245c a5bd 7d7b cabb
000000a0: 832b 87bb 60e7 3f3a 680a bb3b 4fa6 dbbb
000000b0: ab68 fab8 4f95 5dbc 6e1e 4a3e 8c63 363c
000000c0: 6dfb 993b 4522 7c3e 4a95 c2bb 6904 7dbc
000000d0: e553 afbd cc52 d4bd 9e0e 613e 5956 ef3d
000000e0: 5cb4 10bc d78e e83d 5398 a2bd 628d b13d
000000f0: 9e7c d5bb c10b 8cbd ec89 a9bd e577 8fbb
00000100: c6eb 6cbd 537e ccbb fbb1 913e 3314 10bc
00000110: 2d31 d73c 3d5d 15bc 9f2a 25bc 43b6 b1bb
00000120: bcc9 34bc 53d2 bdbb 0639 af3e 0c3d 4a3e
00000130: 2e42 43bd 5c25 13bb d5ee e0ba 6c50 b53e
00000140: 5981 c83c 67d2 79be 805e 133c 929e 5c3e
00000150: 9bd1 3c3c 3eed 993c 15b5 723e 823a 0bbc
00000160: f5b3 3abc 0ed9 37bc 0d18 c2bb 1572 73ba
00000170: 92e2 4339 446e 783e a2d5 0dbe 3630 973c
00000180: a48b 2bbc e2e5 5cbb 20ce 17bc 4211 4e3d
00000190: 78c5 e43c fada 3abb 6525 0ebc fef0 06bb
000001a0: fde4 c03b 3ef0 493e e46f eb3b 7588 09bc
000001b0: 992e 27be d09f 3c3e f34b b2be 0bd1 31bc
000001c0: d750 cabd 5fd1 41bc 2dea 80be eb9b 15bb
000001d0: 7737 e4bb 359f 05be c070 11be 9a0d 00bc
000001e0: 5d9b 063e 6f6f 233d 0bbd 573d bf3f b3bb
000001f0: 3970 7fbe c549 1ebe 38c5 b3bb e069 1c3d
00000200: 2e2a 2cbc 05a1 9cbd 4eda 41be 45e0 063b
00000210: 5156 98bc 229e 55bc ffda 30bb 0465 98bb
00000220: 8c6b 6d3d 5277 5c3e 8960 86be 9d47 473a
00000230: e49f dd3a 6dbb 863a 24f3 8abe 1327 7f3c
00000240: 0e2c 85bb 6941 9c3e a96e 9ebe e9b1 663e
00000250: 67db 81bd 18ff a93c 9826 21bb c655 c93e
00000260: 4e40 52be 01d7 2d3d 1f13 85be 4f62 753a
00000270: 116e ddbd 8d02 3a3e 0951 9639 1d45 9f3e
00000280: 3071 96bd ab83 983b 8fb3 6cbd cda8 8cbe
00000290: 5d90 703d e6fa a63e 7383 01bc 3f7d 99bc
000002a0: 28dc 29bb 56c6 67bc b7b9 2cbc 29f1 4bbb
000002b0: 73da 193b da28 243b 6145 87be 34b9 163a
000002c0: 6142 4cbc 77cb 0cbe 318d 43bc 8be6 31be
000002d0: 807d 99be 973a 293d 057f d5be ffce b23e
000002e0: b514 6aba e4ec a73d b01d ab3e b845 863e
000002f0: 9040 48bb 571e ab3d b015 bbbd bf64 12bc
00000300: bf16 a1be fb67 573a 469a 8a3e c94b f139
00000310: 197c 083d 2579 0cbc f33f 9bba 0f55 9cbc
00000320: 262a 073a 92ef 84bb 914b 383e 0ff8 60bd
00000330: 39e5 2bbe d71b d8bc 305c 98bb 87b3 3e3e
00000340: 6d01 8a3e 2293 33be 16ee 99bc d927 f4be
00000350: 9492 143b 5f7a 87bd 18f8 85bb 1ec6 473a
00000360: 8af5 a23a 379f e63a aa64 293b 869d a4bb
00000370: abe4 15bd cc63 81be 4753 aa3d e18e 23bc
00000380: 33d4 343c d0a4 38bd 196d 883a 2a1f 03bf
00000390: 6bb1 1dbc 5dfa bbbb 6349 76bc abb3 903e
000003a0: d76c 363c b21f ffbd 9681 5ebc f4de 4f3a
000003b0: 6a74 45bd 3f34 263e 7208 7abd d4f6 11bb
000003c0: 89a9 80be 2975 2839 c84b 43be f3c8 e3bb
000003d0: 3a65 3aba d410 303e 80f8 1c3f 784d 91bb
000003e0: f389 743c 91d4 633c a4f9 c63e c303 a9bb
000003f0: 4bd4 983d 750a f8bd 5147 6239 0f46 12bf
0.21158564 -0.28105175 0.005663233 -0.011059247 -0.49426287 0.009828717 0.0007473812 0.0012142665
0.11137069 -0.09126215 0.31883806 0.009026542 -0.009720775 -0.0049536717 -0.05497168 -0.052931316
-0.006513358 0.26311535 -0.024173236 -0.20222437 0.060807843 0.07437844 0.073471926 -0.22187234
0.2868228 -0.1545579 -0.10304607 -0.011228019 -0.14950718 0.35612166 -0.0069293934 -0.31573898
0.13116959 -0.005684101 -0.051368315 -0.43058383 -0.22329527 -0.34372833 -0.08074215 -0.0061792717
-0.00412506 0.00073205493 0.0057080276 -0.006703175 -0.00011940425 -0.0135243675 0.1973817 0.011132132
0.0046991617 0.24622448 -0.005938207 -0.015442946 -0.085609235 -0.10367355 0.21978232 0.116863914
-0.0088320635 0.113553695 -0.0793921 0.08669545 -0.0065150997 -0.068381794 -0.0827826 -0.004378306
-0.05784204 -0.006240645 0.284561 -0.008793878 0.026268566 -0.009116468 -0.010080962 -0.0054233386
-0.011034425 -0.005792895 0.34223193 0.1974985 -0.047670536 -0.0022452688 -0.0017161021 0.3541292
0.02447574 -0.24396668 0.0089946985 0.21544865 0.011524583 0.018789884 0.2370189 -0.008497836
-0.011395444 -0.011221183 -0.005923277 -0.0009286714 0.00018681053 0.24260813 -0.13851026 0.018455606
-0.010470305 -0.0033706357 -0.009265453 0.050309427 0.027926192 -0.0028511868 -0.008675908 -0.002059042
0.0058866725 0.19720551 0.0071849693 -0.00839435 -0.1632637 0.18420339 -0.3482357 -0.010853062
-0.098787 -0.011829703 -0.25178662 -0.002282853 -0.0069646197 -0.13049014 -0.14203167 -0.007815743
0.13145204 0.039901193 0.05267052 -0.0054702456 -0.24945153 -0.15457828 -0.005486157 0.038186908
-0.010508103 -0.076478995 -0.18930933 0.0020580452 -0.018595846 -0.01303819 -0.0026986 -0.004650714
0.057963893 0.21529892 -0.26245525 0.0007601919 0.0016908613 0.0010279246 -0.27138627 0.015573281
-0.0040640896 0.30518654 -0.30943802 0.22528805 -0.06340676 0.020751521 -0.0024589654 0.39323252
-0.20532343 0.04244137 -0.2599115 0.00093606574 -0.10812009 0.18165036 0.00028670605 0.31107417
-0.073458076 0.004654368 -0.057788428 -0.27472535 0.058731426 0.32613295 -0.007904875 -0.01873648
-0.0025918577 -0.014146408 -0.010542325 -0.0031119084 0.0023476153 0.0025048763 -0.2642012 0.00057496433
-0.012466998 -0.1374949 -0.011935518 -0.17373101 -0.2997856 0.04131564 -0.4169847 0.3492355
-0.0008929477 0.0819948 0.33421087 0.26225066 -0.003055606 0.08355396 -0.09134996 -0.008935153
-0.31462666 0.00082170934 0.27070826 0.00046023566 0.033321474 -0.008573805 -0.001184462 -0.019083528
0.0005156122 -0.0040568793 0.17997576 -0.054924067 -0.1678666 -0.026380463 -0.0046496615 0.18623172
0.26954213 -0.17536595 -0.018790286 -0.4768665 0.0022670375 -0.06615137 -0.004088413 0.00076207693
0.0012432795 0.0017595057 0.0025847354 -0.005023661 -0.036595028 -0.2527145 0.08316665 -0.009982795
0.01103692 -0.045079052 0.001040849 -0.5121943 -0.009624819 -0.0057366327 -0.015032145 0.28262076
0.011134348 -0.12457217 -0.0135807 0.0007929646 -0.048206724 0.16230868 -0.06104321 -0.0022272365
-0.25129345 0.00016065374 -0.19071877 -0.0069514452 -0.0007110421 0.1719392 0.6131668 -0.004434284
0.014925468 0.01390566 0.38862336 -0.005157919 0.07462367 -0.121113695 0.00021579607 -0.5713815

bias f4 [2]
00000000: 6f4b b6bd ae7a 863d
-0.089011066 0.06566368

W f4 [128, 128]
00000000: 7374 cf3c 5f6f 08bd 1d11 04be f922 21be
00000010: 8827 de3d 32c3 90bd 7a29 9dbc 61d4 f5bb
00000020: 12e4 94bd 35e7 4d3d 61d8 113e dd6f 9dbd
00000030: 3e5c ba3d 9890 7ebc 7af6 e2bd c6eb c0bd
00000040: dd2a 973d fbf6 bfbc 582d e33d 7918 b4bb
00000050: 6d4d 043d 41ca 1ebd b065 5dbb 0a86 03be
00000060: bf3c 5dbc 1953 e93c a83f 703d 7b9b b4bd
00000070: b6d3 1c3d c29b 893b 9ac6 8dbd fe54 bdbc
00000080: 38f8 afbc 1acf cd3c ad32 873c c1fe f2bd
00000090: 5ed8 973b 65fd 05be c4b3 e0bc 9ef7 1e3e
000000a0: 9ef2 94bd 95b4 373e 97c9 9fbc 5a1a b4bd
000000b0: c3ac 453d 01f8 88bc b9b6 a8bb 761a 573d
000000c0: dc8c 9f3d 9c0a 633e c39b 77bc e187 5cbd
000000d0: 2179 143c 1721 8fbd 3e52 6a3d 5f0e c03d
000000e0: 6bba f5bb 8756 31bb 6e10 a2bc 0767 97b9
000000f0: 7b79 443c fcb6 01be 21f0 05be c2bb 5e3d
00000100: e807 bdbd 3f3e 2d3d 711f bc3d 30a2 93bb
00000110: 3bf5 b43d c360 c0bc 8059 e4bc d07e c73d
00000120: 958d ba3c aadf 143e cd90 743d f536 f9bc
00000130: a98f 04bb a152 823d 0082 6cbd 3e4a 6d3b
00000140: 1855 913d a427 f13d e01f 03be 30a1 fdbd
00000150: 6c80 c0bd 9944 a73c bef2 0cbb cb97 8c3d
00000160: 2bb5 973d 2e75 ca3c 9e50 8ebc c47b 3b3e
00000170: ed5c 0c3d d5ca 7fbd ee3b 133e fdfb a6bb
00000180: 84eb a3bd 3f0b 493d 1c99 833e 2715 32bd
00000190: 229d dcbc d6ad a23d 61d3 eebb 2f09 0f3e
000001a0: 9202 dbbd 1ec7 70bd 2e64 8f3d 4a3b 383c
000001b0: 109f 52bd e94c 8fbd 6264 b33d 57f5 9abc
000001c0: 59d8 6ebd 2207 fbbc b475 34be f4e7 593d
000001d0: ac98 c0bd d20f 8b3c c3f9 91bd 5d6e 063e
000001e0: 4ccf f6bd fc5e ae3d 90a2 723b 9787 89bd
000001f0: 9ade a9bc 7525 0b3e 54b7 52bc de6b 9c3d
00000200: 5244 8f3d 8b27 153d b5d6 783d e175 963d
00000210: ebcf e73d 1fac 733c 40d1 bd3c 8d9f dbbc
00000220: db7b de3c 1c89 013d 012f 663e 9189 1abd
00000230: 97b6 d13d d400 ad3c 53e5 803c f7f7 fdbd
00000240: eb9e 68bd de6e 43bb 1994 81bd 776c b5bd
00000250: 2544 013e d74c 33bd 0808 e03d f467 ff3c
00000260: 8c57 e2bb 53c5 26bd 7802 b8bd 4796 df3d
00000270: 08e7 61be ed76 e53a 88f9 d93c 33f1 fe3d
00000280: e441 e33c b6bf c73c 3a63 3ebd 1576 383c
00000290: 2e53 ee3b 97dc d4bb 6fa5 223d 06d8 0f3d
000002a0: 7c46 533d 4699 90bd 1dcf 923d 6a52 923d
000002b0: fd32 8b3d 77cb 91bd 557a 94bc 737d 2e3e
000002c0: 7f7d 633d ab28 01be ed91 8fbd 1fa0 37bd
000002d0: c995 e7bd 84c5 3dbd ddbe 78bd b4cb d03d
000002e0: a6b4 463e f067 3bbd 2552 e4bd 2f66 0cbd
000002f0: be27 10bd 925e 3c3d e0c8 56bd d62f 453b
00000300: ff49 25be 1def 3b3d 5554 943d ac6d 14bc
00000310: ca09 4e3e eb11 083d 05e2 213d 890b 253e
00000320: 2c42 f23c 9609 283d a309 353b 48b1 90bc
00000330: a835 c23d 1165 92bc ed66 f5bd 6c8d c6bd
00000340: b77e 4b3d de13 013e 8a0d 633c 1b91 a53d
00000350: 63b6 d5bd b05e 3fbe df95 8abd 553b b93d
00000360: c8aa 043b b27b cdbd bde8 4abd a83a f0b9
00000370: 6ff2 383d fa9b 9e3b 7bf5 e6bd 1384 a2bd
00000380: 36b3 e13d e1dd 42be afa6 06be 8259 6f3d
00000390: 1d55 5b3c d679 a6bd ad27 e13c b918 563d
000003a0: 3ee2 9d3c 881d 5c3d c958 9a3d 3036 813d
000003b0: efce ea3d aa10 e5bd 1ced 19bc d0bf 173e
000003c0: 3977 dd3c 5157 443d 138a 5cbd 72b8 153e
000003d0: 27d7 863d 94bc 043d 2fbd 88bd 31e9 0cbd
000003e0: 1438 d0bd adb9 713d f463 9c3d fa9a 963d
000003f0: 3038 42bc a770 ae3b 849a f93c bb6b aa3c
0.025324082 -0.033309337 -0.12897153 -0.15735997 0.10847384 -0.070684806 -0.019184817 -0.007502124
-0.072700635 0.050269324 0.14242698 -0.07687352 0.09099625 -0.0155374035 -0.11082168 -0.0941997
0.073812224 -0.0234332 0.11092633 -0.0054960814 0.0323004 -0.038767103 -0.0033782534 -0.128441
-0.0135032525 0.028482007 0.058654457 -0.08818718 0.03828784 0.004199476 -0.06922646 -0.023111816
-0.021480665 0.025123168 0.016503656 -0.11864997 0.0046339473 -0.13084944 -0.027429469 0.15524146
-0.07272838 0.1793998 -0.019505305 -0.08794089 0.04826046 -0.01671982 -0.0051487354 0.05251547
0.07790539 0.22172016 -0.01511282 -0.05384052 0.0090620825 -0.06988733 0.05720734 0.09377741
-0.0074990294 -0.002705963 -0.019783225 -0.00028877726 0.011991854 -0.12667459 -0.13079883 0.05437828
-0.092300236 0.04229569 0.091856845 -0.0045054182 0.088358365 -0.02348364 -0.027874708 0.097409844
0.02277259 0.14538446 0.059708405 -0.030421713 -0.002022723 0.063634165 -0.057741165 0.0036207582
0.070963085 0.11775139 -0.12805128 -0.1238426 -0.093994945 0.020418452 -0.002150699 0.0686489
0.07407602 0.024714079 -0.017372426 0.18308932 0.03426831 -0.062449295 0.1437833 -0.0050959573
-0.080039054 0.04908299 0.2570275 -0.043477204 -0.026930396 0.07943313 -0.007288382 0.13968347
-0.106938496 -0.058783643 0.0700153 0.011244604 -0.051421225 -0.06997091 0.08759381 -0.018915815
-0.058311794 -0.03064305 -0.17623025 0.053199723 -0.0940412 0.016975317 -0.071277164 0.13128038
-0.120512575 0.085142106 0.0037023164 -0.06715315 -0.020736028 0.13588507 -0.012861092 0.076377615
0.06995453 0.036414664 0.060751636 0.07346702 0.11318954 0.01487258 0.023171067 -0.026809478
0.027158668 0.0316249 0.22478868 -0.03772885 0.102399044 0.021118559 0.01573435 -0.12400811
-0.05679218 -0.002982072 -0.063270755 -0.08858579 0.12623651 -0.043774452 0.10939032 0.031177498
-0.006907409 -0.040715527 -0.08984846 0.10917335 -0.22060788 0.0017506756 0.026608244 0.12448349
0.02774138 0.024383407 -0.04648135 0.011258622 0.0072730994 -0.006496023 0.03970855 0.035118125
0.05158089 -0.070604846 0.0716841 0.071446255 0.067968346 -0.07118886 -0.018124739 0.17040043
0.055539604 -0.1261317 -0.07010255 -0.044830438 -0.11307866 -0.046330944 -0.060728896 0.10195103
0.1940485 -0.04575342 -0.1114848 -0.034277137 -0.03519415 0.045988627 -0.052437663 0.0030088327
-0.16141509 0.045882333 0.072426476 -0.009059351 0.20120922 0.033220213 0.03952219 0.16117682
0.029572569 0.041024767 0.0027624152 -0.01766266 0.0948289 -0.017870458 -0.11982522 -0.09694943
0.04968139 0.12605235 0.013858208 0.08084317 -0.10435178 -0.18688464 -0.06766867 0.0904452
0.0020243395 -0.10033359 -0.049538363 -0.0004582007 0.045153078 0.004840371 -0.112772904 -0.079353474
0.1102051 -0.19029953 -0.13149522 0.05843497 0.013386992 -0.08128707 0.02748474 0.05226967
0.01927292 0.0537391 0.07536466 0.063091636 0.11465251 -0.11184819 -0.00939491 0.14819264
0.027034389 0.047934834 -0.053842615 0.14621142 0.06584006 0.032406405 -0.06676709 -0.034402076
-0.10166946 0.059014965 0.07636252 0.07353778 -0.011854216 0.005323488 0.030469187 0.020803323
