data_1216/1216/sp_2_128_d30_r7/model_34.pth (torch, 137244 bytes, 5 tensors)

weight f4 [128, 128]
0	0x3e47d0f4	0.19513303
1	0xbec2aa11	-0.38020375
2	0xbf82ce5b	-1.0219225
3	0xbedcafe3	-0.4310294
4	0x3e792ab8	0.24332702
5	0xbd54dfb6	-0.05197116
6	0x3e0432eb	0.12910049
7	0x3d4baffa	0.04972837
8	0x3e8a06e3	0.2695838
9	0x3ce1eb00	0.027577877
10	0x3ebd33e5	0.36953655
11	0xbd7b3bee	-0.06133645
12	0xbe347206	-0.17621621
13	0x3e05af08	0.1305505
14	0xbebe8c95	-0.3721663
15	0xbe883f41	-0.2661076
16	0x3d88ee86	0.0668612
17	0xbd2f2890	-0.042763293
18	0x3dbea82e	0.093094215
19	0x3c072f67	0.008251048
20	0xbeda337a	-0.42617399
21	0xbdb2f5d8	-0.08738297
22	0xbeefc86f	-0.46832606
23	0x3e350e76	0.17681298
24	0x3d512069	0.0510563
25	0xbf5bd3b3	-0.858699
26	0x3e5c5086	0.21515092
27	0xbeea6cd8	-0.45786166
28	0x3e55eabe	0.20890328
29	0x3c50cda7	0.012744344
30	0xbe1a00b9	-0.15039338
31	0x3eaaecbc	0.3338374
32	0xbea78487	-0.32718298
33	0x3e8221a0	0.2541628
34	0xbe0e989b	-0.13925402
35	0x3c4141c5	0.011795466
36	0x3d69a226	0.057039402
37	0xbeb0f6db	-0.34563336
38	0x3e6012db	0.21882193
39	0xbd4b895e	-0.04969155
40	0xbe5bf88a	-0.21481529
41	0x3e937270	0.28798246
42	0xbdb442b2	-0.088017836
43	0xbeb3dd6d	-0.35129872
44	0x3e8e3a7e	0.27779
45	0xbee9cb1c	-0.45662773
46	0xbdfe11e2	-0.124057546
47	0x3e209aa7	0.15683995
48	0x3d4aa910	0.049477637
49	0x3e5fb222	0.21845296
50	0x3de52e85	0.111905135
51	0x3e8bff0b	0.2734302
52	0xbf551a06	-0.83242834
53	0xbdfa84f3	-0.12232389
54	0x3b8a771a	0.004225624
55	0xbe775a3c	-0.24155515
56	0xb7830b2c	-1.562162e-05
57	0xbec0c6ab	-0.37651572
58	0x3d7fbc8f	0.062435683
59	0xbe5e6aaa	-0.21720377
60	0x3d39586f	0.045250352
61	0xbf273969	-0.65321976
62	0xbeb17d33	-0.34665832
63	0x3db2335e	0.08701204
64	0xbd3334f4	-0.043751672
65	0xbb4df073	-0.0031423836
66	0x3f171610	0.5901804
67	0x3d580b9f	0.052745458
68	0x3eb6b46e	0.35684532
69	0xbc55fd2e	-0.013060851
70	0xbd01a297	-0.0316492
71	0x3e11d6b6	0.14242062
72	0xbe7906cb	-0.24318998
73	0x3dfbbfeb	0.12292465
74	0x3df9c6d2	0.12196125
75	0xbe51f413	-0.20503263
76	0x3e1d045d	0.15333696
77	0x3e1988de	0.14993617
78	0xbe007a1a	-0.12546578
79	0xbe8259c2	-0.25459105
80	0xbeb53d55	-0.35398355
81	0x3e221f03	0.15832143
82	0xbe695478	-0.22786129
83	0xbe16ecff	-0.14738844
84	0xbd11a5f3	-0.035558652
85	0xbe91d4eb	-0.28482756
86	0xbe3e99f8	-0.18613422
87	0x3cb8e4c3	0.02257002
88	0xbdc3ad84	-0.0955458
89	0xbeb19f81	-0.34692004
90	0x3d62589c	0.055260286
91	0x3ea2b519	0.31778792
92	0x3e774d54	0.24150592
93	0x3ec09249	0.37611607
94	0x3e0f3561	0.13985206
95	0x3b5341bc	0.0032235226
96	0x3e7f82b4	0.24952203
97	0x3df64d9c	0.120265216
98	0x3ecdd9ab	0.4020513
99	0xbee54278	-0.44777274
100	0x3e0b6d78	0.13615978
101	0x3d0dd13f	0.03462338
102	0x3d108aaa	0.03528849
103	0x3dd6e0eb	0.104921184
104	0xbf0631ba	-0.52419627
105	0xbf3863de	-0.72027385
106	0xbe1bd059	-0.15216197
107	0xbe93ab97	-0.2884185
108	0x3e430769	0.19045796
109	0xbf5dc04c	-0.86621547
110	0xbd0b5d12	-0.034024306
111	0xbe202ff0	-0.15643287
112	0xbccfbefd	-0.025359625
113	0xbe1d51d4	-0.15363246
114	0xbd319c4d	-0.04336195
115	0x3d6664dc	0.05624853
116	0xbe576623	-0.21035056
117	0xbee6d085	-0.45080963
118	0x3d07f726	0.033194683
119	0x3decfc45	0.11571554
120	0x3eb926e5	0.36162487
121	0x3e65aa99	0.22428359
122	0xbede1710	-0.4337697
123	0xbd48ad41	-0.048993353
124	0x3da64907	0.081193976
125	0x3e907ab7	0.28218624
126	0x3d6c2302	0.057650574
127	0xbcb266d2	-0.021777544
128	0x3d535769	0.051597033
129	0x3f0322ea	0.5122515
130	0x3e2cc912	0.16873577
131	0x3d14b497	0.036305036
132	0x3e4c2698	0.19936597
133	0x3d82b740	0.063826084
134	0xbdbbd3fe	-0.09171294
135	0x3d13e343	0.036105406
136	0xbed177ae	-0.4091162
137	0x3ee7b21a	0.45253068
138	0x3f025e2a	0.5092493
139	0xbd1d12b4	-0.038347915
140	0x3e0a5d03	0.13512044
141	0x3d3fd2fc	0.04683207
142	0xbdbe20bd	-0.09283588
143	0xbe00531c	-0.12531704
144	0xbc88aba4	-0.016683407
145	0x3d05252c	0.032506153
146	0xbe78d51a	-0.24300042
147	0xbe32cca9	-0.17460884
148	0x3ea4e227	0.3220379
149	0xbe9f7b21	-0.31148627
150	0x3e1dc6ca	0.15407863
151	0xbead96d9	-0.3390415
152	0xbe5b433c	-0.21412367
153	0x3d4872a2	0.048937447
154	0xbe153515	-0.1457103
155	0x3e19291d	0.1495709
156	0xbedddbe6	-0.43331832
157	0xbe07d093	-0.13263159
158	0x3d68092c	0.056649372
159	0x3ec5292c	0.38507974
160	0x3ed3a7e0	0.41339016
161	0x3d604788	0.054755718
162	0xbe8ac3c7	-0.2710249
163	0xbe022e42	-0.12712958
164	0xbdfa0f78	-0.12209982
165	0xbf041ef9	-0.5160976
166	0x3ccb5601	0.024821283
167	0xbd837341	-0.06418467
168	0x3db707d1	0.08937038
169	0x3d2205a1	0.03955615
170	0x3e80f574	0.25187266
171	0x3e29c6b2	0.16579702
172	0x3dd2ffa9	0.103026696
173	0xbe013bcc	-0.12620467
174	0xbe8c87b7	-0.27447292
175	0x3d78aeb2	0.060713477
176	0xbd275e67	-0.040861513
177	0xbe988d67	-0.2979538
178	0xbe7466c5	-0.23867328
179	0x3eb7f081	0.35925677
180	0x3df9f358	0.12204617
181	0xbf16ea9e	-0.5895175
182	0xbed8d33c	-0.4234866
183	0x3f813e4c	1.0097136
184	0x3dd0d553	0.10196938
185	0x3cada5b6	0.021197181
186	0xbe2a73ab	-0.16645686
187	0xbeeb18ce	-0.45917362
188	0x3a8c3120	0.0010695793
189	0xbe719f79	-0.2359599
190	0xbe459d6b	-0.19298331
191	0xbdba3401	-0.0909195
192	0x3d8b27ee	0.06794725
193	0x3d3930df	0.045212623
194	0x3f212d1f	0.62959474
195	0xbc84e2a5	-0.016221354
196	0x3e90aeed	0.28258458
197	0xbe85db78	-0.26144004
198	0x3babf836	0.005248095
199	0x3e0bd1dd	0.13654275
200	0x3b6997ee	0.0035643536
201	0xbcb2a746	-0.021808278
202	0x3edc4000	0.43017578
203	0xbe4c9def	-0.19982122
204	0xbc0bfea0	-0.008544594
205	0xbc85485b	-0.016269853
206	0xbe87e5c2	-0.2654248
207	0xbf1bd605	-0.6087344
208	0xbe50d32a	-0.20393053
209	0x3ef858a1	0.48505118
210	0x3c9d6fe1	0.019218387
211	0xbe8f41b3	-0.27979812
212	0xbe2e3778	-0.17013347
213	0xbe432925	-0.19058664
214	0xbec72650	-0.38896418
215	0xbd36587f	-0.04451799
216	0x3daee49b	0.08539697
217	0xbca279b2	-0.01983342
218	0x3c21f050	0.009883955
219	0x3cf71542	0.030161504
220	0xbd9cdf9d	-0.07659838
221	0x3ec7b73c	0.39006984
222	0xbf2e6df7	-0.68136543
223	0x3dbc2a8f	0.09187805
224	0x3dd2e7e6	0.10298137
225	0xbe899706	-0.26873034
226	0xbe5e1aff	-0.21689986
227	0xbe05411c	-0.13013119
228	0x3e8670fb	0.26258072
229	0xbe894f27	-0.268182
230	0xbe47ef9a	-0.19524994
231	0xbf114c7d	-0.56757337
232	0x3e420782	0.18948177
233	0x3f2f5ca8	0.6850076
234	0xbe136092	-0.14392307
235	0x3d803623	0.06260326
236	0x3eeb6811	0.45977834
237	0xbf808f4c	-1.0043731
238	0xbd3877c1	-0.04503608
239	0x3dd13a67	0.102162175
240	0xbd289ac5	-0.041163225
241	0xbcd351d2	-0.02579585
242	0x3dc168c4	0.094438106
243	0x3e552aeb	0.20817153
244	0x3db66101	0.08905221
245	0x3e090d8d	0.13384075
246	0xbdf2cebe	-0.11855839
247	0xbe5d412d	-0.21606894
248	0xbfb329eb	-1.3997167
249	0x3cfff21d	0.031243378
250	0xbd72d76e	-0.05928748
251	0xbe2b5b6f	-0.16734098
252	0xbea23e6e	-0.31688255
253	0x3e531228	0.20612395
254	0x3db50aae	0.088399276
255	0x3e4cbfb9	0.19995011

weight f4 [128, 3]
0	0xbed8d872	-0.42352635
1	0xbf25b3a6	-0.64727247
2	0xbeefd55c	-0.46842468
3	0x3dc1b614	0.09458557
4	0xbd3cd4ae	-0.046101265
5	0x4092475a	4.57121
6	0x3f782e69	0.96945816
7	0x3fee0936	1.8596561
8	0xbecec59b	-0.40385136
9	0x3c82fa02	0.015988354
10	0x3c4e7bbd	0.012602744
11	0x3b4d6e92	0.0031346423
12	0xbeb93218	-0.3617103
13	0xbde7a831	-0.11311377
14	0x3e57039a	0.20997468
15	0x3d12aacf	0.035807427
16	0x3cc73971	0.024319382
17	0x3c5feff8	0.013668053
18	0x3ccefca6	0.025266957
19	0x3bd0cce3	0.0063720807
20	0xbdd297ee	-0.102828845
21	0x3c01cad0	0.007921889
22	0x3b5c8300	0.0033647418
23	0xbc6bd6bc	-0.014394458
24	0xbfd013dc	-1.6256061
25	0xbf7abf2a	-0.97947943
26	0xbf71bc4d	-0.9442795
27	0xbe27bfc5	-0.16381748
28	0x3f6055dd	0.87631017
29	0x40591ddc	3.3924475
30	0xbe240868	-0.16018832
31	0x3e998e81	0.29991534
32	0x3edb4e8c	0.42833364
33	0x3c56bf16	0.013107082
34	0x3ca4e5f4	0.020129181
35	0x3adf48f6	0.0017035294
36	0x3c314392	0.010819333
37	0x3c5353e6	0.012898421
38	0x3b155e3a	0.002279176
39	0x3c1ffd68	0.009765007
40	0xbab6e733	-0.0013954401
41	0x3c1b48b3	0.009477782
42	0x3c344f76	0.011005273
43	0x3dc59d0c	0.09649095
44	0x3c3e8c29	0.0116300965
45	0x3c8f50ad	0.017494524
46	0x3d2a21ec	0.041536257
47	0x3c853d80	0.016264677
48	0x3b9870a0	0.004652098
49	0x3c22a3c0	0.009926736
50	0x3c5b2ce7	0.013377405
51	0xbd909bb3	-0.07060947
52	0x3c9d9ebf	0.019240735
53	0x3f968ec2	1.1762316
54	0xbff83413	-1.9390892
55	0x3fbc01d2	1.4688056
56	0xbf89230b	-1.0713819
57	0x3cd230e7	0.025658084
58	0xbdb9c521	-0.090708025
59	0xbee0e0ba	-0.43921453
60	0xbda8a6d0	-0.08234942
61	0x3e42879c	0.18997043
62	0xbe31e9dc	-0.17374367
63	0xbcac941f	-0.021066723
64	0x3cbed556	0.023295086
65	0xbc117f13	-0.0088803945
66	0x3e0f000c	0.13964862
67	0x3dfd5d98	0.12371367
68	0x3d8adf88	0.067809165
69	0xbe8b23a4	-0.2717563
70	0xbf82b383	-1.0211033
71	0xbf2b5abf	-0.6693534
72	0x3d372230	0.044710338
73	0x3d49fa03	0.049310695
74	0x3f67e4d2	0.9058353
75	0x3e6d8a77	0.23197351
76	0x3f8dbbc5	1.1072928
77	0xbe2f16b1	-0.170985
78	0x3ebcdab0	0.36885595
79	0xbf9dcb7c	-1.2327724
80	0xbec38fec	-0.3819574
81	0x3c6fcfc4	0.0146369375
82	0x3c5ed806	0.013601309
83	0x3b5e9454	0.0033962922
84	0xbea7f95f	-0.32807443
85	0xbefb806d	-0.4912142
86	0xbe10ecc1	-0.14152814
87	0x3ef6bf94	0.48193038
88	0xbfd094e0	-1.6295433
89	0x3da61e0a	0.08111198
90	0x3c481cdc	0.012213912
91	0x3cee955b	0.029123953
92	0x3c3d52ff	0.011555432
93	0x3e01e236	0.12683949
94	0xbebe2a8c	-0.37141836
95	0x3fa223c5	1.2667166
96	0x3f524a02	0.82144177
97	0xbe5ae64f	-0.21376918
98	0x4043b768	3.0580692
99	0xbcd90079	-0.026489483
100	0xbd103a11	-0.035211626
101	0xb7c2fa60	-2.3243192e-05
102	0xbce39cac	-0.027784668
103	0x3d8f167d	0.06986711
104	0xbd42233f	-0.047396895
105	0xbcdd9af1	-0.02705142
106	0xbdacf626	-0.084453866
107	0x3c7a8f71	0.015292988
108	0x3bdf80ca	0.006820773
109	0x3816a604	3.59174e-05
110	0xbc8442e0	-0.01614517
111	0xbe947410	-0.289948
112	0x3e4eb22a	0.20185152
113	0x3e919ea5	0.2844135
114	0xbec48ce8	-0.38388753
115	0xbf12a911	-0.57289225
116	0xbd914c6f	-0.07094657
117	0x3c5dc7ed	0.013536436
118	0x3ca2a8e2	0.01985592
119	0xbb00a303	-0.0019628413
120	0x3cceae9a	0.02522974
121	0x3cbefb1b	0.023313096
122	0x3c8e0c55	0.017339865
123	0x3b985a6a	0.00464945
124	0x3b4c8a6b	0.0031210433
125	0x3a5173c8	0.000798997
126	0xbd5430bc	-0.05180429
127	0x3e19e264	0.15027767
128	0x3ce8f000	0.028434753
129	0x3bc6c009	0.006065373
130	0x3d27c1ac	0.040956184
131	0x3c9116d5	0.017711082
132	0xbca7733e	-0.020440694
133	0xbb5acd5a	-0.003338656
134	0x3c75939d	0.014988807
135	0x3cfaa3fa	0.030595768
136	0x3c771034	0.015079547
137	0x3bec7b1b	0.0072168238
138	0x3efdb3ec	0.49551332
139	0xbed20da0	-0.4102602
140	0xbdfee640	-0.124462605
141	0xbd23f400	-0.04002762
142	0xbdd3a519	-0.10334224
143	0xbc4cde9a	-0.012504244
144	0x3c982554	0.018572487
145	0x3c47becb	0.012191485
146	0xbb70e8de	-0.0036759893
147	0xbfac44dc	-1.3458514
148	0x3fcbf6ae	1.5934656
149	0xbf4f5afa	-0.80998194
150	0x3adba455	0.0016757349
151	0x3bac03e4	0.0052494872
152	0xbcaad802	-0.020854954
153	0xbc3a670a	-0.0113771055
154	0xbe542a1e	-0.20719191
155	0x3e760dd9	0.2402872
156	0x3d81985f	0.063278906
157	0x3e29bd8f	0.16576217
158	0x3eb3532f	0.35024402
159	0xbfe83c4c	-1.8143401
160	0x3fb88d87	1.4418191
161	0xc027609c	-2.6152716
162	0x3e2507b7	0.16116224
163	0xbd96cf9d	-0.07363818
164	0xbf0fd7f4	-0.56188893
165	0xbd401096	-0.046890818
166	0x3e6f0641	0.2334223
167	0x4093cab2	4.618493
168	0x3c5ad393	0.013356107
169	0x3b59a3b2	0.0033209142
170	0x3c289b2e	0.010290904
171	0xbd39d3a8	-0.045367867
172	0xbda4cce1	-0.0804689
173	0xbc48f2eb	-0.012264947
174	0xb99ab116	-0.00029505108
175	0xbc18a428	-0.009316482
176	0x3c051cdb	0.008124555
177	0xbe161bd1	-0.14659049
178	0x3e802456	0.25027722
179	0xbebf8fc2	-0.37414366
180	0x3c5534c4	0.013013069
181	0xbc01bebf	-0.007919013
182	0x3bc45aae	0.005992255
183	0x4045ecef	3.0925863
184	0x4019a56a	2.400721
185	0xbff1354a	-1.8844388
186	0x3d217a8c	0.03942351
187	0xbc532f81	-0.012889744
188	0xbc8dbdd8	-0.017302439
189	0xb9f8ca25	-0.00047452856
190	0x3c04d547	0.00810749
191	0x3aaa08b9	0.001297257
192	0xbd269693	-0.040670943
193	0x3e2baf80	0.16766167
194	0x3f550472	0.8320991
195	0x3c1f4c75	0.009722819
196	0x3c287a32	0.01028304
197	0x3a5b8212	0.0008373569
198	0xbd8b5eb6	-0.06805174
199	0x3d71b64b	0.05901174
200	0x3d011b6f	0.031520303
201	0x3be274ca	0.006910895
202	0x3baab197	0.0052091586
203	0x3b85ac89	0.0040794057
204	0xbd4141c3	-0.047181856
205	0xbdc4ec2f	-0.09615361
206	0xbb653aa4	-0.003497758
207	0xbb707689	-0.0036691746
208	0xbb6cd83e	-0.0036139633
209	0xbcc39b08	-0.023877636
210	0x3c0a788b	0.008451591
211	0x3c7c0fd2	0.015384631
212	0x3c0c2f9d	0.008556274
213	0x3d338b38	0.04383394
214	0x3bbc2da9	0.005742748
215	0xbbc1cd93	-0.005914399
216	0x3c74259a	0.014901543
217	0x3c54746d	0.012967211
218	0x3baf2474	0.0053449217
219	0x3c068cb9	0.008212262
220	0x3c0ec872	0.008714782
221	0x3bf0f8d5	0.007353882
222	0xbe34fffa	-0.17675772
223	0xbe202c86	-0.15641984
224	0xbeae5bef	-0.34054515
225	0xbe191458	-0.14949167
226	0x3edb4353	0.42824802
227	0xbde4a21a	-0.11163731
228	0x401fa9d0	2.4947395
229	0xc012ef2c	-2.295848
230	0xbf4036a0	-0.7508335
231	0x3d8d7e3e	0.069088444
232	0xbc82a5fd	-0.01594829
233	0xbd2feb8b	-0.04294924
234	0xbc8ab729	-0.01693304
235	0x3c7498ca	0.014929006
236	0xbabe7f87	-0.0014533856
237	0x3f531117	0.8244795
238	0x3ec26756	0.37969464
239	0xbfb16d70	-1.3861523
240	0xbf085f62	-0.5327054
241	0x3f68d3ed	0.90948373
242	0xbe81d3e4	-0.25356972
243	0x3e18f758	0.14938104
244	0x3d7602be	0.06006121
245	0x3f5a9a1f	0.8539142
246	0x3d0363a8	0.03207746
247	0x3d847b03	0.06468775
248	0xbcbb2e96	-0.022849362
249	0xbc50199c	-0.012701418
250	0xbdd5af3c	-0.10433814
251	0x3dba07e7	0.090835385
252	0x3da67136	0.08127062
253	0xbd9d29ff	-0.07674026
254	0xbd464037	-0.048401084
255	0x3eec91f0	0.4620509

weight f4 [2, 128]
0	0x3e8b11e7	0.27162096
1	0xbe8e2cae	-0.27768463
2	0xbc779fca	-0.01511378
3	0xbbac6c47	-0.005261931
4	0xbecf3580	-0.40470505
5	0x3cfe5731	0.031047435
6	0x3e0e1b12	0.13877514
7	0xbc5bd009	-0.013416299
8	0x3daccb46	0.08437209
9	0xbe0cc6ac	-0.13747662
10	0x3ea9160d	0.33024636
11	0xba5d20e6	-0.0008435383
12	0x39cfbd35	0.00039623087
13	0x3b0ac3a4	0.002117374
14	0xbdf3b0c5	-0.118989505
15	0x3b63c8ed	0.0034757212
16	0xbc0bef77	-0.00854098
17	0x3e74decd	0.23913117
18	0xbcd5ac6a	-0.02608319
19	0xbe8ca215	-0.2746741
20	0x3d737dc5	0.059446115
21	0x3d914d36	0.07094805
22	0x3d61a0e3	0.055085074
23	0xbe04bf0b	-0.12963502
24	0x3e60ede9	0.21965756
25	0xbdd3da3b	-0.103443585
26	0xbd457adc	-0.04821287
27	0xbb75f049	-0.0037527254
28	0xbe149192	-0.14508656
29	0x3e9d6950	0.3074441
30	0x3bfc95d9	0.007708293
31	0xbeef2a94	-0.46712172
32	0xbc8bd71e	-0.01707035
33	0xbdc714b4	-0.09720746
34	0xbe53abec	-0.20671052
35	0xbe9c09fc	-0.30476367
36	0xbd6e8545	-0.058232564
37	0xbede431e	-0.4341058
38	0xbd9973fe	-0.07492827
39	0xbca65249	-0.020302908
40	0xbc59340b	-0.013257037
41	0xbc6666e4	-0.014062617
42	0x3c8116e9	0.015757995
43	0xbd385422	-0.04500211
44	0xbc729a93	-0.014807361
45	0xbd05ac41	-0.032634977
46	0x3e129ea0	0.14318323
47	0x3e0faa3f	0.14029787
48	0xbc58cf1d	-0.013232973
49	0x3e4c6df6	0.19963822
50	0xbcae66e6	-0.0212893
51	0xbea0aff9	-0.31384256
52	0xbdec5cc1	-0.11541129
53	0xbe1c7b2a	-0.15281358
54	0x3e71ccf6	0.23613343
55	0x3d41ffd6	0.047363125
56	0xbbeef050	-0.007291831
57	0x3e1ea296	0.15491709
58	0xbe2d5f9d	-0.16931005
59	0x3db25772	0.08708085
60	0xbbc0a250	-0.005878724
61	0xbcf6fdce	-0.03015032
62	0xbd967365	-0.073462285
63	0x3d21245e	0.039341323
64	0xbe48d14f	-0.19611095
65	0xbbb3afb2	-0.005483591
66	0x3edbf1ab	0.42957816
67	0xbb910e59	-0.004426759
68	0x3d3e035e	0.04638993
69	0x3cdcfd50	0.026976258
70	0xbaafd7f0	-0.0013415795
71	0xbcb741fc	-0.022370331
72	0xbc088a31	-0.008333729
73	0xbb9e9c38	-0.0048404
74	0x3f3d44e5	0.7393325
75	0x3dca0171	0.09863556
76	0xbd2e3103	-0.04252721
77	0xbe1ad86b	-0.1512162
78	0x3c5829e1	0.013193578
79	0x3e867aba	0.26265508
80	0x3db5b7f4	0.08872977
81	0xbeac26cf	-0.3362336
82	0xbcd32d1f	-0.025778351
83	0x3e52fa17	0.20603214
84	0x3e95d46f	0.29263636
85	0xbd7757d5	-0.060386498
86	0x3e90c1bd	0.2827281
87	0xbc3d6824	-0.011560474
88	0xbc098a28	-0.008394755
89	0xbae1a621	-0.0017215648
90	0xbbf44de4	-0.0074555743
91	0xbbc582b9	-0.0060275462
92	0xbd9c0641	-0.0761838
93	0x3eb15286	0.34633273
94	0xbda0642b	-0.078316055
95	0x3d81ad9a	0.0633194
96	0xbe40629c	-0.18787616
97	0x3d0276bb	0.03185151
98	0xbde51391	-0.111853726
99	0x3d9cb29f	0.07651257
100	0x3e013890	0.12619233
101	0xbc15d077	-0.00914394
102	0x3a823fe5	0.0009937255
103	0x3d01ec6a	0.031719603
104	0xbde57543	-0.112040065
105	0x3e70e9b5	0.23526652
106	0xbc422f8a	-0.0118521545
107	0xbc03b85f	-0.008039563
108	0xbdbb2d58	-0.09139508
109	0x3e5b50b7	0.21417509
110	0xbeadd836	-0.33954018
111	0xbc2e6fae	-0.010646744
112	0xbde1635d	-0.1100528
113	0xbc54053f	-0.012940704
114	0xbeec25f2	-0.461227
115	0xbb118352	-0.0022203517
116	0xbb274c44	-0.0025527636
117	0xbd468f2c	-0.048476383
118	0xbe14802a	-0.14502016
119	0xbbf6e9aa	-0.007535179
120	0x3dd01661	0.101605184
121	0x3d59c60f	0.0531674
122	0x3db0f2d6	0.08640067
123	0x3a3b05f9	0.0007134374
124	0xbe16af40	-0.1471529
125	0xbe7e23a9	-0.24818291
126	0x3d37c4f9	0.044865582
127	0x3c94e1cc	0.018174075
128	0x3d99f772	0.075178996
129	0xbe365afb	-0.17808144
130	0xbdd83109	-0.10556228
131	0xbc3c7355	-0.011502107
132	0x3c0274f1	0.007962451
133	0xbbebd38b	-0.0071968487
134	0xbdf7a9b7	-0.120929174
135	0xbc833923	-0.016018456
136	0x3d3a8257	0.045534458
137	0x3e6a91db	0.22907202
138	0xbea14bf2	-0.31503254
139	0xbcc642dd	-0.024201805
140	0xbc34ee7e	-0.011043189
141	0xbbfae389	-0.007656519
142	0xbe90cd9d	-0.2828187
143	0xbd115a0a	-0.03548626
144	0x3a89f467	0.0010525108
145	0x3e9305fa	0.28715497
146	0xbe657b99	-0.2241043
147	0x3f2bda23	0.67129725
148	0x3cde0e66	0.027106475
149	0xbb8e5fd5	-0.00434492
150	0xbddeca18	-0.1087839
151	0x3e674d5e	0.22588107
152	0xbe7e10f2	-0.24811152
153	0xbc9f4b9c	-0.019445233
154	0xbe6f1582	-0.23348048
155	0xbc53d4b2	-0.0129291285
156	0xbe496e44	-0.19670969
157	0x3dcbf8d2	0.09959568
158	0x3c7d5871	0.015462981
159	0x3ee6e6b2	0.45097882
160	0xbd033048	-0.032028466
161	0xbdee73cc	-0.1164318
162	0x3cb9fe39	0.02270423
163	0xbe3437bc	-0.17599386
164	0xbca38d5d	-0.019964868
165	0x3edad0b9	0.42737368
166	0xbc8e0547	-0.0173365
167	0xbbe63afa	-0.0070260735
168	0xbc6901fe	-0.014221666
169	0x3c5bad99	0.013408088
170	0xbc8c3783	-0.017116314
171	0x3cde4aa9	0.02713521
172	0xbb9f2694	-0.004856894
173	0xbce8dc24	-0.028425284
174	0xbe086d47	-0.13322936
175	0x3ca9d10a	0.02072956
176	0xbb829a6f	-0.003985695
177	0xbdd875fe	-0.1056938
178	0xbc48197a	-0.012213105
179	0xbde63b96	-0.11241834
180	0xbed49994	-0.4152342
181	0x3d3cef51	0.046126667
182	0xbeded859	-0.43524435
183	0x3e9d2839	0.3069475
184	0xbab98a2b	-0.0014155557
185	0x3cb0bce0	0.021574438
186	0x3ea0c1ba	0.31397802
187	0x3e8b98bf	0.27264974
188	0xbb1d8db5	-0.0024040763
189	0x3d633c25	0.05547728
190	0xbe2d9e10	-0.16954827
191	0x3bef6c6b	0.0073066256
192	0xbf3fb28a	-0.74881804
193	0xbcaa12d2	-0.020760927
194	0x3eb5fa8c	0.35542715
195	0xbbae10fa	-0.0053120824
196	0xbe12e98a	-0.143469
197	0x3cb1f36f	0.021722523
198	0xbbe65253	-0.007028857
199	0xbd18eda3	-0.037336003
200	0xbc31d59a	-0.010854149
201	0x3b3fce26	0.002926716
202	0x3ec7e6b4	0.390432
203	0xbc69e828	-0.014276542
204	0xbe10ce49	-0.14141192
205	0xbc003028	-0.007823981
206	0x3b613b75	0.0034367715
207	0x3e3dac5d	0.18522783
208	0x3e9be3e9	0.3044732
209	0xbedaae4c	-0.42711103
210	0xbda790e8	-0.081819355
211	0xbedad95f	-0.42743966
212	0xbe121877	-0.14267145
213	0x3d0e2bd7	0.034709778
214	0xbc2d7239	-0.010586315
215	0xbbca01eb	-0.0061647794
216	0xbc0e1f11	-0.008674399
217	0xbc4c418b	-0.012466799
218	0x3beca192	0.007221409
219	0x3c329ef4	0.010902155
220	0xbe020113	-0.12695722
221	0xbeed0aa8	-0.46297193
222	0x3ce503eb	0.02795597
223	0xbe2b0411	-0.1670077
224	0xbe51f4bd	-0.20503516
225	0xbd172fea	-0.03691093
226	0xbd5111f6	-0.05104252
227	0xbf4c171d	-0.7972277
228	0xbd16365a	-0.036672927
229	0x3ce5c212	0.028046641
230	0xbb8e6993	-0.0043460815
231	0x3e28af55	0.16473134
232	0x3e8e1f37	0.2775819
233	0xbe846595	-0.2585875
234	0xba3341d8	-0.00068381196
235	0xbc8c6aca	-0.017140765
236	0x3d9212d1	0.07132495
237	0x3e3986e7	0.18117867
238	0x3e12e2ef	0.14344381
239	0xbc09b351	-0.008404569
240	0xbe6364d6	-0.22206435
241	0xbc2574e7	-0.0100986725
242	0xbe061279	-0.13092984
243	0x3c39211d	0.011299399
244	0xbbd9aea6	-0.006643134
245	0x3e0672f2	0.13129786
246	0x3f381d3c	0.7191961
247	0x3bf752cd	0.0075477124
248	0x3c5445af	0.012956067
249	0x3dbdfa5a	0.092762664
250	0x3eb07d49	0.34470585
251	0x3c5eeba5	0.013605987
252	0x3cf5f03b	0.030021777
253	0xbe1a430b	-0.15064637
254	0xbc869757	-0.016429586
255	0xbe86397f	-0.2621574

bias f4 [2]
0	0xbd91dbec	-0.07122025
1	0x3d0702d7	0.032961693

W f4 [128, 128]
0	0x3ccf7473	0.025324082
1	0xbd086f5f	-0.033309337
2	0xbe04111d	-0.12897153
3	0xbe2122f9	-0.15735997
4	0x3dde2788	0.10847384
5	0xbd90c332	-0.070684806
6	0xbc9d297a	-0.019184817
7	0xbbf5d461	-0.007502124
8	0xbd94e412	-0.072700635
9	0x3d4de735	0.050269324
10	0x3e11d861	0.14242698
11	0xbd9d6fdd	-0.07687352
12	0x3dba5c3e	0.09099625
13	0xbc7e9098	-0.0155374035
14	0xbde2f67a	-0.11082168
15	0xbdc0ebc6	-0.0941997
16	0x3d972add	0.073812224
17	0xbcbff6fb	-0.0234332
18	0x3de32d58	0.11092633
19	0xbbb41879	-0.0054960814
20	0x3d044d6d	0.0323004
21	0xbd1eca41	-0.038767103
22	0xbb5d65b0	-0.0033782534
23	0xbe03860a	-0.128441
24	0xbc5d3cbf	-0.0135032525
25	0x3ce95319	0.028482007
26	0x3d703fa8	0.058654457
27	0xbdb49b7b	-0.08818718
28	0x3d1cd3b6	0.03828784
29	0x3b899bc2	0.004199476
30	0xbd8dc69a	-0.06922646
31	0xbcbd54fe	-0.023111816
32	0xbcaff838	-0.021480665
33	0x3ccdcf1a	0.025123168
34	0x3c8732ad	0.016503656
35	0xbdf2fec1	-0.11864997
36	0x3b97d85e	0.0046339473
37	0xbe05fd65	-0.13084944
38	0xbce0b3c4	-0.027429469
39	0x3e1ef79e	0.15524146
40	0xbd94f29e	-0.07272838
41	0x3e37b495	0.1793998
42	0xbc9fc997	-0.019505305
43	0xbdb41a5a	-0.08794089
44	0x3d45acc3	0.04826046
45	0xbc88f801	-0.01671982
46	0xbba8b6b9	-0.0051487354
47	0x3d571a76	0.05251547
48	0x3d9f8cdc	0.07790539
49	0x3e630a9c	0.22172016
50	0xbc779bc3	-0.01511282
51	0xbd5c87e1	-0.05384052
52	0x3c147921	0.0090620825
53	0xbd8f2117	-0.06988733
54	0x3d6a523e	0.05720734
55	0x3dc00e5f	0.09377741
56	0xbbf5ba6b	-0.0074990294
57	0xbb315687	-0.002705963
58	0xbca2106e	-0.019783225
59	0xb9976707	-0.00028877726
60	0x3c44797b	0.011991854
61	0xbe01b6fc	-0.12667459
62	0xbe05f021	-0.13079883
63	0x3d5ebbc2	0.05437828
64	0xbdbd07e8	-0.092300236
65	0x3d2d3e3f	0.04229569
66	0x3dbc1f71	0.091856845
67	0xbb93a230	-0.0045054182
68	0x3db4f53b	0.088358365
69	0xbcc060c3	-0.02348364
70	0xbce45980	-0.027874708
71	0x3dc77ed0	0.097409844
72	0x3cba8d95	0.02277259
73	0x3e14dfaa	0.14538446
74	0x3d7490cd	0.059708405
75	0xbcf936f5	-0.030421713
76	0xbb048fa9	-0.002022723
77	0x3d8252a1	0.063634165
78	0xbd6c8200	-0.057741165
79	0x3b6d4a3e	0.0036207582
80	0x3d915518	0.070963085
81	0x3df127a4	0.11775139
82	0xbe031fe0	-0.12805128
83	0xbdfda130	-0.1238426
84	0xbdc0806c	-0.093994945
85	0x3ca74499	0.020418452
86	0xbb0cf2be	-0.002150699
87	0x3d8c97cb	0.0686489
88	0x3d97b52b	0.07407602
89	0x3cca752e	0.024714079
90	0xbc8e509e	-0.017372426
91	0x3e3b7bc4	0.18308932
92	0x3d0c5ced	0.03426831
93	0xbd7fcad5	-0.062449295
94	0x3e133bee	0.1437833
95	0xbba6fbfd	-0.0050959573
96	0xbda3eb84	-0.080039054
97	0x3d490b3f	0.04908299
98	0x3e83991c	0.2570275
99	0xbd321527	-0.043477204
100	0xbcdc9d22	-0.026930396
101	0x3da2add6	0.07943313
102	0xbbeed361	-0.007288382
103	0x3e0f092f	0.13968347
104	0xbddb0292	-0.106938496
105	0xbd70c71e	-0.058783643
106	0x3d8f642e	0.0700153
107	0x3c383b4a	0.011244604
108	0xbd529f10	-0.051421225
109	0xbd8f4ce9	-0.06997091
110	0x3db36462	0.08759381
111	0xbc9af557	-0.018915815
112	0xbd6ed859	-0.058311794
113	0xbcfb0722	-0.03064305
114	0xbe3475b4	-0.17623025
115	0x3d59e7f4	0.053199723
116	0xbdc098ac	-0.0940412
117	0x3c8b0fd2	0.016975317
118	0xbd91f9c3	-0.071277164
119	0x3e066e5d	0.13128038
120	0xbdf6cf4c	-0.120512575
121	0x3dae5efc	0.085142106
122	0x3b72a290	0.0037023164
123	0xbd898797	-0.06715315
124	0xbca9de9a	-0.020736028
125	0x3e0b2575	0.13588507
126	0xbc52b754	-0.012861092
127	0x3d9c6bde	0.076377615
128	0x3d8f4452	0.06995453
129	0x3d15278b	0.036414664
130	0x3d78d6b5	0.060751636
131	0x3d9675e1	0.07346702
132	0x3de7cfeb	0.11318954
133	0x3c73ac1f	0.01487258
134	0x3cbdd140	0.023171067
135	0xbcdb9f8d	-0.026809478
136	0x3cde7bdb	0.027158668
137	0x3d01891c	0.0316249
138	0x3e662f01	0.22478868
139	0xbd1a8991	-0.03772885
140	0x3dd1b697	0.102399044
141	0x3cad00d4	0.021118559
142	0x3c80e553	0.01573435
143	0xbdfdf7f7	-0.12400811
144	0xbd689eeb	-0.05679218
145	0xbb436ede	-0.002982072
146	0xbd819419	-0.063270755
147	0xbdb56c77	-0.08858579
148	0x3e014425	0.12623651
149	0xbd334cd7	-0.043774452
150	0x3de00808	0.10939032
151	0x3cff67f4	0.031177498
152	0xbbe2578c	-0.006907409
153	0xbd26c553	-0.040715527
154	0xbdb80278	-0.08984846
155	0x3ddf9647	0.10917335
156	0xbe61e708	-0.22060788
157	0x3ae576ed	0.0017506756
158	0x3cd9f988	0.026608244
159	0x3dfef133	0.12448349
160	0x3ce341e4	0.02774138
161	0x3cc7bfb6	0.024383407
162	0xbd3e633a	-0.04648135
163	0x3c387615	0.011258622
164	0x3bee532e	0.0072730994
165	0xbbd4dc97	-0.006496023
166	0x3d22a56f	0.03970855
167	0x3d0fd806	0.035118125
168	0x3d53467c	0.05158089
169	0xbd909946	-0.070604846
170	0x3d92cf1d	0.0716841
171	0x3d92526a	0.071446255
172	0x3d8b32fd	0.067968346
173	0xbd91cb77	-0.07118886
174	0xbc947a55	-0.018124739
175	0x3e2e7d73	0.17040043
176	0x3d637d7f	0.055539604
177	0xbe0128ab	-0.1261317
178	0xbd8f91ed	-0.07010255
179	0xbd37a01f	-0.044830438
180	0xbde795c9	-0.11307866
181	0xbd3dc584	-0.046330944
182	0xbd78bedd	-0.060728896
183	0x3dd0cbb4	0.10195103
184	0x3e46b4a6	0.1940485
185	0xbd3b67f0	-0.04575342
186	0xbde45225	-0.1114848
187	0xbd0c662f	-0.034277137
188	0xbd1027be	-0.03519415
189	0x3d3c5e92	0.045988627
190	0xbd56c8e0	-0.052437663
191	0x3b452fd6	0.0030088327
192	0xbe2549ff	-0.16141509
193	0x3d3bef1d	0.045882333
194	0x3d945455	0.072426476
195	0xbc146dac	-0.009059351
196	0x3e4e09ca	0.20120922
197	0x3d0811eb	0.033220213
198	0x3d21e205	0.03952219
199	0x3e250b89	0.16117682
200	0x3cf2422c	0.029572569
201	0x3d280996	0.041024767
202	0x3b3509a3	0.0027624152
203	0xbc90b148	-0.01766266
204	0x3dc235a8	0.0948289
205	0xbc926511	-0.017870458
206	0xbdf566ed	-0.11982522
207	0xbdc68d6c	-0.09694943
208	0x3d4b7eb7	0.04968139
209	0x3e0113de	0.12605235
210	0x3c630d8a	0.013858208
211	0x3da5911b	0.08084317
212	0xbdd5b663	-0.10435178
213	0xbe3f5eb0	-0.18688464
214	0xbd8a95df	-0.06766867
215	0x3db93b55	0.0904452
216	0x3b04aac8	0.0020243395
217	0xbdcd7bb2	-0.10033359
218	0xbd4ae8bd	-0.049538363
219	0xb9f03aa8	-0.0004582007
220	0x3d38f26f	0.045153078
221	0x3b9e9bfa	0.004840371
222	0xbde6f57b	-0.112772904
223	0xbda28413	-0.079353474
224	0x3de1b336	0.1102051
225	0xbe42dde1	-0.19029953
226	0xbe06a6af	-0.13149522
227	0x3d6f5982	0.05843497
228	0x3c5b551d	0.013386992
229	0xbda679d6	-0.08128707
230	0x3ce127ad	0.02748474
231	0x3d5618b9	0.05226967
232	0x3c9de23e	0.01927292
233	0x3d5c1d88	0.0537391
234	0x3d9a58c9	0.07536466
235	0x3d813630	0.063091636
236	0x3deaceef	0.11465251
237	0xbde510aa	-0.11184819
238	0xbc19ed1c	-0.00939491
239	0x3e17bfd0	0.14819264
240	0x3cdd7739	0.027034389
241	0x3d445751	0.047934834
242	0xbd5c8a13	-0.053842615
243	0x3e15b872	0.14621142
244	0x3d86d727	0.06584006
245	0x3d04bc94	0.032406405
246	0xbd88bd2f	-0.06676709
247	0xbd0ce931	-0.034402076
248	0xbdd03814	-0.10166946
249	0x3d71b9ad	0.059014965
250	0x3d9c63f4	0.07636252
251	0x3d969afa	0.07353778
252	0xbc423830	-0.011854216
253	0x3bae70a7	0.005323488
254	0x3cf99a84	0.030469187
255	0x3caa6bbb	0.020803323
