LeakyRNN_11.28/1128/ta_2_10_64_d10_r11_1/model_8.pth (torch, 37660 bytes, 5 tensors)

weight f4 [64, 64]
00000000: 72c7 bc3e 1e6e 01be bab1 57bc 3aaf 3a3e
00000010: 763e fa3d 54d6 de3d 8b15 123e f168 563e
00000020: 1a67 cfbc 955a ca3d ae35 97be c996 873d
00000030: f8f0 9a3e 82f3 a73d 1e79 5cbe 8896 fa3d
00000040: b35a 81bd 8a5d 4bbe 69c8 a8be 5185 3f3e
00000050: 9881 1e3e 2be8 4f3c d0ed 363e e9c9 ddbd
00000060: 5b29 59be deff 8cbe a585 9f3d b7ab 903d
00000070: fb1a ec3e 1b8d 45bd eee2 913e acc2 25be
00000080: ad47 1bbd 1f6c d13e dc98 783e f949 63be
00000090: 0cf6 3ebe 0b8f d13d a807 523d 2b19 27be
000000a0: 4e73 23be 5691 babd ab18 86be 2456 ea3d
000000b0: e3c0 f23e d5c8 dc3b f019 283e 47b0 5cbd
000000c0: bf5b 103d ed56 b0bb 9a96 4e3e e980 543d
000000d0: 3cc0 8cbc fa64 90be 986d 3e3e 37c2 bdbe
000000e0: f218 463e 4037 0a3c 7926 51be 0101 7a3e
000000f0: 3542 efbd 31e8 ff3d 1c41 cbbc d26b e0bc
00000100: 6a65 473e b854 23be 06e7 193e c5a9 c83c
00000110: f9b2 063e 40c8 a3bd 0d63 dd3d c711 e4be
00000120: facb 2b3c 1f0a 1dbd 3eb5 493e 8810 e2bd
00000130: dfc4 113e 96e8 083e 6049 be3d 4bf8 05bf
00000140: 3212 b4bd e438 a8be 13a0 b5be ff9b d03d
00000150: c87d 59bd 8b51 5cbe 616c 6cbe 4fb8 413c
00000160: aded 76be 5bef 4dbd b5ac 053e d851 873c
00000170: 2d4a 973e 8ca1 c7bd 35aa 49bd da75 b7bc
00000180: 8553 f3bd 180c 953e a367 ef3c fbc6 0d3e
00000190: 97b0 6a3e 098a 833d 17cf cabe 81e8 843d
000001a0: 3413 3b3e 7b78 c03b f410 9e3d c771 b0be
000001b0: 1e6a 62be f798 86bc e04b 753e f3a6 b73d
000001c0: 5dd0 ebbc 411c d9bc ce1e 6bbd 8068 adbd
000001d0: 9c61 183e 3dbe abbd b3f7 a03d c453 873e
000001e0: 3238 4b3d d376 493e 96d8 b3bd 4a33 39be
000001f0: f3c2 90b9 e33a babe cc7f 823d bbb6 18be
00000200: af1e b8bd 2706 7d3d 9f99 d7be 2ccf 69bd
00000210: ce46 93bd b6a1 323e eadf 2d3d 5e3d 3139
00000220: ce05 00be af97 083e 16e0 7d3d 219c d43e
00000230: 317f 8cbc 8c94 1ebe d404 143e a888 edbd
00000240: 1ab5 b83d fe92 3d3e e269 833e db80 edbd
00000250: fa2c 10bd 57bf 573d fcbe 02bc 9b80 2a3d
00000260: cc06 3c3e 3f72 d33b 6f26 6ebd c409 4f3e
00000270: 68f3 26bd 6905 a5bd eead 99bc f876 cabd
00000280: 6aab 18be eea4 fb3a 1ae5 933d f2a3 2cbe
00000290: 3229 45be 54ce 513e d1b7 d5bc 5a18 d5bd
000002a0: c3e6 3cbb acd0 663d 9fa8 e63a 80c2 83bc
000002b0: fc86 3dbe b2ec 68bc 8b73 c73d 34e4 91be
000002c0: 40e2 2b3d 3572 1bbc f079 133d a100 a93d
000002d0: 311c 87be ebdd 00be ba72 843e e46e e8bd
000002e0: a028 583c 952d 003e 89f8 803e 7a16 f83d
000002f0: fdd2 ab3d 4253 76be a210 903e 2443 80be
00000300: 77f4 84be 8aef 0e3d 9044 f33d 8287 b13e
00000310: 74ac 8fbe fd6e 423e 0ba8 0bbd 0b38 84bd
00000320: 213e 11bd de8a 943c e0c7 933c 337f 873d
00000330: d9b5 0d3f b956 023e 73b2 693e 698d 41bc
00000340: 78cf 313e 3138 6fbd 370c cfbd 9793 2e3d
00000350: af96 0a3f 0118 43bd a960 b53c 6654 c3be
00000360: 9594 5a3e b754 fa3d 3917 473e 8d85 47be
00000370: 5fca 80be db2c 17be d16f 02be 227d 483e
00000380: b595 a73e aaac 803e 2b19 673e 5304 e83e
00000390: f2f9 b2be a255 26bc 7b6e c0bd 14f0 debb
000003a0: 97b3 0c3f cf8e e4bc 79cc 8cbe 8b31 be3e
000003b0: 04e7 5f3e 4a64 2c3d eb56 823e f554 923e
000003c0: e9b1 b8bd 3874 73be fdd7 9dbc c917 833e
000003d0: 6304 d1be e686 89bd 1b17 913d b19c e3bc
000003e0: b7b9 843e 7b96 7abe a866 a3bd 2491 7e39
000003f0: 2712 c43d 622b e7bc 5b4e 87bd e22d 40bd
0.36870915 -0.12639663 -0.013164932 0.18230906 0.12218945 0.108807236 0.1426603 0.2093847
-0.025317717 0.098805584 -0.29533142 0.06620557 0.3026197 0.08200742 -0.21530578 0.12235743
-0.06316128 -0.19859901 -0.329654 0.187032 0.15479124 0.0126896305 0.17864156 -0.10829527
-0.21207182 -0.2753896 0.077891625 0.07064002 0.46114334 -0.04823027 0.28493446 -0.16187543
-0.037910152 0.40902802 0.24277061 -0.22196187 -0.18648547 0.102323614 0.051276833 -0.16318195
-0.15961954 -0.09109752 -0.26190695 0.11442211 0.47412786 0.006737808 0.16416144 -0.05387905
0.035243746 -0.005381456 0.20174637 0.05188075 -0.017181508 -0.2820204 0.18596494 -0.37062237
0.19345453 0.008436024 -0.20424832 0.24414445 -0.1168255 0.12495459 -0.02481132 -0.027395163
0.1947228 -0.15950286 0.15029535 0.024495015 0.1315421 -0.07997179 0.10809908 -0.44544813
0.0104856435 -0.03833973 0.19698045 -0.11038309 0.14235257 0.13369974 0.09291339 -0.5233199
-0.08792533 -0.32855904 -0.3547369 0.10186004 -0.05309847 -0.21515481 -0.23088218 0.011823728
-0.24114104 -0.050277095 0.13054164 0.016518518 0.2954878 -0.097476095 -0.049234588 -0.022395063
-0.118811645 0.2911079 0.029224223 0.13845436 0.22918926 0.064228125 -0.39611122 0.06489659
0.18269044 0.0058737374 0.07718077 -0.34461805 -0.22110793 -0.016430361 0.23954725 0.0896739
-0.028785879 -0.02650273 -0.057402425 -0.084671974 0.14880985 -0.083858944 0.07859745 0.26431096
0.04961414 0.19674234 -0.08781545 -0.18085971 -0.0002761107 -0.36373052 0.063720316 -0.14913456
-0.089902274 0.061773445 -0.4210939 -0.05708234 -0.07191239 0.174445 0.04244987 0.00016902896
-0.12502214 0.13339113 0.061981283 0.41525367 -0.017150493 -0.15486354 0.14454967 -0.11598331
0.090189174 0.18513104 0.2566672 -0.11596843 -0.035199143 0.05267271 -0.007980105 0.041626554
0.18361968 0.006452828 -0.058142122 0.20218569 -0.040759474 -0.080576725 -0.018759694 -0.09885973
-0.1490914 0.0019198933 0.07221432 -0.16859415 -0.19253996 0.20488864 -0.026088627 -0.10405035
-0.0028824068 0.05635135 0.001759786 -0.016083956 -0.18508524 -0.014216589 0.09738835 -0.28494418
0.041963816 -0.009487678 0.03600496 0.08252073 -0.26388696 -0.12584655 0.2586878 -0.11349276
0.0131932795 0.12517388 0.25189617 0.12113662 0.08389852 -0.24055198 0.2813769 -0.25051224
-0.25967762 0.03489641 0.11878312 0.34673697 -0.2806126 0.18987651 -0.034095805 -0.06456002
-0.03545964 0.018132623 0.018039644 0.06616058 0.553556 0.12728395 0.22821979 -0.0118135
0.173643 -0.058403198 -0.10109752 0.04262122 0.54136175 -0.047630314 0.022140818 -0.38150328
0.21345742 0.12223189 0.19442452 -0.1948454 -0.25154397 -0.14763205 -0.12737967 0.19578984
0.32731405 0.25131732 0.22568195 0.453158 -0.34956318 -0.010152252 -0.093960725 -0.006803522
0.5496153 -0.027900128 -0.2749975 0.37147173 0.21865469 0.04208783 0.25456938 0.28580442
-0.09018309 -0.23774803 -0.01926803 0.25604084 -0.4082366 -0.06715183 0.07084485 -0.027784677
0.2592294 -0.24471466 -0.079785645 0.00024277397 0.09573775 -0.028218929 -0.06606742 -0.046918757

weight f4 [64, 3]
00000000: 38e8 f43e 208a 183f 4c02 d3bc e084 ee3d
00000010: 82eb d6be 5afd 903e 8668 aa3d e532 c33e
00000020: c421 ee3b e3e4 9fbe 5b01 babb ceff fbbd
00000030: 8079 213f 24e0 b93e 059a 073e 745f 9b3e
00000040: 1e29 30bf 2a6d 2dbb 2102 223f 568a e2be
00000050: d990 823e 0ef0 293f ec66 63be b0b6 5bbd
00000060: 8234 f4bd 27b7 143f e705 ba3e 33d6 e7be
00000070: 4888 0fbf 59ce e0bd 953f f6be ed5b b43e
00000080: 1c20 373d acd7 51bf df4a 753f 73a3 b1be
00000090: eeed 973d 0d84 7e3e ba61 61bd 0c0c 333f
000000a0: c13a 94be 08a5 ab3d 140b e4be 4a78 f2bd
000000b0: ae93 91be efc5 303f 937e c53e cea2 0b3e
000000c0: 7060 c53a 21fe 173f 62c9 ad3e a992 7d3c
000000d0: 0243 183f 94e9 88bd 3a8e c5bd 1e9c 393f
000000e0: de79 3cbc 2fcc 37be 05db b0bd 19a1 7dbe
000000f0: 63d3 ba3e 88c6 80be 6b3f e6bd ac95 2c3f
00000100: 7fc0 253f d4dd 743d e095 a93e cdeb 483e
00000110: c8ce 503e 364d 953e d8c0 373f 19c1 31be
00000120: d855 5abe 88c4 d7bc 0498 2f3e 2c6e 15be
00000130: e660 76be 889b a73e 8fee 09bf e3b5 12bf
00000140: b72b 893e c602 01be 7f07 c13e 69da a63e
00000150: a105 723f fa5a 7d3f 7e48 263e 5644 c53d
00000160: 49d0 ffbe 2aaa c4be 41a5 2b3f 6869 133f
00000170: 69ee a8bd e39a aebe 3c1d 1abf 3efc de3d
00000180: 07ce 3bbe b810 06bd df46 17be d7fb a1bd
00000190: 734c 953e 59cc 70be 1f56 253f 5d2c 5cbf
000001a0: dcd2 19be 8bb0 82bf bf12 82be 811e b93e
000001b0: 5a42 fabe f43d 243f 073e 843e 78ae 2ebe
000001c0: 3546 0abf 6bf1 90bd 86ce 493f 6272 2ebf
000001d0: 0003 b9bd 668c 403e 1bb1 41be 2800 d0be
000001e0: 3dc1 b5be 0852 16bf 1716 563d 97d3 25bf
000001f0: ce7b 363f 9731 8bbe 0a8e 9dbe 370b 59be
00000200: fc41 c13e b555 3a3e df7e cabe 41bf ef3a
00000210: 3fc6 283f 952d 8e3d c0cb 393d 6d93 473f
00000220: 6f86 143e e9bf 0c3e c992 c9be 2ff8 be3e
00000230: 1434 353d a46d 17bf e782 bdbe 2752 61be
00000240: 9d15 3abd cdc2 4cbe 7b73 683d 9d4d 1ebd
00000250: b5f5 97bd c09e 6c3e 430a 613f 250c e33d
00000260: 5d41 94bd 0271 31be 5e85 273f 4a64 9b3c
00000270: 9a42 88be 4790 3d3e 9223 113e fb81 abbe
00000280: 7e40 6ebf cf87 a5be 64c0 4b3d 81c4 3f3e
00000290: c1ef debe 2222 7bbf 6d95 6ebf c4e5 813e
000002a0: d50d 0e3e 85ae b0be 8cda 763e e07b b83d
000002b0: 288c a33e a333 b0bc 6be2 00bf de92 38bf
000002c0: aabd 72bd b7db 183f e924 24bf 148a 603e
000002d0: 7472 1ebf 1b22 363f 5426 d13e 9bfd 803f
000002e0: 8db1 c7be 6337 48bd 1adc e13e 2a5b 06bf
000002f0: 6af0 b33e 2949 df3e 75ff 0ebf ad32 0d3e
0.4783342 0.5958576 -0.025757931 0.11646438 -0.41976553 0.28318292 0.083207175 0.38124767
0.007267209 -0.31229314 -0.005676431 -0.1230465 0.6307602 0.36303818 0.13242348 0.30346262
-0.6881274 -0.0026462772 0.632845 -0.44246167 0.25501135 0.6638192 -0.2220723 -0.05364102
-0.119240776 0.5809197 0.36332628 -0.4528061 -0.56067324 -0.10976858 -0.48095384 0.35226384
0.044708356 -0.81969714 0.9581737 -0.34695014 0.07418428 0.24855061 -0.05502484 0.6994026
-0.28951076 0.083810866 -0.44539702 -0.118393496 -0.28432983 0.6905202 0.3857313 0.13636324
0.0015058648 0.59372145 0.33942705 0.015476861 0.59477246 -0.066851765 -0.09646268 0.7250384
-0.011503665 -0.17948984 -0.08635525 -0.24768485 0.364894 -0.25151467 -0.11242565 0.6741588
0.6474685 0.059781864 0.33122158 0.19621201 0.20391381 0.2916047 0.7177863 -0.17358817
-0.2132181 -0.02633883 0.17147833 -0.14592808 -0.24060401 0.32735848 -0.53879637 -0.5730879
0.26791164 -0.12598714 0.37701032 0.3258851 0.9453984 0.98966944 0.16238591 0.09632175
-0.49963596 -0.38411075 0.6704903 0.5758271 -0.08248598 -0.34102544 -0.6020086 0.10887955
-0.18340312 -0.032730788 -0.14773129 -0.07909363 0.2915989 -0.23515452 0.64584535 -0.86005193
-0.15021843 -1.0210127 -0.25404927 0.36156085 -0.48878747 0.6415703 0.25828573 -0.17058742
-0.5401338 -0.07077297 0.78830755 -0.68143284 -0.09033775 0.18803558 -0.18915217 -0.4062512
-0.35498992 -0.5871892 0.05226716 -0.64775985 0.7128266 -0.27186272 -0.3077243 -0.21195684
0.37745655 0.18196757 -0.3954992 0.0018291251 0.659275 0.06942288 0.045360327 0.7795933
0.14504407 0.13745083 -0.393698 0.37298724 0.04423912 -0.59151673 -0.37013933 -0.22003995
-0.04543077 -0.19996186 0.056750756 -0.038648237 -0.07419912 0.23107433 0.87906283 0.11086301
-0.072390296 -0.17328265 0.6543788 0.01896872 -0.26613313 0.18512069 0.14173725 -0.33497605
-0.9306716 -0.32330176 0.049744025 0.18727304 -0.43542293 -0.9809896 -0.93196756 0.2537061
0.13872464 -0.34508148 0.24106807 0.09008002 0.31942868 -0.021508997 -0.50345486 -0.720991
-0.05926291 0.5971026 -0.6411882 0.21927673 -0.6189339 0.7114579 0.40849555 1.0077394
-0.39002648 -0.048880946 0.44113237 -0.52482855 0.3514436 0.43610504 -0.55858546 0.13788863

weight f4 [2, 64]
00000000: 836f 70bd 6aee ffbd ab6a 8bbc 3f70 57be
00000010: 080c b3bb e39a 60ba 84a4 5c3c 43e0 0cbd
00000020: 4d44 64ba 39a9 7d3c 7c11 43bd 1467 d8bd
00000030: d47e bb3d 6256 2b3e 585b 1b3d 6893 253e
00000040: 2dc5 af3d c32e cb3c b62b 26be ab90 38be
00000050: e6d4 5a3d 2b28 813d cf71 7539 a861 3d3d
00000060: b2e9 3d3d 2843 febc 1fea dbbd 5bdc febb
00000070: 4c8c 72bd adf0 c73d 0cf9 0ebc 15d2 cbbd
00000080: 2c12 9cbd be8a a1bd 6fbe fd3d ab60 943d
00000090: bc82 e13c b6b2 c3bd 23d3 9c3d fae7 d8bb
000000a0: f902 90bc d7dd c73b 7d0b 2a3d e3ce 8cbd
000000b0: b91e d13d 83b9 3fbd f2ce 603d 6403 08bd
000000c0: 145e 93bd 0d86 81bd a777 23be 19ad 68bd
000000d0: dbf9 473c 3509 80bc e851 873e 7eb4 a4bd
000000e0: 72c1 613b 196f c1bd 4ce1 7ebe e279 8d3d
000000f0: 00a4 773d 4ecb f73b 1238 3cbd 3402 ea3d
00000100: 828f dbbc 5d81 6fbe a001 daba fc7a 823d
00000110: c8bf 9dbc 0309 0abe fc12 6cbe 35f3 11be
00000120: 498a 70bd acd2 ef3c 538e 9e3d d6d2 0dbe
00000130: 7ae9 85bb b24b 9abd f17d b2bd 31be 0cbd
00000140: 1759 24be d9c0 bb3d 4b76 01bd cd86 713e
00000150: dda6 e4bd 4077 a0bd ae55 d43d e88a b93d
00000160: dd11 89bd d969 b73d f031 4f3e 8ce3 95bc
00000170: 0433 9e3d ead5 e0bc bf0a c4bd 1670 253e
00000180: c705 0c3e 5e35 fcbd 21be a53d b62c cf3c
00000190: ed3c acbc b752 f8bd f9d1 153e dfed 11bc
000001a0: 552d fabd 269d 65be d363 84be 6a28 64be
000001b0: 6331 23bd 482e b0bb f0a1 f43c 84c8 26bd
000001c0: 15eb ef3d f3d7 7cbb 506e 6dbd 952a 9e3d
000001d0: 9d70 cb3d 900a b6bd b18f f5bd a432 d2bd
000001e0: ecd8 8dbc f451 a8bd c4ce 31bd bdd0 153b
000001f0: 3d6a 98bc 3790 a13d c4cb f3bd 20ae 2fbd
-0.058700096 -0.12496646 -0.017018637 -0.21038912 -0.0054640807 -0.0008568002 0.013466958 -0.03439356
-0.00087076874 0.01548224 -0.047624096 -0.105665356 0.0915505 0.16732171 0.03792891 0.16169512
0.0858253 0.024802571 -0.16227612 -0.18023936 0.053425692 0.063064896 0.00023407418 0.04623571
0.046365447 -0.031037882 -0.107380144 -0.0077777333 -0.05921583 0.09762702 -0.00872637 -0.09952179
-0.076206535 -0.07887791 0.12389838 0.072450005 0.02752816 -0.09555571 0.07657459 -0.0066194506
-0.017579542 0.0060994434 0.041514862 -0.06875398 0.10210938 -0.046807777 0.05488486 -0.03320636
-0.07195678 -0.06324396 -0.15963612 -0.056805704 0.012205566 -0.01562939 0.26429677 -0.08042239
0.0034447578 -0.09445018 -0.24890631 0.06908013 0.060459137 0.0075620776 -0.04595191 0.114262015
-0.026801828 -0.23389192 -0.0016632564 0.06371114 -0.019256487 -0.1348 -0.23054117 -0.14252932
-0.05872563 0.02927526 0.0774199 -0.13849959 -0.0040866705 -0.07533969 -0.08715428 -0.03436107
-0.1604961 0.09167642 -0.031606954 0.23586579 -0.11164639 -0.07835245 0.103679046 0.090596974
-0.0669286 0.08955736 0.20233893 -0.01829698 0.07724574 -0.027445752 -0.09572362 0.16156039
0.13674079 -0.123148665 0.08092905 0.025289875 -0.021025145 -0.121251516 0.1463088 -0.008906811
-0.12215678 -0.22423229 -0.2585741 -0.22281042 -0.03984202 -0.005376611 0.029862374 -0.04071857
0.1171476 -0.0038580864 -0.05796653 0.07722966 0.09933589 -0.088887334 -0.119902976 -0.10263565
-0.01731535 -0.08218756 -0.043410078 0.0022860013 -0.018605346 0.07888835 -0.119040996 -0.042890668

bias f4 [2]
00000000: 3cf7 6fba 7a3e 5ebc
-0.0009153967 -0.0135647

W f4 [64, 64]
00000000: d83b 5a3e fc3e 05be b0e1 4c3d 9b29 1a3e
00000010: deaf 40bc e2a7 783c c8cc fb3d 6254 643e
00000020: b992 d03c 3e7b 443e c0fa 70be 5903 0a3d
00000030: 3cad 813e 8bfc ddbd 1430 13be a2b2 093e
00000040: 7fa2 0bbe 10ec eebd 99b6 99be 9f89 c23d
00000050: 228c 8f3d 8e3e 05be e9fc 923d 9197 82bd
00000060: c58a de3c caea 30be 7dbf 263d 231c fa3d
00000070: 3e85 5b3e f330 ad3d fa72 6e3e 1def 4bbe
00000080: e749 e4bd c002 9f3e 1c3a a93d b791 30be
00000090: 5a3b 4ebe b359 1e3e 6e0a d43d 1fff e1bd
000000a0: 9ea3 02be 2303 c5bd 4c98 19be 5bcc d33d
000000b0: eb21 913e 22ff b73d 9520 b53d 3c2c 20bb
000000c0: e4ca e83d 5ff2 ebbd 4b81 c43a d463 47bd
000000d0: 5d21 b4bd 7a35 10be e6b8 3a3e 8d62 1dbe
000000e0: 37b4 153e 9eae 8dbd 2db7 f0bd b241 9e3e
000000f0: 1772 45bd 707b 103d 6ae1 9bbd 14d5 3bbd
00000100: 8124 443e a6d5 40be 65b7 123e 8f71 ff3d
00000110: a8ea b0bc 6d76 95bd 51b6 113e b234 a5be
00000120: bb49 a1bd 48e9 583d 5afd a63d 99c0 bbbd
00000130: dc63 f63d a244 213d b76b fa3d 81a9 9fbe
00000140: bf53 e9bc aa05 05be 0fb0 61be 712c 09bd
00000150: 8565 4c3c 5a98 77be df11 a3be 8443 663e
00000160: 5293 04be 7351 803c c8dc 11bc 6abf 26bd
00000170: abdb 5d3e 439a 08be d355 563d d469 f03d
00000180: b302 743d be9b 3f3e 012d cfbd 5b79 733d
00000190: b8b4 4a3e 37c1 923d 349b 37be dcfa 403e
000001a0: f6d4 163e 2232 6fbd aa47 9e3d 7beb 83be
000001b0: fcb1 42be 40cb 04be b2d8 333e 09dc 3f3b
000001c0: 04c1 b8bd 2876 f0bc 5713 91bd a9b6 4bbd
000001d0: 9a83 863d 8cb3 49bd 8170 82bd 3c41 503e
000001e0: 6a04 4abd 8684 0c3d 85c7 133d db1a 66bd
000001f0: 2d74 c13d 6411 98be 6f25 553d 889d 4cbe
00000200: 967e 4dbe 97fc dd3a 54fb 22be 78d1 d4bc
00000210: 9574 8f3c 2b15 e53d af5c 04be 7024 b4bd
00000220: 40f6 f2bc ccc9 353e 0a3d a33d 1c11 5c3e
00000230: 0ec3 be3c 6b4c 47bd 3cfe fa3d b5cd bbbc
00000240: 8274 583a 08cb a03d 0f9f 213e 35ca b3bd
00000250: 59cd 61bd 2b3a 133d 9c7d 343c 88a1 7b3d
00000260: 6eaa 023e 8a4b 873c f0ef b5bd 7aae 303e
00000270: 3cdc a5bd 6f98 d0bd bd11 d0bd 4fc6 e8bd
00000280: db55 87bd 903d 663d aea4 723e 8fde 9ebd
00000290: 5616 61be 6ab4 3e3d 6a1c 33bc 1952 5cbd
000002a0: 10d7 2f3d a1c1 65be 5678 cebd a482 7bbd
000002b0: 8da4 96bd c0e0 ad3d 74f8 f93d cf27 6bbe
000002c0: 098c 0c3d f6ce 2e3c 798e 8739 d3be 333d
000002d0: bb6b 83be ce75 073d 705a a03e 4c28 22bd
000002e0: be3c 3f3d fd8e 083e 28f7 893e c7bf 0f3e
000002f0: 08a9 fa3d d1e8 3bbe 1daf e53d a126 d8bd
00000300: 2fa2 8ebe 00e6 0ebd 2de8 b13d 5abb 163e
00000310: a0cc 99be ecc9 1d3e 611c 8b3d 6d9a 8c3d
00000320: 30bf 09be a08f 0ebd e011 d83d cf2e 2a3e
00000330: 1cc5 0e3e 1f78 96bd 1e26 ae3d df51 80bd
00000340: cfb6 023e f91b a1bd 8ba7 12bc 7b60 a13a
00000350: f0d9 a23e c01b 0ebe 6900 483d 503b 4ebe
00000360: 1e61 413e bac7 c83c 470a be3d 54fe 24be
00000370: b57a 9abc 2aea c0bd b0e8 cd3a 0179 fb3d
00000380: 769c 653e ea8f 363e 43c3 c53c ae19 f73d
00000390: 8d35 92be b3fe cebd 22bc babc 3358 bdbd
000003a0: e0fe 7a3e d08a c53d 9844 4cbd 316c 063d
000003b0: a60e e53d 9f54 d7bc 687c 273e 82f0 3a3e
000003c0: 15fb 77bd 8d07 19be 4165 1b3d 80ca 233e
000003d0: 6b14 03be d443 87bd f587 9f3d 27b3 bcbb
000003e0: 5d61 3b3e fddf 1dbe 0a37 323d b780 ba3c
000003f0: 135a 7a3e 5733 afbc 661e a4be 9cba 9bbd
0.21311891 -0.13012308 0.05001992 0.15054934 -0.01176068 0.015176745 0.12294918 0.22297814
0.025460588 0.19187638 -0.23533154 0.0336946 0.2532748 -0.108391844 -0.14373809 0.1344705
-0.13636206 -0.11666119 -0.30022123 0.094989054 0.0700915 -0.13012144 0.07177145 -0.06376565
0.02716578 -0.17277065 0.04070996 0.12212398 0.21437547 0.08456602 0.23286048 -0.19915433
-0.11146908 0.31056786 0.082630366 -0.17243086 -0.20139828 0.15463905 0.10353552 -0.110349886
-0.12757728 -0.09619739 -0.14999503 0.10341712 0.2834619 0.089842096 0.08844105 -0.0024440428
0.11366823 -0.11520838 0.0014992146 -0.048679188 -0.08795426 -0.140829 0.18234596 -0.15369625
0.14619528 -0.06918071 -0.11753688 0.30909497 -0.048204508 0.03527397 -0.07611354 -0.045857504
0.1915455 -0.188315 0.14327772 0.124728315 -0.021596268 -0.072979786 0.14229704 -0.32266766
-0.07875391 0.05295685 0.08153792 -0.091675945 0.120307654 0.039372094 0.12227576 -0.3118401
-0.028482316 -0.12990442 -0.22039817 -0.03348965 0.012475376 -0.24179211 -0.31849572 0.22486693
-0.12946823 0.015663838 -0.008902736 -0.04070989 0.21665828 -0.13340096 0.052327942 0.11738935
0.059572887 0.18711755 -0.10116006 0.059441905 0.19795501 0.07165759 -0.17930299 0.18845695
0.14729676 -0.05839742 0.077285126 -0.25765595 -0.19013208 -0.12968159 0.17563131 0.0029275438
-0.0902119 -0.029353216 -0.07083767 -0.049734745 0.0656807 -0.049243495 -0.06369115 0.20337385
-0.049320616 0.03430607 0.03607895 -0.056177955 0.09445987 -0.29700768 0.052037653 -0.19981968
-0.2006782 0.001693624 -0.15916187 -0.025978789 0.017511645 0.11185678 -0.12925981 -0.087960124
-0.029658437 0.1775276 0.07970627 0.21490902 0.023286369 -0.048656862 0.122555226 -0.022925237
0.0008257107 0.07851225 0.15783332 -0.08778802 -0.055127475 0.035944145 0.011016276 0.061433345
0.12760326 0.016515512 -0.08883655 0.17254058 -0.08098647 -0.101853244 -0.10159633 -0.11365949
-0.066081725 0.056211054 0.23695633 -0.077572934 -0.21981177 0.046558775 -0.010932067 -0.053789232
0.04292971 -0.22437145 -0.10081546 -0.061403885 -0.07355604 0.08490133 0.12205592 -0.22964405
0.034313235 0.0106694605 0.00025855357 0.043883156 -0.2566813 0.03307133 0.31318998 -0.03958921
0.046688788 0.13335796 0.26946378 0.14038001 0.122392714 -0.18350531 0.11215041 -0.10554243
-0.2785811 -0.034887314 0.08686862 0.14719906 -0.3003893 0.15409058 0.06792522 0.06865392
-0.13451838 -0.03480494 0.105502844 0.16619419 0.13942379 -0.0734713 0.08503364 -0.06265616
0.12765048 -0.078666635 -0.008951078 0.0012312079 0.31806898 -0.13877773 0.048828516 -0.20139813
0.18884704 0.0245093 0.09279304 -0.16112643 -0.01885734 -0.09419663 0.0015709605 0.12278939
0.22422966 0.17828336 0.02414096 0.12065445 -0.2855648 -0.10107174 -0.022794787 -0.09245338
0.2451129 0.09645617 -0.049870104 0.032818023 0.111844346 -0.026285468 0.16356051 0.18255809
-0.060542185 -0.14944287 0.03793836 0.15995216 -0.12800758 -0.06604734 0.077896036 -0.0057586613
0.1829886 -0.15417476 0.04350952 0.022766454 0.24448423 -0.021386785 -0.32054442 -0.07603952
