LeakyRNN_11.28/1128/ta_2_10_128_d10_r11/model_93.pth (torch, 137244 bytes, 5 tensors)

weight f4 [128, 128]
-3.1080034 -0.6219843 -0.23528765 0.567077 0.33019048 0.19248213 0.038594265 0.4352041
-0.008620534 0.18696415 -0.0530047 0.7040093 0.05913793 -0.31533605 -0.047602504 0.19525495
0.31873646 0.43870795 0.18257777 -0.007590926 -0.3038642 -0.35414565 -0.36399105 -0.6681237
-0.6677422 -0.19728324 -0.23385319 0.3986133 -0.08148664 -0.14497072 -0.041640725 -0.2544144
-0.34141594 -0.10681056 0.3404441 0.60457647 0.48860943 -0.06366109 -0.33546668 0.30788532
-0.15304302 -0.16427603 0.20412678 1.1213198 1.3680375 -0.043295454 0.7559214 0.13496627
-0.04826972 -0.660602 -1.1554602 -0.15514545 0.2257012 0.30388403 2.2533054 -0.029689161
-0.63318413 0.029455006 -0.3834891 0.13137121 0.56847095 1.1115952 -0.16405496 -0.4239358
0.8351524 -0.12101023 -0.104776934 0.069648825 0.3009568 0.3904177 -0.055346336 -0.3656825
0.23251316 0.21319208 -0.10262058 -0.7348547 0.12951046 0.30642867 -0.4670307 0.17043176
0.28302974 -0.21461438 0.4585364 0.448557 1.3335875 1.3536662 0.15136158 -0.7035848
-0.29711294 0.15090261 0.38941032 0.25301003 0.09628686 -0.17153744 0.16135761 0.23785923
-0.027705666 -1.1644918 0.1654478 -0.19572818 -0.23252586 0.33348912 0.17946324 0.2382869
-0.18253645 0.31875345 0.5489581 0.003678289 -0.8827295 0.14579198 -0.21662757 -0.57625824
0.45395976 -0.12594692 -0.60887676 -0.5133453 -0.7280016 -0.0367305 -0.6416892 -0.2544863
0.2162114 0.2401484 -0.2599274 -0.36803287 -0.011949928 0.060578033 -0.13572001 1.1899223
-0.26755583 -2.5645099 -0.07540824 0.5984159 -0.024367858 0.44268328 0.11441245 0.31212065
-0.09130116 -0.2657915 -0.14262111 -0.16066307 0.4827412 0.03500128 0.09130229 0.029952938
0.22794083 -0.12951271 -0.0029053888 -0.025443513 -0.004028157 -0.080923386 0.34168175 -1.3693023
0.21695162 -0.18935461 -0.18336739 0.10496021 0.50593954 0.22969371 0.1294009 -0.23780473
-0.4116695 -0.07626734 0.03321084 1.2114022 -0.017084468 0.31784147 0.18700148 0.18698192
-0.5266393 0.11257884 0.035579115 0.29426026 0.6153783 -0.34312856 -0.2830149 0.34678409
0.054130096 0.25069213 -0.6166582 -0.5307451 -0.73116267 -0.16342434 -0.78365314 -0.16109538
-0.080099404 -0.15222487 0.26537395 0.3545222 -0.8658377 0.1798441 -0.14088216 -0.10107754
0.44950747 -0.582348 -0.18688004 0.23646678 0.10198002 -0.13636585 -0.12132782 -0.36074844
0.07501245 0.06943164 0.3784365 0.034350112 0.06533586 -0.072315015 -0.17588858 -0.75416857
0.017311534 -0.23233569 0.22188789 -0.61751604 1.1828277 -0.4462383 -0.06629979 0.27869764
-0.56403947 0.3571257 0.0970153 -0.48615068 -0.38402435 0.2625051 0.16832376 0.79363877
-0.053786248 -0.21133433 -0.16280323 0.112302974 -0.032307528 -0.16747038 0.13901487 -0.1769204
0.5082193 -0.1278874 1.6383591 0.03063504 -0.4293768 0.07109051 -0.4627886 0.009400005
0.5950077 0.061502 -0.16902904 -0.46201003 0.21735851 -0.3116253 -0.016750354 0.47314742
0.19871658 -0.23456985 -0.040885836 -0.05245884 0.14539921 0.11784326 -0.26861763 0.5583464
00000000: 87e9 46c0 5d3a 1fbf 3fef 70be f52b 113f
00000010: ba0e a93e 091a 453e 0515 1e3d 12d3 de3e
00000020: 243d 0dbc 8873 3f3e 751b 59bd f439 343f
00000030: 9d3a 723d ba73 a1be d8fa 42bd eaf0 473e
00000040: 6d31 a33e 549e e03e abf5 3a3e 4dbd f8bb
00000050: 1794 9bbe 9452 b5be 095d babe 280a 2bbf
00000060: 27f1 2abf 9e04 4abe 3677 6fbe 0b17 cc3e
00000070: 78e2 a6bd 3473 14be 778f 2abd 9b42 82be
00000080: 12ce aebe 7fbf dabd b04e ae3e 86c5 1a3f
00000090: 042b fa3e bf60 82bd 4ac2 abbe 25a3 9d3e
000000a0: 4fb7 1cbe fa37 28be 9c06 513e 6887 8f3f
000000b0: da1b af3f 9356 31bd 1184 413f 9934 0a3e
000000c0: 78b6 45bd 361d 29bf 1fe6 93bf 73de 1ebe
000000d0: 371e 673e b096 9b3e 2836 1040 af36 f3bc
000000e0: 5b18 22bf a04b f13c af58 c4be 2d86 063e
000000f0: 5087 113f c048 8e3f 06fe 27be 1d0e d9be
00000100: 8ccc 553f 36d4 f7bd 4a95 d6bd 0ba4 8e3d
00000110: 0217 9a3e d4e4 c73e d7b2 62bd bd3a bbbe
00000120: ee17 6e3e 064f 5a3e bd2a d2bd 701f 3cbf
00000130: 649e 043e 38e4 9c3e a61e efbe aa85 2e3e
00000140: 46e9 903e dfc3 5bbe 48c5 ea3e 43a9 e53e
00000150: ffb2 aa3f ef44 ad3f 88fe 1a3e 221e 34bf
00000160: 301f 98be 3786 1a3e ca60 c73e 888a 813e
00000170: 0c32 c53d 83a7 2fbe ee3a 253e 5f91 733e
00000180: fef6 e2bc 110e 95bf 266b 293e f86c 48be
00000190: 421b 6ebe 16bf aa3e 36c5 373e 7b01 743e
000001a0: d6ea 3abe a733 a33e 8588 0c3f 730f 713b
000001b0: 8ffa 61bf 7e4a 153e 9ed3 5dbe a985 13bf
000001c0: 6a6d e83e 3bf8 00be 59df 1bbf 996a 03bf
000001d0: 505e 3abf b972 16bd be45 24bf 074c 82be
000001e0: 8566 5d3e 76e9 753e 3415 85be ce6e bcbe
000001f0: a1c9 43bc ac20 783d 30fa 0abe 604f 983f
00000200: 14fd 88be ee20 24c0 a36f 9abd c931 193f
00000210: 1a9f c7bc 62a7 e23e 1351 ea3d 47ce 9f3e
00000220: 1afc babd d315 88be 450b 12be dc84 24be
00000230: db29 f73e 815d 0f3d b2fc ba3d dd5f f53c
00000240: 5269 693e fb9e 04be 5668 3ebb ea6e d0bc
00000250: a1fe 83bb 29bb a5bd e9f0 ae3e 4c45 afbf
00000260: 9128 5e3e 2de6 41be a9c4 3bbe 61f5 d63d
00000270: 4185 013f d434 6b3e ab81 043e 1583 73be
00000280: 58c6 d2be 0d32 9cbd 1708 083d 3a0f 9b3f
00000290: baf4 8bbc 1ebc a23e 517d 3f3e 3078 3f3e
000002a0: d5d1 06bf bc8f e63d 68bb 113d 48a9 963e
000002b0: 6f89 1d3f 8cae afbe 54e7 90be af8d b13e
000002c0: 85b7 5d3d b85a 803e 50dd 1dbf e9de 07bf
000002d0: 7a2d 3bbf b658 27be 7e9d 48bf 30f6 24be
000002e0: 280b a4bd d6e0 1bbe 18df 873e ef83 b53e
000002f0: 8aa7 5dbf 0d29 383e 6a43 10be be01 cfbd
00000300: d825 e63e c214 15bf 7b5d 3fbe 5924 723e
00000310: e7da d03d 7da3 0bbe b87a f8bd 05b4 b8be
00000320: 21a0 993d 2d32 8e3d 6ec2 c13e b4b2 0c3d
00000330: cfce 853d e519 94bd 231c 34be 3111 41bf
00000340: ebd0 8d3c 68e9 6dbe 9436 633e 8815 1ebf
00000350: e666 973f 5979 e4be 2fc8 87bd 75b1 8e3e
00000360: e464 10bf 2ed9 b63e f5af c63d bee8 f8be
00000370: d79e c4be 1267 863e 105d 2c3e e92b 4b3f
00000380: f84e 5cbd 0768 58be e4b5 26be 1aff e53d
00000390: e654 04bd 5b7d 2bbe ea59 0e3e 9f2a 35be
000003a0: a91a 023f eaf4 02be c0b5 d13f 56f6 fa3c
000003b0: 47d7 dbbe e797 913d a1f2 ecbe 7b02 1a3c
000003c0: 6d52 183f 85e9 7b3d f315 2dbe 948c ecbe
000003d0: 3b93 5e3e 5a8d 9fbe 0a38 89bc 6140 f23e
000003e0: 5c7c 4b3e 1433 70be e877 27bd 15df 56bd
000003f0: 88e3 143e cf57 f13d 4088 89be caef 0e3f

weight f4 [128, 3]
0.032775477 0.52282023 0.059610732 -0.87810445 1.112233 4.1138024 -0.33964053 0.016786698
0.020706436 0.39657465 -0.35712802 -1.2479596 -0.351964 0.8099481 0.16325846 0.023275621
0.49642572 0.27971008 0.7474244 0.31325608 -0.027031714 -0.3970391 0.20396549 0.009495986
-1.17499 0.42856315 0.04242907 -0.03417008 0.52366763 0.14325483 -0.51082826 0.2706856
0.00432651 -0.4064501 0.16836226 0.029285595 0.009974951 0.22945677 0.032407016 -0.35974294
0.60973656 0.6377517 0.26856014 -0.23653166 0.0596638 -0.013131958 0.36752737 -0.009062873
-0.52843755 0.41635707 0.03258347 -0.041237812 0.3536628 -0.16209906 0.7192869 0.0066856123
-2.2042942 0.010098814 0.19000147 -0.16131103 -0.14460556 -0.2452063 -0.009152224 -0.22682619
0.031095525 0.022613492 -0.6963414 -1.0663415 -0.041892458 -0.1615139 -0.8955093 -5.5089498
-0.06312418 -1.3877268 -0.039781053 -0.26735598 0.41641623 0.39221734 1.0254071 -0.45565113
-0.03944284 -0.18541738 0.55778635 0.03389063 -0.24347238 -0.3055035 0.8624501 -0.22915371
-0.27294204 -0.020208437 0.5026385 -0.06717271 -0.043631822 0.32142097 0.020057952 -0.025879977
-0.59696287 0.5942762 -0.6145012 -0.118232615 0.041824386 0.019868694 0.049271032 0.60534704
0.21516806 -0.46451002 -0.20721948 2.2972033 0.015254106 0.34589455 0.040546283 -0.21003486
0.24907947 -0.15452823 -0.17649306 -0.31863412 0.109161474 0.026946655 0.4946139 0.023088451
0.53567344 0.24279271 1.463937 0.15364215 0.10123661 -0.06534312 -0.37445366 0.21026945
0.014374268 -0.46013144 -0.44417986 0.7905905 0.59465766 0.11268056 2.8656244 -0.056568585
0.36177433 0.0022098885 0.06543496 -0.86354804 0.6062345 0.56022716 -0.27812514 0.041640487
0.23516521 -0.21465857 -0.16399413 -0.6064085 0.49375978 0.80019027 -0.39813992 -0.40809897
3.4593039 0.8558283 0.19689971 -0.0066507477 -0.010352638 1.2013499 -2.9717968 0.004271885
0.59974045 0.03274597 0.61878246 -0.08480667 -2.8989053 0.5878308 0.24567878 0.0069695604
0.15754946 0.32781282 3.130625 0.28738934 -0.047124546 -0.024774361 0.025236454 -0.4541978
-0.028914258 0.02337462 0.42305785 2.6583369 0.55340207 -1.284028 -2.4140613 1.0543461
-0.7801335 0.39872968 0.37017238 0.277324 0.48642963 -0.48329723 -0.14830263 -0.01639378
-0.08963347 0.053290904 0.009606086 0.996784 -0.49170312 -0.035102062 -0.6945771 1.1293931
-0.21199417 0.027236337 0.007876182 -0.010115057 0.33202082 -1.2713137 -4.389545 -0.41743064
0.24189787 0.0143255 0.9617783 -0.2742422 -0.004508195 0.19439562 -0.5966402 -0.0017027236
0.19386797 0.19814079 0.014909061 -0.15911761 0.7087812 0.043830354 -0.61711586 -0.23462301
-0.010213774 -0.53114796 -0.13232349 -0.79934347 -0.5392327 0.08130157 0.009095799 0.054838743
0.3293969 0.030005971 0.24493706 -0.23342873 0.033058554 0.09984487 -0.6849349 -4.092841
0.7197216 0.734602 0.032074083 -0.5663883 0.5018104 0.035130873 -0.0045436206 0.5730016
0.018040497 0.06313306 0.5462184 0.10093678 -0.30196977 0.35562402 3.907881 -0.055999022
00000000: 943f 063d 8cd7 053f 622a 743d 74cb 60bf
00000010: a75d 8e3f 45a4 8340 5de5 adbe 4284 893c
00000020: 8ba0 a93c d50b cb3e 7cd9 b6be 24bd 9fbf
00000030: a034 b4be c258 4f3f 3a2d 273e 84ac be3c
00000040: 832b fe3e 2936 8f3e 3557 3f3f 1a63 a03e
00000050: 9d71 ddbc b548 cbbe 54dc 503e 0d95 1b3c
00000060: 1366 96bf a16c db3e 1bca 2d3d edf5 0bbd
00000070: 150f 063f 65b1 123e a4c5 02bf 4e97 8a3e
00000080: 65c5 8d3b 3a1a d0be 2867 2c3e 58e8 ef3c
00000090: fa6d 233c b7f6 6a3e 38bd 043d 3a30 b8be
000000a0: b217 1c3f b243 233f b780 893e 5b35 72be
000000b0: 0762 743d 6d27 57bc 8c2c bc3e 727c 14bc
000000c0: af47 07bf c12c d53e 3f76 053d fbe8 28bd
000000d0: 4a13 b53e 4cfd 25be 3023 383f fb12 db3b
000000e0: 2813 0dc0 7f75 253c bf8f 423e b82e 25be
000000f0: 7b13 14be 5c17 7bbe 36f3 15bc 2045 68be
00000100: 0bbc fe3c ee3f b93c 6e43 32bf e17d 88bf
00000110: 6d97 2bbd e663 25be 1940 65bf 5149 b0c0
00000120: 4047 81bd 08a1 b1bf 75f1 22bd e2e2 88be
00000130: 8234 d53e b6d0 c83e 8a40 833f 1b4b e9be
00000140: d18e 21bd 0ede 3dbe 16cb 0e3f e7d0 0a3d
00000150: d350 79be f46a 9cbe 88c9 5c3f 45a7 6abe
00000160: 0fbf 8bbe 2a8c a5bc ebac 003f d991 89bd
00000170: 48b7 32bd 4a91 a43e 9350 a43c 3f02 d4bc
00000180: 8fd2 18bf 7c22 183f f34f 1dbf f123 f2bd
00000190: 0c50 2b3d acc3 a23c 6cd0 493d 06f8 1a3f
000001a0: 0455 5c3e 42d4 edbe 5831 54be 6105 1340
000001b0: 5cec 793c 1719 b13e dc13 263d 6113 57be
000001c0: b00e 7f3e a63c 1ebe 99ba 34be 0324 a3be
000001d0: 0d90 df3d 3bbf dc3c 083e fd3e fe23 bd3c
000001e0: e521 093f a79e 783e 4a62 bb3f 5e54 1d3e
000001f0: 2455 cf3d 9dd2 85bd 64b8 bfbe e050 573e
00000200: 0d82 6b3c 5996 ebbe 8b6b e3be 2464 4a3f
00000210: 7c3b 183f 11c5 e63d 6466 3740 76b4 67bd
00000220: 7c3a b93e c7d3 103b c402 863d 7c11 5dbf
00000230: 2f32 1b3f 0c6b 0f3f 6b66 8ebe 378f 2a3d
00000240: 26cf 703e 75cf 5bbe 14ee 27be 963d 1bbf
00000250: 15ce fc3e 45d9 4c3f ffd8 cbbe 59f2 d0be
00000260: 3c65 5d40 9017 5b3f 14a0 493e 84ee d9bb
00000270: 1c9e 29bc d5c5 993f eb31 3ec0 2bfb 8b3b
00000280: 9788 193f a320 063d 8768 1e3f 1faf adbd
00000290: aa87 39c0 147c 163f 3893 7b3e e960 e43b
000002a0: a554 213e 15d7 a73e 295c 4840 b224 933e
000002b0: ab05 41bd 9af3 cabc aebc ce3c 9d8c e8be
000002c0: 98dd ecbc 227c bf3c 0a9b d83e 3122 2a40
000002d0: c2ab 0d3f 085b a4bf fb7f 1ac0 d0f4 863f
000002e0: d4b6 47bf 4c26 cc3e 3c87 bd3e 69fd 8d3e
000002f0: 4e0d f93e bc72 f7be a5dc 17be 404c 86bc
00000300: c191 b7bd 9047 5a3d d862 1d3c 3c2d 7f3f
00000310: 83c0 fbbe 2ec7 0fbd cecf 31bf f48f 903f
00000320: 0015 59be bd1e df3c 1a0b 013c a0b9 25bc
00000330: a2fe a93e 68ba a2bf 2777 8cc0 78b9 d5be
00000340: 13b4 773e 80b5 6a3c 1a37 763f 7969 8cbe
00000350: 7bb9 93bb a50f 473e 6abd 18bf ec2d dfba
00000360: 5385 463e 6be5 4a3e 2245 743c baef 22be
00000370: af72 353f 7587 333d 4efb 1dbf 0441 70be
00000380: ac57 27bc 50f9 07bf cf7f 07be c6a1 4cbf
00000390: 270b 0abf 7081 a63d 8c06 153c 979e 603d
000003a0: b6a6 a83e 15cf f53c c8d0 7a3e f107 6fbe
000003b0: 6868 073d 787b cc3d e557 2fbf 8ef8 82c0
000003c0: ad3f 383f e00e 3c3f 1d60 033d d3fe 10bf
000003d0: a576 003f 64e5 0f3d a7e2 94bb 3cb0 123f
000003e0: aac9 933c e84b 813d f8d4 0b3f f1b7 ce3d
000003f0: c89b 9abe 5a14 b63e b91a 7a40 3b5f 65bd

weight f4 [2, 128]
0.02620142 0.08855839 0.039014332 -0.12012403 -0.0014425076 0.009634601 0.017512107 -0.05415906
0.032512505 -0.021461872 0.00925952 0.14443356 0.018837197 -0.26675504 -0.01853413 0.00037385104
-0.01207246 -0.192156 -0.101959355 -0.088903755 -0.027322514 -0.12631325 -0.047295652 0.06811906
-0.009267692 -0.014670881 -0.034292534 -0.020843841 -0.11830386 -0.019072171 -0.028786443 0.04268849
-0.13586645 0.009881965 0.0067039025 -0.24329878 0.07690734 -0.045476113 0.019251397 -0.17115024
0.14010724 -0.0656129 0.033239666 0.013015737 -0.1946304 0.05472376 -0.024115484 0.015424589
0.002776342 0.1220778 0.06784588 0.0006097133 -0.005690514 0.0017645002 -0.030558186 0.053941473
0.03203308 0.05288791 0.05031131 0.27467293 -0.2545677 -0.13927 0.005162714 0.019579664
-0.031880695 0.003285399 -0.041266087 -0.06710485 0.042521346 0.042961016 0.009918539 0.000114188704
-0.11248237 0.038687415 -0.015740803 0.065347955 -0.042139497 0.117604844 0.010741614 0.11963116
0.03884235 0.026688403 0.11772487 -0.0003633185 -0.07453286 0.25356597 0.01082008 -0.024410633
-0.09134611 -0.030116526 0.06119929 0.18204328 0.070428535 0.01741792 -0.046532832 -0.14089829
0.051417362 -0.13421758 0.032446153 -0.013475514 -0.13176551 0.06442998 0.013376437 -0.0002746883
-0.065343104 -0.04172639 -0.060225148 -0.03586974 -0.35601032 -0.06660287 -0.11429044 0.013199442
-0.011092876 0.040480964 -0.0340959 0.10483505 -0.021030024 -0.16169444 -0.004370866 -0.0053124535
-0.022292703 -0.010761222 0.09234369 0.002456024 0.019322498 -0.026074467 0.05514439 0.13911398
-0.19666806 -0.20688798 0.1314746 -0.14925846 -0.027946176 -0.18976067 0.15840039 -0.080411494
0.08028315 -0.0014573237 0.024309266 0.016642291 0.048304576 0.06031795 -0.022952635 0.16831152
-0.10989209 0.06265853 -0.023989927 -0.049155187 -0.00053075876 0.057040397 -0.03361356 0.13441916
0.001953868 0.0054898676 -0.04149315 0.0060610264 -0.16439739 -0.04875809 0.03488697 -0.014830269
0.04076949 0.10004142 0.051442955 0.020003514 0.022666296 -0.0012882017 -0.057064544 0.05514119
0.3375608 -0.01593455 -0.008000325 0.028701385 0.2507561 0.004829551 -0.04247937 -0.025539424
-0.050052147 0.68384403 0.02628681 0.004633869 -0.029808633 -0.106276415 0.08703389 -0.01746384
0.0091185495 0.06305366 -0.12557384 -0.06881608 -0.25384736 0.11145962 -0.027067544 0.04946003
0.008051472 0.011357274 -0.040425252 -0.035803657 0.119258225 0.051655706 -0.03560353 -0.08286482
0.041874602 -0.015756598 -0.0164581 0.17760721 0.0015467384 0.05551886 -0.0830688 -0.14424735
-0.0039614113 -0.0032536665 0.09490253 -0.042768963 0.24128519 -0.01664661 -0.11398493 -0.053500384
0.10376303 -0.0054510897 0.03729043 0.008690622 -0.024093669 0.018586464 -0.038475107 -0.17282394
0.017082036 -0.04218704 -0.0051898635 -0.0012861248 -0.028035678 0.069164805 -0.027549028 -0.039791152
0.095770426 7.808752e-06 -0.036619272 0.045712214 -0.11096739 0.031178871 0.16326831 0.020936042
0.03177994 -0.0019301665 -0.0378416 -0.1797975 -0.15700155 -0.059931856 -0.070512384 -0.07252809
0.009922712 -0.23655422 -0.04077481 -0.04402305 0.01356062 0.012330648 0.030696455 0.107424036
00000000: 5ca4 d63c 1a5e b53d 7ecd 1f3d 9603 f6bd
00000010: 8612 bdba 72da 1d3c 8d75 8f3c e4d5 5dbd
00000020: d52b 053d cfd0 afbc 3eb5 173c 64e6 133e
00000030: 7750 9a3c 1e94 88be e3d4 97bc 7001 c439
00000040: 91cb 45bc 8bc4 44be 11d0 d0bd 2c13 b6bd
00000050: 77d3 dfbc 4358 01be 16b9 41bd 0182 8b3d
00000060: 85d7 17bc 235e 70bc 5476 0cbd b4c0 aabc
00000070: 4b49 f2bd 3e3d 9cbc 8cd1 ebbc 20da 2e3d
00000080: 9320 0bbe f7e7 213c 69ac db3b 5123 79be
00000090: 9881 9d3d 2945 3abd 1bb5 9d3c 0242 2fbe
000000a0: 4678 0f3e 0e60 86bd 5126 083d f53f 553c
000000b0: 314d 47be 0526 603d d68d c5bc 6ab7 7c3c
000000c0: 4af3 353b ed03 fa3d c8f2 8a3d 2bd5 1f3a
000000d0: 7e77 babb cd46 e73a 2955 fabc bcf1 5c3d
000000e0: 1e35 033d fea0 583d 3b13 4e3d eea1 8c3e
000000f0: b356 82be cb9c 0ebe fc2b a93b 8865 a03c
00000100: 5595 02bd d94f 573b a106 29bd 456e 89bd
00000110: dd2a 2e3d e4f7 2f3d 5e81 223c 9878 ef38
00000120: 285d e6bd b276 1e3d dbf2 80bc 26d5 853d
00000130: 779a 2cbd cfda f03d 98fd 2f3c 2e01 f53d
00000140: 2819 1f3d a3a1 da3c bd19 f13d c97b beb9
00000150: afa4 98bd 66d3 813e b446 313c cff8 c7bc
00000160: ab13 bbbd efb6 f6bc 1bac 7a3d 8e69 3a3e
00000170: d63c 903d 07b0 8e3c 3699 3ebd a447 10be
00000180: 039b 523d 5570 09be 42e6 043d 67c8 5cbc
00000190: 8aed 06be def3 833d d828 5b3c 0a04 90b9
000001a0: 9bd2 85bd 4be9 2abd a5ae 76bd 26ec 12bd
000001b0: fc46 b6be 1667 88bd 1b11 eabd 7942 583c
000001c0: e5be 35bc 5ecf 253d 24a8 0bbd c2b3 d63d
000001d0: 2847 acbc 3a93 25be 7b39 8fbb 1714 aebb
000001e0: 309f b6bc d64f 30bc b01e bd3d 3ff5 203b
000001f0: 374a 9e3c 1f9a d5bc 15df 613d e573 0e3e
00000200: 5a63 49be 71da 53be 47a1 063e 36d7 18be
00000210: 61ef e4bc 9f50 42be b633 223e c8ae a4bd
00000220: 7e6b a43d ab03 bfba 3a24 c73c 6a55 883c
00000230: 05db 453d f40f 773d 2a07 bcbc db59 2c3e
00000240: 1b0f e1bd 1e53 803d 8686 c4bc f356 49bd
00000250: 9e22 0bba 31a3 693d 5fae 09bd 2da5 093e
00000260: 770c 003b 59e4 b33b b9f4 29bd 939b c63b
00000270: ca57 28be 90b6 47bd a4e5 0e3d a8fa 72bc
00000280: e9fd 263d 84e2 cc3d d9b5 523d 69de a33c
00000290: abae b93c e0d8 a8ba 83bc 69bd badb 613d
000002a0: c5d4 ac3e 2c89 82bc cc13 03bc 2b1f eb3c
000002b0: 1b63 803e 3641 9e3b d9fe 2dbd 0e38 d1bc
000002c0: 7b03 4dbd 6710 2f3f 7057 d73c b6d7 973b
000002d0: 3c31 f4bc 73a7 d9bd d33e b23d 5410 8fbc
000002e0: f865 153c 4722 813d 6e96 00be 72ef 8cbd
000002f0: 48f8 81be f144 e43d c1bc ddbc 9a96 4a3d
00000300: 52ea 033c dc13 3a3c f394 25bd dba6 12bd
00000310: a83d f43d ef94 533d 02d5 11bd 08b5 a9bd
00000320: b484 2b3d fb13 81bc 23d3 86bc aade 353e
00000330: eebb ca3a bf67 633d fa1f aabd 94b5 13be
00000340: bace 81bb 773b 55bb 425c c23d 822e 2fbd
00000350: 7713 773e 795e 88bc ee70 e9bd 3823 5bbd
00000360: b681 d43d 0e9f b2bb dabd 183d 1c63 0e3c
00000370: 1660 c5bc a442 983c 1398 1dbd c2f8 30be
00000380: a0ef 8b3c 51cc 2cbd bb0f aabb 3093 a8ba
00000390: 14ab e5bc 47a6 8d3d 80ae e1bc 0cfc 22bd
000003a0: 4923 c43d 5602 0337 17fe 15bd bb3c 3b3d
000003b0: df42 e3bd d56a ff3c cf2f 273e 1082 ab3c
000003c0: af2b 023d a4fd fcba cbff 1abd d61c 38be
000003d0: 04c5 20be 1b7b 75bd cc68 90bd 9b89 94bd
000003e0: df92 223c 453b 72be 7d03 27bd 8451 34bd
000003f0: 5d2d 5e3c 7c06 4a3c 2277 fb3c 2201 dc3d

bias f4 [2]
0.03818899 -0.029807758
00000000: 0f6c 1c3d 662f f4bc

W f4 [128, 128]
0.13527721 0.0869515 -0.21385123 -0.07632694 0.12830439 0.0011481012 -0.04102452 0.030453991
0.033854753 -0.023370024 -0.12335479 0.04637626 -0.049449712 -0.29739448 0.11666952 -0.039373294
-0.083412655 0.06769416 0.04665272 0.08729159 0.0029323692 -0.0023251574 -0.018778915 0.04022899
0.026345806 0.090792954 -0.12488646 -0.032974433 -0.020501351 -0.025825866 -0.039289158 -0.07731781
-0.008766553 0.00014301743 0.082407705 -0.07622227 0.05439143 -0.16279046 -0.08083105 -0.019141505
0.021784581 -0.06012463 0.042533766 0.11966769 -0.035710927 0.0784287 0.054503463 0.0629805
0.09571419 0.014009241 -0.030339869 -0.14364721 0.024282807 -0.0958938 0.11756581 0.024152715
-0.10927987 -0.06620237 0.0014808039 0.0361006 -0.047910813 0.022902774 -0.14657879 -0.10751414
0.044109907 0.067607544 -0.13396089 0.11910007 0.07624806 0.06328623 0.098638095 0.031339753
-0.005825386 -0.07537117 -0.06416415 -0.14132108 0.119664386 -0.14136495 0.0058158734 0.05804061
-0.051309146 -0.04062047 0.008127718 -0.011394293 0.11963936 0.05671345 -0.07689446 0.03299824
0.08741116 -0.05813343 0.10138837 0.01707667 0.21649167 0.052238066 0.006039746 -0.039987806
0.13460107 -0.0060301903 -0.17518885 -0.1134129 -0.06053208 -0.09008177 0.028893327 -0.0643612
-0.03848132 0.052997403 -0.03125636 0.009820983 -0.06399687 -0.23230983 0.16676675 0.014267924
-0.1162399 -0.1626072 0.041242365 0.0019472499 -0.09048484 0.15664779 -0.046331104 -0.02492684
0.045498624 -0.20910017 0.06449331 -0.1249714 0.13850509 -0.08158591 -0.07901696 -0.07098765
-0.061130427 0.1412914 0.09924204 0.11525061 -0.17996144 -0.025367742 0.010507327 -0.0057804184
-0.034366213 0.014233454 -0.12977645 0.015002616 0.060012426 -0.031627677 -0.067459665 -0.08428954
0.072444744 -0.093012646 -0.002076183 -0.13362542 -0.08076285 0.10617839 0.091772445 -0.08492433
0.0732662 -0.11427101 0.008649037 -0.01038486 -0.11444001 -0.06304634 -0.058004748 0.054988656
0.1631551 0.019791512 0.057852928 0.086071886 -0.032768942 0.017346663 0.047150634 -0.13428298
-0.07965051 0.036510002 -0.03525549 -0.029248422 -0.0308576 -0.057893973 -0.006598193 0.10318105
0.11037638 0.0319013 -0.1959432 -0.049478654 -0.07882025 -0.0047630556 -0.09004213 0.049208075
0.047550235 0.17612523 -0.10307488 -0.10700652 -0.049357936 0.02419885 0.11317401 -0.110933155
0.05958806 0.045947637 0.017236175 0.012229457 -0.0061997045 0.10067762 0.04585273 0.11401052
0.15638469 0.13111034 0.106330484 0.040368963 -0.16860576 -0.054869708 -0.1798429 -7.404169e-05
-0.005134112 -0.027884914 -0.01859654 -0.15530674 0.050058015 -0.13390946 -0.011729437 -0.011246616
0.09646986 -0.017796861 0.026168276 0.014245067 -0.16917422 0.012661448 0.14377934 -0.047914833
-0.023846304 0.025671307 -0.07216441 0.011377366 -0.13191509 0.039354272 0.10064096 0.02303785
0.0121816285 -0.092131175 0.09090423 0.05149272 0.06639098 0.05013088 0.09943089 0.044777326
0.016782276 -0.016991366 -0.035177626 -0.29520106 -0.026285194 0.0058268984 0.06252952 0.048233528
0.057300802 -0.091843545 -0.006077487 0.10988216 0.03848027 -0.15897676 -0.024487626 -0.107035466
00000000: 1c86 0a3e a113 b23d d1fb 5abe 4c51 9cbd
00000010: 3a62 033e e27b 963a 5409 28bd a67a f93c
00000020: 48ab 0a3d 7e72 bfbc 70a1 fcbd 09f5 3d3d
00000030: c88b 4abd 1744 98be 6ef0 ee3d e445 21bd
00000040: 41d4 aabd 3ca3 8a3d ec16 3f3d efc5 b23d
00000050: fe2c 403b ab61 18bb 3dd6 99bc 27c7 243d
00000060: 29d3 d73c a8f1 b93d 79c4 ffbd 3310 07bd
00000070: 73f2 a7bc c490 d3bc abed 20bd cd58 9ebd
00000080: 97a1 0fbc f3f6 1539 5fc5 a83d 6c1a 9cbd
00000090: 8cc9 5e3d 8bb2 26be c08a a5bd a5ce 9cbc
000000a0: 9475 b23c 3e45 76bd e337 2e3d 5514 f53d
000000b0: 9f45 12bd 3a9f a03d 063f 5f3d ecfb 803d
000000c0: cd05 c43d 0487 653c 518b f8bc 4118 13be
000000d0: bdec c63c f863 c4bd 58c6 f03d eadb c53c
000000e0: 20ce dfbd 1c95 87bd 8917 c23a 39de 133d
000000f0: 213e 44bd 999e bb3c c018 16be 6030 dcbd
00000100: 97ac 343d d375 8a3d 0b2d 09be bdea f33d
00000110: f127 9c3d 369c 813d c502 ca3d 1d5e 003d
00000120: e1e2 bebb 335c 9abd 7e68 83bd 79b6 10be
00000130: 9a12 f53d f9c1 10be 1593 be3b febb 6d3d
00000140: 8a29 52bd a661 26bd 1f2a 053c 21af 3abc
00000150: 7b05 f53d 5d4c 683d d87a 9dbd 2a29 073d
00000160: 9f04 b33d 521d 6ebd b5a4 cf3d 5fe4 8b3c
00000170: feaf 5d3e 95f7 553d 10e9 c53b 41ca 23bd
00000180: ddd4 093e e798 c5bb b564 33be 0645 e8bd
00000190: 7cf0 77bd cb7c b8bd b3b1 ec3c cecf 83bd
000001a0: 979e 1dbd ce13 593d ab06 00bd 30e8 203c
000001b0: ca10 83bd a1e2 6dbe e7c4 2a3e 03c4 693c
000001c0: 2f0f eebd 8082 26be c1ed 283d dd3a ff3a
000001d0: 1e50 b9bd 4768 203e afc5 3dbd 5f33 ccbc
000001e0: c45c 3a3d 5b1e 56be 1215 843d 01f1 ffbd
000001f0: 47d4 0d3e 8316 a7bd a5d3 a1bd f961 91bd
00000200: e663 7abd b1ae 103e 693f cb3d 8308 ec3d
00000210: d047 38be 03d0 cfbc ec26 2c3c aa69 bdbb
00000220: 96c3 0cbd 6f33 693c 1ee4 04be 88cd 753c
00000230: 97cf 753d 068c 01bd 4b28 8abd ff9f acbd
00000240: e95d 943d 6a7d bebd 9210 08bb 1ad5 08be
00000250: fe66 a5bd 0e74 d93d 31f3 bb3d cfec adbd
00000260: 970c 963d eb06 eabd b1b4 0d3c 4325 2abc
00000270: 865f eabd 711e 81bd 6396 6dbd c93b 613d
00000280: 2112 273e cf21 a23c 31f7 6c3d 7546 b03d
00000290: ba38 06bd 971a 8e3c 0621 413d 7a81 09be
000002a0: ce1f a3bd 838b 153d 1068 10bd 639a efbc
000002b0: 14c9 fcbc 3b22 6dbd a835 d8bb 9650 d33d
000002c0: 030d e23d f0aa 023d 56a5 48be 21aa 4abd
000002d0: 836c a1bd 6813 9cbb 0268 b8bd 688e 493d
000002e0: 09c4 423d 2c5a 343e ec18 d3bd 3c26 dbbd
000002f0: 8c2b 4abd ab3c c63c c6c7 e73d ec30 e3bd
00000300: 9c12 743d 9733 3c3d e132 8d3c 0f5e 483c
00000310: e426 cbbb 1130 ce3d 12d0 3b3d 597e e93d
00000320: 4f23 203e ca41 063e ccc3 d93d ed59 253d
00000330: fda6 2cbe 0fbf 60bd bd28 38be d446 9bb8
00000340: 0e3c a8bb e76e e4bc c557 98bc bb08 1fbe
00000350: a209 4d3d 901f 09be d32c 40bc ba43 38bc
00000360: fd91 c53d b9ca 91bc da5e d63c 2464 693c
00000370: 023c 2dbe f671 4f3c e43a 133e 5842 44bd
00000380: 5359 c3bc a24c d23c efca 93bd 2268 3a3c
00000390: c014 07be f231 213d d91c ce3d e0b9 bc3c
000003a0: 7495 473c 45af bcbd ff2b ba3d 08ea 523d
000003b0: fef7 873d 0a56 4d3d 6ca2 cb3d 6e68 373d
000003c0: fc7a 893c 7a31 8bbc 6a16 10bd 9824 97be
000003d0: 0c54 d7bc 91ef be3b 7a0f 803d 8590 453d
000003e0: 3fb4 6a3d 7818 bcbd a825 c7bb e609 e13d
000003f0: 7d9d 1d3d ceca 22be 469a c8bc 6935 dbbd
