LeakyRNN_11.28/1202/sg_3_128_d10_r7_4/model_68.pth (torch, 137244 bytes, 5 tensors)

weight f4 [128, 128]
000000 83 c4 c4 3e bf 87 83 be c0 90 0d bf 3d f8 67 3e
       0.38431177 -0.25689504 -0.55298996 0.22653289
000010 c0 d0 c8 3d 8b d4 68 bd 7b 47 98 be 4c 4d 16 be
       0.09805441 -0.05684332 -0.29742035 -0.14677924
000020 52 e4 14 be 69 99 ea 3d 1a a9 18 bf 81 36 bd be
       -0.14540222 0.11455042 -0.5963303 -0.36955646
000030 2e 81 1d 3c 83 74 16 bd 18 05 a4 3e 30 64 82 be
       0.009613318 -0.036732208 0.32035136 -0.25467062
000040 b2 01 c4 be c6 cb fd be d6 bb 44 be 63 57 31 be
       -0.38282543 -0.4956953 -0.19212279 -0.17318492
000050 22 17 8d 3d ef b1 e6 3d e4 81 6b 3f 80 9f 5d 3e
       0.06889178 0.11264407 0.9199507 0.21642876
000060 6c 46 22 be 5e 3c 29 bf 75 72 4f bf e9 a2 16 bf
       -0.15847176 -0.6610774 -0.8103402 -0.5884233
000070 8b 55 9d be 0d 0d a6 be 06 b7 98 be 35 df b5 be
       -0.30729327 -0.32431832 -0.29827136 -0.35521856
000080 fe 0a 50 be 69 f6 0d bf b9 a9 a2 3e 96 05 d8 3e
       -0.20316693 -0.5545412 0.31770113 0.42191762
000090 b0 ba 0e bf 72 1d 33 be 33 4f a0 be c9 d5 85 be
       -0.5575361 -0.17491701 -0.31310424 -0.26139668
0000a0 08 b6 72 bf 62 f3 91 bd 61 91 0c 3e 2d 2d 07 3f
       -0.9480901 -0.071265 0.13727333 0.5280331
0000b0 18 69 d4 be 7b 74 80 be e0 fb e2 be ce d6 0d 3e
       -0.4148643 -0.25088868 -0.4433279 0.13851473
0000c0 bd b2 13 be f6 87 93 be b6 04 9f be 33 0e 0a bf
       -0.14423652 -0.28814667 -0.31058282 -0.53927916
0000d0 0e f2 89 be 56 db 12 bf 9c f9 c4 be cc d4 be be
       -0.26942486 -0.5736593 -0.38471687 -0.37271726
0000e0 fc cc b3 be 94 a4 2f 3f dd 3e 5d be 2b 2a 3d be
       -0.35117328 0.686105 -0.21606012 -0.18473117
0000f0 37 d2 6f 3e a0 62 50 bf a4 6f 47 be 16 4b 9c be
       0.23420034 -0.8140049 -0.19476181 -0.30526036
000100 1c fb 19 bd 99 6e 03 bf 64 16 50 bc 71 af 43 ba
       -0.037592992 -0.51340634 -0.012700651 -0.00074648025
000110 f9 99 0d be ed ab 3e 3d 49 7c cc be cc b6 52 3e
       -0.13828267 0.04655068 -0.39938572 0.20577544
000120 c5 6c c4 3d 17 b6 cf 3e 8c 09 b3 be a7 a3 e5 be
       0.09591059 0.4056861 -0.3496822 -0.4485142
000130 bc 92 c9 bd 94 f9 76 3e 15 e0 09 bf 07 ab c9 be
       -0.098424405 0.24118644 -0.5385755 -0.39388296
000140 e7 d5 73 be 74 dd ed bd 69 e5 a6 be a2 dc af 3d
       -0.23812066 -0.116145045 -0.325969 0.08587004
000150 35 78 04 be 97 2b 5f bd 2b 46 4a be bc 22 29 3f
       -0.1293648 -0.05448493 -0.1975333 0.66068625
000160 00 0d 61 3b 03 b7 a2 be 24 26 01 3e ca 86 c6 be
       0.0034340024 -0.31780252 0.12612206 -0.3877471
000170 3a 63 e0 be 7b 99 1b 3d fd 8d 98 bf 45 ad 86 bf
       -0.43825704 0.037988167 -1.1918331 -1.0521628
000180 a7 04 30 3e 9f 5b bc 3e 72 38 ea be 1a 17 10 bd
       0.17189275 0.3678865 -0.4574619 -0.03517828
000190 f6 74 d6 be 12 f9 79 be e8 0f 90 3e b9 7c bf bd
       -0.4188611 -0.24411419 0.28137136 -0.09349961
0001a0 1c 3d 42 bf 47 6e f5 be 55 ca e4 bd 4b 47 b0 3e
       -0.75874496 -0.47935697 -0.11171404 0.34429392
0001b0 79 57 1c bf 48 44 f2 be de d9 f3 be 6d 84 0c 3f
       -0.6107097 -0.4731772 -0.47627157 0.54889566
0001c0 e1 0c 04 3f 81 c7 c1 3e 5a 3f da 3d c6 ee 71 be
       0.5158215 0.37847522 0.106566146 -0.23626241
0001d0 ec d0 99 be ea 51 24 bf 71 0f 52 be 70 10 9e bc
       -0.30042207 -0.6418749 -0.20513703 -0.019294947
0001e0 a7 7d 7e be 45 b5 5d bf f0 dc cf bd 11 8b b3 be
       -0.2485262 -0.8660472 -0.10149562 -0.35067037
0001f0 30 b2 e6 be 53 47 55 3f 59 5f 5a be 96 1e 46 bf
       -0.4505782 0.8331196 -0.21325435 -0.7739042
000200 4e 57 84 3e 06 e5 41 bd d3 6b a5 be 5b ac 1d 3e
       0.25847858 -0.047337554 -0.32308826 0.1539778
000210 ed 1c 2b 3e e2 fb 9d bd 6c be 38 be e8 cb d5 be
       0.16710253 -0.077140585 -0.1804139 -0.4175713
000220 63 ae 10 be cf 96 1e be ef 82 6a be b1 5b 19 be
       -0.14129023 -0.15487216 -0.2290151 -0.14976384
000230 a0 15 55 be cc b2 15 bf b3 c2 8b 3e f5 15 42 be
       -0.2080903 -0.5847595 0.2729698 -0.18953688
000240 06 0c 12 be 66 fb ca be 24 63 16 be c3 5d 54 bf
       -0.14262399 -0.39644927 -0.14686257 -0.8295557
000250 38 cf 2f be 0c d7 3b bf 5a 1b 0a be b1 6f 35 be
       -0.17168891 -0.7337501 -0.13486996 -0.17718388
000260 0c c1 18 be 97 aa 8c be 84 d8 4a bf 82 a8 78 be
       -0.14917392 -0.274739 -0.79236627 -0.2428303
000270 ec 06 fd be 3e 3b 1b be 90 79 17 be cd ea c2 be
       -0.49419343 -0.15159318 -0.14792466 -0.38069764
000280 66 b6 76 bd 62 b3 36 bf 8f 81 98 be e4 ad 32 3d
       -0.060232542 -0.71367466 -0.29786345 0.043622866
000290 b0 24 91 be 18 b5 a6 b9 df 7f 8f be 23 1d 13 be
       -0.28348303 -0.00031796913 -0.28027245 -0.14366584
0002a0 a6 9a c2 be cd a7 f5 be 60 1f 81 be 4a 1b 37 bd
       -0.38008612 -0.47979584 -0.2521925 -0.04470376
0002b0 f3 e9 a4 be b1 31 91 bd 55 41 15 be 74 5b d0 3e
       -0.3220974 -0.07089556 -0.14575703 0.40694773
0002c0 06 08 49 bf 69 ea 10 be 2c 41 6f 3c c9 f4 d5 be
       -0.7852787 -0.1415192 0.0146029405 -0.4178832
0002d0 1c fb 14 be 05 3e 16 be 9b 45 1d bf d9 5b ef bd
       -0.14548916 -0.14672096 -0.61434335 -0.116874404
0002e0 85 78 db be a4 00 a9 be 30 44 42 be 15 31 9b be
       -0.42865387 -0.330083 -0.18971324 -0.30310884
0002f0 95 0a 39 bd 25 fa a7 be 45 4a ef bd a2 52 a9 be
       -0.045176107 -0.32808033 -0.11684088 -0.33070856
000300 80 3c 82 be 66 86 26 bf 7b 30 b9 be f2 c6 71 bf
       -0.25436783 -0.65048826 -0.361698 -0.9444419
000310 df 47 b1 be 17 4a c3 be cb 8e 12 be 28 ca b0 bd
       -0.34625146 -0.38142464 -0.14312284 -0.08632308
000320 51 79 d6 be a9 06 b1 be f3 ce 3c be df b5 99 be
       -0.41889432 -0.34575394 -0.1843832 -0.3002157
000330 03 ae 24 bf cb c3 e6 be e3 eb 4a be 24 a2 1f be
       -0.6432802 -0.45071253 -0.19816546 -0.15589195
000340 7a b5 b3 be f1 2b 58 be 6d ed d8 be b1 10 04 be
       -0.35099393 -0.21110512 -0.42368641 -0.12896992
000350 98 63 b2 be 17 91 04 bf a6 55 43 3d d5 f2 1b 3d
       -0.3484161 -0.5178389 0.047689103 0.03807338
000360 2c f6 84 bd 05 40 11 be 40 a4 41 be ad 3e 9f be
       -0.06492266 -0.14184578 -0.18910313 -0.31102505
000370 3d 47 22 bf 55 90 1c be 5f 07 66 be 56 aa 8c be
       -0.6338995 -0.15289433 -0.2246375 -0.27473706
000380 0e aa 92 3e d3 6b 03 bf d2 7a 16 be 2e 51 b3 be
       0.28645366 -0.513364 -0.1469529 -0.35022873
000390 dc 08 19 be 08 98 40 3e 7e 3b 7b be a9 59 0d be
       -0.14944786 0.18807995 -0.24534413 -0.13803734
0003a0 b5 a8 6c be ad 4a 15 be d0 d7 08 bf cb ae 91 be
       -0.23111232 -0.14579268 -0.53454304 -0.2845367
0003b0 f6 1d 87 be 53 81 2b be 41 67 16 be e2 5d c3 3e
       -0.26390046 -0.16748552 -0.14687826 0.38157564
0003c0 fd 08 e3 3e ff e4 f6 be b1 19 af bc 77 89 52 be
       0.44342795 -0.48221585 -0.021374555 -0.20560251
0003d0 c3 c2 39 be f9 74 7f be 47 50 a8 be e4 b5 ea be
       -0.18140702 -0.24946965 -0.32873747 -0.45841897
0003e0 48 3c f4 bd 6d c9 5d be 8b 2e 98 be 46 3e 6d be
       -0.1192556 -0.21658869 -0.2972301 -0.23168287
0003f0 82 b5 0f be 9e 05 6c be ee 18 b7 bd 80 50 29 be
       -0.14034083 -0.23049018 -0.08940302 -0.16534615

weight f4 [128, 3]
000000 0c 5f 4c be c5 f9 e2 bd 45 a3 b7 3f bc 1d 1f bb
       -0.19958133 -0.11082796 1.4346701 -0.0024279198
000010 d4 a6 5b 3b 4b 85 14 bd e7 f3 62 bb bf 2a 13 3e
       0.0033516185 -0.03625993 -0.003463024 0.14371775
000020 3c ce b2 3c f7 c8 af 3e 7f 65 ae bd 77 0e 9d bb
       0.021826856 0.34333012 -0.085154526 -0.004792984
000030 30 6c 68 3c e9 73 36 bd fd 33 04 3f 10 56 e3 bf
       0.01418595 -0.044544134 0.5164183 -1.7760639
000040 33 f7 50 bf 42 0b 6d bf 60 7f ee bc 1b fe 06 bd
       -0.81627196 -0.92595303 -0.029113472 -0.032957178
000050 32 16 da bc 24 d2 80 3e c6 56 0d 3f 8a 1d 56 3e
       -0.026621912 0.25160325 0.5521053 0.20909706
000060 25 9f 70 bc 72 d6 2e 3d 8c 18 5e bd c7 f9 96 bc
       -0.0146863805 0.04268498 -0.05422263 -0.01842965
000070 b9 0f bd bc 7f 0d 09 be 01 6a 94 3e 07 32 a3 3e
       -0.023078786 -0.13384055 0.28987125 0.31874105
000080 82 5f 10 be af 84 8d bc ba 49 b6 bc 16 e0 cb bc
       -0.14098933 -0.017275183 -0.022251952 -0.024887126
000090 4b bd 02 3d 16 8c c3 3d fc 1b 56 3f 2c 99 e9 bd
       0.031918805 0.09548204 0.8363645 -0.11406168
0000a0 7d 57 53 3d 2e 6f 0a 3e 27 7b 99 bd 31 85 32 be
       0.051597107 0.13518974 -0.074941926 -0.17433621
0000b0 e3 5a c7 be 25 28 b4 bc 9b a7 2b bd 82 e9 17 bd
       -0.3893653 -0.021991799 -0.041907888 -0.037087925
0000c0 d2 c9 91 bc cc 73 84 bc 51 42 2a bb 12 1a f0 3c
       -0.01779643 -0.016168498 -0.002597947 0.029309306
0000d0 60 ea 37 bd b3 f7 1e be 5d 59 92 bc ee cc 38 bc
       -0.04490125 -0.15524177 -0.017864877 -0.011279328
0000e0 6a 79 0a bb fd 7c 0b c0 5e f2 45 bd cd f7 f7 be
       -0.0021129497 -2.1795037 -0.048326842 -0.48431244
0000f0 52 53 3f 3e ad f5 19 bf 68 01 61 3d b1 ea 21 be
       0.18684128 -0.60140496 0.05493298 -0.15812184
000100 43 36 33 be 43 44 95 3d c8 93 f5 3e ff 67 85 3e
       -0.17501168 0.072884105 0.4796431 0.26055905
000110 5b fe 81 40 59 2b fa bd cc 52 54 3d 3d 7d 53 bc
       4.0622993 -0.12215299 0.051836774 -0.012908277
000120 f0 97 cb 3e 85 ab 79 bf f9 46 1e 3f 70 95 11 bd
       0.39764357 -0.97527343 0.61827046 -0.035542905
000130 41 14 9e bd c8 e2 a8 38 2b 39 40 be f4 29 73 40
       -0.07718707 8.0531056e-05 -0.18771808 3.7994356
000140 cb e7 62 bf 87 12 2d bc b4 a8 90 3d 73 c5 ed bc
       -0.8863494 -0.010563499 0.070634276 -0.029024815
000150 f9 87 87 3e ec fa 84 be 85 67 aa bd de 14 32 3b
       0.26470926 -0.25972688 -0.08320526 0.0027173082
000160 91 e4 25 bd f7 c6 3d bd ce dd 27 bc c3 6b 53 bc
       -0.04050118 -0.046332326 -0.010245753 -0.01290411
000170 5e 54 1c bb de 1c 8d be f4 4c 03 be e3 f7 78 be
       -0.0023853998 -0.27561086 -0.12822324 -0.24313311
000180 73 6c c0 bb 25 e2 1f bd 52 92 20 be 2b 66 d2 bd
       -0.005872303 -0.039034028 -0.15680817 -0.10273393
000190 aa 7e 11 3c 92 e9 13 3f 57 6a bf 3c eb 41 02 3c
       0.008880297 0.57778275 0.023366136 0.007950286
0001a0 66 70 4a be 65 48 6d 3c 41 3d d5 bc 8d c7 be 3e
       -0.19769439 0.014482592 -0.026030185 0.3726162
0001b0 f0 91 00 be 3b f2 2e 3c 25 32 45 3d a4 f8 9b 3d
       -0.1255567 0.010677869 0.048143525 0.07615784
0001c0 be 26 50 3e 27 c6 8c 3e 04 b4 d4 bd 17 ba 26 bd
       0.20327279 0.27494928 -0.10385898 -0.040704813
0001d0 5f ff 46 be 2f ea 31 bc 37 81 36 bc e0 66 0f bc
       -0.19433354 -0.010859056 -0.011139206 -0.008752555
0001e0 f5 34 82 3d 37 69 ef bb 66 e3 4a be 28 b6 55 bf
       0.06357757 -0.0073062438 -0.19813308 -0.83481073
0001f0 d2 30 61 bd 88 0c ba bc d7 02 f8 3d 6d 0b 07 3e
       -0.0549782 -0.022711053 0.12109917 0.13187952
000200 99 ab ed 3d 1f 50 b2 be 56 74 c0 be cf ee 26 bf
       0.11604995 -0.34826753 -0.37588757 -0.65208143
000210 5a ad 0d 3f 82 75 75 3e f2 d9 08 bd a2 9c a7 bc
       0.5534264 0.23970607 -0.033410974 -0.02046043
000220 fe 16 8a b8 86 20 3b bb ae e8 a8 bc 75 75 4d bc
       -6.5846354e-05 -0.002855332 -0.020618763 -0.012540211
000230 39 74 7c bc 25 86 f1 bd 02 14 4f be cb 00 2d bf
       -0.015408569 -0.11793164 -0.20222476 -0.67579335
000240 3b a1 df be d3 82 3f bf c2 70 1d 3f 0c d8 4f bc
       -0.43677697 -0.74808997 0.6150018 -0.012685787
000250 c3 fe 17 bc ab 22 68 bb e3 4c be bc b3 2a 36 bd
       -0.0092770485 -0.0035421054 -0.023230022 -0.044474315
000260 17 89 ee bc 16 c5 ec bc 41 00 5b 3e 96 78 d4 3e
       -0.029118104 -0.028902572 0.21386816 0.4149825
000270 a8 4b bc bb ff 6e fe 3b 7e f8 4a bc f3 f4 65 bc
       -0.0057463236 0.0077646966 -0.012388347 -0.014035451
000280 5b f0 d3 bb 97 76 85 ba 35 6c 10 3e ee a2 86 3e
       -0.0064678616 -0.0010182437 0.14103778 0.2629618
000290 ab 9f eb bd 1d a9 b2 3d a4 55 44 3c 8d 67 1e bc
       -0.115050636 0.08723662 0.011983309 -0.009668243
0002a0 12 76 d4 bc df 3d 8a be 02 7e cc 3d 32 4d 9d 3b
       -0.025935207 -0.2700033 0.099849716 0.004800462
0002b0 c5 32 01 bd a5 17 71 be 7a 87 59 3d 61 89 f0 3d
       -0.03154256 -0.23544176 0.053107716 0.11744953
0002c0 cd bf f1 3d 96 d2 67 3d 0c 87 d8 3d 74 d6 73 bd
       0.11804161 0.056597315 0.10572633 -0.05953069
0002d0 a7 b7 a9 bd f9 d6 4d bd bd 43 55 3e b6 71 90 bc
       -0.08286982 -0.050253842 0.20826621 -0.017632347
0002e0 9d 69 2f 3c 46 37 f6 bd 32 0f ad bb 85 ff a7 3c
       0.0107063325 -0.12022261 -0.0052813524 0.020507583
0002f0 3b c0 b3 bc 73 47 20 40 fd 27 0b 3c ee 1f 0d be
       -0.021942249 2.504361 0.008493421 -0.13781711
000300 0b 81 fe 3d 9d c2 2c 3d f5 fc 2a be 2e f0 a0 3e
       0.12426957 0.042177785 -0.16698058 0.31433243
000310 fe 8d 03 3f 32 12 84 be b4 24 05 bd a7 8f fc bd
       0.5138854 -0.25795132 -0.032505706 -0.12332087
000320 fd 65 76 be 53 e9 d3 bf 8e 08 2d 3f 8f ce 8f be
       -0.24062343 -1.655558 0.6759118 -0.2808728
000330 93 5f 03 bd 6b 74 46 bd 96 ea 57 be 8e ba 02 be
       -0.03207357 -0.04845087 -0.21085581 -0.12766477
000340 6e a7 07 be 01 cd 84 bd 3a 4a a6 bc 7c ea 3b bc
       -0.13247463 -0.06484414 -0.020299066 -0.01146948
000350 ce 77 f1 bb f1 9b 66 3a f3 23 a1 bd f2 0f db bd
       -0.007369018 0.0008797041 -0.07868185 -0.10696401
000360 08 3e 02 3d c4 6b bf be db 5d 87 be ba b7 d5 be
       0.03179744 -0.37386906 -0.26438794 -0.41741735
000370 1e 44 08 be 1b 95 74 3f 3e 58 79 3f 6c 8e ac be
       -0.13307235 0.95540017 0.9740027 -0.3370241
000380 2d 79 20 be 97 20 ee 3d ee 88 9f 3d 5b 63 1b 3f
       -0.15671225 0.1162731 0.07789789 0.6069848
000390 ea 07 b8 be 6e 9a ae be d9 9e c2 bc f0 5e f0 3b
       -0.35943538 -0.34102196 -0.023757385 0.007335536
0003a0 49 10 f6 3c 0c ab 04 be 6f ad 45 bd f8 29 24 bd
       0.030037062 -0.12955874 -0.048261102 -0.040079087
0003b0 26 60 32 bd cd 73 dd bc e3 97 68 bd 4b bd be bc
       -0.043548726 -0.027032757 -0.056785475 -0.023283621
0003c0 7a a0 da 3d 54 70 0a 3f 6a 49 1f be 9a 1f 2a 3d
       0.1067514 0.5407765 -0.15555349 0.041534044
0003d0 ec 00 e0 3d 3e 32 be bf 87 96 28 bf fb 30 43 3e
       0.10937676 -1.4859083 -0.65854686 0.19061653
0003e0 6a 1a 66 be 4e 66 c0 3c ec 17 88 3c 2f 51 7d be
       -0.22471014 0.023486283 0.01661297 -0.24738
0003f0 12 3a 8b bc 2e 06 e7 3c 77 26 ab bd 17 88 85 3e
       -0.016995464 0.028201189 -0.08356946 0.2608039

weight f4 [2, 128]
000000 ff fa 52 3e 76 ba 69 bd 3d dc 34 bc 0d a1 fd bc
       0.2060356 -0.05706259 -0.011038837 -0.030960584
000010 15 5b 26 be 80 9b 56 be 9b 4d 95 3b 7b cc 00 be
       -0.16245683 -0.20957756 0.0045563704 -0.12578003
000020 df 7a 22 3e c1 86 7a 3d 55 ca 98 be e7 28 b8 ba
       0.15867184 0.061163668 -0.29841867 -0.0014050276
000030 99 6c 42 3f 40 22 dc 3c 4f d9 99 3e 85 15 ca 3c
       0.75946957 0.0268718 0.30048606 0.024668464
000040 41 d6 23 bc 89 54 ec be b6 e1 09 bc ea c2 2e bd
       -0.009999813 -0.46158245 -0.00841563 -0.042666353
000050 04 46 33 3d 92 d1 54 bd e1 ec 64 3d 30 69 09 be
       0.043767944 -0.051957674 0.055889968 -0.13419032
000060 95 44 36 be 55 ff 28 3d 6c e7 e6 3d 09 5a 1f 3d
       -0.177996 0.04125913 0.11274609 0.038904224
000070 18 20 bd bd d8 cf 2b bc 11 2f 47 bc e8 d3 fb bd
       -0.09234637 -0.0104865655 -0.012157218 -0.12296277
000080 0a 94 4d bd 43 36 ec be 50 fd 48 3d 1d 46 8d be
       -0.05019001 -0.46135148 0.049069703 -0.27592555
000090 de c7 64 3d 8f 97 81 bd 18 5d ea 3d 69 35 0b bc
       0.05585467 -0.06327736 0.114435375 -0.008496621
0000a0 f7 4f 25 be f7 f5 09 3e fd 81 ba bb bb 75 42 be
       -0.16143785 0.13472734 -0.0056917653 -0.18990223
0000b0 08 86 e2 bd fc e7 2d bd 39 a7 e7 bb 18 ad 35 be
       -0.11060721 -0.042457566 -0.007069495 -0.17741811
0000c0 04 69 6b 3e b2 14 32 bc 44 3e c4 3d 18 4d 09 bf
       0.22989279 -0.010869192 0.09582189 -0.5363326
0000d0 8b 4a ac bc 27 bc eb bb 49 00 71 bd 41 b8 3d 3e
       -0.021031639 -0.0071940604 -0.058838163 0.18527319
0000e0 ac bf 11 be 88 59 9c be 6a 7d cb 3e 39 63 24 3e
       -0.14233273 -0.30537057 0.3974412 0.16053475
0000f0 7c 19 9e be e5 b6 76 3c a6 b9 9a bc ea 6c 56 bd
       -0.30878818 0.015058254 -0.018887352 -0.052349962
000100 50 0b 4c 3e 1c 44 f0 be 00 90 19 3e 15 38 2c 3e
       0.1992619 -0.46926963 0.14996338 0.16818269
000110 97 48 61 3d 04 e6 9c 3d 57 75 fe bb 45 05 e2 bd
       0.055000868 0.076610595 -0.007765453 -0.11036161
000120 18 f9 a5 3e 05 61 36 bd 18 bc c5 3e a8 c0 06 3f
       0.32416606 -0.04452612 0.38620067 0.5263772
000130 bf ee 2d 3d 7a 84 4c 3e 37 21 02 3e 13 2e 96 bd
       0.042464014 0.19972411 0.12707983 -0.07333007
000140 5c df 1c be 85 58 7b 3e 77 f6 d3 3e 02 13 74 3d
       -0.1531958 0.24545486 0.41398975 0.05958844
000150 84 c3 54 3e 92 87 39 be aa 5d d3 bc 73 71 b3 3e
       0.20777708 -0.18118122 -0.025801498 0.35047492
000160 df 4c bb 3d a8 c4 bc bd 52 13 a3 bd d8 f6 0d bd
       0.091455214 -0.09217197 -0.079626694 -0.034659237
000170 41 f4 dd 3e f5 d1 61 3d 7a e9 38 3d fb 17 9a bd
       0.43350413 0.05513187 0.045144536 -0.07524105
000180 2e fa c0 3e 40 11 d4 bc 34 cc 27 bc 79 cb 14 3d
       0.37690872 -0.025887132 -0.010241557 0.03632686
000190 7e 61 b5 3d 6d 4d 48 3d 96 af bc be 82 e4 1a 3d
       0.08856486 0.048901964 -0.3685271 0.03781558
0001a0 7c bf 0b bd 85 d3 10 bc ce f9 78 3e 5e 95 bd 3e
       -0.03411816 -0.008839493 0.24314043 0.3702802
0001b0 c5 41 09 3d f6 80 4f 3d 21 bc 27 bc ff f8 79 bc
       0.03350999 0.050660096 -0.0102377245 -0.015257119
0001c0 ab 81 6d bd b5 ce 99 3d 69 1d ff be 36 e2 a9 3d
       -0.05798499 0.07510129 -0.49827126 0.082950994
0001d0 32 50 23 3d 30 ba 82 38 fb 8d 99 be 74 3c 86 bd
       0.039871402 6.233563e-05 -0.29991135 -0.06554499
0001e0 f5 50 84 3d 3f 9c 54 3c fe a6 24 bf c4 c5 bb 3d
       0.06460754 0.012976705 -0.6431731 0.0916858
0001f0 d1 df 0d bc 81 d5 cf be bf c9 92 bd 1d 99 37 bd
       -0.008659319 -0.40592578 -0.07167386 -0.044823755
000200 8a 03 9f 3e 3e a8 c3 bc 00 60 57 bc fc fe 85 3d
       0.31057388 -0.023883935 -0.013145447 0.06542775
000210 05 fc af bd a9 a8 c4 3c 72 92 c6 3c 15 1a d5 3d
       -0.08592991 0.024006205 0.024239752 0.104053654
000220 52 4d 03 bd e5 73 b8 3d 57 b2 12 be 2c aa 3b 3c
       -0.03205616 0.0900648 -0.14325844 0.011454146
000230 75 14 b8 be 37 fb b5 3d 7b 6f 40 3c cd 18 8a 3c
       -0.35953107 0.08885806 0.011745329 0.016857529
000240 69 71 63 3c be 2c 42 be f9 45 27 3c d8 11 04 be
       0.01388202 -0.1896238 0.010209554 -0.12897432
000250 11 68 e5 bc 83 6f 11 3e 76 49 bf 3e e7 0a e7 bd
       -0.028003724 0.14202695 0.37360734 -0.11281376
000260 f4 37 3d 3d cf bd 88 3d 73 f8 e5 3d 6d 30 bd bc
       0.04619594 0.06676828 0.112290286 -0.02309438
000270 46 84 fd 3d 62 f4 a6 3b 22 b9 44 3c 24 22 0a be
       0.12378745 0.0050950507 0.01200703 -0.13489586
000280 b8 70 03 3e 3d f4 6e be 27 d9 8b be 1a 84 fd be
       0.12835968 -0.23335357 -0.27314112 -0.49514848
000290 39 69 73 ba 04 1f 99 3d e6 d1 15 be a0 4d 06 3c
       -0.0009285394 0.07476619 -0.14630851 0.008197218
0002a0 20 fc c1 be ee ab a8 3d 8b 48 91 3a 19 84 eb 3e
       -0.3788767 0.08235918 0.0011084242 0.4599922
0002b0 2b d5 1a 3d 9e 66 69 bd fd 10 20 3c 1f 32 b9 bd
       0.03780095 -0.05698263 0.009769675 -0.09042763
0002c0 0b ef b8 3e 74 24 31 3c 41 8f 9a be 79 97 95 bd
       0.36119875 0.010811914 -0.3018742 -0.07304282
0002d0 9e 82 c8 3b a8 44 72 3b 50 e3 53 bd cb 6e cf 3e
       0.0061190864 0.0036967192 -0.051730454 0.40514216
0002e0 0d dc 59 3e c0 aa da ba e5 1e ee 3e 05 8a f6 3e
       0.21275349 -0.0016682968 0.46507946 0.48152176
0002f0 17 d8 e0 3e 3b a8 21 3e e5 66 ba 3d 54 39 e6 3d
       0.43914863 0.15786831 0.09101657 0.11241403
000300 8c f4 f3 3b ae 4e 2a 3d f4 89 1a 3e 84 91 17 bd
       0.0074449237 0.04157894 0.15091687 -0.03700401
000310 7a 54 65 3d 32 f3 74 3d d9 3c 04 3c 90 9c c5 bd
       0.055988766 0.05980224 0.008071148 -0.096490026
000320 a0 2f d9 be 71 23 9c 3e 8e bf 1a bc dc 5f 01 3e
       -0.42419147 0.3049579 -0.009445084 0.12634224
000330 df e0 85 3d a2 97 95 3d 41 0e 02 3e 7f c1 8c bd
       0.065370314 0.07304312 0.1270075 -0.06872844
000340 a9 9c ad 3d 60 81 87 3e 09 86 e8 bd f7 1c cb 3e
       0.08477146 0.26465893 -0.1135369 0.39670536
000350 36 71 c0 bd 94 5a 7e bd 3d 22 bc 3b c2 ba 59 bf
       -0.09396593 -0.0620981 0.005741386 -0.85050595
000360 bd 94 8e 3e 22 f2 bb 3d 92 a2 35 3e fc 20 c5 bd
       0.27847853 0.091770425 0.17737797 -0.09625432
000370 00 f6 0e 3d 36 56 62 bd d2 a3 ef bd 33 f6 06 be
       0.034902573 -0.055258 -0.11701168 -0.13179855
000380 cf 2c b5 be 30 57 fd be e2 02 3c 3c ad 64 5a 3b
       -0.3538575 -0.4948058 0.011475297 0.0033324168
000390 24 4b de bd 1c 89 82 3e 50 87 42 3d 86 16 08 bd
       -0.10854176 0.2549523 0.047492325 -0.033224605
0003a0 ff bc a8 3d 30 14 27 bc 7b 9b de bd 04 14 3e bf
       0.08239173 -0.010197684 -0.10869499 -0.7424929
0003b0 e1 06 3a be bd aa 02 bd 48 d4 2b 3c 39 dc 80 3e
       -0.18166687 -0.03190111 0.0104876235 0.25168017
0003c0 7d 6d 20 be 8c 0e 08 3e 9d fe 9b bd 99 d1 01 3e
       -0.15666766 0.13286799 -0.07616923 0.12677611
0003d0 0f 77 0d be 71 bf 5d 3e 4f 3f 81 3e 4d a9 2a be
       -0.13814948 0.2165506 0.25243613 -0.16666146
0003e0 25 42 fa 3b ec f2 17 be 65 be 0f be da 13 b4 bd
       0.0076372796 -0.14838761 -0.14037473 -0.08792849
0003f0 72 33 6c 3c 54 42 12 bf c7 f1 ca bb 03 ce b0 bd
       0.014416562 -0.5713246 -0.006193373 -0.086330436

bias f4 [2]
000000 a8 2c f7 bc b0 28 9a 3c
       -0.030172661 0.01881823

W f4 [128, 128]
000000 e3 81 8d bd e4 13 e9 3d b8 64 ff 3d ac 69 a7 3b
       -0.069095396 0.11380747 0.124703825 0.0051090326
000010 cf 74 98 3d 99 ad 6b be 86 8f 03 be ce e8 d0 bd
       0.074441545 -0.23015441 -0.12847719 -0.10200654
000020 8e bb 5a bd 94 4f 1d 3d 4c 8f 81 be d6 ff 09 be
       -0.053401522 0.03840597 -0.2530464 -0.134765
000030 fe 84 1a be e6 fc eb 3a 54 62 2d 3d 89 1d 78 3d
       -0.15089795 0.0018004447 0.0423301 0.060575042
000040 36 62 94 bd 8d a3 7f be 4e 61 5f 3e 3e b2 0d be
       -0.07245295 -0.24964733 0.21814463 -0.13837525
000050 fb 53 5a 3d e9 9b 89 3d a7 94 d7 bd 89 78 bb 3d
       0.053302746 0.067191906 -0.105264 0.0915385
000060 0b 1d a9 bd a6 2f 5c bc 32 fa 46 be c3 c4 16 be
       -0.08257493 -0.013439095 -0.1943138 -0.14723496
000070 b1 2b bc bd 47 2b 2b bb f4 ae 09 3d 8c 89 ce 3c
       -0.09188021 -0.0026118325 0.033614114 0.025212072
000080 3b c8 ad bd 11 c3 78 3d 6e c4 82 3d 22 05 72 3d
       -0.084854566 0.060732905 0.06385122 0.059086926
000090 21 f1 25 be 60 5a 86 be 40 72 91 3d 19 e9 70 3d
       -0.16205265 -0.26240826 0.071018696 0.05881605
0000a0 2a bb 80 bd 39 ec c2 3d 28 66 04 3e b3 d3 be bc
       -0.06285699 0.09517712 0.12929595 -0.023294305
0000b0 18 9f 0d bd 4d bd 8d bd 59 9e f4 3d 4c 5e a8 3d
       -0.03457555 -0.06920872 0.11944265 0.08221111
0000c0 f0 5a 5b bd 70 d0 bb 3d b6 1f fb 3d 30 c2 36 be
       -0.05355352 0.09170616 0.12261908 -0.17847514
0000d0 c3 93 82 3d c6 9b 4b bd d0 34 0b be b3 95 57 be
       0.063758396 -0.049709104 -0.13594365 -0.210532
0000e0 db d0 24 be 58 24 04 3d 65 e7 ff bd b5 d2 b9 bd
       -0.16095297 0.032261223 -0.12495307 -0.09073392
0000f0 99 77 00 3e 65 cf 09 3e 13 be 85 3d ac 94 1c bd
       0.12545623 0.13458021 0.065303944 -0.038227722
000100 5c 07 dd 3d ea 01 c4 3c 0a c7 0d 3e d5 5e 94 bd
       0.10792419 0.023926694 0.13845459 -0.0724465
000110 9a d9 c3 bc d8 42 64 3d 01 5a 0e 3e 82 d6 b9 3d
       -0.023907471 0.05572781 0.13901521 0.09074117
000120 02 14 42 be 82 28 d6 bc 50 39 e3 3d 5e b6 8a bd
       -0.18952945 -0.026142363 0.11094916 -0.06773065
000130 3e 61 df 3d f6 5c 5c 3e ad 2d 2f be 8e 0e d8 3d
       0.10907219 0.21519837 -0.17107268 0.10549651
000140 ef d2 be 3d bf 65 78 bd d3 6d d7 3c d1 1c 5b 3b
       0.09317576 -0.060643908 0.026297485 0.0033433924
000150 3b 7c 90 ba e1 ae 9e bd 29 38 2a be 17 12 f6 bd
       -0.0011023352 -0.07748199 -0.16622986 -0.12015169
000160 3e df 82 3d b0 2d 8e bc d9 34 38 bd 75 34 9a 3d
       0.06390236 -0.01735577 -0.044972274 0.07529537
000170 a4 83 a5 3d 96 b0 b6 3d 51 c5 5b 3b 68 c2 be bd
       0.08081749 0.089204 0.0033534358 -0.09314424
000180 c2 63 8c bb 04 ea e7 3a 66 34 8f bc e6 b1 57 bb
       -0.004284353 0.0017693643 -0.01748104 -0.0032912432
000190 af 3a 2c 3d 1a a0 4f 3e aa 0f 9b bd d1 27 18 3e
       0.042048153 0.20275918 -0.07571347 0.14858939
0001a0 72 b1 ca bd 27 9f 95 bc 01 f9 fc 3d ba 00 86 bd
       -0.09897126 -0.018264366 0.12352181 -0.06543107
0001b0 16 33 67 bd 31 0b c9 3c fa 9b 2f bd e3 fb 27 3e
       -0.056445204 0.02454147 -0.04287336 0.16404681
0001c0 d9 05 c4 3d 4c 02 a1 bb 59 97 fc 3b a8 6a e4 bc
       0.09571428 -0.004913604 0.0077084717 -0.027882889
0001d0 9a 07 bc 3d 07 39 d0 bd d1 80 31 bc 11 fa 97 bd
       0.091811374 -0.10167127 -0.010833935 -0.07420743
0001e0 ea 43 2e be 81 90 bb bc e1 aa da bd 8a 21 f5 bc
       -0.17018095 -0.022896053 -0.10677124 -0.02992322
0001f0 e6 61 5e bd 2a f4 93 3c fb 66 ba bc b8 39 8c 3c
       -0.054292582 0.018060762 -0.022754183 0.017117366
000200 38 66 04 3d b1 f6 14 3e 91 98 88 3c 62 c4 84 bb
       0.032324046 0.1454723 0.016674312 -0.004051731
000210 cc 48 8b 3d c8 00 09 3e f6 7b b4 bb 61 2e c3 3d
       0.06800994 0.13379204 -0.0055079414 0.095303304
000220 b0 d5 fe 3d fd 91 97 bc ce a0 ad 3b 78 42 ab 3d
       0.124431014 -0.01850223 0.0052987104 0.08362287
000230 05 19 b9 3d 88 49 cf 3c 05 13 ee 3d bc f8 99 3c
       0.09037975 0.025303617 0.116247214 0.018795364
000240 3c d3 18 3e 9c df 2d bd 96 e7 0e 3d 43 66 47 3d
       0.1492433 -0.04244958 0.034888826 0.04868151
000250 fb 07 8c bd 10 60 a9 3b 2d ec de ba 53 a2 ed bd
       -0.0683746 0.0051689222 -0.0017007642 -0.116032265
000260 2b 00 8e 3b 79 2a 5b bd 44 9b 08 be 28 e6 db 3d
       0.004333516 -0.053507302 -0.13340479 0.10737258
000270 c1 d1 35 bd 44 1a e1 bc 4e 03 fe 3a 45 fe b5 bd
       -0.04438949 -0.027478345 0.0019379647 -0.08886389
000280 0f 48 04 be d4 0d 7f 3c 79 7e fb 3d 36 e1 21 3e
       -0.12918113 0.015567262 0.12279982 0.15808567
000290 41 51 81 be ff be 66 3d 53 7a 17 be b4 5e ab bd
       -0.25257304 0.05633449 -0.14792757 -0.083676726
0002a0 d0 4d 78 3b 64 6c 11 be c7 92 94 bd 32 67 f6 3d
       0.0037888177 -0.14201504 -0.07254558 0.12031402
0002b0 d5 c2 44 3d 9b bb 23 3e a6 08 15 3e 0f dc 2c 3d
       0.04803737 0.15989535 0.1455408 0.04220205
0002c0 e3 2a 18 be 9b 4c c0 3d 89 bd fd bd f0 f9 15 bd
       -0.1486011 0.09389611 -0.123896666 -0.036615312
0002d0 ee 06 fe 3c 3a d9 9f 3c ab c1 ee bd 31 14 06 be
       0.031009164 0.019512761 -0.11658033 -0.1309364
0002e0 5d d4 aa bd 13 61 df bd dd b1 44 3e 89 8a 86 3d
       -0.08341286 -0.10907187 0.19208474 0.06569392
0002f0 42 65 51 3d 94 24 29 bd 5a 91 0a bc 46 db 83 3c
       0.051121958 -0.04129465 -0.008457506 0.016095769
000300 6b b2 53 3e 32 2c 05 3c 46 8e 77 3d 4d eb e3 bd
       0.2067353 0.008128213 0.060438417 -0.111288644
000310 b8 33 33 be c5 7d a2 3c 92 1d 13 bc aa 1a a1 3d
       -0.17500198 0.019835362 -0.008979218 0.07866414
000320 37 ad a5 bd 13 88 39 3e c7 2d f0 3d 7e a3 02 3d
       -0.08089679 0.18118314 0.11727481 0.0318942
000330 45 9d 64 bd 12 11 45 be 91 e5 87 3d a7 b9 e4 bd
       -0.055814046 -0.19244793 0.06635583 -0.11168223
000340 12 e8 3e 3e 8e 42 a5 bb 04 df f4 3d dc 7c ea 3d
       0.18643215 -0.0050433343 0.11956599 0.11449596
000350 77 ae af bd a2 11 75 bd 7d 18 22 3d 67 dd 35 3d
       -0.085781984 -0.05983127 0.039574135 0.0444006
000360 c9 d4 8a bd 53 34 ee 3d 86 ab 1d be 31 59 fe bb
       -0.06778867 0.11631074 -0.15397462 -0.0077620973
000370 f1 d5 d9 bd a6 5c 13 3e fc ac fb 3c 0d b2 7e 3d
       -0.10636509 0.14390811 0.030722134 0.06218152
000380 fe 1f ba bc b2 44 ac 3d e0 6b a6 3d ee 9d 00 bb
       -0.022720333 0.0841154 0.08126044 -0.0019625383
000390 55 1a 6b 3d 27 1e 0b 3e d0 1c 15 3e 75 e4 03 3d
       0.05739816 0.13585721 0.14561772 0.032200295
0003a0 91 da 91 bd 15 f2 47 be 8d fd f5 bc f4 0a 55 bd
       -0.07121766 -0.1952594 -0.030028129 -0.0520124
0003b0 bb 65 9d 3e 5c 40 99 bd 0c 9c f4 3c 6a 27 9e bd
       0.30741677 -0.07482979 0.029859565 -0.077223614
0003c0 43 9c 7b 3d d8 46 3e bc 57 15 fb 3c 82 53 25 bc
       0.06142832 -0.01161357 0.030649824 -0.010090711
0003d0 0c a9 e4 bc a2 24 16 3d dd 57 d7 bc 76 0b 10 bb
       -0.02791264 0.03665603 -0.026287014 -0.0021979488
0003e0 71 a9 e1 3d b2 22 8c 3d e9 27 47 3c 03 ce 79 bd
       0.110186465 0.06842555 0.012155511 -0.060987484
0003f0 22 6c 4e bd 67 bd d9 3d 88 2c b9 3d 7c e7 92 bd
       -0.050396092 0.10631829 0.09041697 -0.071730584
