LeakyRNN_11.28/1202/sg_3_128_d10_r7_4/model_227.pth (torch, 137244 bytes, 5 tensors)

weight f4 [128, 128]
00000000: 2c4e 673f b8dc f2bd 8b27 5cbf aa52 d43e
00000010: dfc8 9ebd cff8 4c3c 9ecc f8bd 7dfe 173d
00000020: 6eb9 dcbd bb70 e9bd ffc3 d7be 481b f1bd
00000030: e01b a0be 67b9 f1be 26e5 4c3e 63ad eebd
00000040: 5b31 f2bd a0e3 49be ca49 f1bd 7520 ccbd
00000050: 579e b1be ab36 44bf 2fc6 cd3f 28e0 1b3d
00000060: 45d6 f3bd b8ae 00bf 15a9 a3bf 9a07 31be
00000070: d6a9 83be d4ed eebd 13bf eabd d7c7 f1bd
00000080: 2fb0 35be d8ad 22bf 0bf0 153f 5b47 443e
00000090: ea1b 0dbe 4808 27bf cfae 01be e84e e5bd
000000a0: e39f 6ebf 4028 06bf ee96 82be c11d ba3e
000000b0: f840 7bbe 9f8c d7bd 36f5 f2bd 93be 4c3f
000000c0: 012c 65bf 9136 f5bd 932d e4bd b353 1dbf
000000d0: 39ef efbd acd7 ecbd 626a a9bf ad7c 973b
000000e0: 21dc cabe adf8 c73e d556 04bf 94a0 05bf
000000f0: 7754 283f 6482 55bf 86ce e6bd 1c71 3fbe
00000100: 05ea d5bd 2ed9 87bf 183c c9be 9d8f 67be
00000110: e0fc 4a3f d96c f7bd 4dbd eebd 177f cc3e
00000120: 25ab ffbd 256e 313e a642 57bf 2328 1abf
00000130: b41f 04bf 1c3b a83e 775c 8fbe f165 e0bd
00000140: b5a5 c6bd 5ba6 f03d bf59 a8be df12 04be
00000150: 26ca fabd 70fa 5fbd cb1e 17be df3a 0fbe
00000160: c022 dbba 04fd cbbd 8af1 0abf 39d3 06bf
00000170: ac86 acbc fc22 eebd 4d94 dfbe ac63 acbf
00000180: 0bf4 113d c231 9e3e f66d f6bd 2842 a93d
00000190: e765 73be a92b 13bf b0e5 b7bd 96cd f6bd
000001a0: f307 50be 0515 ecbd 42e7 2d3e 7e1a a63e
000001b0: aedc eebd eda6 ccbe f49c f8bd 429c ad3f
000001c0: 00df d9bd f0b1 a73e d0b7 e13d 8265 83be
000001d0: e389 b2be e24c 82bf 8941 04be 61f1 ab3d
000001e0: ef3d 23be 7122 ecbd d8fb 93be 014c 10be
000001f0: 44f7 f5bd 11f7 20bf 9c3d f2bd 18a3 9abe
00000200: 8fe7 6abe 83a0 1ebe 4004 3ebe 73dd bbbe
00000210: 4e7f 3abe 8afa f0be 7135 1ebe 8584 68be
00000220: f3d7 1ebe 3c9c 1ebe 6193 58be cb1a 1ebe
00000230: 05ff 47be 3318 74be 4f68 4bbe a769 1ebe
00000240: cda9 1ebe fb77 8dbe 7aba 1ebe d522 01bf
00000250: f91a c7be a955 e1be 222e 90be 63db 2abe
00000260: 15b4 dabe 5a71 2fbe 20e7 eabe 6843 36be
00000270: 2e5e 98be 3de1 1ebe c8b6 1ebe 18d9 1ebe
00000280: 269d 7cbe 1edd b6be 589e 73be 857f 6bbe
00000290: f1b1 1ebe aa1d 5dbe d83e 1ebe 5df2 1ebe
000002a0: 4cd0 50be a183 a4be b9c4 2ebe 34d3 fcbe
000002b0: 7d26 61be 0193 1fbe ad71 1ebe 68de 88be
000002c0: a742 fcbe 909a 1ebe 0405 20be cf86 5cbe
000002d0: 761c 1fbe 3aa0 1ebe 20e5 9cbe 6668 3ebe
000002e0: 5ccd 93be 7f70 60be 4350 56be c9cd 86be
000002f0: c000 8ebe 4f71 56be 0b46 1fbe bf2b c3be
00000300: 680b 5fbe 9521 bfbe eeb7 36be 7d73 1dbe
00000310: bd4e 9bbe e53b 1ebe b4b9 1ebe cb07 5bbe
00000320: 5334 02bf d714 5dbe 75e2 efbe 6287 79be
00000330: fbf6 8bbe c30d 83be 7747 2dbe 3754 1fbe
00000340: 6fdb 4cbe 5f53 a2be b7ab 56be 0865 4ebe
00000350: bec5 1cbe 1666 24be 3c95 1dbe 699b 4dbe
00000360: 298a 39be ff21 1fbe 7cfb 5cbe f790 92be
00000370: 00d7 9cbe ca23 1fbe 2bc5 4dbe 11d9 c1be
00000380: 82cc 95be 0db0 2ebf 8d73 1ebe 91d3 35be
00000390: 3b96 2ebe cdea 65be e6bf 5cbe dd9b 1ebe
000003a0: b459 23be e8e7 1ebe 23f9 39be c6af 57be
000003b0: f735 1fbe d3d4 63be 228d 1ebe 2907 a8be
000003c0: f45c 1ebe 5093 94be b1f4 41be 5131 3dbe
000003d0: a984 5ebe bddd 46be 22f5 1dbe 0923 76be
000003e0: 527c 54be 6bd5 1ebe 567c 46be 091a 1cbe
000003f0: e04f 1ebe 45fa 48be cda5 1dbe 23cf 24be
0.90353656 -0.11858505 -0.8599784 0.41469318 -0.07753157 0.0125104925 -0.12148403 0.037107933
-0.107775554 -0.11398455 -0.4214172 -0.117727816 -0.31271267 -0.47211763 0.20009288 -0.11654165
-0.1182582 -0.19715738 -0.11781652 -0.09967128 -0.34691116 -0.76645917 1.6076106 0.03805557
-0.11906103 -0.502666 -1.2785975 -0.17288056 -0.25715512 -0.11666456 -0.11462226 -0.118056946
-0.1774299 -0.63546515 0.585694 0.19167845 -0.1378018 -0.6524701 -0.1266434 -0.11196691
-0.9321272 -0.52405167 -0.25505775 0.36350825 -0.24536502 -0.10524868 -0.118631765 0.79978293
-0.8952027 -0.11973298 -0.11141505 -0.6145584 -0.1171555 -0.11564574 -1.323559 0.004623017
-0.3962107 0.39056912 -0.51694995 -0.5219815 0.65753883 -0.83402085 -0.1126986 -0.18695492
-0.10445026 -1.0613153 -0.3930366 -0.22613378 0.79292107 -0.12081308 -0.116572 0.39940712
-0.12483815 0.17327173 -0.8408607 -0.60217494 -0.51610875 0.32857597 -0.28000233 -0.10956944
-0.09699575 0.1175048 -0.3288097 -0.12897824 -0.12245588 -0.054682195 -0.1475784 -0.13987301
-0.001671873 -0.09960368 -0.5427481 -0.5266605 -0.02106031 -0.116277665 -0.43667832 -1.3467917
0.035633128 0.30897337 -0.12032692 0.082645714 -0.23769341 -0.57488495 -0.08979356 -0.12050931
-0.20315532 -0.11527447 0.16982749 0.32442087 -0.11663185 -0.39971104 -0.121393114 1.3563311
-0.10638237 0.32752943 0.110213876 -0.25663382 -0.34870824 -1.0179713 -0.12915625 0.08395649
-0.15941595 -0.11530007 -0.2890308 -0.14091493 -0.12010053 -0.62876993 -0.11828157 -0.30202556
-0.22939895 -0.15490918 -0.18556309 -0.3669239 -0.18212625 -0.47066146 -0.15450074 -0.22706802
-0.15512066 -0.15489286 -0.2114997 -0.15439908 -0.19530876 -0.23837356 -0.1986401 -0.1546999
-0.15494461 -0.276306 -0.15500823 -0.50443774 -0.38887766 -0.44010666 -0.28160197 -0.16685252
-0.42715517 -0.17133084 -0.4587946 -0.17799151 -0.29759353 -0.15515609 -0.15499413 -0.15512502
-0.24669322 -0.35715574 -0.23790872 -0.22997864 -0.15497567 -0.21593347 -0.1545366 -0.15522142
-0.20391959 -0.32131675 -0.17067231 -0.49379885 -0.21987338 -0.15583421 -0.15473051 -0.26732183
-0.49269602 -0.15488648 -0.15626913 -0.215358 -0.155382 -0.15490809 -0.30643559 -0.18594512
-0.28867614 -0.21917914 -0.20929055 -0.26328877 -0.27734947 -0.20941661 -0.15554063 -0.38119313
-0.21781695 -0.3733031 -0.17843601 -0.15376087 -0.3033351 -0.15452535 -0.15500528 -0.21389692
-0.5086109 -0.21589981 -0.4685246 -0.2436805 -0.2733687 -0.25596437 -0.16921793 -0.15559469
-0.20005582 -0.31704232 -0.20963942 -0.20155728 -0.15309808 -0.16054568 -0.1538896 -0.20078816
-0.1811911 -0.15540312 -0.21580309 -0.28626224 -0.30632782 -0.15540996 -0.20094745 -0.3786092
-0.2925759 -0.6823738 -0.15473767 -0.17756487 -0.17049496 -0.2245285 -0.21557578 -0.15489145
-0.15952188 -0.15518153 -0.18161444 -0.21063146 -0.1554793 -0.22249155 -0.15483525 -0.32817963
-0.15465146 -0.2901864 -0.18940999 -0.18475844 -0.21730293 -0.19420524 -0.15425542 -0.24036802
-0.2075055 -0.155111 -0.19383368 -0.15244307 -0.15460157 -0.1962672 -0.15395279 -0.16094641

weight f4 [128, 3]
00000000: 60ba 7b3d 57f3 48bd 2bbd 963d defc d63a
00000010: fc75 c63b 70ac 66bb 3945 3abd c0f3 27bb
00000020: cd52 b9bc 3887 0c3e fe52 10be 5310 06bd
00000030: 0315 0ebd 4695 a7bd 24b4 0b3e 36ce cdbf
00000040: 86d2 08bf b54d abbe 0e98 1c3b 71da d13b
00000050: cd60 8ebb f24b 173e c5b6 393d d7e1 fe3c
00000060: b839 2ebb adbf 6a3b 742f 8aba 656d 92bb
00000070: 05b9 433b cf14 3fbb a32c 2f3d 00f6 563e
00000080: de4e 79bd 71d2 a53a e6ac ad3b 0010 58bb
00000090: 0490 1a3d 3ccf 1dbe adb1 71bd 4c26 89bc
000000a0: 6b0e 02bd 6a0b 94bc a9dd fe3c 1e96 aabd
000000b0: 83d2 bfbd 8f55 7539 9894 b13b a62c 3bbb
000000c0: 8536 bb3a 0860 ca3b 47fb 75bb 04d2 503c
000000d0: 5b99 0f3e b0a4 193d 4707 8c3a 95d6 c53b
000000e0: a506 5dbb 6275 00c0 2e90 7fbc 733e 47be
000000f0: 7dc6 003e 856f abbe a2b9 e1bd 4189 a73b
00000100: 3d7d 54be 5e84 803d be89 943e 1b4c c43e
00000110: cdee 7640 c174 833a a9fa 9ebc 941f ef3b
00000120: adf2 643e b59a 6dbe c84d 8f3d dbdb 9fbc
00000130: 56e9 2dbd e710 7cbb 285d 8ebc ae24 3740
00000140: 91e6 aebe 34c5 11bc 1b79 143d d810 a8bc
00000150: 945d c03d a9da 96bc e428 55bd bf60 06b9
00000160: bb28 c83b f7ad 28bb a1e7 3db9 eac4 aa3b
00000170: d832 2abb 2454 833a 4c84 c93b 9e03 59bb
00000180: 0e39 e13d 2d0c 27be a256 19bd 3e2b 0d3b
00000190: dffa 503d 75c4 e33d 6aa3 c13c 445b d23d
000001a0: 655f 3ebd 1761 1d3d 3ccb 873d a073 ce3d
000001b0: 918d 1d3b 23e1 313c cb67 d7bb dcab a93c
000001c0: 4be6 eabc 7687 703e 369f 573b ef8d d83b
000001d0: d4b8 e0bb 5518 b0ba 3b5a a13b 9150 dfba
000001e0: 146b a1bb cee3 86bd 1a5d 9abd 4117 1ebf
000001f0: ffff abbd 1c58 a23b 7731 82bc 440b 1fbd
00000200: 9503 2ebc 0e83 e3bd 8fb1 cbbd 5030 78be
00000210: 463b 013e 40b0 da3d e416 113d 816c 3ebb
00000220: bb82 743b 542f 4dba 0d2e dc3a 8cc6 c63b
00000230: 8ba7 7abb dcf0 833c fd3d 76bb 9eb7 75be
00000240: 0d76 a6bd 53b9 88be d5cd 253d c88d 013b
00000250: 31db d03b 4ebb 81bb 7006 17bb 2451 a83b
00000260: abb5 e9ba 39dc c73c d4d5 273d 43e4 033c
00000270: 6bc3 243a 0faf ca3b 8bf7 3fbb 6bb9 2639
00000280: 6f18 b13b 9796 29bb 3536 1fbd ad3f 843d
00000290: 0b29 093d e34c 81bb 2f8e c63b 700c 163b
000002a0: 7ef5 febc 4922 18be bea4 893d b697 883d
000002b0: 6ec6 adbd 91e9 53bd c55b 2ebd 094e c6bd
000002c0: aca7 193c cf28 0c3d e5c5 bd3c 00e4 c43c
000002d0: 1e3d 19bd ffec 57bd 80ea 413d 0b75 86bb
000002e0: a383 66bd 031c 49bc f8e0 85ba 694e ac3b
000002f0: 99d1 deba 02bc f13f 33bd e8be 23d3 40bc
00000300: 05f9 b53c 0267 f83d 6b83 7fbd f1a7 513d
00000310: d4aa 683e 8690 39be cc5e 98bc 2bb5 91bd
00000320: e910 c5bc 47a0 68bd 24d1 803c d3cc 1cbd
00000330: 47c9 b43d ca45 473e 3ca8 c1bd 8ef2 5f3b
00000340: 42f5 d43b 03db a4bb 59e3 0f3a 76cc bb3b
00000350: c692 40bb f362 d23c fce5 6ebc 36f4 2cbe
00000360: a1b9 673d b7c4 aebd dac1 e7bd a618 983d
00000370: de92 d5bd 00f1 9f3e 211a af3e 9475 cfbe
00000380: 8fd9 833d ae3b 42bd 474f 64be 13e3 aa3d
00000390: b3a6 48be a03f a6be 65f3 80bc 6bce 17bd
000003a0: 4287 c63c 1710 2abc 8a9d 41bd 8491 42bb
000003b0: 5869 4cbd 1438 11bb 0fc4 963b fc5a 9dba
000003c0: 6bc2 19bd 97e1 6f3e 4b6b 533d 9965 10bc
000003d0: 80b7 7bbb 4cfd 08bf 8bf7 d7bd e8af a63d
000003e0: 0daf d3bc 7274 d23b de2f 2ebc 5130 aebd
000003f0: 9416 303b ee4d af3b f2c4 81bb f0e9 5438
0.061457038 -0.049060192 0.073603 0.0016402265 0.0060565453 -0.0035197996 -0.045476172 -0.0025627464
-0.02262249 0.13723457 -0.14094159 -0.03273041 -0.034688007 -0.081827685 0.13642937 -1.6078556
-0.53446233 -0.33457723 0.0023894343 0.006404214 -0.0043450356 0.14775065 0.04534032 0.031113548
-0.0026584696 0.0035819814 -0.0010542707 -0.0044686073 0.002986492 -0.002915669 0.04276718 0.20992279
-0.06086623 0.0012651217 0.005300152 -0.003296852 0.037735 -0.15411085 -0.059007335 -0.016741894
-0.03175203 -0.018071849 0.031111555 -0.08329414 -0.09366324 0.00023396894 0.005419325 -0.0028560548
0.0014283216 0.0061759986 -0.0037533806 0.012745384 0.14023344 0.037510574 0.0010683321 0.006037543
-0.0033725884 -2.0071645 -0.01559834 -0.19457416 0.12575717 -0.3348352 -0.11021735 0.0051127975
-0.207509 0.06275247 0.2901134 0.38339314 3.8583252 0.0010029302 -0.019406633 0.0072974656
0.22358198 -0.23203547 0.069972575 -0.019514015 -0.042458855 -0.0038462223 -0.017378405 2.8616138
-0.34160283 -0.008897115 0.036248308 -0.020515844 0.093928486 -0.018414812 -0.05204095 -0.00012815277
0.006108371 -0.0025738457 -0.00018110733 0.0052114623 -0.0025970247 0.0010019583 0.006149804 -0.0033113728
0.109972104 -0.16313238 -0.037436135 0.0021540667 0.0510205 0.111214556 0.023637492 0.10271314
-0.046477694 0.03842267 0.06630561 0.100806475 0.002404068 0.010856899 -0.0065736524 0.020711832
-0.028674265 0.23489174 0.0032901294 0.0066087167 -0.0068579707 -0.0013434986 0.0049240864 -0.001703756
-0.004926095 -0.06586419 -0.07537289 -0.6175423 -0.08398437 0.004954351 -0.015892727 -0.038829103
-0.010620971 -0.11108981 -0.09945976 -0.2423718 0.12620267 0.10678148 0.03542222 -0.0029056373
0.0037309367 -0.0007827182 0.0016798392 0.006066149 -0.0038246836 0.016106062 -0.003757357 -0.23995826
-0.08127985 -0.2670389 0.0404795 0.0019768346 0.006373786 -0.003959096 -0.0023044609 0.005136626
-0.001783063 0.024397003 0.040975407 0.008050027 0.0006285223 0.0061854194 -0.0029291834 0.00015900067
0.005404524 -0.0025877112 -0.038870055 0.06457458 0.033486407 -0.003945933 0.00605943 0.0022895597
-0.03112292 -0.14856829 0.06720875 0.066695616 -0.08485113 -0.05173642 -0.042567987 -0.09682853
0.009378355 0.034218606 0.023165653 0.0240345 -0.0374118 -0.05271625 0.047342777 -0.004103308
-0.056277882 -0.012274745 -0.0010214141 0.0052583707 -0.0016999721 1.88855 -0.45456848 -0.011769089
0.022213468 0.12129022 -0.06238119 0.051185552 0.22721416 -0.18121538 -0.01859989 -0.07114633
-0.024055915 -0.056793477 0.015724726 -0.038281273 0.08827453 0.19460216 -0.09455916 0.0034171673
0.0064989636 -0.005030991 0.00054888945 0.0057311608 -0.0029384359 0.025681948 -0.0145812 -0.16890034
0.056573514 -0.08533614 -0.11316271 0.07426576 -0.10428403 0.31238556 0.34199622 -0.40519392
0.064379804 -0.047420196 -0.22295867 0.08344092 -0.1959484 -0.32470417 -0.01574106 -0.03706209
0.024234418 -0.010379813 -0.04726938 -0.0029688785 -0.04990515 -0.002215867 0.0046010087 -0.0012005265
-0.037538927 0.234259 0.051615994 -0.008813285 -0.0038408935 -0.535115 -0.10545262 0.0813902
-0.025840307 0.006422573 -0.01063153 -0.085053094 0.0026868926 0.005349866 -0.0039602453 5.076261e-05

weight f4 [2, 128]
00000000: 4320 c0bc fd78 be3b e9d6 4a3c d93e 2dbd
00000010: 8ecb cdbd 812c d9bd 7e44 b63b 7081 1c3c
00000020: b94c cf3b 9d11 213c ec08 82be d467 b93b
00000030: f9d6 103f f53e ee3c 7bfd c83d 7a63 be3b
00000040: ddf5 b13b 7a1c e5be c329 c13b bc58 94bd
00000050: 6206 9bbc 39ae e2bb 07ea 013c 86d7 cbbd
00000060: 7667 97bd 564c 01ba cde5 b33d 798c 923d
00000070: 86d9 1ebd c72f cc3b f757 bd3b 50e5 bb3b
00000080: cebe 86bd 3a24 b5be 14c3 833e eae6 8ebe
00000090: eea5 bf3b 6c18 863d c567 a73b c639 d23b
000000a0: f941 8fbd 8b5a 6d3e 18fb f4bb 0867 0cbe
000000b0: f5ba f2b9 0a62 de3b cf29 c03b 4ab1 bfbd
000000c0: b05e 8b3e ce83 c23b 7126 c73b cb1d 1bbf
000000d0: b000 ca3b 954c d03b 2dae a5bd 4b02 793e
000000e0: 1595 98bd d79f 5bbe 842f 653e a7ce 963e
000000f0: e45d 35be 610b 683d 8426 d83b 106e 20bd
00000100: 158b a83e 8ba0 acbe 9795 14bd 156a a43d
00000110: 69af 5f3d 96db 9f3b 4506 ce3b c16d 41bd
00000120: c7e4 803e 5293 19ba 105c 163e 10ab fd3e
00000130: b09f 563d bf2e d03d e064 703d 44cb dc3b
00000140: d082 90bd 2109 583e a1da 463e c4cc 8d3e
00000150: 73ce de3b b16b 3d3b 1674 0b3b 4769 ac3e
00000160: 8c81 6ebe 5520 f63b 9cf8 8ebe 1e5e 81bc
00000170: 48e6 783e 227f d43b 8d39 483e 7101 22be
00000180: 7e22 ca3e 37b2 f5bd 0d9a a83b 450e 2ebc
00000190: c158 713d 9608 f33d 37d4 bebe c493 aa3b
000001a0: 3ec1 d03c a287 c53b 8f55 f63d 4160 073f
000001b0: d22c be3b 5580 9b3c d2bf ae3b 712a 133d
000001c0: b357 ff3b 0a40 acbc 6e51 56bf 2510 9c3d
000001d0: 4896 493d 7077 553d 9192 c73b 61ad 483c
000001e0: 5fd9 a13c 86b4 bc3b ca89 d8be 403b d53b
000001f0: 4787 c13b 9ceb c7be 2473 c53b 7fee 38be
00000200: 109d 893d 58cb aabc 8e32 343d d173 0e3d
00000210: b5c7 b4bd 292b b1ba cb73 b7bc 6cd5 ef3b
00000220: b4db 8ebc 13ce 39bc 6265 12be d463 acbc
00000230: 4a41 c5bd a1a4 123d a5ab 51bd aae0 a6bc
00000240: 7600 b0bc 823a 75be cac8 a9bc 6f0b 97bc
00000250: 6f1c 48bd 8c3c 343d 64e1 cc3d e6c1 723b
00000260: 8e50 0fbd 4e06 bfbc 1759 233d aeb4 083c
00000270: 9f52 493d 3f6f a2bc 9699 a1bc b492 acbc
00000280: 8704 923d e1aa a5be 7945 dcbe 0503 e9be
00000290: 3263 bebc 0a12 aa3c 4f95 c8bc 32bb 94bc
000002a0: df60 19be ec33 2d3d 8fec 10bd 4fa0 d03e
000002b0: 1d9b 203d eeea 80bc ba11 acbc f43b cdbd
000002c0: 95c3 d93e aba4 acbc 5663 80bc a6a1 1ebd
000002d0: df46 a3bc 5460 9ebc 9f17 edbd 01a0 073f
000002e0: 5124 9c3c aaf0 673d 7557 ae3e 3863 fa3e
000002f0: 0150 083f 40b8 a13d afd6 92bc 4138 f33d
00000300: 75fe 0fbe d63e e63b 5a63 ed3d 14e1 873d
00000310: 5934 993d 1a1f bfbc 69fa 9fbc 2d74 413d
00000320: e76b 0bbf df46 4e3e 5466 313c 9fd9 8ebc
00000330: bf1d 013d dc6a 673d 446c 813d 9089 89bc
00000340: 2197 183c d02a 563e a44a 02bc 8c0a 963e
00000350: 66d5 a9bc b7b8 43bd c4dc a5bc b357 1cbf
00000360: 6ca4 f23e 5a0a 58bc 96fb cd3e 3be2 29bd
00000370: 4fdc 34bd 4b70 9cbc e0fa 1dbb 9f88 eabc
00000380: b977 04be b074 bfbe b0ce babc 5408 253b
00000390: 79c2 36bd 929b 823e 0ba8 9d3c 98de b8bc
000003a0: f839 3e3c 41a1 9fbc 66f1 a6bb dd9c 56bf
000003b0: 32d3 98bc d10c 96bc cf7f bbbc b548 c33d
000003c0: eda5 5cbc 259e 223d c006 c9bb 9963 573e
000003d0: 2f18 c33b 80db ca3d c75f 99bc dabe 87bc
000003e0: 62ef 5e3c ff91 a4bc b65d c2bc 219d c3bc
000003f0: 80b5 adbc 1ba9 3abf e0dc a6bc fc05 da3b
-0.023452884 0.005812763 0.01238034 -0.042296264 -0.100485906 -0.106041916 0.005562364 0.009552345
0.0063262847 0.0098308595 -0.25397432 0.005658129 0.5657802 0.029082755 0.098139726 0.0058101984
0.0054309205 -0.44748288 0.005894871 -0.07243487 -0.018923942 -0.0069177416 0.007929332 -0.09953217
-0.073927805 -0.00049323344 0.087840654 0.07155699 -0.038781665 0.0062312814 0.0057783085 0.0057341233
-0.06579362 -0.353792 0.2573477 -0.27910548 0.005848638 0.06547627 0.005108806 0.0064155785
-0.06995005 0.2317907 -0.007476222 -0.13711178 -0.0004629713 0.0067865895 0.005864359 -0.09359987
0.27220678 0.0059361225 0.0060775806 -0.60592335 0.0061646327 0.0063567855 -0.08089862 0.24317281
-0.0745031 -0.21447693 0.22381407 0.29454538 -0.17711598 0.056651477 0.0065963883 -0.039167464
0.3291861 -0.33716235 -0.036275472 0.08028046 0.054610644 0.0048784716 0.0062873685 -0.04722381
0.25174543 -0.0005858439 0.14683557 0.49544573 0.052398384 0.10165166 0.058689952 0.0067380983
-0.070562005 0.21097232 0.19419338 0.27695286 0.006799513 0.00289033 0.002127891 0.3367407
-0.23291606 0.0075111785 -0.2792405 -0.015791949 0.24306595 0.006484882 0.19553204 -0.15820862
0.3947944 -0.119968824 0.0051453174 -0.010623519 0.058922533 0.11866872 -0.37271282 0.0052056033
0.02548277 0.0060281316 0.12028038 0.52881247 0.005803683 0.018982092 0.0053329254 0.035929147
0.007792437 -0.02102663 -0.83718 0.07620267 0.049215585 0.052115858 0.00609047 0.012248368
0.01975697 0.0057588248 -0.42292625 0.0065073073 0.005906019 -0.39046943 0.0060256887 -0.18059729
0.067194104 -0.020848915 0.043993525 0.03477842 -0.088271536 -0.0013516891 -0.022394082 0.007319143
-0.017438747 -0.011340636 -0.14296487 -0.021043696 -0.096315935 0.035801534 -0.051189084 -0.0203708
-0.021484595 -0.239481 -0.020725626 -0.01843807 -0.04885524 0.044003054 0.10003927 0.0037041842
-0.034988932 -0.023318436 0.039879885 0.008343859 0.04915106 -0.019828437 -0.019726556 -0.021066047
0.0712977 -0.32356933 -0.43021753 -0.45510116 -0.02324066 0.020760555 -0.024485258 -0.018155668
-0.1497836 0.042285845 -0.03538185 0.40747306 0.039210428 -0.015737023 -0.021004546 -0.10021201
0.4253203 -0.021074614 -0.015672367 -0.03872838 -0.019931255 -0.019333042 -0.11576771 0.5297852
0.019060286 0.056626 0.340511 0.48903823 0.53247076 0.07896471 -0.017924635 0.11875964
-0.14061911 0.0070265336 0.115912154 0.06634727 0.07480688 -0.02333026 -0.019528585 0.047229934
-0.5446152 0.20144223 0.01082762 -0.017437754 0.03152251 0.056498393 0.06319478 -0.016789228
0.009313376 0.20914769 -0.007952366 0.29304922 -0.02073164 -0.04778358 -0.02024687 -0.6107132
0.4739107 -0.013186062 0.40231007 -0.041475516 -0.044155415 -0.019096514 -0.0024105832 -0.0286296
-0.12936296 -0.37393713 -0.022803634 0.0025181966 -0.044619057 0.25509316 0.019245168 -0.022567078
0.0116105005 -0.019486072 -0.005094695 -0.83833104 -0.018655393 -0.018316658 -0.022888092 0.09535352
-0.013467294 0.0397016 -0.006134838 0.21034087 0.0059538106 0.099051476 -0.018722428 -0.016570497
0.013606878 -0.020089148 -0.023726325 -0.023878636 -0.02120471 -0.72914284 -0.020368993 0.0066535454

bias f4 [2]
00000000: 268b 16bd f3ae 8b3d
-0.036753796 0.06820478

W f4 [128, 128]
00000000: e381 8dbd e413 e93d b864 ff3d ac69 a73b
00000010: cf74 983d 99ad 6bbe 868f 03be cee8 d0bd
00000020: 8ebb 5abd 944f 1d3d 4c8f 81be d6ff 09be
00000030: fe84 1abe e6fc eb3a 5462 2d3d 891d 783d
00000040: 3662 94bd 8da3 7fbe 4e61 5f3e 3eb2 0dbe
00000050: fb53 5a3d e99b 893d a794 d7bd 8978 bb3d
00000060: 0b1d a9bd a62f 5cbc 32fa 46be c3c4 16be
00000070: b12b bcbd 472b 2bbb f4ae 093d 8c89 ce3c
00000080: 3bc8 adbd 11c3 783d 6ec4 823d 2205 723d
00000090: 21f1 25be 605a 86be 4072 913d 19e9 703d
000000a0: 2abb 80bd 39ec c23d 2866 043e b3d3 bebc
000000b0: 189f 0dbd 4dbd 8dbd 599e f43d 4c5e a83d
000000c0: f05a 5bbd 70d0 bb3d b61f fb3d 30c2 36be
000000d0: c393 823d c69b 4bbd d034 0bbe b395 57be
000000e0: dbd0 24be 5824 043d 65e7 ffbd b5d2 b9bd
000000f0: 9977 003e 65cf 093e 13be 853d ac94 1cbd
00000100: 5c07 dd3d ea01 c43c 0ac7 0d3e d55e 94bd
00000110: 9ad9 c3bc d842 643d 015a 0e3e 82d6 b93d
00000120: 0214 42be 8228 d6bc 5039 e33d 5eb6 8abd
00000130: 3e61 df3d f65c 5c3e ad2d 2fbe 8e0e d83d
00000140: efd2 be3d bf65 78bd d36d d73c d11c 5b3b
00000150: 3b7c 90ba e1ae 9ebd 2938 2abe 1712 f6bd
00000160: 3edf 823d b02d 8ebc d934 38bd 7534 9a3d
00000170: a483 a53d 96b0 b63d 51c5 5b3b 68c2 bebd
00000180: c263 8cbb 04ea e73a 6634 8fbc e6b1 57bb
00000190: af3a 2c3d 1aa0 4f3e aa0f 9bbd d127 183e
000001a0: 72b1 cabd 279f 95bc 01f9 fc3d ba00 86bd
000001b0: 1633 67bd 310b c93c fa9b 2fbd e3fb 273e
000001c0: d905 c43d 4c02 a1bb 5997 fc3b a86a e4bc
000001d0: 9a07 bc3d 0739 d0bd d180 31bc 11fa 97bd
000001e0: ea43 2ebe 8190 bbbc e1aa dabd 8a21 f5bc
000001f0: e661 5ebd 2af4 933c fb66 babc b839 8c3c
00000200: 3866 043d b1f6 143e 9198 883c 62c4 84bb
00000210: cc48 8b3d c800 093e f67b b4bb 612e c33d
00000220: b0d5 fe3d fd91 97bc cea0 ad3b 7842 ab3d
00000230: 0519 b93d 8849 cf3c 0513 ee3d bcf8 993c
00000240: 3cd3 183e 9cdf 2dbd 96e7 0e3d 4366 473d
00000250: fb07 8cbd 1060 a93b 2dec deba 53a2 edbd
00000260: 2b00 8e3b 792a 5bbd 449b 08be 28e6 db3d
00000270: c1d1 35bd 441a e1bc 4e03 fe3a 45fe b5bd
00000280: 0f48 04be d40d 7f3c 797e fb3d 36e1 213e
00000290: 4151 81be ffbe 663d 537a 17be b45e abbd
000002a0: d04d 783b 646c 11be c792 94bd 3267 f63d
000002b0: d5c2 443d 9bbb 233e a608 153e 0fdc 2c3d
000002c0: e32a 18be 9b4c c03d 89bd fdbd f0f9 15bd
000002d0: ee06 fe3c 3ad9 9f3c abc1 eebd 3114 06be
000002e0: 5dd4 aabd 1361 dfbd ddb1 443e 898a 863d
000002f0: 4265 513d 9424 29bd 5a91 0abc 46db 833c
00000300: 6bb2 533e 322c 053c 468e 773d 4deb e3bd
00000310: b833 33be c57d a23c 921d 13bc aa1a a13d
00000320: 37ad a5bd 1388 393e c72d f03d 7ea3 023d
00000330: 459d 64bd 1211 45be 91e5 873d a7b9 e4bd
00000340: 12e8 3e3e 8e42 a5bb 04df f43d dc7c ea3d
00000350: 77ae afbd a211 75bd 7d18 223d 67dd 353d
00000360: c9d4 8abd 5334 ee3d 86ab 1dbe 3159 febb
00000370: f1d5 d9bd a65c 133e fcac fb3c 0db2 7e3d
00000380: fe1f babc b244 ac3d e06b a63d ee9d 00bb
00000390: 551a 6b3d 271e 0b3e d01c 153e 75e4 033d
000003a0: 91da 91bd 15f2 47be 8dfd f5bc f40a 55bd
000003b0: bb65 9d3e 5c40 99bd 0c9c f43c 6a27 9ebd
000003c0: 439c 7b3d d846 3ebc 5715 fb3c 8253 25bc
000003d0: 0ca9 e4bc a224 163d dd57 d7bc 760b 10bb
000003e0: 71a9 e13d b222 8c3d e927 473c 03ce 79bd
000003f0: 226c 4ebd 67bd d93d 882c b93d 7ce7 92bd
-0.069095396 0.11380747 0.124703825 0.0051090326 0.074441545 -0.23015441 -0.12847719 -0.10200654
-0.053401522 0.03840597 -0.2530464 -0.134765 -0.15089795 0.0018004447 0.0423301 0.060575042
-0.07245295 -0.24964733 0.21814463 -0.13837525 0.053302746 0.067191906 -0.105264 0.0915385
-0.08257493 -0.013439095 -0.1943138 -0.14723496 -0.09188021 -0.0026118325 0.033614114 0.025212072
-0.084854566 0.060732905 0.06385122 0.059086926 -0.16205265 -0.26240826 0.071018696 0.05881605
-0.06285699 0.09517712 0.12929595 -0.023294305 -0.03457555 -0.06920872 0.11944265 0.08221111
-0.05355352 0.09170616 0.12261908 -0.17847514 0.063758396 -0.049709104 -0.13594365 -0.210532
-0.16095297 0.032261223 -0.12495307 -0.09073392 0.12545623 0.13458021 0.065303944 -0.038227722
0.10792419 0.023926694 0.13845459 -0.0724465 -0.023907471 0.05572781 0.13901521 0.09074117
-0.18952945 -0.026142363 0.11094916 -0.06773065 0.10907219 0.21519837 -0.17107268 0.10549651
0.09317576 -0.060643908 0.026297485 0.0033433924 -0.0011023352 -0.07748199 -0.16622986 -0.12015169
0.06390236 -0.01735577 -0.044972274 0.07529537 0.08081749 0.089204 0.0033534358 -0.09314424
-0.004284353 0.0017693643 -0.01748104 -0.0032912432 0.042048153 0.20275918 -0.07571347 0.14858939
-0.09897126 -0.018264366 0.12352181 -0.06543107 -0.056445204 0.02454147 -0.04287336 0.16404681
0.09571428 -0.004913604 0.0077084717 -0.027882889 0.091811374 -0.10167127 -0.010833935 -0.07420743
-0.17018095 -0.022896053 -0.10677124 -0.02992322 -0.054292582 0.018060762 -0.022754183 0.017117366
0.032324046 0.1454723 0.016674312 -0.004051731 0.06800994 0.13379204 -0.0055079414 0.095303304
0.124431014 -0.01850223 0.0052987104 0.08362287 0.09037975 0.025303617 0.116247214 0.018795364
0.1492433 -0.04244958 0.034888826 0.04868151 -0.0683746 0.0051689222 -0.0017007642 -0.116032265
0.004333516 -0.053507302 -0.13340479 0.10737258 -0.04438949 -0.027478345 0.0019379647 -0.08886389
-0.12918113 0.015567262 0.12279982 0.15808567 -0.25257304 0.05633449 -0.14792757 -0.083676726
0.0037888177 -0.14201504 -0.07254558 0.12031402 0.04803737 0.15989535 0.1455408 0.04220205
-0.1486011 0.09389611 -0.123896666 -0.036615312 0.031009164 0.019512761 -0.11658033 -0.1309364
-0.08341286 -0.10907187 0.19208474 0.06569392 0.051121958 -0.04129465 -0.008457506 0.016095769
0.2067353 0.008128213 0.060438417 -0.111288644 -0.17500198 0.019835362 -0.008979218 0.07866414
-0.08089679 0.18118314 0.11727481 0.0318942 -0.055814046 -0.19244793 0.06635583 -0.11168223
0.18643215 -0.0050433343 0.11956599 0.11449596 -0.085781984 -0.05983127 0.039574135 0.0444006
-0.06778867 0.11631074 -0.15397462 -0.0077620973 -0.10636509 0.14390811 0.030722134 0.06218152
-0.022720333 0.0841154 0.08126044 -0.0019625383 0.05739816 0.13585721 0.14561772 0.032200295
-0.07121766 -0.1952594 -0.030028129 -0.0520124 0.30741677 -0.07482979 0.029859565 -0.077223614
0.06142832 -0.01161357 0.030649824 -0.010090711 -0.02791264 0.03665603 -0.026287014 -0.0021979488
0.110186465 0.06842555 0.012155511 -0.060987484 -0.050396092 0.10631829 0.09041697 -0.071730584
