LeakyRNN_11.28/1202/sg_3_128_d10_r7_4/model_0.pth (torch, 137244 bytes, 5 tensors)

weight f4 [128, 128]
0.19364208 0.015580036 0.12525879 -0.06316297 -0.032471802 -0.10996842 0.030606482 -0.15839148
0.00024427322 0.1492841 -0.24139486 -0.011382 -0.10563667 0.08445775 0.13286436 0.23973751
0.092157304 -0.22609203 0.41634065 -0.055177096 0.08107173 0.11325528 0.04600653 0.19777259
-0.09186941 0.021507114 -0.35321724 -0.087181635 -0.13468844 0.07021344 0.09252443 -0.21291728
-0.099612884 -0.07604137 0.1814341 -0.025382787 -0.055072043 -0.2900914 0.23307613 0.21102957
-0.23804134 0.0053478917 0.2182835 -0.045998514 -0.12146796 -0.16846862 -0.038341522 0.20060462
0.046423078 0.023659188 0.00015100186 -0.2466296 0.20010263 -0.18954247 -0.19544037 -0.15386778
-0.2470681 0.15211125 -0.25653467 -0.14742738 0.025783118 0.10866688 0.025624504 -0.010836261
0.25686282 -0.13015702 0.1816749 -0.024027357 0.008703929 0.12952633 0.005959963 0.2414966
-0.07175231 0.08696326 0.0051416988 -0.16027002 0.12004908 0.261983 -0.32234332 0.15154694
0.12620606 -0.15761131 0.113602616 -0.15035631 -0.11334945 0.084633015 -0.19815601 -0.16045943
-0.114865266 0.04383284 -0.03616644 -0.041454062 0.016652515 0.16087218 -0.14675784 -0.16770263
-0.012928345 -0.01795619 0.0041015316 -0.07212342 0.18721697 0.044349127 -0.14069128 0.2475337
-0.27139556 -0.078192756 0.20059907 -0.10091653 -0.1648966 0.024069803 -0.107224815 0.121924244
0.20048222 0.12129001 -0.07837361 0.109096 0.19176006 -0.25723964 0.09199658 -0.03040018
-0.33207408 -0.20419715 -0.10035895 -0.119921036 -0.12221119 0.09556997 -0.11406135 0.08491184
-0.082938105 0.20154 -0.10739971 -0.024160657 0.1573562 0.13650084 -0.095113315 0.0689914
0.102642246 -0.15577513 0.025018109 0.052446276 0.03319507 -0.082438245 0.059909146 -0.10326763
0.1215653 -0.059592903 -0.019640636 -0.066699326 -0.052632906 -0.15963502 -0.06765801 -0.21976027
0.02756995 -0.046464097 -0.14883271 -0.042881195 0.02625811 -0.17153557 -0.00011975611 -0.089486584
-0.19157945 0.020033143 0.025568295 0.14676753 -0.34475043 0.056996256 -0.21499063 -0.199814
-0.022865295 -0.2001119 -0.099682696 0.07013482 0.028766459 0.16854481 0.12431605 -0.028537337
-0.16503935 0.14453796 -0.08700919 -0.10360608 -0.08892749 0.042124487 -0.27879944 -0.11586808
-0.12738232 -0.15270728 0.24772008 0.09914679 0.025473015 -0.10579957 0.032290526 -0.05900179
0.18953604 0.05446631 -0.0436646 -0.2064065 -0.17425744 -0.003501163 -0.021519927 -0.018204574
-0.16662216 0.17308708 0.112221755 0.058309007 -0.13225381 -0.2644358 0.07444452 -0.18363808
0.18185191 -0.04168733 0.08501617 0.0656631 -0.13319577 -0.10035646 0.032486506 0.05401563
-0.039294776 0.012816568 -0.10245113 0.08999194 -0.17390856 0.08886162 0.11142905 0.052398816
0.0042103194 0.050701357 0.097346835 -0.058046866 0.02538846 0.115063064 0.15048017 0.0429748
-0.042717196 -0.099519216 -0.11918675 -0.06818113 0.2791845 -0.04264241 0.05987868 -0.00523737
0.023188518 -0.1089445 0.041590843 -0.038841624 -0.04827534 -0.04599727 -0.15584563 -0.092300914
0.19554882 0.05959471 -0.029915996 -0.14607483 -0.05132433 0.12365627 0.120867305 -0.11430527
00000000: 1c4a 463e 6843 7f3c d743 003e 965b 81bd
00000010: 2701 05bd 1f37 e1bd 72ba fa3c 6031 22be
00000020: cc11 8039 eedd 183e 3730 77be 917b 3abc
00000030: 0a58 d8bd 2ff8 ac3d 980d 083e c07d 753e
00000040: f8bc bc3d ab84 67be 9a2a d53e 6101 62bd
00000050: ef08 a63d 62f2 e73d 5871 3c3d e684 4a3e
00000060: 0726 bcbd b02f b03c e4d8 b4be 498c b2bd
00000070: c4eb 09be 10cc 8f3d 737d bd3d fd06 5abe
00000080: d701 ccbd 94bb 9bbd dcc9 393e 90ef cfbc
00000090: 3993 61bd dc86 94be 82ab 6e3e 2318 583e
000000a0: 1cc1 73be 5e3d af3b b685 5f3e f068 3cbd
000000b0: 32c4 f8bd 0a83 2cbe 000c 1dbd 4c6b 4d3e
000000c0: 2026 3e3d ead0 c13c 4156 1e39 788c 7cbe
000000d0: b4e7 4c3e 6c17 42be 8521 48be 848f 1dbe
000000e0: 6cff 7cbe 0dc3 1b3e 8358 83be 34f7 16be
000000f0: 1e37 d33c be8c de3d 7bea d13c 938a 31bc
00000100: 8683 833e e247 05be fc08 3a3e 05d5 c4bc
00000110: ed9a 0e3c 8da2 043e cb4b c33b e24a 773e
00000120: e0f2 92bd cb19 b23d b27b a83b d31d 24be
00000130: 4bdc f53d a322 863e 2f0a a5be 1f2f 1b3e
00000140: 293c 013e dc64 21be 7da8 e83d 01f7 19be
00000150: c223 e8bd 1354 ad3d 69e9 4abe 7a4f 24be
00000160: 7b3e ebbd 108a 333d 4323 14bd bccb 29bd
00000170: db6a 883c adbb 243e b047 16be 3dba 2bbe
00000180: 69d1 53bc dc18 93bc 2466 863b 72b5 93bd
00000190: ceb5 3f3e 6ea7 353d 6011 10be 7979 7d3e
000001a0: 5cf4 8abe 8623 a0bd d869 4d3e 53ad cebd
000001b0: a8da 28be 092e c53c af98 dbbd 6bb3 f93d
000001c0: 364b 4d3e e666 f83d 5882 a0bd b96d df3d
000001d0: c05c 443e eab4 83be b468 bc3d cc09 f9bc
000001e0: 9d05 aabe 0f19 51be fe88 cdbd 2999 f5bd
000001f0: dc49 fabd 30ba c33d ff98 e9bd 42e6 ad3d
00000200: 74db a9bd 8060 4e3e 61f4 dbbd 92ec c5bc
00000210: fc21 213e e0c6 0b3e c5ca c2bd 5d4b 8d3d
00000220: 1936 d23d 8483 1fbe c7f2 cc3c e8d1 563d
00000230: 8ef7 073d 62d5 a8bd 4b63 753d fb7d d3bd
00000240: 3af7 f83d b017 74bd 66e5 a0bc a899 88bd
00000250: 9a95 57bd 5d77 23be 4890 8abd d608 61be
00000260: 60da e13c 2351 3ebd 9a67 18be 31a4 2fbd
00000270: 3f1b d73c 05a7 2fbe 9225 fbb8 be44 b7bd
00000280: 672d 44be 8c1c a43c 9a74 d13c 3a4a 163e
00000290: 2183 b0be e874 693d 8126 5cbe 0b9c 4cbe
000002a0: 0050 bbbc 22ea 4cbe 7126 ccbd d8a2 8f3d
000002b0: a3a7 eb3c 0397 2c3e 6a99 fe3d 22c7 e9bc
000002c0: 1300 29be c201 143e e031 b2bd 6d2f d4bd
000002d0: 9e1f b6bd ba8a 2c3d cdbe 8ebe 3e4c edbd
000002e0: 8370 02be 4c5f 1cbe 55aa 7d3e 790d cb3d
000002f0: c9ac d03c 72ad d8bd 1243 043d dcab 71bd
00000300: bc15 423e 1118 5f3d a7d9 32bd 3a5c 53be
00000310: 8b70 32be c573 65bb 8f4a b0bc c221 95bc
00000320: 009f 2abe bd3d 313e 85d4 e53d 6dd5 6e3d
00000330: 8b6d 07be 2164 87be 5e76 983d 9f0b 3cbe
00000340: 6337 3a3e 55c0 2abd f51c ae3d 607a 863d
00000350: 7964 08be b087 cdbd 9210 053d 7e3f 5d3d
00000360: 8ff3 20bd 95fc 513c e6d1 d1bd b24d b83d
00000370: 1615 32be 15fd b53d ea34 e43d 24a0 563d
00000380: b8f6 893b 3aac 4f3d c75d c73d 8dc2 6dbd
00000390: 76fb cf3c 2fa6 eb3d 7917 1a3e 5806 303d
000003a0: 3af8 2ebd bbd0 cbbd 2f18 f4bd 8ca2 8bbd
000003b0: 45f1 8e3e cfa9 2ebd 5943 753d 3e9e abbb
000003c0: d9f5 bd3c 4b1e dfbd 295b 2a3d 6518 1fbd
000003d0: 5dbc 45bd a267 3cbd ff95 1fbe 4308 bdbd
000003e0: f33d 483e 9519 743d 6412 f5bc a494 15be
000003f0: 7639 52bd 803f fd3d 4789 f73d e218 eabd

weight f4 [128, 3]
-1.7687002 -1.6582859 0.9521404 1.726595 -1.3184798 0.44577292 -0.57216233 1.6962967
0.94747066 1.3393939 1.2185699 0.29797974 1.4435602 -1.65014 0.28223622 -1.1961702
-1.8291193 0.13786976 -1.6160827 -0.013713214 -0.17723323 0.96106964 0.8732719 0.64263445
-0.63246584 -1.3668691 0.0075476537 -1.3360751 1.1649835 0.15844898 0.3180858 -1.172254
0.091405235 -0.9131427 -1.2669168 0.18325105 -0.3748063 0.74389243 0.22120097 -1.2510247
1.1431164 0.8622735 -1.1403937 -0.475549 -0.6737378 -1.6325732 -0.12936333 0.26069525
-1.4801514 -1.4516699 0.06224699 -0.55634594 -1.2377945 0.9357678 -1.6070424 -1.7441168
-0.38898522 -1.6198806 0.5596996 -0.5110525 0.91142666 -1.2477138 1.071869 -1.1669751
1.7043376 -0.264044 -1.4848695 -0.77921677 1.0739118 -1.5516346 -0.05997694 -0.9132148
1.0238298 -0.9608536 0.81837106 -0.20794319 -1.7382884 -0.005495239 1.5400648 1.3979915
0.22395441 -0.9863266 1.6794454 0.308173 1.1710266 -1.2107443 0.5904351 -1.4688115
1.6059672 -0.8377712 -0.7221028 -1.8445225 -0.81115526 1.7319287 1.3235775 -1.2862025
0.80213076 1.1776652 1.0141753 1.0219182 0.69321394 -0.11246869 -1.6177404 -0.23376283
-0.28926805 0.84961164 0.5381212 -0.25708485 -1.4127092 0.8771838 1.3424962 1.1865534
-0.4691883 0.23052032 -1.6410307 -1.0128073 0.018968599 -1.4460403 0.23659715 0.23653406
1.5498754 1.4484469 -1.0989631 0.8686278 1.3203534 -0.17874491 -0.63276285 0.123211145
1.2167099 0.25469622 1.2359407 0.1220081 1.2914913 0.45398456 0.5080553 1.3721747
-0.24714276 -0.48347056 1.4083115 1.244021 -0.32758093 -1.4633716 -1.0716072 -0.78125644
-1.1320527 -1.1057674 1.2975817 1.5226682 -1.3982728 -0.41830432 1.4951355 -1.2709612
-0.97238916 0.48066497 1.423204 -0.7046725 -1.6773027 -0.60292894 -0.6340896 1.2758546
0.70225877 -0.018600758 0.21832561 1.8501166 -0.3954176 -0.3268398 -1.9158669 0.38252798
0.86780834 1.2304014 0.27641794 -0.7897058 -1.0033549 0.1510648 1.5369679 -0.7486099
0.9801723 1.4156334 -0.84941083 0.7784639 0.9936792 1.5008548 0.69330496 0.45395795
1.3416313 0.46599823 1.1052748 -1.529269 0.30745274 -0.4507762 0.9921197 -0.25752354
-1.1016693 -1.860328 0.7813437 1.5953372 -0.33830237 0.16553058 -1.1046226 1.3384347
-0.82311 -1.2089831 1.4624814 1.1032891 -0.09591803 -0.8094049 1.0276554 -1.165943
-1.2663196 -0.86409116 1.5312932 1.0456257 0.6142781 -1.5322753 -0.50865847 -0.4492904
-1.2918276 -0.4185832 -0.5050221 -0.9405392 -1.7895703 0.3534855 1.6240056 0.822236
0.14427614 1.1853513 0.9669717 -0.48262846 -0.9873649 1.0734435 -1.0298012 -0.92435
-0.18773265 0.80370504 1.3937238 1.1155927 0.5997361 -1.0811 0.8037429 -0.4028964
0.3217936 -1.147537 -0.3445623 0.73235255 1.1639339 -0.21582256 -1.5427232 -1.59019
-0.12480935 1.4143006 1.8264754 0.30839592 1.2305015 1.8468348 0.5996842 -1.2312137
00000000: c564 e2bf b642 d4bf 79bf 733f 1101 dd3f
00000010: f2c3 a8bf 593c e43e 3b79 12bf 4020 d93f
00000020: 708d 723f 4271 ab3f 19fa 9b3f cd90 983e
00000030: 95c6 b83f ca37 d3bf 4481 903e 1b1c 99bf
00000040: 9520 eabf bb2d 0d3e ccdb cebf 63ad 60bc
00000050: a17c 35be a908 763f bf8e 5f3f b183 243f
00000060: 48e9 21bf 91f5 aebf 4f52 f73b 8204 abbf
00000070: 2e1e 953f 7340 223e 24dc a23e 6b0c 96bf
00000080: ab32 bb3d b8c3 69bf 542a a2bf 2aa6 3b3e
00000090: 9de6 bfbe bc6f 3e3f 8282 623e 9421 a0bf
000000a0: a351 923f f5bd 5c3f 6cf8 91bf 297b f3be
000000b0: 157a 2cbf 29f8 d0bf d277 04be d979 853e
000000c0: 9a75 bdbf 52d0 b9bf b3f6 7e3d b06c 0ebf
000000d0: 0d70 9ebf 7b8e 6f3f 91b3 cdbf 383f dfbf
000000e0: 1229 c7be 3f58 cfbf 7948 0f3f 56d4 02bf
000000f0: 4253 693f 16b5 9fbf 0133 893f 715f 95bf
00000100: bc27 da3f c630 87be 3410 bebf c07a 47bf
00000110: f175 893f f69b c6bf 61aa 75bd 72c8 69bf
00000120: db0c 833f 80fa 75bf c480 513f 0fef 54be
00000130: 3c80 debf 6811 b4bb d820 c53f 63f1 b23f
00000140: 4e54 653e e67f 7cbf 11f8 d63f dac8 9d3e
00000150: 33e4 953f abf9 9abf c126 173f 0402 bcbf
00000160: 5590 cd3f 2c78 56bf bbdb 38bf 5019 ecbf
00000170: dfa7 4fbf d7af dd3f fd6a a93f 49a2 a4bf
00000180: 7158 4d3f bcbd 963f 7fd0 813f 37ce 823f
00000190: 7876 313f fc55 e6bd 1e12 cfbf 865f 6fbe
000001a0: f11a 94be 2680 593f 50c2 093f a0a0 83be
000001b0: a8d3 b4bf 1e8f 603f ead6 ab3f fbe0 973f
000001c0: 7339 f0be 850d 6c3e 4b0d d2bf aba3 81bf
000001d0: 0964 9b3c d917 b9bf 8646 723e fc35 723e
000001e0: 5162 c63f b566 b93f d3aa 8cbf 645e 5e3f
000001f0: 5701 a93f e808 37be bffc 21bf 2056 fc3d
00000200: 26bd 9b3f 8b67 823e 4e33 9e3f 62df f93d
00000210: 964f a53f aa70 e83e ea0f 023f 6ca3 af3f
00000220: fe12 7dbe 7489 f7be 8d43 b43f 153c 9f3f
00000230: b0b8 a7be c34f bbbf 6d2a 89bf 6c00 48bf
00000240: 1ae7 90bf c989 8dbf 2817 a63f cbe6 c23f
00000250: 9afa b2bf fc2b d6be 9a60 bf3f dbae a2bf
00000260: 7fee 78bf b819 f63e 8c2b b63f 6b65 34bf
00000270: dbb1 d6bf 8d59 1abf b253 22bf 344f a33f
00000280: 3bc7 333f 9e60 98bc c090 5f3e 9fd0 ec3f
00000290: 2d74 cabe 8c57 a7be 203b f5bf b5da c33e
000002a0: b028 5e3f cb7d 9d3f a786 8d3e 292a 4abf
000002b0: ef6d 80bf bbb0 1a3e 5dbb c43f e6a4 3fbf
000002c0: 92ec 7a3f 7a33 b53f fd72 59bf 6949 473f
000002d0: c361 7e3f 031c c03f 6f7c 313f 2d6d e83e
000002e0: 93ba ab3f 5297 ee3e a579 8d3f 16bf c3bf
000002f0: 726a 9d3e 23cc e6be 8ffb 7d3f 20da 83be
00000300: 8003 8dbf 3a1f eebf 2406 483f 0234 cc3f
00000310: f835 adbe d980 293e 4664 8dbf d451 ab3f
00000320: 56b7 52bf f5bf 9abf 9732 bb3f 9438 8d3f
00000330: ac70 c4bd 2935 4fbf 368a 833f 9f3d 95bf
00000340: c316 a2bf 1435 5dbf 6a01 c43f 10d7 853f
00000350: 5441 1d3f 9921 c4bf 7137 02bf 6409 e6be
00000360: 9b5a a5bf 8a50 d6be 2149 01bf 2dc7 70bf
00000370: a410 e5bf 0dfc b43e 6adf cf3f 0f7e 523f
00000380: 20bd 133e 97b9 973f 758b 773f 141b f7be
00000390: f2c3 7cbf 9966 893f 87d0 83bf 34a2 6cbf
000003a0: fd3c 40be 9dbf 4d3f 8b65 b23f becb 8e3f
000003b0: 4e88 193f 7c61 8abf 18c2 4d3f 7048 cebe
000003c0: 21c2 a43e 7ee2 92bf 786a b0be 757b 3b3f
000003d0: c9fb 943f 9700 5dbe f477 c5bf 598b cbbf
000003e0: 0b9c ffbd cd07 b53f f2c9 e93f 12e6 9d3e
000003f0: 1381 9d3f 1565 ec3f e784 193f 6998 9dbf

weight f4 [2, 128]
-0.012518519 0.0569708 0.09838554 -0.10666019 0.056515247 -0.05095186 -0.0023679046 0.09718709
-0.02593476 -0.051815856 -0.0769909 -0.0031295803 -0.04964014 0.09339059 -0.11600055 -0.0074330447
0.00054975325 0.027800402 -0.056625143 0.08396235 -0.099002704 -0.05908075 -0.021447688 -0.115284026
-0.058063015 0.09971481 0.0967373 -0.10243328 -0.0075941994 -0.095360026 -0.019352943 -0.05488514
0.059638012 0.010630283 -0.037765794 -0.0038187574 0.05578649 -0.08323695 0.06842858 -0.09847931
-0.13909237 0.02967054 -0.026756115 0.04453356 0.05697606 0.028541787 0.01791733 -0.107518576
0.007689424 -0.00036887356 0.045696832 0.013800837 0.015178804 0.06520053 -0.006022142 0.023333447
0.10621856 -0.05971202 0.14280675 0.039782662 0.024923332 -0.022639735 0.07439315 -0.0049865684
-0.08053304 0.0064086043 -0.06870293 0.048891127 0.08739209 -0.01736267 0.056481022 -0.10004583
-0.016935833 0.07968705 -0.017912975 -0.031448565 -0.02203176 0.087443165 0.117060654 -0.028833333
-0.093010105 0.051077526 0.1261343 -0.03155051 -0.1065218 0.031053394 -0.076692 -0.021862557
0.07655602 -0.059122313 -0.05751145 0.05194504 0.11895453 -0.09584776 -0.023146177 -0.065045275
-0.039338812 0.0188805 0.0737949 -0.06254842 -0.08403171 0.015847493 0.06736323 0.061376832
0.055685233 0.1489194 -0.068607084 0.018270444 0.014335199 -0.0030751186 0.026242865 0.042924557
-0.11414162 -0.007905887 -0.110418126 0.023586288 -0.04178355 0.031331524 -0.059526924 0.10265028
0.02999926 0.0076708477 0.030297806 -0.073278956 0.084811255 -0.053638216 0.067475535 0.055097412
0.05416766 4.554322e-05 0.14742066 0.043807678 -0.022962615 -0.052412707 -0.02504722 0.035931595
-0.06421145 0.08855567 -0.013386988 0.04242488 0.031372022 0.06990372 -0.034778733 0.084069386
-0.030590637 0.116073534 -0.105251774 -0.08836828 0.13979203 0.04107908 0.087035105 -0.09889289
0.11149884 -0.08375711 -0.021067338 0.11993209 0.038762387 -0.028620088 -0.05680165 -0.0807032
0.097197026 0.028422339 0.027202958 0.0057922886 0.14824595 0.0076303165 -0.015344855 0.037698116
-0.06978798 0.042150162 0.13747784 0.02778411 0.07797121 -0.14137705 -0.017610857 -0.036062956
0.14480431 -0.1191957 -0.13856281 -0.049529385 -0.068712234 0.028365014 0.055196702 -0.024674347
-0.036718186 0.021489697 0.12377228 0.07269725 0.06562828 0.07207637 -0.06446087 -0.056041036
0.1021897 -0.024453446 -0.03734167 0.15775394 0.10154604 -0.091632284 0.048811898 -0.036259487
-0.04950771 0.011301624 0.038741704 -0.0065555163 -0.12440679 0.10961372 0.032679375 -0.09856468
-0.0073806597 0.013928632 -0.07126313 0.0790256 0.115232125 0.014314606 0.09012267 -0.047140803
0.037548423 0.029620787 0.027019555 -0.09454283 0.047330383 -0.1195249 -0.10290013 -0.11754205
0.07426482 -0.047272038 -0.011738767 0.009378058 0.14342748 -0.057214584 0.030173274 0.05354497
0.06366917 -0.087908864 -0.07157316 -0.11782281 -0.03268435 -0.106366105 -0.08890887 -0.040695235
-0.13963228 0.1182225 -0.11773046 -0.10425158 0.14718832 0.0663005 0.041448344 0.10565402
0.0064150793 -0.043107014 -0.013900055 0.08760339 0.027099852 0.08275099 0.04936494 -0.08196001
00000000: 791a 4dbc 375a 693d 5c7e c93d a870 dabd
00000010: 887c 673d e6b2 50bd d92e 1bbb 060a c73d
00000020: 2275 d4bc dd3c 54bd 68ad 9dbd a519 4dbb
00000030: 7653 4bbd 9143 bf3d b291 edbd e690 f3bb
00000040: 511d 103a abbd e33c c4ef 67bd 74f4 ab3d
00000050: eec1 cabd a8fe 71bd 10b3 afbc 081a ecbd
00000060: 7cd3 6dbd 4737 cc3d 351e c63d 8ac8 d1bd
00000070: c3d8 f8bb 1e4c c3bd 108a 9ebc 3ecf 60bd
00000080: fd46 743d a32a 2e3c 4eb0 1abd 1e44 7abb
00000090: 6080 643d 2278 aabd 4924 8c3d 85af c9bd
000000a0: 3b6e 0ebe a20f f33c a42f dbbc d268 363d
000000b0: bb5f 693d 77d0 e93c 5dc7 923c b332 dcbd
000000c0: 90f7 fb3b 5f65 c1b9 9a2c 3b3d e81c 623c
000000d0: 85b0 783c db87 853d 6355 c5bb c925 bf3c
000000e0: 1e89 d93d 9794 74bd ef3b 123e 25f3 223d
000000f0: 042c cc3c f776 b9bc 705b 983d 5e66 a3bb
00000100: 82ee a4bd 45ff d13b 1fb4 8cbd 1042 483d
00000110: a0fa b23d 283c 8ebc a558 673d d4e4 ccbd
00000120: 04bd 8abc f732 a33d 3bbe 92bc 36d0 00bd
00000130: f37b b4bc 6715 b33d 7fbd ef3d e233 ecbc
00000140: 157c bebd ab36 513d 5a29 013e 1c3b 01bd
00000150: 1a28 dabd b063 fe3c b210 9dbd 1b19 b3bc
00000160: 67c9 9c3d 3d2a 72bd 2091 6bbd 52c4 543d
00000170: 6f9e f33d d54b c4bd 0d9d bdbc 7536 85bd
00000180: bc21 21bd 47ab 9a3c c821 973d 6319 80bd
00000190: d118 acbd 9ad2 813c bcf5 893d 4666 7b3d
000001a0: 3316 643d 547e 183e df81 8cbd e6ab 953c
000001b0: 2fde 6a3c ee87 49bb 47fb d63c a9d1 2f3d
000001c0: 15c3 e9bd b287 01bc e622 e2bd 0838 c13c
000001d0: 3a25 2bbd 7c55 003d 81d2 73bd 4f3a d23d
000001e0: 02c1 f53c bc5b fb3b 1b33 f83c 4713 96bd
000001f0: 86b1 ad3d bfb3 5bbd 9d30 8a3d d3ad 613d
00000200: e9de 5d3d a905 3f38 71f5 163e ae6f 333d
00000210: 181c bcbc b5ae 56bd d42f cdbc 022d 133d
00000220: 4b81 83bd ad5c b53d 1955 5bbc b6c5 2d3d
00000230: f37f 003d ae29 8f3d 2574 0ebd 922c ac3d
00000240: 3799 fabc f6b7 ed3d 3e8e d7bd 6efa b4bd
00000250: a425 0f3e 8a42 283d 763f b23d 5b88 cabd
00000260: 8159 e43d d988 abbd 6995 acbc f59e f53d
00000270: 4fc5 1e3d ad74 eabc d9a8 68bd b847 a5bd
00000280: 3c0f c73d f7d5 e83c bdd8 de3c 3dcd bd3b
00000290: c9cd 173e bc07 fa3b fd68 7bbc 5769 1a3d
000002a0: 00ed 8ebd a6a5 2c3d fec6 0c3e 809b e33c
000002b0: 5faf 9f3d 25c5 10be a544 90bc c0b6 13bd
000002c0: 9547 143e e01c f4bd 69e3 0dbe 53df 4abd
000002d0: 00b9 8cbd bf5d e83c f015 623d db21 cabc
000002e0: cf65 16bd 290b b03c 527c fd3d 4ce2 943d
000002f0: 1f68 863d c79c 933d 1004 84bd 498b 65bd
00000300: d548 d13d 9852 c8bc 94f3 18bd 408a 213e
00000310: 5ff7 cf3d b5a9 bbbd fcee 473d d484 14bd
00000320: 99c8 4abd 722a 393c 9faf 1e3d a8cf d6bb
00000330: fdc8 febd 287d e03d cfda 053d 47dc c9bd
00000340: 76d9 f1bb eb34 643c 67f2 91bd 2cd8 a13d
00000350: d2fe eb3d cf87 6a3c 3c92 b83d b716 41bd
00000360: 60cc 193d 4ba7 f23c 1d58 dd3c ac9f c1bd
00000370: 81dd 413d 79c9 f4bd 4ebd d2bd e3b9 f0bd
00000380: 2718 983d 53a0 41bd f553 40bc 6da6 193c
00000390: a7de 123e d759 6abd f12d f73c f851 5b3d
000003a0: fb64 823d 9009 b4bd f394 92bd 164d f1bd
000003b0: 06e0 05bd 79d6 d9bd db15 b6bd 0cb0 26bd
000003c0: c4fb 0ebe a31e f23d ab1c f1bd da81 d5bd
000003d0: 89b8 163e 8ec8 873d bdc5 293d 2361 d83d
000003e0: 9635 d23b fb90 30bd 0ebd 63bc 6869 b33d
000003f0: 8200 de3c 5a79 a93d e432 4a3d a6da a7bd

bias f4 [2]
-0.01649354 -0.041451618
00000000: 761d 87bc 2cc9 29bd

W f4 [128, 128]
-0.069095396 0.11380747 0.124703825 0.0051090326 0.074441545 -0.23015441 -0.12847719 -0.10200654
-0.053401522 0.03840597 -0.2530464 -0.134765 -0.15089795 0.0018004447 0.0423301 0.060575042
-0.07245295 -0.24964733 0.21814463 -0.13837525 0.053302746 0.067191906 -0.105264 0.0915385
-0.08257493 -0.013439095 -0.1943138 -0.14723496 -0.09188021 -0.0026118325 0.033614114 0.025212072
-0.084854566 0.060732905 0.06385122 0.059086926 -0.16205265 -0.26240826 0.071018696 0.05881605
-0.06285699 0.09517712 0.12929595 -0.023294305 -0.03457555 -0.06920872 0.11944265 0.08221111
-0.05355352 0.09170616 0.12261908 -0.17847514 0.063758396 -0.049709104 -0.13594365 -0.210532
-0.16095297 0.032261223 -0.12495307 -0.09073392 0.12545623 0.13458021 0.065303944 -0.038227722
0.10792419 0.023926694 0.13845459 -0.0724465 -0.023907471 0.05572781 0.13901521 0.09074117
-0.18952945 -0.026142363 0.11094916 -0.06773065 0.10907219 0.21519837 -0.17107268 0.10549651
0.09317576 -0.060643908 0.026297485 0.0033433924 -0.0011023352 -0.07748199 -0.16622986 -0.12015169
0.06390236 -0.01735577 -0.044972274 0.07529537 0.08081749 0.089204 0.0033534358 -0.09314424
-0.004284353 0.0017693643 -0.01748104 -0.0032912432 0.042048153 0.20275918 -0.07571347 0.14858939
-0.09897126 -0.018264366 0.12352181 -0.06543107 -0.056445204 0.02454147 -0.04287336 0.16404681
0.09571428 -0.004913604 0.0077084717 -0.027882889 0.091811374 -0.10167127 -0.010833935 -0.07420743
-0.17018095 -0.022896053 -0.10677124 -0.02992322 -0.054292582 0.018060762 -0.022754183 0.017117366
0.032324046 0.1454723 0.016674312 -0.004051731 0.06800994 0.13379204 -0.0055079414 0.095303304
0.124431014 -0.01850223 0.0052987104 0.08362287 0.09037975 0.025303617 0.116247214 0.018795364
0.1492433 -0.04244958 0.034888826 0.04868151 -0.0683746 0.0051689222 -0.0017007642 -0.116032265
0.004333516 -0.053507302 -0.13340479 0.10737258 -0.04438949 -0.027478345 0.0019379647 -0.08886389
-0.12918113 0.015567262 0.12279982 0.15808567 -0.25257304 0.05633449 -0.14792757 -0.083676726
0.0037888177 -0.14201504 -0.07254558 0.12031402 0.04803737 0.15989535 0.1455408 0.04220205
-0.1486011 0.09389611 -0.123896666 -0.036615312 0.031009164 0.019512761 -0.11658033 -0.1309364
-0.08341286 -0.10907187 0.19208474 0.06569392 0.051121958 -0.04129465 -0.008457506 0.016095769
0.2067353 0.008128213 0.060438417 -0.111288644 -0.17500198 0.019835362 -0.008979218 0.07866414
-0.08089679 0.18118314 0.11727481 0.0318942 -0.055814046 -0.19244793 0.06635583 -0.11168223
0.18643215 -0.0050433343 0.11956599 0.11449596 -0.085781984 -0.05983127 0.039574135 0.0444006
-0.06778867 0.11631074 -0.15397462 -0.0077620973 -0.10636509 0.14390811 0.030722134 0.06218152
-0.022720333 0.0841154 0.08126044 -0.0019625383 0.05739816 0.13585721 0.14561772 0.032200295
-0.07121766 -0.1952594 -0.030028129 -0.0520124 0.30741677 -0.07482979 0.029859565 -0.077223614
0.06142832 -0.01161357 0.030649824 -0.010090711 -0.02791264 0.03665603 -0.026287014 -0.0021979488
0.110186465 0.06842555 0.012155511 -0.060987484 -0.050396092 0.10631829 0.09041697 -0.071730584
00000000: e381 8dbd e413 e93d b864 ff3d ac69 a73b
00000010: cf74 983d 99ad 6bbe 868f 03be cee8 d0bd
00000020: 8ebb 5abd 944f 1d3d 4c8f 81be d6ff 09be
00000030: fe84 1abe e6fc eb3a 5462 2d3d 891d 783d
00000040: 3662 94bd 8da3 7fbe 4e61 5f3e 3eb2 0dbe
00000050: fb53 5a3d e99b 893d a794 d7bd 8978 bb3d
00000060: 0b1d a9bd a62f 5cbc 32fa 46be c3c4 16be
00000070: b12b bcbd 472b 2bbb f4ae 093d 8c89 ce3c
00000080: 3bc8 adbd 11c3 783d 6ec4 823d 2205 723d
00000090: 21f1 25be 605a 86be 4072 913d 19e9 703d
000000a0: 2abb 80bd 39ec c23d 2866 043e b3d3 bebc
000000b0: 189f 0dbd 4dbd 8dbd 599e f43d 4c5e a83d
000000c0: f05a 5bbd 70d0 bb3d b61f fb3d 30c2 36be
000000d0: c393 823d c69b 4bbd d034 0bbe b395 57be
000000e0: dbd0 24be 5824 043d 65e7 ffbd b5d2 b9bd
000000f0: 9977 003e 65cf 093e 13be 853d ac94 1cbd
00000100: 5c07 dd3d ea01 c43c 0ac7 0d3e d55e 94bd
00000110: 9ad9 c3bc d842 643d 015a 0e3e 82d6 b93d
00000120: 0214 42be 8228 d6bc 5039 e33d 5eb6 8abd
00000130: 3e61 df3d f65c 5c3e ad2d 2fbe 8e0e d83d
00000140: efd2 be3d bf65 78bd d36d d73c d11c 5b3b
00000150: 3b7c 90ba e1ae 9ebd 2938 2abe 1712 f6bd
00000160: 3edf 823d b02d 8ebc d934 38bd 7534 9a3d
00000170: a483 a53d 96b0 b63d 51c5 5b3b 68c2 bebd
00000180: c263 8cbb 04ea e73a 6634 8fbc e6b1 57bb
00000190: af3a 2c3d 1aa0 4f3e aa0f 9bbd d127 183e
000001a0: 72b1 cabd 279f 95bc 01f9 fc3d ba00 86bd
000001b0: 1633 67bd 310b c93c fa9b 2fbd e3fb 273e
000001c0: d905 c43d 4c02 a1bb 5997 fc3b a86a e4bc
000001d0: 9a07 bc3d 0739 d0bd d180 31bc 11fa 97bd
000001e0: ea43 2ebe 8190 bbbc e1aa dabd 8a21 f5bc
000001f0: e661 5ebd 2af4 933c fb66 babc b839 8c3c
00000200: 3866 043d b1f6 143e 9198 883c 62c4 84bb
00000210: cc48 8b3d c800 093e f67b b4bb 612e c33d
00000220: b0d5 fe3d fd91 97bc cea0 ad3b 7842 ab3d
00000230: 0519 b93d 8849 cf3c 0513 ee3d bcf8 993c
00000240: 3cd3 183e 9cdf 2dbd 96e7 0e3d 4366 473d
00000250: fb07 8cbd 1060 a93b 2dec deba 53a2 edbd
00000260: 2b00 8e3b 792a 5bbd 449b 08be 28e6 db3d
00000270: c1d1 35bd 441a e1bc 4e03 fe3a 45fe b5bd
00000280: 0f48 04be d40d 7f3c 797e fb3d 36e1 213e
00000290: 4151 81be ffbe 663d 537a 17be b45e abbd
000002a0: d04d 783b 646c 11be c792 94bd 3267 f63d
000002b0: d5c2 443d 9bbb 233e a608 153e 0fdc 2c3d
000002c0: e32a 18be 9b4c c03d 89bd fdbd f0f9 15bd
000002d0: ee06 fe3c 3ad9 9f3c abc1 eebd 3114 06be
000002e0: 5dd4 aabd 1361 dfbd ddb1 443e 898a 863d
000002f0: 4265 513d 9424 29bd 5a91 0abc 46db 833c
00000300: 6bb2 533e 322c 053c 468e 773d 4deb e3bd
00000310: b833 33be c57d a23c 921d 13bc aa1a a13d
00000320: 37ad a5bd 1388 393e c72d f03d 7ea3 023d
00000330: 459d 64bd 1211 45be 91e5 873d a7b9 e4bd
00000340: 12e8 3e3e 8e42 a5bb 04df f43d dc7c ea3d
00000350: 77ae afbd a211 75bd 7d18 223d 67dd 353d
00000360: c9d4 8abd 5334 ee3d 86ab 1dbe 3159 febb
00000370: f1d5 d9bd a65c 133e fcac fb3c 0db2 7e3d
00000380: fe1f babc b244 ac3d e06b a63d ee9d 00bb
00000390: 551a 6b3d 271e 0b3e d01c 153e 75e4 033d
000003a0: 91da 91bd 15f2 47be 8dfd f5bc f40a 55bd
000003b0: bb65 9d3e 5c40 99bd 0c9c f43c 6a27 9ebd
000003c0: 439c 7b3d d846 3ebc 5715 fb3c 8253 25bc
000003d0: 0ca9 e4bc a224 163d dd57 d7bc 760b 10bb
000003e0: 71a9 e13d b222 8c3d e927 473c 03ce 79bd
000003f0: 226c 4ebd 67bd d93d 882c b93d 7ce7 92bd
