data_1216/1216/sp_2_16_d30_r7/model_173.pth (torch, 5980 bytes, 5 tensors)

weight f4 [16, 16]
0.83225936 -0.40839127 -0.43032885 0.14233252 -0.7384702 -0.53064615 -0.09929173 0.027988916
0.55335623 -0.6808974 0.82260627 0.3678821 0.5160876 0.31370193 -0.1355094 0.78078425
0.47940162 0.3798207 -0.9282096 0.42041323 0.26491556 -0.7158994 0.7529394 0.12876417
-0.51401997 -1.0841681 -0.0223152 -0.15516743 -1.2513745 0.42974454 -1.1627036 -0.5187147
-0.60055 -0.92966074 0.42187148 -1.2964101 0.15593418 0.9454055 0.021021305 0.88240236
-0.30117193 1.4144529 -0.0042457865 0.006171676 1.1240546 1.1237302 0.36217108 0.26354465
-0.2752942 -0.33441034 -1.9009253 0.821713 1.424601 1.8149533 -0.12910004 1.6231687
-1.0109246 0.90901715 0.13296756 -0.21746846 0.6598475 -0.05045757 -1.3265216 -1.2065898
-0.6184553 0.4942373 -0.7700756 -1.4794842 1.594396 0.01792504 -1.2656288 0.43527302
0.16455765 1.2192203 -0.5580774 0.5593486 0.77195317 -0.15487386 -0.15863948 0.50026
-0.97881514 0.23680279 -1.1385446 -1.198882 0.9395624 1.9842637 -0.6046822 -0.013649632
0.71814966 1.4207144 0.05746332 -1.6582408 2.1713486 0.5571721 -0.54207283 0.3128844
-0.42652953 -0.6918797 -0.649786 0.576763 -0.7641688 -0.07760783 0.77808213 0.38939923
0.5756647 -0.4863232 -2.0497108 1.0189174 1.1004049 -0.32225636 0.8247132 -0.9794169
-1.1692492 -0.36950967 -0.8771332 -0.16170435 2.0654037 1.1092895 -0.119695894 0.9586214
1.0827818 1.2986169 -1.8488116 -0.07711976 0.45045862 0.015943527 0.2569071 -0.44185665
0.23840454 -0.20289998 0.26981813 -0.24631564 -0.5513318 -0.14746636 0.14620185 0.20237385
0.89928097 -0.2858813 -0.7921366 -0.51253355 -1.0976101 -1.0079864 0.50278556 -0.12353248
-1.6294698 0.34113774 -1.4850626 -1.6441098 1.7595952 -0.58026135 -0.5634925 0.7076956
1.0257161 2.7377305 -1.0331334 0.69402725 2.372394 0.26645887 -0.32411045 -0.58734554
-1.2372181 -0.51395315 -1.157875 -0.16869758 1.3038785 0.78856385 -0.49412012 0.85194355
-1.6030556 3.3069658 0.96316904 0.12260597 1.3519902 -0.15960726 -1.6830586 0.16686143
-0.30205128 -0.47741002 -0.1753185 0.4734427 0.6769927 -1.7910769 0.000690022 0.15502056
-0.23834974 -0.41044047 -0.26789308 1.4525539 0.18818747 -0.18720092 0.020612542 -0.23418464
-0.36246428 -0.71051663 -0.7383905 0.04097626 0.09996576 -0.22577895 -0.45600408 -1.3508531
0.8723783 0.17599861 -0.45915827 0.57004815 2.452099 -1.074408 0.62145936 -0.14539318
-1.2830935 0.0667342 -1.9813563 -0.75790316 1.2584028 1.207484 -1.0866255 -0.8333922
-1.2487636 0.33620864 -1.210457 1.3368855 3.5031953 0.24393427 0.16410291 0.317561
-0.85386306 -0.716559 -1.0925577 0.8911234 -1.000965 1.4452839 -0.115720175 0.7840848
-0.27550736 -0.6918617 0.030459223 -1.1816896 1.4764512 1.2329179 0.15727818 -1.1776065
0.5597566 0.11887689 0.37161097 -1.1465454 0.35935265 -0.7459317 -2.0207648 -0.48525953
0.6716139 -1.2655077 -0.17179485 0.14218016 -1.2564679 -0.8164562 -0.6177806 0.30286205
00000000: f30e 553f a918 d1be 1054 dcbe 9ebf 113e
00000010: 620c 3dbf 6dd8 07bf 7659 cbbd 0349 e53c
00000020: c1a8 0d3f 4b4f 2ebf 5396 523f 0b5b bc3e
00000030: 511e 043f 8a9d a03e fac2 0abe 7ae1 473f
00000040: 2174 f53e dc77 c23e 259f 6dbf 6740 d73e
00000050: 03a3 873e 2f45 37bf a3c0 403f c1da 033e
00000060: d096 03bf 05c6 8abf 5ece b6bc 36e4 1ebe
00000070: 0a2d a0bf 7a07 dc3e 79d3 94bf 7dca 04bf
00000080: a5bd 19bf 3ffe 6dbf 8aff d73e c4f0 a5bf
00000090: 36ad 1f3e 1806 723f df34 ac3c 1fe5 613f
000000a0: 3533 9abe cb0c b53f 3d20 8bbb c53b ca3b
000000b0: 05e1 8f3f 64d6 8f3f 7d6e b93e 53ef 863e
000000c0: 5df3 8cbe d537 abbe 8551 f3bf c85b 523f
000000d0: 5359 b63f 6450 e83f cd32 04be fec3 cf3f
000000e0: fa65 81bf 59b5 683f a628 083e 0db0 5ebe
000000f0: c4eb 283f 99ac 4ebd 76cb a9bf 8971 9abf
00000100: 1653 1ebf ac0c fd3e ad23 45bf bd5f bdbf
00000110: 2b15 cc3f 89d7 923c 2000 a2bf 1bdc de3e
00000120: cd81 283e 690f 9c3f 29de 0ebf 7831 0f3f
00000130: b99e 453f 4197 1ebe 6372 22be 0a11 003f
00000140: a193 7abf 6e7c 723e d4bb 91bf f774 99bf
00000150: 2987 703f 5afc fd3f 74cc 1abf b5a2 5fbc
00000160: a8d8 373f f8d9 b53f a95e 6b3d 3c41 d4bf
00000170: 60f7 0a40 d5a2 0e3f 49c5 0abf 6232 a03e
00000180: 1462 dabe 071f 31bf 6058 26bf bda6 133f
00000190: 91a0 43bf dbf0 9ebd 6430 473f 565f c73e
000001a0: c35e 133f 5bff f8be 762e 03c0 e36b 823f
000001b0: 11da 8c3f c9fe a4be 6720 533f 11bb 7abf
000001c0: f5a9 95bf 5f30 bdbe cd8b 60bf d395 25be
000001d0: 932f 0440 33fd 8d3f 1f23 f5bd 3668 753f
000001e0: 9898 8a3f 1439 a63f dca5 ecbf f7f0 9dbd
000001f0: 83a2 e63e 009c 823c 5489 833e 093b e2be
00000200: 5220 743e 03c5 4fbe 9a25 8a3e 2b3a 7cbe
00000210: 1524 0dbf 6c01 17be f0b5 153e 173b 4f3e
00000220: 4737 663f 095f 92be 77c9 4abf 6635 03bf
00000230: 7d7e 8cbf b305 81bf 8eb6 003f 99fe fcbd
00000240: 7792 d0bf 9ba9 ae3e 8816 bebf 3172 d2bf
00000250: 6a3a e13f 028c 14bf 0b41 10bf 8a2b 353f
00000260: aa4a 833f fa36 2f40 b73d 84bf c5ab 313f
00000270: 4ed5 1740 4c6d 883e cef1 a5be 475c 16bf
00000280: 2a5d 9ebf 6f92 03bf 3f35 94bf 0fbf 2cbe
00000290: 7ee5 a63f 52df 493f 50fd fcbe f918 5a3f
000002a0: ed30 cdbf 54a5 5340 3f92 763f d718 fb3d
000002b0: 040e ad3f 1670 23be 776e d7bf b9dd 2a3e
000002c0: 77a6 9abe 166f f4be b186 33be 1567 f23e
000002d0: 654f 2d3f 0242 e5bf 98e2 343a b6bd 1e3e
000002e0: f411 74be 4125 d2be 4829 89be 49ed b93f
000002f0: 37b4 403e 99b1 3fbe a2db a83c 19ce 6fbe
00000300: eb94 b9be 6be4 35bf 2907 3dbf b9d6 273d
00000310: d9ba cc3d 9932 67be 5e79 e9be c1e8 acbf
00000320: 2f54 5f3f fb38 343e cb16 ebbe adee 113f
00000330: 31ef 1c40 3486 89bf f617 1f3f f3e1 14be
00000340: 683c a4bf f1ab 883d 159d fdbf f105 42bf
00000350: 5813 a13f d68e 9a3f 8b16 8bbf 3159 55bf
00000360: 7cd7 9fbf 8a23 ac3e 41f0 9abf 101f ab3f
00000370: 5a34 6040 e8c9 793e 980a 283e 5b97 a23e
00000380: c596 5abf 6970 37bf eed8 8bbf aa20 643f
00000390: 9f1f 80bf 10ff b83f b3fe ecbd c8b9 483f
000003a0: 4d0f 8dbe d91d 31bf 9f85 f93c 9b41 97bf
000003b0: 5afc bc3f 41d0 9d3f 880d 213e cfbb 96bf
000003c0: 354c 0f3f ba75 f33d cb43 be3e 00c2 92bf
000003d0: 12fd b73e 61f5 3ebf 3654 01c0 f073 f8be
000003e0: e3ee 2b3f 28fc a1bf fdea 2fbe ad97 113e
000003f0: f1d3 a0bf 4603 51bf df26 1ebf bc10 9b3e

weight f4 [16, 3]
-1.0334126 -0.62963396 -2.100666 -0.16368635 0.8620111 0.0016850884 0.24751326 -0.54106784
-2.1936216 -0.77707905 0.45909902 -0.13590112 0.1456522 1.1003629 2.0806475 -1.4341862
-0.63696694 0.89589703 0.37758473 0.00050994125 -0.8332687 -0.2036016 0.5962989 0.097457
-0.36859637 -0.5770225 0.9015768 0.8410179 -0.413927 1.2676737 0.24334027 0.34431675
-0.4177816 1.3199189 0.10830569 -0.037859853 0.8027304 -1.8643193 3.7695422 0.20101146
-0.48347476 -0.44620267 0.2644875 -0.72974837 -0.05623957 -0.512256 0.23701052 1.062309
00000000: dd46 84bf b12f 21bf 5071 06c0 659d 27be
00000010: c2ac 5c3f 2fde dc3a 1e74 7d3e 6c83 0abf
00000020: 4c64 0cc0 a7ee 46bf 070f eb3e aa29 0bbe
00000030: da25 153e b1d8 8c3f 5429 0540 6a93 b7bf
00000040: 4410 23bf 8259 653f c952 c13e 94ad 053a
00000050: 1951 55bf f07c 50be 0ba7 183f 8997 c73d
00000060: aab8 bcbe bfb7 13bf bdcd 663f f34c 573f
00000070: 3dee d3be 2243 a23f 312e 793e 494a b03e
00000080: 78e7 d5be 1af3 a83f 60cf dd3d ef12 1bbd
00000090: bd7f 4d3f 04a2 eebf 2e40 7140 f3d5 4d3e
000000a0: 018a f7be ad74 e4be e86a 873e cad0 3abf
000000b0: 775b 66bd 3623 03bf e3b2 723e bef9 873f

weight f4 [2, 16]
-0.10116464 0.07338521 -0.11506296 -0.34611174 0.38927492 0.2715557 -0.06209007 -0.072045185
0.15604687 -0.51117814 0.2132402 -0.07106783 -0.11370013 0.5070079 -0.39651823 -0.57426614
-0.047505867 -0.36049998 -0.014544169 0.4238382 -0.3861412 -0.38808173 0.17772116 -0.18225649
0.09249587 -0.028315913 0.09350609 -0.20572786 0.10225387 0.63029444 -0.06451519 0.4549158
00000000: 682f cfbd fc4a 963d 21a6 ebbd 8f35 b1be
00000010: 0b4f c73e 5909 8b3e 2852 7ebd 6d8c 93bd
00000020: c0ca 1f3e 92dc 02bf a45b 5a3e 038c 91bd
00000030: 9ddb e8bd 45cb 013f 7004 cbbe 1b03 13bf
00000040: 8395 42bd 7493 b8be ab4a 6ebc 5201 d93e
00000050: 4db4 c5be a6b2 c6be 89fc 353e 72a1 3abe
00000060: 7a6e bd3d c6f6 e7bc 1f80 bf3d 53aa 52be
00000070: 7a6a d13d fa5a 213f 8a20 84bd b9ea e83e

bias f4 [2]
0.49786636 0.013384804
00000000: 57e8 fe3e f04b 5b3c

W f4 [16, 16]
-0.3519424 -0.44584516 -0.28861532 -0.0022426394 -0.11150574 -0.35846582 0.2549017 -0.10592484
0.5075575 -0.0447604 0.084281065 0.09106024 0.19241643 0.34177145 0.111023955 -0.1204399
0.21448807 -0.13340935 -0.23140532 0.28765088 0.47178903 -0.37037417 0.27650148 0.3869706
-0.11096083 0.026421927 0.4892315 -0.15814522 -0.111269996 -0.035474062 -0.0689244 -0.1891816
-0.40280545 0.21449585 0.14530203 -0.15023783 0.034359924 0.043646652 0.026656177 0.38008568
-0.5337104 0.5012141 0.20014799 0.3704551 0.6901323 -0.31314588 0.14608267 0.11721963
-0.11684888 0.19692463 -0.28059033 0.77442527 -0.03941192 0.47472456 -0.21650603 0.13049002
-0.25841773 0.09705192 0.3038882 0.18504198 -0.36020297 0.033534557 -0.07751169 -0.06730401
-0.29027212 0.25465265 0.07760601 -0.52347577 -0.33157456 0.00019112776 -0.059926905 0.50151694
-0.76509106 -0.088463694 -0.19553338 0.39807144 -0.18074855 0.14803535 0.100806795 0.07189502
-0.1651145 -0.096032724 -0.4719734 -0.20200263 0.3478352 0.6302269 -0.19241032 0.29470956
0.32060736 0.7011992 -0.028419659 -0.3808356 0.46028572 -0.055261668 0.113706835 -0.2726442
-0.09986511 0.011293011 -0.5040612 0.5424999 -0.16879514 -0.23943914 0.038971435 -0.17757684
0.21530211 -0.63975924 -0.31207263 -0.1606673 0.50692093 -0.2914613 0.16156697 -0.20384717
-0.26683903 0.3077066 -0.44757712 0.25190422 0.19812909 0.3670448 -0.20148896 -0.5063547
0.2570043 0.6517604 -0.46894646 -0.12305956 -0.33818612 0.03137052 0.24652916 -0.38134336
0.1577053 -0.11229978 0.33488905 -0.51808804 0.13121435 -0.08414608 0.2552029 0.42905
-0.16713811 0.03170552 0.28374267 -0.019660544 0.10988094 -0.2040095 0.37427172 0.09508489
-0.27277714 -0.24625857 -0.04456532 -0.10552728 0.03159899 -0.047975324 0.51883155 -0.27823564
0.08354403 -0.011645101 -0.4013112 0.6614608 0.35527351 -0.029145272 -0.36678612 0.008208389
-0.15678687 0.33503264 0.00045390066 0.21340486 0.058385942 -0.38308126 0.35167736 -0.1376483
0.1688832 0.2195577 0.1432932 0.029293412 0.35294762 0.15426554 -0.2792588 -0.12801486
-0.6291223 -0.3696011 0.28599843 0.19253306 0.17400263 -0.682409 0.13800605 0.1194566
-0.34896606 -0.46895343 -0.029353427 -0.056881454 0.19166122 -0.3777828 -0.32549578 0.16423707
-0.2841905 -0.30418113 -0.17470306 0.005553344 0.47030038 -0.2540934 0.07405491 -0.13391723
-0.31265992 -0.068938665 0.14018154 -0.12413601 0.13179806 0.044901017 -0.070043005 -0.061044794
0.47984618 0.021422418 -0.2536516 -0.1587467 0.06722486 0.16482212 0.28922573 -0.19160269
-0.31732696 0.16361372 0.12881571 0.067836314 0.3392587 -0.5153333 0.31794474 0.6162148
-0.4208552 0.40038553 -0.08014653 0.0952861 -0.111514986 0.090224825 -0.1492989 0.2927536
-0.3105969 -0.43872726 -0.15079279 -0.10211344 0.2302601 0.036917552 0.0012922423 -0.15082468
0.15146053 0.10302122 0.14880656 -0.029148156 0.55081594 -0.49813133 -0.6522718 -0.523313
-0.020038191 -0.24550588 -0.24846412 0.30810007 -0.27947325 -0.23427887 0.13118142 -0.107185595
00000000: cb31 b4be d145 e4be 63c5 93be 3ff9 12bb
00000010: 1f5d e4bd d588 b7be 7a82 823e 1fef d8bd
00000020: 4aef 013f ae56 37bd 8d9b ac3d cb7d ba3d
00000030: d008 453e abfc ae3e 8760 e33d 32a9 f6bd
00000040: c3a2 5b3e 769c 08be 84f5 6cbe fa46 933e
00000050: 558e f13e afa1 bdbe 9a91 8d3e 0321 c63e
00000060: 6e3f e3bd cc72 d83c 8d7c fa3e d2f0 21be
00000070: 86e1 e3bd 404d 11bd 3c28 8dbd d2b8 41be
00000080: 843c cebe cda4 5b3e 0eca 143e f2d7 19be
00000090: febc 0c3d d5c6 323d 0e5e da3c 979a c23e
000000a0: 3fa1 08bf 914f 003f 98f3 4c3e 4aac bd3e
000000b0: 83ac 303f a854 a0be b296 153e d810 f03d
000000c0: 774e efbd 9ca6 493e 89a9 8fbe bc40 463f
000000d0: 656e 21bd 190f f33e c2b3 5dbe 2d9f 053e
000000e0: 544f 84be 28c3 c63d 3c97 9b3e a57b 3d3e
000000f0: 866c b8be 885b 093d 73be 9ebd afd6 89bd
00000100: 8c9e 94be d561 823e e6ef 9e3d 8202 06bf
00000110: 24c4 a9be 7869 4839 ea75 75bd 6a63 003f
00000120: 02dd 43bf 742c b5bd e739 48be 05d0 cb3e
00000130: 2616 39be 9496 173e cb73 ce3d b23d 933d
00000140: c713 29be ceac c4bd 7fa6 f1be c7d9 4ebe
00000150: 7517 b23e 8d56 213f 3607 45be 2ce4 963e
00000160: a626 a43e ca81 333f 58d0 e8bc e2fc c2be
00000170: 92aa eb3e 0f5a 62bd 21df e83d 0598 8bbe
00000180: 1486 ccbd 5206 393c 280a 01bf 46e1 0a3f
00000190: a2d8 2cbe 892f 75be 83a0 1f3d b4d6 35be
000001a0: 2878 5c3e 43c7 23bf fcc7 9fbe f885 24be
000001b0: 92c5 013f 6a3a 95be d071 253e 50bd 50be
000001c0: 209f 88be b88b 9d3e d428 e5be 97f9 803e
000001d0: 5ae2 4a3e 4ced bb3e 1f53 4ebe 76a0 01bf
000001e0: 1196 833e c5d9 263f c019 f0be a706 fcbd
000001f0: bb26 adbe 607e 003d 2472 7c3e 703f c3be
00000200: 807d 213e 6dfd e5bd 9476 ab3e 6ba1 04bf
00000210: 0e5d 063e c854 acbd f4a9 823e 71ac db3e
00000220: 4126 2bbe a6dd 013d b846 913e 260f a1bc
00000230: 4209 e13d dee7 50be 8ba0 bf3e debb c23d
00000240: 72a9 8bbe 352b 7cbe 208a 36bd b01e d8bd
00000250: f16d 013d c681 44bd 25d2 043f e774 8ebe
00000260: 2219 ab3d 18cb 3ebc a978 cdbe 7f55 293f
00000270: 69e6 b53e 11c2 eebc 64cb bbbe 7b7c 063c
00000280: bd8c 20be 6689 ab3e 84f9 ed39 ce86 5a3e
00000290: 1926 6f3d 3a23 c4be 0e0f b43e adf3 0cbe
000002a0: b8ef 2c3e bcd3 603e 74bb 123e bdf8 ef3c
000002b0: 8db5 b43e c9f7 1d3e 02fb 8ebe 5416 03be
000002c0: 290e 21bf 5b3c bdbe 636e 923e 6327 453e
000002d0: bf2d 323e 5bb2 2ebf 7551 0d3e a9a5 f43d
000002e0: aeab b2be aa1a f0be 9976 f0bc 87fc 68bd
000002f0: d742 443e bf6c c1be 62a7 a6be c32d 283e
00000300: 6b81 91be a1bd 9bbe 5ce5 32be d3f8 b53b
00000310: 36cb f03e 8818 82be 1aaa 973d 9921 09be
00000320: f614 a0be b72f 8dbd c08b 0f3e 053b febd
00000330: 12f6 063e 21ea 373d b572 8fbd 1b0a 7abd
00000340: 66ae f53e 117e af3c 9fde 81be 7f8e 22be
00000350: 30ad 893d 21c7 283e 6515 943e 7f33 44be
00000360: ae78 a2be 5b8a 273e 44e8 033e c4ed 8a3d
00000370: 51b3 ad3e e2ec 03bf a7c9 a23e 41c0 1d3f
00000380: 557a d7be 55ff cc3e dd23 a4bd 5c25 c33d
00000390: f861 e4bd cbc7 b83d d0e1 18be cde3 953e
000003a0: 8f06 9fbe dca0 e0be 6d69 1abe da20 d1bd
000003b0: 4ec9 6b3e dc36 173d 7560 a93a c971 1abe
000003c0: 7818 1b3e cafc d23d bf60 183e 1dc8 eebc
000003d0: 4602 0d3f 120b ffbe 49fb 26bf d7f7 05bf
000003e0: 2227 a4bc e565 7bbe 616d 7ebe 4bbf 9d3e
000003f0: 1e17 8fbe cde6 6fbe 6c54 063e 1f84 dbbd
