LeakyRNN_11.28/1202/ta_3_128_d10_r7_1/model_78.pth (torch, 137244 bytes, 5 tensors)

weight f4 [128, 128]
0	0xc097aec2	-4.7400827
1	0xbc4d7e67	-0.012542344
2	0x3e0e8c61	0.13920738
3	0xbcfb05e5	-0.03064246
4	0x3f2f64c2	0.6851312
5	0xbe605d83	-0.21910672
6	0xbdadd061	-0.08487011
7	0xbf1ab9b1	-0.6043959
8	0x3e95ba46	0.29243678
9	0x3da404d8	0.08008736
10	0xbdc71038	-0.0971989
11	0x3e39f540	0.18159962
12	0x3f07faf5	0.53117305
13	0x3de09c28	0.109672844
14	0x3ec0053f	0.37504002
15	0x3dab1e35	0.08355371
16	0xbe8db62d	-0.27678052
17	0xbe7c2207	-0.24622355
18	0xbfa52915	-1.2903162
19	0x3f33c57d	0.7022322
20	0x3f2bf593	0.6717159
21	0x3ecb231e	0.3967523
22	0x3d39e47b	0.04538391
23	0xbe0d5558	-0.13802087
24	0xbe26272c	-0.1622588
25	0x3db6d186	0.08926682
26	0x3b8896e2	0.0041683773
27	0xbdca9bb4	-0.09892979
28	0x3f0657b5	0.5247758
29	0x3f8469c1	1.0344774
30	0x3f19f868	0.6014466
31	0x3d7c3b44	0.061579958
32	0xbe1356c6	-0.1438857
33	0xbe43c9c5	-0.19119938
34	0x3dd8fba8	0.105948746
35	0xbe46e775	-0.19424231
36	0x3ebff766	0.37493438
37	0xbd2bfbd8	-0.041988224
38	0xbdc9cc7f	-0.09853458
39	0x3ea138f2	0.31488758
40	0xbdde9f49	-0.10870225
41	0xbe009590	-0.12557054
42	0xbe86ebb5	-0.26351705
43	0x3dc9f11b	0.0986044
44	0xbeadd3f9	-0.33950785
45	0x3e2f5b6f	0.17124723
46	0xbf1dd23b	-0.6164891
47	0xbe44f4fa	-0.19234076
48	0xbed63579	-0.4183767
49	0xbea22037	-0.31665203
50	0xbedc4a72	-0.43025547
51	0x3e0cbb2c	0.13743275
52	0x3eea4188	0.4575312
53	0xbcf901e2	-0.030396406
54	0xbefb0449	-0.49026707
55	0xbe8e379e	-0.27776808
56	0x3f4dc0c8	0.80372286
57	0xbec43c70	-0.3832736
58	0xbebab12f	-0.36463305
59	0xbf4553fa	-0.77081263
60	0x3c11fe9c	0.008910801
61	0x3eb7e27a	0.35914975
62	0x3ecb1287	0.39662573
63	0xbecfd5b9	-0.40592745
64	0xbdf2e26d	-0.118595935
65	0xbe037d41	-0.1284075
66	0x3f33b838	0.7020297
67	0xbdd585ba	-0.10425897
68	0xbeac7b70	-0.33687925
69	0x3e8b1cf8	0.2717054
70	0xbe8062ff	-0.25075528
71	0x3edbd012	0.42932183
72	0xbe694df8	-0.22783649
73	0x3e86c67f	0.26323316
74	0xbd956ddd	-0.072963454
75	0x3f105d71	0.5639258
76	0x3e6bd0de	0.23028895
77	0x3efadf8f	0.48998687
78	0xbf0631e1	-0.5241986
79	0x3d1fae32	0.038984485
80	0xbea5d852	-0.32391602
81	0x3e95c000	0.29248047
82	0x3e239775	0.15975745
83	0x3c44ab0b	0.01200367
84	0xbe2b39f1	-0.16721322
85	0xbe59fa01	-0.21286775
86	0x3eb8a3c9	0.36062458
87	0xbeda4f1d	-0.42638484
88	0xbeb9e0f0	-0.36304426
89	0xbd4952dc	-0.049151286
90	0x3cbff5f3	0.023432707
91	0xbd82b5e3	-0.063823484
92	0xbe85daec	-0.26143587
93	0x3e6521c8	0.22376168
94	0xbe71b228	-0.23603117
95	0x3e2cbd87	0.16869174
96	0x3dbdcd8b	0.0926772
97	0x3db6d51b	0.089273654
98	0xbe572c08	-0.2101289
99	0xbdb772c2	-0.08957435
100	0x3e58c007	0.21167003
101	0xbe9561f1	-0.29176286
102	0x3e142853	0.14468507
103	0xbe9c9bf5	-0.30587736
104	0x3ec53324	0.3851558
105	0xbeb440d3	-0.35205707
106	0xbf0597e2	-0.5218488
107	0xbe3c61f8	-0.18396747
108	0xbe5d99b2	-0.21640661
109	0xbea9c2ed	-0.3315653
110	0x3dd5217e	0.10406779
111	0xbeb343a4	-0.35012543
112	0xbd98def9	-0.07464404
113	0x3f6508ef	0.89466757
114	0xbeae0268	-0.3398621
115	0xbe141d18	-0.14464223
116	0x3d978a2f	0.07399403
117	0xbe70ee7f	-0.23528479
118	0x3eff6864	0.4988433
119	0xbdff2120	-0.1245749
120	0xbe98cfb6	-0.2984597
121	0xbee1a788	-0.4407313
122	0x3e82063a	0.25395375
123	0x3eda1071	0.4259067
124	0xbe2a6587	-0.16640292
125	0xbed332de	-0.41249746
126	0xbe9e18cc	-0.30878294
127	0x3fa50b13	1.2894005
128	0xbe117282	-0.14203838
129	0x3f881b08	1.0633249
130	0x3cc6f341	0.024285914
131	0xbea3bc92	-0.31979805
132	0xbf13d1f4	-0.5774224
133	0xbf6c8fa2	-0.92406666
134	0xbd240d50	-0.04005176
135	0x3d94199f	0.07231449
136	0xbf3d9ac9	-0.7406431
137	0xbd06b6e9	-0.03288928
138	0xbeb20396	-0.3476836
139	0x3db071c3	0.08615448
140	0xbd5f68db	-0.054543357
141	0xbea083ea	-0.31350642
142	0x3e2adbea	0.16685453
143	0xbd02ac43	-0.031902563
144	0x3ccf3675	0.025294522
145	0x3eb33e06	0.35008258
146	0x3cd0b3c8	0.025476351
147	0xbe9ae698	-0.30254054
148	0xbed4d843	-0.41571245
149	0x3fb7296d	1.4309517
150	0x3bd447fb	0.0064783073
151	0x3e0b3993	0.13596182
152	0x3f1f6425	0.62262183
153	0xbee2de24	-0.44310105
154	0xbeb02795	-0.344052
155	0xbf6d48fc	-0.9268949
156	0xbf2c6622	-0.6734334
157	0x3f9cda92	1.2254202
158	0xbc9fb51d	-0.019495541
159	0xbe3729cd	-0.1788704
160	0xbf55b6f2	-0.8348228
161	0x3d2be8f8	0.041970223
162	0xbde8d432	-0.11368598
163	0x3fd23ec7	1.6425408
164	0x3d725606	0.05916407
165	0xbef59385	-0.4796411
166	0x3d498f79	0.04920909
167	0xbe9d78b9	-0.30756167
168	0xbddae0e8	-0.10687429
169	0x3cfd2d69	0.030905442
170	0x3e34275d	0.17593141
171	0xbefa3b14	-0.48873198
172	0x3e45bb24	0.1930967
173	0x3ce65c56	0.028120201
174	0x3da39f26	0.079893395
175	0xbf7e536b	-0.99346036
176	0xbf48c6d2	-0.78428376
177	0x3f0003c8	0.5000577
178	0x3e0ca562	0.13734964
179	0xbd891fbd	-0.06695507
180	0xbf259c45	-0.64691573
181	0xbd3250f9	-0.043534253
182	0xbe81de96	-0.25365132
183	0x3d2c53c5	0.042072076
184	0x3e8b8fdd	0.27258196
185	0xbe6ec878	-0.2331866
186	0x3de401fb	0.1113319
187	0x3f365530	0.71223736
188	0xbedfc33d	-0.43703642
189	0xbeb86c58	-0.3602016
190	0xbea8fb73	-0.3300434
191	0xbeea3ff8	-0.4575193
192	0x3e4cbd55	0.199941
193	0xbf631a1a	-0.887117
194	0x3ec2a956	0.38019818
195	0x3e919383	0.28432855
196	0xbcc42a49	-0.023945944
197	0xbf4f9fe0	-0.81103325
198	0x3da9cad9	0.08290643
199	0xbe8e10bd	-0.27747145
200	0xbeb8a0fd	-0.36060324
201	0xbf0c5b0f	-0.54826444
202	0xbf1fb7f3	-0.6239006
203	0xbefcbdaa	-0.49363452
204	0x3e914e51	0.28380063
205	0x3e7c21d6	0.24622282
206	0xbeed0f25	-0.46300617
207	0xbca5f853	-0.020260012
208	0xbeebb01d	-0.460328
209	0xbf1c3b26	-0.61027753
210	0xbe822666	-0.2541992
211	0xbe5711f9	-0.2100295
212	0x3f3f18a8	0.74647
213	0x3f8601c9	1.0469295
214	0x3f1af263	0.605261
215	0xbe63e710	-0.22256112
216	0x3f0afc38	0.54291105
217	0xbe8d3e54	-0.27586615
218	0x3e4ed503	0.20198445
219	0x3d772a03	0.0603428
220	0x3f841e05	1.0321661
221	0xbf08412c	-0.53224444
222	0x3dd28fef	0.102813594
223	0x3ef842c9	0.48488453
224	0x3f188a61	0.5958615
225	0x3eaca690	0.33720827
226	0x3db162ea	0.086614445
227	0x3e90ce1b	0.28282246
228	0xbf247211	-0.6423655
229	0xbe804dd3	-0.25059375
230	0xbf2fdf8b	-0.68700475
231	0xbe19f850	-0.1503613
232	0xbe2919a4	-0.16513687
233	0x3ed2a636	0.41142434
234	0xbd983642	-0.07432224
235	0xbf0e8260	-0.55667686
236	0xbe88060d	-0.26567116
237	0x3db350c7	0.087556414
238	0x3f0ec625	0.55771095
239	0x3b863802	0.004096032
240	0x3e443cf2	0.19163874
241	0xbeb6ab30	-0.3567748
242	0xbe04106f	-0.12896894
243	0xbf078115	-0.5293134
244	0xbe10aea5	-0.14129122
245	0xbe4ffd18	-0.20311391
246	0xbeecc491	-0.46243718
247	0xbed257c8	-0.41082597
248	0x3f6ec9d4	0.93276715
249	0x3e011699	0.12606277
250	0xbec58cb7	-0.3858392
251	0xbe8d4c61	-0.27597335
252	0x3f451414	0.7698376
253	0x3c90dec2	0.017684344
254	0x3f0cc69c	0.54990554
255	0x3f8d53b6	1.1041172

weight f4 [128, 3]
0	0x3cfebea7	0.03109677
1	0xbd991593	-0.07474818
2	0xbc6c2e58	-0.014415346
3	0x3d572c15	0.052532274
4	0xbd799722	-0.060935147
5	0x3d09551f	0.033528443
6	0x3c98d920	0.01865822
7	0x3d2009ae	0.03907173
8	0xbd50a3c4	-0.05093743
9	0x3d0dc4ae	0.034611396
10	0xbe4251b5	-0.18976481
11	0x3e05da18	0.13071477
12	0xbd059f36	-0.03262254
13	0xbd9e9422	-0.07743098
14	0xbe0e59e7	-0.13901483
15	0xbd194c9d	-0.03742658
16	0x3df808f3	0.12111082
17	0x3ce5316a	0.027977664
18	0xbd793d5a	-0.060849525
19	0x3dd972a0	0.10617566
20	0xbd8a7459	-0.06760473
21	0xbe1f60eb	-0.15564315
22	0x3d523cc0	0.051327467
23	0x3c4c654c	0.012475323
24	0xbe4890d9	-0.19586505
25	0xbcf991fc	-0.030465119
26	0xbc64bc9f	-0.013960986
27	0xbd83b41c	-0.064308375
28	0xbbc36d40	-0.0059639513
29	0xbde22981	-0.110430725
30	0x3dd0dbc9	0.10198171
31	0xbb9d2cd2	-0.0047966028
32	0x3cf4ad0b	0.02986767
33	0x3db09fdb	0.0862424
34	0x3ca9ff72	0.020751689
35	0x3d67c107	0.05658057
36	0x3d65d26e	0.056108885
37	0xbd87a3b9	-0.066230245
38	0xbcc794fe	-0.024363037
39	0xbd89e0b7	-0.06732314
40	0x3c231732	0.009954261
41	0xbc721075	-0.0147744315
42	0xbd67a23f	-0.056551214
43	0xbd791959	-0.06081519
44	0xbd320d57	-0.043469753
45	0xbcc7e333	-0.02440033
46	0x3d9571e3	0.07297113
47	0x3e760ca7	0.24028264
48	0x3db3152b	0.08744272
49	0xbe58f8cb	-0.21188657
50	0x3a1cf566	0.0005987495
51	0x3d9f9274	0.077916056
52	0xbc9c7408	-0.019098297
53	0xbd96c2c6	-0.07361369
54	0xbda41f0f	-0.080137365
55	0xbd779c5d	-0.060451854
56	0xbe440bfa	-0.19145194
57	0xba037ff0	-0.00050163176
58	0x3d0b197b	0.033959847
59	0xbbe92567	-0.0071150544
60	0xbb8f2771	-0.0043687155
61	0xbc250e55	-0.010074218
62	0xbd89aca2	-0.0672238
63	0x3e171e84	0.14757735
64	0xbc5a3e6e	-0.013320548
65	0xbb5b8464	-0.003349566
66	0x3dd037b1	0.10166872
67	0xbaec3854	-0.0018022158
68	0xbb4aabc0	-0.0030925125
69	0x3d82b36c	0.06381878
70	0x3e80b507	0.25138113
71	0x3e58bdcd	0.21166153
72	0xbb6d0904	-0.0036168704
73	0xbd4e2012	-0.050323553
74	0x3bd485f4	0.006485695
75	0x404a1082	3.1572576
76	0x3e202f38	0.15643013
77	0xbfa2fa1e	-1.273258
78	0xbe832327	-0.25612757
79	0xbd99c0b8	-0.07507461
80	0xbcbbfab1	-0.022946687
81	0xbe03dcf3	-0.12877254
82	0x3d1c538a	0.038165607
83	0xbda8004e	-0.08203183
84	0x3d691e03	0.056913387
85	0xbd1d77b5	-0.03844424
86	0xbd8b3ee7	-0.06799107
87	0xbe793021	-0.24334766
88	0x3e768eb1	0.2407787
89	0xbdd82783	-0.10554411
90	0xbc879686	-0.016551267
91	0x3d36c73e	0.044623606
92	0xbc7a8519	-0.015290522
93	0x3d69a014	0.057037428
94	0xbcef351b	-0.029200127
95	0xbc85fd87	-0.016356243
96	0x3e150299	0.14551772
97	0x3d5994bc	0.05312036
98	0x3cb3828e	0.02191284
99	0xbd3b0fa8	-0.045669228
100	0x3d0039b0	0.031305015
101	0x3d0ec2b2	0.034853645
102	0x3e92daeb	0.28682646
103	0xbeabeddc	-0.3357991
104	0xbf41f0e1	-0.7575818
105	0xbdbeccc5	-0.093164004
106	0xbd0667d2	-0.032813855
107	0x3b1f5673	0.0024313002
108	0x3e1c4dab	0.15264003
109	0x3d3aa26c	0.045565054
110	0xbe4156e4	-0.18880802
111	0x3ce8fe43	0.028441554
112	0xbde02acf	-0.10945665
113	0xbd96b727	-0.07359152
114	0x3e9233e1	0.28555205
115	0xbe0347ce	-0.1282036
116	0x3e0ff7c6	0.14059362
117	0x3e4143b2	0.1887348
118	0xbdcad4a6	-0.09903841
119	0xbd68fda8	-0.05688253
120	0x3e6d97ea	0.23202482
121	0xbc3b7759	-0.011442029
122	0x3d2bebbc	0.04197286
123	0xbebfef12	-0.37487084
124	0x3f009a0e	0.5023507
125	0xbddffea7	-0.10937243
126	0x3d1d76a9	0.03844324
127	0xbd3eb3b8	-0.046558112
128	0x3d26844b	0.04065351
129	0x3dc31cff	0.09527015
130	0x3d6ce95e	0.057839744
131	0x3e12e6ff	0.1434593
132	0x3dc0e02f	0.094177596
133	0xbdaa3c42	-0.083122745
134	0xbd4546a6	-0.04816308
135	0x3d36f3bb	0.044666033
136	0x3abacc72	0.0014251603
137	0xbe258068	-0.16162264
138	0xbc367fa1	-0.011138828
139	0xbd0e7e93	-0.03478868
140	0xbd610c26	-0.054943226
141	0xbf8d84a2	-1.1056101
142	0x3f202a07	0.6256413
143	0x3e8fda53	0.28096256
144	0xbf115f9e	-0.56786525
145	0x3d55d54b	0.052205365
146	0xbe18b9b5	-0.14914592
147	0xbd9cbb8f	-0.076529615
148	0xbcfdb037	-0.030967815
149	0xbe645760	-0.22298956
150	0x3e0f5e56	0.1400083
151	0x3e10c90c	0.14139193
152	0x3d790c4d	0.060802747
153	0x3d0c1ab9	0.034205172
154	0xbe266db0	-0.1625278
155	0xbe802a15	-0.25032106
156	0x3e9f0be2	0.31063753
157	0xbc4f14b5	-0.012639214
158	0x3e133ac0	0.1437788
159	0xbdb9be09	-0.090694495
160	0x3d73d819	0.05953226
161	0xbd1120b2	-0.03543157
162	0x3c050258	0.008118235
163	0x3ab33326	0.001367186
164	0x3cb8f194	0.02257613
165	0x3e4f87c0	0.20266628
166	0xbd52b961	-0.051446322
167	0x3c360464	0.011109445
168	0x3e4909a3	0.19632582
169	0xbd2148f4	-0.039376214
170	0x3ca1c83c	0.0197488
171	0xbcd8a612	-0.026446376
172	0xbdaaa29c	-0.083317965
173	0x3e339a0e	0.17539236
174	0x3e4a0671	0.1972902
175	0x3d8270f6	0.06369202
176	0xbe8008ea	-0.250068
177	0xbf87de12	-1.0614645
178	0xc013539f	-2.3019788
179	0xc028fdf1	-2.6404994
180	0x3d6c50d7	0.057694282
181	0x3a685495	0.00088627014
182	0xbd4caaed	-0.049967695
183	0xbc9c79cc	-0.019101046
184	0x3c0ab6c8	0.00846643
185	0xbbec2997	-0.0072071063
186	0xbd905e4a	-0.07049234
187	0x3e55776d	0.20846339
188	0x3e60e134	0.21960908
189	0x3d8b91e2	0.06814934
190	0xbe374510	-0.17897439
191	0xbd93892d	-0.072038986
192	0xbdac6441	-0.084175594
193	0xbdd7c3e4	-0.1053541
194	0xbe6e6fc3	-0.23284821
195	0x3dc83c17	0.09777086
196	0x3cbae102	0.02281237
197	0xbda3aba2	-0.07991721
198	0x3d0d2716	0.034461103
199	0x3d0f0be8	0.034923464
200	0xbd917d14	-0.07103935
201	0xbd146542	-0.03622938
202	0x3d92aa9c	0.071614474
203	0x3ac45123	0.0014977794
204	0x3d030f4a	0.031997003
205	0xbb9e4098	-0.0048294775
206	0x3e2500e6	0.16113624
207	0xbe1a8b45	-0.1509219
208	0x3b992ecb	0.0046747676
209	0xbdc025b3	-0.093821906
210	0xbc0d68cd	-0.0086309435
211	0xbdc15aef	-0.09441172
212	0x3d5d8192	0.054078646
213	0x3e519c68	0.2046982
214	0xbdfe447e	-0.124154076
215	0xbe543bae	-0.20725891
216	0x3dbbf325	0.091772355
217	0xbdfdb19f	-0.12387394
218	0xbe454b1e	-0.19266936
219	0xbcc15c8a	-0.023603696
220	0x3e03c785	0.1286908
221	0x3dabaeb6	0.08382933
222	0x3c9dd6b7	0.019267423
223	0x3ccb417c	0.024811499
224	0xbb34897f	-0.0027547774
225	0xbd7a3337	-0.061084
226	0x3e4309b5	0.19046672
227	0x3dbe98bb	0.09306475
228	0x3e35ebec	0.17765778
229	0xbd449d9a	-0.048001863
230	0x3ca9dfea	0.020736653
231	0x39f782c7	0.00047208948
232	0xbe03e36c	-0.12879723
233	0xbdaeb862	-0.08531262
234	0xbebd7b50	-0.37008142
235	0x3da6dffe	0.08148192
236	0xbe0e8150	-0.13916516
237	0x3da8bc33	0.08239021
238	0xbd7dd506	-0.061970733
239	0xbca2e0d6	-0.0198826
240	0xbd3cc7eb	-0.046089094
241	0x3e404e6e	0.18779919
242	0x3ec4d516	0.38443822
243	0x3fadee8a	1.3588421
244	0x40724670	3.7855492
245	0xc09ebe56	-4.9607344
246	0x3bb8dcf1	0.0056415726
247	0x3d6d00ff	0.057862278
248	0xbc3e80cd	-0.011627388
249	0x3d9a8804	0.07545474
250	0x3b7858d5	0.0037894745
251	0xbd69c50c	-0.057072684
252	0x3cecef72	0.02892277
253	0xbd93cf22	-0.07217242
254	0xbe080da1	-0.13286449
255	0x3d32b47a	0.043629147

weight f4 [2, 128]
0	0x3c10df66	0.008842325
1	0xbc46478e	-0.012102021
2	0x3c0269a8	0.007959761
3	0xbc9ea0a0	-0.019363701
4	0x3d824a84	0.06361869
5	0x3d5ebf76	0.05438181
6	0x3cbadada	0.022809435
7	0xbc4f85f9	-0.012666219
8	0xbaf34c82	-0.001856223
9	0x3d091dce	0.03347569
10	0xbc2d6a45	-0.010584419
11	0xbd4aced5	-0.049513657
12	0xbcd06437	-0.025438411
13	0x3c5a61a3	0.0133289425
14	0x3d47b32d	0.04875486
15	0x3bd16d2a	0.006391187
16	0x3cd5b0c3	0.026085263
17	0xbe4e2cdc	-0.201343
18	0xbc82d880	-0.015972376
19	0x3d09fba1	0.033687238
20	0xbe40b399	-0.18818511
21	0xbc730b48	-0.014834233
22	0xbc010b0d	-0.00787617
23	0xbd25654f	-0.04037982
24	0x3d0e4b79	0.034739945
25	0xbb8c3ce9	-0.004279722
26	0xbcaaa8c7	-0.020832432
27	0x3b88d640	0.004175931
28	0xbda2a78a	-0.07942112
29	0xbbdd5c56	-0.006755392
30	0x3c6b01e3	0.014343712
31	0xbba6799c	-0.005080415
32	0xbacd1163	-0.001564544
33	0x3d08ebf4	0.033428147
34	0x3db1c665	0.08680419
35	0xbb88c6ce	-0.00417409
36	0x3c75e871	0.015009032
37	0xbd1bb157	-0.03801092
38	0x3dcffda1	0.10155798
39	0x3c4c0720	0.012452871
40	0x3c149eac	0.009071033
41	0xbcb18491	-0.021669658
42	0x3ca2c4e0	0.019869268
43	0xbbcdb061	-0.0062771295
44	0x3c8916d1	0.016734513
45	0x3d0c95ef	0.034322675
46	0xbc2761f3	-0.010216224
47	0xbc86eddd	-0.016470844
48	0xbc9f97b3	-0.019481516
49	0xbdc1b338	-0.094580114
50	0xbc9a61fe	-0.018845554
51	0x3cc2f93a	0.023800481
52	0x3c861462	0.016367141
53	0xbd2103ec	-0.03931038
54	0x3cf62082	0.030044798
55	0xbe542e25	-0.20720728
56	0x3cce5270	0.025185794
57	0xbd5c260e	-0.05374723
58	0x3e304880	0.17215157
59	0x3d2a8cda	0.041638233
60	0xbc3a5e69	-0.011375048
61	0x3ac59cd1	0.0015076642
62	0x3b8fc702	0.0043877373
63	0x3b4b14fe	0.0030987854
64	0xbd4502e7	-0.04809847
65	0xbbbdb6b2	-0.0057896012
66	0x3d8048f2	0.06263913
67	0xbc122717	-0.008920453
68	0x3d10aebc	0.03532289
69	0xbc0bcb61	-0.008532376
70	0xbbcdf820	-0.0062856823
71	0x3d7b3af3	0.061335515
72	0xbbe28ba3	-0.0069136187
73	0xbbf11bf6	-0.0073580695
74	0x3dadb0a3	0.084809564
75	0x3d3fa158	0.04678473
76	0x3de3cebd	0.111234166
77	0xbcae011a	-0.02124076
78	0xb9a8d7a9	-0.00032204136
79	0x3afd86f1	0.0019342584
80	0x3ca6137c	0.020272963
81	0xbcb0a5da	-0.02156346
82	0xbcf0fa1d	-0.029416138
83	0xbb00de50	-0.0019663759
84	0xbe867bf4	-0.26266444
85	0x3cd08853	0.02545563
86	0x3c80594a	0.015667576
87	0xbe1c22e6	-0.15247688
88	0xbd88b129	-0.066744156
89	0x3cf14546	0.029451977
90	0x3c85a2cf	0.016312985
91	0xbbc09dab	-0.0058781705
92	0x3906a82f	0.00012841889
93	0x3b348ed8	0.0027550962
94	0x3a71f9e1	0.0009230655
95	0xbc163b97	-0.009169481
96	0xbc5b70a9	-0.0133935595
97	0x3c59ef72	0.013301717
98	0xbd1167e7	-0.03549948
99	0xbcad6dc5	-0.021170506
100	0x3d76ba1f	0.060236093
101	0xbdfc0f3c	-0.12307593
102	0xbbf748b5	-0.007546509
103	0xbd4fb4cb	-0.050709527
104	0xbd04b0b8	-0.032395095
105	0xbd1295f9	-0.035787556
106	0xbd8f727a	-0.070042565
107	0xbdbc7db3	-0.09203663
108	0xbca558d8	-0.020183966
109	0x3e3a3a84	0.18186384
110	0x3bae6e54	0.0053232107
111	0x3b9305cf	0.0044867764
112	0x3deb4984	0.11488631
113	0x3d209461	0.039204005
114	0xbd331818	-0.04372415
115	0xbc7bfa55	-0.015379508
116	0xbd3d91e7	-0.04628172
117	0xbb99aa40	-0.004689485
118	0xbd89ab4e	-0.06722127
119	0x3d367b5b	0.044551235
120	0x3c3ecc2c	0.011645358
121	0x3cdbf6ce	0.026851084
122	0xbc9af386	-0.01891495
123	0xbc3daadd	-0.0115763815
124	0xbd402849	-0.04691342
125	0x39b1eeef	0.0003393809
126	0x3d736558	0.05942282
127	0x3a4dd9cb	0.0007852583
128	0xbb53025f	-0.0032197458
129	0x3d098f0d	0.03358369
130	0x3c120c4d	0.008914066
131	0x3c4d3912	0.012525814
132	0xbd93c63c	-0.072155446
133	0xbc8c27e9	-0.017108874
134	0xbc85a530	-0.01631412
135	0x3d388b91	0.045054976
136	0x3c2fb7e3	0.010724994
137	0xbc9b467a	-0.018954504
138	0x3d26695c	0.040627822
139	0x3bb87f8a	0.005630438
140	0xbcdb290b	-0.02675297
141	0x3dd5845b	0.104256354
142	0x3cee8d29	0.029120045
143	0x3c9aca44	0.018895276
144	0xbd39e9a0	-0.045388818
145	0xbd93fe6f	-0.07226264
146	0x3ae5fffa	0.00175476
147	0xbd841410	-0.06449139
148	0x3cec3abd	0.028836602
149	0x3a670c0d	0.00088137464
150	0x3d303722	0.04302133
151	0x3be2cac4	0.006921144
152	0xbcca8564	-0.024721809
153	0x3ca821b1	0.020523878
154	0x3c7e6506	0.015527016
155	0xbc185569	-0.009297707
156	0x3c584509	0.013200053
157	0xbd04d862	-0.03243292
158	0x3d0efa04	0.034906402
159	0x3d10525d	0.035234798
160	0x3c9263c0	0.01786983
161	0x3bded4ef	0.006800286
162	0x3c4909b0	0.012270376
163	0xbcb39228	-0.021920279
164	0x3bd9e75d	0.006649895
165	0x3d251ee7	0.040312674
166	0xbcbeffdd	-0.023315364
167	0x3c1144f3	0.008866536
168	0xbc97b813	-0.01852039
169	0xbb4fd9a4	-0.0031715417
170	0x3c18ddd9	0.009330236
171	0xbc984ba1	-0.01859075
172	0x3c6c6661	0.014428706
173	0xbd3beefb	-0.045882206
174	0x3c1b21d1	0.009468512
175	0xbc99bd2e	-0.018766966
176	0xbb3df212	-0.0028983396
177	0x3d391a51	0.045191113
178	0xbe26420d	-0.16236134
179	0x3d11891d	0.035531152
180	0x3bd1eb0e	0.0064061945
181	0xbc9e5172	-0.019325946
182	0xbc931ed9	-0.017959045
183	0x3d273e61	0.040830974
184	0xbe0ede53	-0.13951997
185	0x3c5d3489	0.013501295
186	0x3d2f0b7a	0.042735554
187	0x3b7defcc	0.0038747666
188	0x3bca3e3b	0.006171969
189	0x3b804d4c	0.0039154645
190	0xbc397f97	-0.011321924
191	0xbc184c1c	-0.00929549
192	0xbd0cac4a	-0.034343995
193	0xbb8972a3	-0.004194574
194	0xbd7bcfe4	-0.061477557
195	0x3d310fd9	0.043228004
196	0xbd471720	-0.048606038
197	0x3b6ecac2	0.003643677
198	0xbcfe0a63	-0.031010812
199	0xbba6dbdc	-0.0050921272
200	0xbd8cc7fb	-0.06874081
201	0x3cf86081	0.030319454
202	0x3dd09cd2	0.10186161
203	0x3cdabfa1	0.026702704
204	0xbb53cbe3	-0.003231757
205	0x3ce80154	0.028320946
206	0xbc1d505a	-0.009601677
207	0x3a047a20	0.00050535984
208	0x3c573ab3	0.013136554
209	0x3c84a8a1	0.01619369
210	0x3c80a1c3	0.015702134
211	0xb7c525ef	-2.3501894e-05
212	0xbd076bdc	-0.033061847
213	0x3c161f45	0.009162729
214	0x3ca5c091	0.020233424
215	0x3dd2e840	0.102982044
216	0x3d789931	0.06069297
217	0xbd098ade	-0.0335797
218	0x3bd79b66	0.0065798042
219	0x3c826516	0.015917342
220	0xbb61808b	-0.0034408893
221	0x3d33d29b	0.04390202
222	0x3c1e10b4	0.009647537
223	0x3bd192d8	0.006395679
224	0xbb7ae20f	-0.0038281714
225	0xbca62f5f	-0.02028626
226	0x3d2b0617	0.041753855
227	0x3cc14056	0.023590248
228	0xbd23c8c7	-0.039986398
229	0xbe8344dd	-0.25638476
230	0xbd5d30fb	-0.05400179
231	0x3c2e1b26	0.01062659
232	0x3d544d38	0.051831454
233	0x3d8cec20	0.06880975
234	0x3a87e3d1	0.0010367577
235	0x3eb09893	0.34491405
236	0x3cbb4c99	0.022863673
237	0x3a465f3c	0.00075672916
238	0x3c05007e	0.008117793
239	0xbc48c287	-0.01225341
240	0x3ccaf9d3	0.024777329
241	0xbc56532b	-0.013081352
242	0x3b674d62	0.0035293926
243	0xbc62cf00	-0.013843298
244	0xbd12ee00	-0.035871506
245	0xbcaef94e	-0.021359112
246	0x3bee27d2	0.0072679305
247	0x3ce64e8b	0.028113624
248	0xbd847048	-0.064667284
249	0x3ad75d54	0.0016431012
250	0xbbc378de	-0.005965336
251	0xbcf81f59	-0.030288385
252	0xbd4c195f	-0.049828883
253	0x3d30479b	0.04303704
254	0x3dbf9124	0.09353855
255	0xbb808d7b	-0.003923116

bias f4 [2]
0	0x3b5d3b8d	0.003375742
1	0x3b22816e	0.0024796384

W f4 [128, 128]
0	0xbdb2afc3	-0.0872493
1	0x3e122104	0.14270407
2	0xbd1ad4ad	-0.03780048
3	0x3d63fbb2	0.055659957
4	0x3dcf99c5	0.10136751
5	0x3daaa27f	0.08331775
6	0x3d6e8e1a	0.058240987
7	0xbc8ca91c	-0.017170481
8	0x3d04f885	0.03246357
9	0x3d2e5343	0.042559873
10	0x3d8ab5bb	0.067729436
11	0xbd39446e	-0.045231275
12	0x3e43c15d	0.19116731
13	0x3dd26dad	0.10274825
14	0x3d23b4fc	0.039967522
15	0xbd9e4d97	-0.07729643
16	0xbe68b06a	-0.22723547
17	0x3cbd5a0e	0.02311423
18	0xbd5c205a	-0.05374179
19	0x3da8ac89	0.082360335
20	0x3dca39d5	0.09874312
21	0x3df42173	0.119204424
22	0xbc5c97fd	-0.013463971
23	0xbe07c964	-0.13260418
24	0x3dfb0dda	0.12258501
25	0xbddc039f	-0.10742878
26	0xbca71c3f	-0.020399211
27	0x3d7ad563	0.061238658
28	0x3b4507bf	0.0030064431
29	0x3d0486ca	0.032355107
30	0xbd8f0fb5	-0.06985418
31	0x3e059b9e	0.13047644
32	0x3dac0773	0.08399858
33	0xbe4b8bd9	-0.19877566
34	0x3e3babdc	0.18327278
35	0xbe10e1d7	-0.14148651
36	0xbcbe8cd7	-0.023260517
37	0x3e04c882	0.12967113
38	0x3d90ba56	0.07066791
39	0x3e5cc1dd	0.21558328
40	0x3df6ad15	0.120447315
41	0xbcf70e65	-0.030158231
42	0x3d66e9c6	0.056375287
43	0xbd014469	-0.03155938
44	0xbe0aca1d	-0.13553663
45	0xba5a8938	-0.0008336487
46	0x3dfaaa2f	0.12239491
47	0x3c4e1264	0.012577627
48	0x3cf3a52c	0.029741846
49	0x3d9c430d	0.076299764
50	0x3d6bac2a	0.057537235
51	0xbe14c67d	-0.14528842
52	0xbdcec118	-0.100954235
53	0x3e229285	0.15876205
54	0xbe223984	-0.15842253
55	0xbc4904fa	-0.012269253
56	0xbe3e592b	-0.18588702
57	0x3c0d511d	0.008625296
58	0xbbd1b7c7	-0.006400082
59	0x3affab77	0.0019506057
60	0x3de6e7aa	0.11274655
61	0xbd9228a9	-0.071366616
62	0xbdb84e3e	-0.089992985
63	0x3d1b8e88	0.037977725
64	0x3e27c698	0.16384351
65	0x3d4f84da	0.050663806
66	0x3e2a20b8	0.16614044
67	0xbceb5210	-0.028725654
68	0x3d450c2f	0.048107322
69	0xbd69b7dd	-0.05706011
70	0x3e0e4b2a	0.1389586
71	0xbdc7737c	-0.09738824
72	0x3de2fa34	0.11082879
73	0x3ca7a0b0	0.020462364
74	0xbdb895da	-0.09012957
75	0xbd2c4003	-0.042053234
76	0xbdca4205	-0.098758735
77	0xbe5a313e	-0.21307847
78	0xbdabe234	-0.08392754
79	0x3d400c0d	0.046886493
80	0x3d8d2c7e	0.06893252
81	0xbdb4184b	-0.08793696
82	0xbb738f48	-0.003716426
83	0x3d6faf22	0.05851663
84	0x3cda68fd	0.02666139
85	0x3b991a23	0.004672305
86	0x3d2b9a32	0.0418951
87	0xbd0a2fb0	-0.033736885
88	0xbe6e3d62	-0.23265603
89	0x3e548001	0.20751955
90	0x3d772fcb	0.060348313
91	0xbdf305fa	-0.11866374
92	0x3e041ae8	0.12900889
93	0x3d00dcdf	0.03146064
94	0x3da92a5c	0.082600325
95	0x3db66b16	0.08907144
96	0xbd84ce10	-0.06484616
97	0xbc0e5bda	-0.008688891
98	0xbacda0b5	-0.0015688153
99	0xbd7d7400	-0.061878204
100	0x3d9a80ba	0.07544084
101	0xbdf81f50	-0.121153474
102	0x3db7d69e	0.08976482
103	0xbe388b3a	-0.1802186
104	0x3d5204ee	0.051274233
105	0x3d22a738	0.039710253
106	0x3e0c98f5	0.13730223
107	0xbda344c0	-0.079720974
108	0xbda75f1a	-0.08172436
109	0xbd59a930	-0.053139865
110	0x3df6efba	0.12057443
111	0xbc790b02	-0.015200378
112	0x3d5aeadf	0.053446647
113	0xbcb0e777	-0.021594746
114	0x3d9f2e8e	0.077725515
115	0xbdb035c3	-0.08604004
116	0xbdfc6369	-0.123236485
117	0x3da0c339	0.07849736
118	0xbe98e4b2	-0.2986198
119	0x3c95dd8d	0.01829412
120	0xbe77d038	-0.24200523
121	0x3e4ade16	0.19811282
122	0xbc9a7efd	-0.01885938
123	0x3e0d6e9f	0.1381173
124	0x3daa0b75	0.083029665
125	0xbdbcd767	-0.09220772
126	0xbd356715	-0.04428776
127	0xb9e71848	-0.00044077844
128	0x3c6b5822	0.014364274
129	0x3c2e7ea8	0.010650314
130	0xbda9a627	-0.08283644
131	0xbba4059c	-0.0050055515
132	0x3ca1bfb5	0.019744733
133	0x3d7cdc2e	0.061733417
134	0xbda60c4d	-0.08107815
135	0x3db9bc39	0.09069104
136	0xbb814268	-0.003944684
137	0x3b23576a	0.002492393
138	0x3d804087	0.062623076
139	0x3c537750	0.012906864
140	0xbe1a3877	-0.15060602
141	0x3deef218	0.116672695
142	0x3dd8c5e6	0.10584621
143	0x3db23e84	0.0870333
144	0x3dfb7217	0.1227762
145	0xbd0a83ac	-0.03381698
146	0xbd4da09e	-0.050202005
147	0xbaab55a2	-0.0013071785
148	0xbdef1a77	-0.1167497
149	0x3dab3c3a	0.08361097
150	0x3ddc2105	0.107484855
151	0xbd1073a6	-0.03526654
152	0xbe1eaa7a	-0.15494719
153	0x3d8e65e5	0.069530286
154	0xbd7f3c46	-0.06231334
155	0x3cec3162	0.028832141
156	0x3d8f64bb	0.07001635
157	0x3d585132	0.05281181
158	0xbdc1fa39	-0.09471554
159	0x3e46d2cd	0.19416352
160	0xbbae35ab	-0.0053164563
161	0xbcf92150	-0.030411392
162	0xbd0cc056	-0.034363113
163	0x3e263d95	0.16234429
164	0x3cb15b72	0.02165005
165	0xbe17a8db	-0.14810507
166	0xbdd533fd	-0.104103066
167	0xbe16731b	-0.14692347
168	0xbe1e5db9	-0.1546544
169	0xbc504476	-0.012711635
170	0xbc1f0f53	-0.009708243
171	0xbdd78e16	-0.105251476
172	0xbc2d2de4	-0.010570023
173	0xbca9a7c6	-0.020709883
174	0xbe3298ac	-0.17441052
175	0xbda8d891	-0.08244432
176	0x3deaae2d	0.11459003
177	0x3db5a399	0.088690944
178	0xbd58cb9e	-0.05292856
179	0x3da29bb2	0.07939853
180	0xbddba33d	-0.107244946
181	0x3dc1a250	0.09454787
182	0x3db02cfa	0.086023286
183	0x3cf9e898	0.030506417
184	0xbd7cdf24	-0.06173624
185	0xbdd4d196	-0.10391538
186	0xbe3fc2e5	-0.1872669
187	0xbd83d9b7	-0.0643801
188	0xbc9085dc	-0.017641954
189	0x3e175642	0.14778998
190	0xbd917626	-0.07102613
191	0x3d8c582a	0.068527535
192	0xbd29ffba	-0.041503645
193	0x3c1fca40	0.00975281
194	0xbc927c92	-0.017881665
195	0x3d8e0d43	0.06936123
196	0xbd36a5e3	-0.044591796
197	0xbe5172bd	-0.20453925
198	0xbe19784b	-0.14987294
199	0xbe4bf608	-0.19918072
200	0x3a666b8c	0.00087898294
201	0xbc90a6f9	-0.017657744
202	0xba6aad83	-0.0008952247
203	0x3e09d3e2	0.13459733
204	0xbd29786c	-0.04137461
205	0xb99ef5ac	-0.00030319148
206	0x3d841529	0.064493485
207	0x3cf78c20	0.030218184
208	0x3b21d1b5	0.0024691646
209	0x3cf67030	0.030082792
210	0x3c436f1d	0.011928347
211	0x3db476a1	0.08811689
212	0x3d9fca61	0.078022726
213	0x3e1b88e5	0.1518894
214	0xbe5d87d4	-0.21633846
215	0x3e3e998c	0.18613261
216	0x3d2290fd	0.039689053
217	0x3e35c583	0.17751126
218	0xbd69ab3c	-0.057048067
219	0x3d6a5976	0.057214223
220	0x3da714da	0.08158274
221	0x3af47645	0.001865097
222	0x3d9af6bc	0.07566592
223	0x3e07889a	0.13235703
224	0x3da14327	0.078741364
225	0x3bb53980	0.005530536
226	0xbda13221	-0.078708895
227	0xbe3019e3	-0.17197375
228	0x3ce11b03	0.0274787
229	0xbd8f4068	-0.069947064
230	0x3dbdb5bd	0.092631795
231	0x3e118c40	0.14213657
232	0xbd8adee4	-0.06780794
233	0x3d212a09	0.03934673
234	0xbc553256	-0.013012489
235	0xbd7772b4	-0.060412124
236	0x3e83463d	0.25639525
237	0xbd942dfb	-0.072353326
238	0xbc57c68e	-0.013169898
239	0x3b5a429e	0.0033303867
240	0xbd48f31b	-0.04905997
241	0xbd1d5ed1	-0.038420502
242	0x3d8bde2f	0.068294875
243	0xbe0fb9a0	-0.14035654
244	0xbd57726f	-0.052599367
245	0x3c550c57	0.01300343
246	0xbc0e1ed2	-0.00867434
247	0xbd82aabe	-0.06380223
248	0x3daff2ff	0.0859127
249	0x3df626aa	0.12019093
250	0xbd9d2fd4	-0.07675138
251	0x3d48a9bb	0.048989993
252	0xbdefd02d	-0.11709628
253	0x3d304b22	0.043040402
254	0xbd04c970	-0.03241867
255	0x3e27b93e	0.16379258
