LeakyRNN_11.28/1202/ta_3_128_d10_r11_4/model_15.pth (torch, 137244 bytes, 5 tensors)

weight f4 [128, 128]
000000 45 01 25 3f 3c 78 61 be b6 7b 2b be 36 25 03 be
       0.6445506 -0.22018522 -0.1674641 -0.12807164
000010 47 b0 0d 3e 65 5e 63 bd 43 f5 ae 3e d6 f6 53 3e
       0.13836776 -0.055509944 0.34171495 0.20699629
000020 39 9d ca be de a3 8c bd e3 13 b8 3e bf 6a 64 be
       -0.39573076 -0.06867193 0.35952672 -0.22306345
000030 6a 07 02 bf 82 54 01 bf 65 62 d2 3d 1a 5d 80 bd
       -0.5079256 -0.50519574 0.102726735 -0.06267758
000040 3e 05 8a 3b f5 fd 49 bd 66 41 4d bd ca 6d 94 bd
       0.0042120507 -0.049314458 -0.050111197 -0.07247503
000050 c2 a0 3b 3e 7e aa 4d 3e 91 dd cd bd cd 11 17 3d
       0.18323043 0.20084569 -0.10052026 0.03688221
000060 ff 00 92 be 10 25 e5 3c 2e ca 1f 3f 17 e2 72 be
       -0.28516385 0.027971774 0.62417877 -0.23719059
000070 6e cd dc 3e 28 0d c3 bb 1a 9f d6 bc 23 95 05 3c
       0.4312548 -0.005952496 -0.026198912 0.008153233
000080 3c 99 b9 bd d0 50 ad bd 8a 89 95 be 03 ba 8b 3d
       -0.0906243 -0.084626794 -0.29206496 0.06822588
000090 e4 01 d1 be 3c 42 46 be 3c 34 05 3f 17 da 0d 3e
       -0.40821755 -0.19361204 0.5203283 0.13852726
0000a0 6c 17 7d be 28 26 30 3e f6 08 01 bd c8 7e d6 3d
       -0.24715966 0.17202055 -0.031502686 0.104734
0000b0 88 eb 07 3e d2 5a fc 3d e0 d6 01 bf e2 eb 15 be
       0.13273442 0.1232201 -0.507185 -0.14640763
0000c0 08 2c 5e 3e e3 25 19 3e 58 3c 0d 3e ed 5a 88 be
       0.21696484 0.14955859 0.1379255 -0.2663187
0000d0 88 94 c7 bc 88 26 d2 be 39 db ef 3c 10 77 a8 3e
       -0.024362817 -0.41045022 0.029279338 0.32903337
0000e0 9e 31 1b be d9 83 02 3f 55 a9 67 be 52 e8 99 bd
       -0.15155646 0.50982434 -0.22623189 -0.07515015
0000f0 b1 a5 ae 3e d3 ad 11 be da 54 6b bd 70 80 38 be
       0.34110788 -0.14226465 -0.057453968 -0.18017745
000100 63 e9 e4 3d e4 41 f8 bd 9a 0e 02 3e c0 e3 53 be
       0.111773275 -0.12121943 0.12700883 -0.20692348
000110 7f d6 d0 bd 61 c4 62 be 3e ca d0 3e fe cf d3 3e
       -0.10197162 -0.22145225 0.407793 0.41369623
000120 46 06 16 be 09 3b 89 be 2e 24 9c 3e d6 61 84 3e
       -0.1465083 -0.26802853 0.30496353 0.25855893
000130 80 5a ea 3e 75 db 04 bb e8 35 44 3e 51 63 ec bd
       0.4577217 -0.0020272408 0.19161189 -0.115423806
000140 10 92 25 be dc 67 c2 bd 99 50 56 3e 0b ce 72 bd
       -0.16169 -0.09492466 0.20929183 -0.05927853
000150 ab 40 82 3d 56 31 90 be 6c 77 e7 3d 92 17 a9 be
       0.06359991 -0.2816264 0.11302075 -0.33025795
000160 a8 70 f7 3d 66 8c 17 3e 56 b5 10 be 10 98 fa 3e
       0.12082034 0.14799652 -0.14131674 0.4894414
000170 27 c1 ae bc aa 7c f2 be fa d3 0b 3f 22 d1 26 3e
       -0.021332337 -0.47360736 0.54620326 0.16290715
000180 e0 78 85 3e b8 8c 8e 3e 53 83 17 be 02 4b 8e 3e
       0.26068783 0.27841735 -0.1479619 0.277916
000190 07 98 bc 3d e2 8f 6b bd 75 24 de bd ac 91 d8 3d
       0.092086844 -0.057510264 -0.108467974 0.1057466
0001a0 b1 bc 66 be a5 25 88 3e 31 cd 42 3f 7d f8 a3 3e
       -0.22532918 0.2659122 0.7609435 0.3202552
0001b0 42 91 1a 3e c1 8f 86 bd 73 ba c2 3b 58 5f 72 be
       0.15094474 -0.06570388 0.0059426366 -0.23669183
0001c0 23 f8 2a bd 4e 85 ed bc c5 42 08 3f 3a f2 ba 3d
       -0.041740548 -0.028994229 0.5322688 0.09128232
0001d0 f8 98 2f bd b5 55 a3 3e d7 8e 2d 3e 9d db 66 be
       -0.04287049 0.31901327 0.1694902 -0.22544713
0001e0 1c bf 10 bd cf 22 cf be 89 05 a0 bd 1a 8a 0e 3c
       -0.035338506 -0.40456244 -0.07813556 0.008699918
0001f0 1b 9a 6c 3e a3 5e 65 3e 74 d9 cf be 88 55 f2 bd
       0.23105662 0.22399382 -0.4059559 -0.1183272
000200 de b6 48 bd d4 6e e5 be be f3 81 be fd b4 8c 3e
       -0.04900252 -0.44811118 -0.25381273 0.27481833
000210 84 53 5e 3e 18 b0 90 3e 9a 24 e5 3d c3 9b 8d 3d
       0.21711546 0.2825935 0.11188622 0.06914475
000220 fb 27 79 3e f7 19 1f 3b e0 85 78 3d 7c 0e 1d 3e
       0.24331658 0.002427695 0.06067455 0.15337557
000230 f1 48 f9 bc 15 df a8 3e c5 75 a4 3e e8 61 17 3e
       -0.030430289 0.32982698 0.321211 0.14783442
000240 7b 55 95 be 70 e9 fa bd b2 6b 3f 3e 8e df f2 3d
       -0.2916678 -0.12251556 0.18693426 0.11859046
000250 8f f3 95 be 73 51 9a 3d 74 d5 94 3c 3a 1c ed bc
       -0.29287383 0.075350665 0.018168189 -0.028944124
000260 bd 70 58 be ad 60 84 3d 90 7c 6e 3e ec 95 94 3c
       -0.21136756 0.06463752 0.23289704 0.018137895
000270 75 ae 44 bd c1 be 05 bd 6d a4 cc bd b1 a4 67 bd
       -0.048017938 -0.03265262 -0.09992299 -0.056553546
000280 c1 e6 b3 bd 90 d5 53 3d 72 fa c0 bd da 71 a6 3c
       -0.08784247 0.05171734 -0.09422769 0.02031796
000290 b9 51 25 be c6 36 90 3e 87 f0 86 bd 13 02 ac bd
       -0.16144456 0.2816679 -0.06588846 -0.08398833
0002a0 08 ab 79 3e 4f f8 6f 3e 2a 8f 5b 3c f5 e8 a6 3e
       0.2438165 0.23434566 0.013400832 0.32599607
0002b0 7c 2f c2 be dc 98 93 be 27 6c f6 bd c6 15 00 3f
       -0.37926853 -0.2882756 -0.12032347 0.50033224
0002c0 38 31 9f bd 9f eb be bd a2 b5 bb bd e9 ac ba 3d
       -0.077730596 -0.09322285 -0.09165503 0.09115011
0002d0 ca b6 62 bc 30 53 92 be 31 b4 e0 ba 55 85 8e 3c
       -0.013837526 -0.28579092 -0.0017143545 0.017397562
0002e0 11 24 b0 3d e2 2d b6 bd c5 aa b1 3d ce 13 83 3d
       0.08600629 -0.0889547 0.0867515 0.06400262
0002f0 0b 28 aa be bc cc 53 bd 70 3a 11 bc 76 f8 44 3e
       -0.33233675 -0.05170892 -0.00886403 0.19235405
000300 a4 5e e2 bd 65 29 41 3e bd 6e a7 3d 15 fa 66 3d
       -0.110532075 0.18863447 0.081754185 0.05639084
000310 aa ba 7e bd 84 92 63 bd e9 62 48 3d 9f 4b a3 bc
       -0.062189735 -0.05555965 0.048922453 -0.01993352
000320 2a 59 9d bd 87 a0 c8 bd 54 ad 18 3e 79 48 cc 3d
       -0.07683022 -0.09796243 0.1490987 0.099747606
000330 e6 77 fd 3d cf 5b 00 be 43 5f dc 3d b6 8a 12 3e
       0.123763844 -0.12535022 0.10760357 0.14310727
000340 5e 43 d2 3d bb b0 96 be b3 90 26 be b1 d5 7a be
       0.102667555 -0.2943171 -0.16266136 -0.2449558
000350 8a f7 07 3e 1d f3 47 3b c9 7e 6b 3e 63 ab 90 3d
       0.13278022 0.0030509897 0.22997583 0.070639394
000360 d8 bd f6 bc ed 99 cb bd c8 26 3b 3e 43 bf 4d be
       -0.030119821 -0.099414684 0.18276513 -0.20092492
000370 d4 c8 59 be 3d 42 8c 3e ed ba 13 be 35 40 b0 bd
       -0.21268016 0.27394286 -0.14426775 -0.086059965
000380 9d 36 b6 3d c2 63 06 bd ea c3 90 be cd e9 92 be
       0.088971354 -0.03280998 -0.2827447 -0.28694
000390 43 ae 8d be f6 f2 5b 3c 8e bc ad 3d 61 45 8e be
       -0.27672014 0.013424626 0.084832296 -0.27787307
0003a0 36 01 22 3e 4b c4 05 3e c3 8a 1c 3d 05 7f df 3d
       0.15820774 0.13063161 0.03821827 0.10912899
0003b0 4b 66 49 bd 66 5f 0e 3e e0 42 33 be 69 67 bb bd
       -0.04916982 0.13903579 -0.1750598 -0.09150583
0003c0 7c 7d 92 be 69 f1 c3 3d 7c ce ce bd 08 33 66 bb
       -0.28611362 0.0956753 -0.100979775 -0.0035125632
0003d0 f2 bd 15 3e 7c 50 5a be 27 65 3b 3c c4 f3 1a be
       0.1462324 -0.21319765 0.011437691 -0.15132052
0003e0 da 97 9d 3e 3f 80 be bd 0f 5e fa 3d 5d 89 88 3b
       0.30779916 -0.09301805 0.122249715 0.0041667656
0003f0 fd 3c cd 3e e5 a7 53 3e 66 9d 1c be 6e 62 2f be
       0.40085593 0.20669515 -0.15294418 -0.17127392

weight f4 [128, 3]
000000 4d 65 da bd 08 1e 2a be 9c 39 9a bc d7 fd d2 3f
       -0.10663853 -0.16613019 -0.018826298 1.6483716
000010 0e f5 34 3e aa 2b 30 bc 02 4b e3 3e 26 2a 10 3f
       0.17671606 -0.010752598 0.44393164 0.56314313
000020 a2 a1 4e 3c ba e8 be bd 19 7c ad bd 47 49 c1 ba
       0.012611778 -0.09321733 -0.084709354 -0.001474657
000030 c4 c4 cc bd 17 91 8c 3c 5a 1c 63 3b 4f 45 5f be
       -0.099984676 0.017159028 0.003465435 -0.21803783
000040 89 87 ee 3c 01 99 66 3b a3 3a e3 bd fe 06 e9 3f
       0.029117363 0.0035186412 -0.110951684 1.8205259
000050 5b 34 02 3a f3 08 11 3d 29 83 4a bf 15 93 11 3b
       0.0004966908 0.035408925 -0.79106385 0.0022212912
000060 d4 fa f6 be 41 01 88 be 67 f8 03 3c a1 c1 45 bf
       -0.48238242 -0.26563457 0.008054829 -0.7724858
000070 33 12 8c 3f 4e 8b b0 3b fe 96 c3 3e 89 ad 67 bf
       1.0943054 0.0053877 0.38201135 -0.9049917
000080 1a 81 0d 3c 46 23 42 b9 34 52 ba 3e de 0d 17 bc
       0.008636737 -0.00018514422 0.3639084 -0.009219615
000090 56 b7 ce 3e ad df 16 3e 43 fb 4a bc a9 48 15 40
       0.4037425 0.14733763 -0.012389007 2.3325598
0000a0 d0 2b b3 3f 78 e6 44 3c 8e 2d 17 be 59 76 40 bf
       1.3997746 0.012017839 -0.14763471 -0.75180584
0000b0 35 d8 22 ba 27 b8 00 bf 6e 4a f6 be 74 e9 3a 3b
       -0.0006212027 -0.50280994 -0.4810366 0.0028520497
0000c0 6a f5 82 3d b5 1c b3 bb d8 6c 40 bb a2 ac e2 3d
       0.06394465 -0.0054660686 -0.002936175 0.11068083
0000d0 e9 6d 8a 3e ad e2 0b 3c cf dd c3 3d 59 20 7b be
       0.2703698 0.00853793 0.09563791 -0.24524058
0000e0 45 23 12 3a 98 a0 75 be 94 d1 10 3e 0c 78 a6 bc
       0.00055747136 -0.23987043 0.14142448 -0.020320915
0000f0 4b 96 14 be fc 13 0b 3d 23 25 df 3a 13 b9 e6 bd
       -0.14510457 0.033954605 0.0017024617 -0.11265769
000100 22 34 8a 3c 95 08 9b 39 03 6f a5 be 39 ae 0e 3f
       0.016870562 0.00029570298 -0.32311258 0.5573459
000110 8b 00 5a bc f6 1a 35 3f b4 c9 81 3e e7 54 d9 3b
       -0.0133057935 0.70744264 0.253492 0.0066324356
000120 37 75 0e 3f f2 41 f9 3f 5b 2d c4 bb 03 92 34 3f
       0.55647606 1.947325 -0.005986852 0.70535296
000130 8d ee 72 bf 87 79 c7 bb c0 ea ae 3e 97 e4 8e 3f
       -0.9489525 -0.0060874852 0.34163475 1.116351
000140 83 9a 33 b9 9a bd 58 bf 60 53 53 3e bf d7 3f 3a
       -0.0001712833 -0.8466431 0.20637274 0.00073182205
000150 39 76 91 3f 65 03 ce 3f ab 74 54 bb eb e0 99 bf
       1.1364204 1.6094786 -0.0032418172 -1.2021765
000160 37 53 84 3f b1 eb a3 bb 4f b3 2a bf 5b 7a e1 bd
       1.0337895 -0.005002462 -0.66679853 -0.110096656
000170 a0 cf e4 ba 65 1a 0f bf 86 56 9b 3c b4 8d ff ba
       -0.0017456897 -0.5589965 0.018962156 -0.0019497187
000180 3b 39 b6 3e a0 7c 02 bf 2b 72 65 3a cd a3 d6 be
       0.35590538 -0.5097141 0.0008752669 -0.41921845
000190 a4 14 02 3f 95 0f 85 bc ef 53 5e 3e 85 ad 31 3f
       0.50812745 -0.016242782 0.21711706 0.69405395
0001a0 c1 a4 14 3c 3b 9f 36 3e ef a9 4a bf bf aa 2d 3c
       0.0090724835 0.17834179 -0.7916555 0.010599791
0001b0 53 c9 3d 3f 2a c1 1a be a8 38 6f bb 25 11 b9 be
       0.7413532 -0.15112749 -0.0036502276 -0.36145893
0001c0 20 ae 00 bf 02 ef a3 36 d5 98 c9 3e 57 04 6b be
       -0.50265694 4.8856027e-06 0.39374414 -0.22950874
0001d0 c9 ee d1 bb 76 1a cd be 31 24 99 3f 84 9b 77 b8
       -0.0064066392 -0.4005925 1.196417 -5.9034224e-05
0001e0 11 06 33 3f 78 41 88 3e d4 82 8f 3a 53 05 dd bc
       0.6993113 0.2661245 0.0010949024 -0.026980078
0001f0 84 b4 d0 3d a8 95 72 3b e2 a5 08 3e ca c1 5d bf
       0.101906806 0.0037015472 0.1334453 -0.86623824
000200 39 91 5d 3b e6 b2 ac be fc ce ce 3d 32 85 8d bb
       0.0033808483 -0.3373024 0.10098073 -0.0043188566
000210 63 b4 01 3f 05 99 1d 3e e0 17 cd 3b d8 f5 05 bf
       0.50665873 0.15390404 0.0062589496 -0.5232825
000220 38 85 7d bd 34 d4 13 3c 2b 20 a8 3e ef 3e 63 be
       -0.061894625 0.009022761 0.32837042 -0.22191976
000230 4d b5 9c bc 10 6a 8a bf 78 c5 82 3f a4 2d 49 bc
       -0.01912942 -1.0813618 1.0216513 -0.012278948
000240 f8 fb 40 bf ce 33 df be 50 09 5a 3c a4 61 05 40
       -0.75384474 -0.4359421 0.013307884 2.0840845
000250 12 51 b4 be 81 a3 32 bb 5f e9 83 3d 9e 2d 9e bb
       -0.35218102 -0.00272581 0.064409964 -0.0048272153
000260 a6 a8 a8 bb 32 64 b6 3f 5a a3 02 c0 31 dd fa bc
       -0.0051470576 1.4249327 -2.0412202 -0.03062305
000270 c6 d4 99 3d fe fc a9 bd 0c 08 09 3a 46 7e 72 3d
       0.075112864 -0.083002076 0.00052273343 0.059202455
000280 5b 18 a0 3e 99 e6 62 3c 1b 50 86 3f 77 0f 25 bf
       0.31268582 0.013848924 1.0493196 -0.6447672
000290 b3 27 17 3d 9c d7 53 3f 07 64 da bc 67 cc 86 3c
       0.036903095 0.8275087 -0.026659025 0.016454889
0002a0 b7 59 10 3e 20 ea a2 3e 31 53 db bb 85 08 0b 3e
       0.14096723 0.31819248 -0.006693267 0.13577469
0002b0 71 55 6e 3f 20 47 5d 3b 12 96 48 3e 62 a8 83 bc
       0.93099123 0.0033764318 0.19588497 -0.016071502
0002c0 90 e2 a2 3c 89 15 6f 3f 82 d7 1a bf fe 42 42 bc
       0.019883424 0.93392235 -0.6048509 -0.0118567925
0002d0 9a 81 8a bf 8d f4 2f c0 67 e3 c8 3c 08 5b b5 bf
       -1.0820801 -2.7493012 0.024522496 -1.4168406
0002e0 3d c5 34 bf 2f 92 1c bc 04 6f 47 bf 46 e0 6e 3f
       -0.7061346 -0.009556337 -0.7790377 0.93310964
0002f0 56 fd 11 bb ce 6c 7d bf 69 75 20 40 4a ec 00 bc
       -0.0022276244 -0.9899415 2.5071661 -0.007868836
000300 97 20 02 3f bf 4e 40 bb 3a dc 4d 3c 5a 0b ca 3e
       0.5083098 -0.0029343811 0.012564713 0.39461786
000310 e0 14 11 3f a9 74 2d 3c 13 f9 9d 3d 3c 0b c2 bd
       0.5667248 0.010586896 0.07713523 -0.09474799
000320 6f 62 0d bc b8 b7 d5 bf 3e d1 81 be 53 e9 da 3c
       -0.008629425 -1.6696692 -0.25354952 0.026722586
000330 46 28 10 bf c0 de 0a bf 7c 65 3b bb 13 c0 ba be
       -0.5631145 -0.5424614 -0.0028594425 -0.36474666
000340 b9 d4 bd bd 58 51 e2 3a ad 08 34 bf 12 c8 42 3e
       -0.09269089 0.0017266674 -0.7032574 0.19021633
000350 bb 1a 86 ba 6a ab 73 3f a5 5f 8d bf a6 58 86 bc
       -0.0010231355 0.9518343 -1.1044813 -0.016399693
000360 4b d5 89 3f 2e 2d bd 3f 11 25 e5 bb f0 c3 9d 3f
       1.0768217 1.4779413 -0.006992944 1.232542
000370 b7 19 85 3f bb f0 3f 3c 52 12 48 be 0e 93 6e 3f
       1.0398473 0.011715109 -0.19538239 0.9319314
000380 33 75 04 bc fd 42 d7 bf bc 8d 9f bf a4 52 79 bc
       -0.008084583 -1.6817318 -1.2465129 -0.015217457
000390 94 e0 18 3f 6f 50 e3 3d 39 00 29 3d 2f 7b a0 bf
       0.5971768 0.11099326 0.041259978 -1.2537593
0003a0 80 55 d6 bf f4 4b d3 bb 16 f0 ca be cb c5 69 3e
       -1.6744843 -0.0064482633 -0.39636296 0.22829358
0003b0 f7 3f 5b ba 8b a2 8f be a5 80 ad 3f 9c c1 10 bb
       -0.00083637185 -0.28053698 1.3554884 -0.0022088056
0003c0 97 21 e9 3e a0 88 33 3f 9f 86 b0 bb 77 73 31 3f
       0.4553344 0.7013035 -0.005387142 0.6931681
0003d0 85 0b be 3f a4 14 2f bc 7e aa 6c bf 3e 90 1a bf
       1.4847265 -0.010686073 -0.9244765 -0.60376346
0003e0 ea 0d 85 3c fd 18 72 3e 2d 25 54 3f 46 2e c7 bc
       0.016241986 0.23642345 0.82869226 -0.024314057
0003f0 a2 9a bf 3e 02 35 88 3f 16 b3 81 3b d3 23 af bd
       0.37422663 1.0641177 0.0039581163 -0.08551755

weight f4 [2, 128]
000000 44 63 d7 3b 4d 87 68 bc 9d 80 af 3b 29 07 56 3d
       0.0065731127 -0.0141924145 0.005355908 0.052252922
000010 82 63 08 be 2b d5 08 3d 9e f5 c7 bc 14 cd cf 3b
       -0.13319209 0.033406418 -0.024409112 0.006341586
000020 c9 a1 35 3c bc 9e 2e b9 9f b2 00 be fe 4f ac bc
       0.011085936 -0.00016653066 -0.12568139 -0.021034237
000030 c9 90 0d bd 74 5c 56 bc a5 7e 27 bd 8f c2 d5 3c
       -0.034561906 -0.013083566 -0.040892262 0.02609375
000040 e8 7d 18 bc 9d c2 54 3b 39 a0 f5 3b 64 07 b2 3c
       -0.009307362 0.0032464631 0.0074959067 0.02173204
000050 92 89 93 bc 37 a8 1c 3c 02 0e 35 3d ec a5 e7 3c
       -0.018009935 0.00956159 0.044202812 0.02827736
000060 38 db 4b 3a 06 94 cc bc 42 37 d0 3c 84 b0 5d bc
       0.00077765016 -0.024972927 0.025416974 -0.013530854
000070 e9 f2 d6 bb e7 71 2e 3c 01 7c cb bc 97 5d aa 3c
       -0.006559719 0.010647274 -0.024839403 0.02079658
000080 57 79 9f 3b 5e e7 2b 3c 9b 19 a8 3c 4a e5 8e bc
       0.0048667598 0.010492174 0.020520022 -0.017443318
000090 c7 fc a1 bd dd 3f 16 3c f3 e0 22 3b d3 b0 8b 3c
       -0.079095416 0.0091705 0.0024853318 0.01705209
0000a0 1d a5 c2 bb 59 7f ed 3b 77 28 64 3b d5 1a d6 bb
       -0.005940093 0.007247847 0.0034814158 -0.0065339603
0000b0 22 db 05 bd c3 43 b9 3c ce 9f 06 3d 6e 23 33 3c
       -0.032679684 0.02261532 0.032867245 0.01093374
0000c0 31 4b ee bc bb 7a 57 3c 0a 56 f3 bc ff d4 b5 bd
       -0.029088588 0.01315182 -0.029704113 -0.088785164
0000d0 a6 07 ee 3c d4 ba 25 3d 88 59 39 3b 75 c1 8e 3a
       0.029056381 0.040461376 0.0028282125 0.0010891395
0000e0 3d 10 b0 3c 4f a2 42 3c 43 23 14 bd 13 b0 12 3c
       0.021492118 0.011879518 -0.03616644 0.008953112
0000f0 36 c8 18 bd 6e de a0 3c a1 e8 dd 3b d3 f7 15 3d
       -0.03730031 0.019637313 0.0067721163 0.036613297
000100 33 d5 8f bc 36 44 04 3c 47 c8 25 bb cb 85 46 bb
       -0.017557716 0.008072903 -0.0025296377 -0.003029215
000110 85 a7 71 3c 8a 47 5f 3c c0 3c 66 3b bb 6c 56 b9
       0.014749412 0.013627896 0.0035131425 -0.00020449136
000120 c6 f1 32 bc 9e cd 33 bc a7 5e 39 bd 3b 81 58 3c
       -0.010921901 -0.010974316 -0.045256283 0.013214405
000130 98 a8 21 bc 66 38 1f bd 12 ac 18 3e cc 9a 0b bb
       -0.009866856 -0.038872145 0.1490939 -0.0021301983
000140 68 d5 89 bc 61 16 0c bd 5b 9a 3f 3d 52 e6 ea 3c
       -0.016825393 -0.03420103 0.046778064 0.028674278
000150 77 1f fe bb 5d 4c 0c bd f1 97 04 3d cc a0 bc bd
       -0.0077552157 -0.034252513 0.032371465 -0.09210357
000160 98 75 33 3a c7 eb b7 bd 21 f1 a8 3c 14 78 51 3d
       0.0006845831 -0.08980518 0.020622792 0.051139906
000170 a9 1b 0f 3d 29 ee 73 3c 39 4b 33 be b4 72 be 3d
       0.03493849 0.014888325 -0.17509164 0.09299222
000180 b4 07 59 3d 50 e4 00 3c 82 24 14 3d 9d 57 0f bd
       0.052985862 0.007866934 0.03616763 -0.034995664
000190 e6 dc bf 3c 1b db e1 3c 5e 21 21 3d f3 42 60 3c
       0.023420762 0.027570298 0.039338462 0.013687837
0001a0 12 c2 df ba b3 2c 5f bd 8f 5d 35 3d 47 6c 0f be
       -0.0017071387 -0.054485988 0.044278678 -0.14006148
0001b0 6d 85 04 bd 15 2e 31 3d a3 af a5 3d 96 b1 99 bd
       -0.032353807 0.043256838 0.08090141 -0.07504575
0001c0 34 1d af bc f8 d6 88 3c f4 8e 10 bb 1a d0 73 bd
       -0.02137623 0.016704068 -0.0022057863 -0.059524633
0001d0 93 23 8d bd e1 88 0e bd ca f1 54 3d 27 9d 3c bd
       -0.06891551 -0.034798507 0.0519884 -0.04604831
0001e0 4f 06 11 bc 73 a0 a4 3c 8e bf b5 3b 8e 02 a0 3c
       -0.008851602 0.02009604 0.0055465167 0.019532468
0001f0 dd 99 a9 3e c3 c6 ba bb 3c 92 5c bc f1 6c f5 bb
       0.331252 -0.005699964 -0.013462599 -0.0074897935
000200 96 2e 7d 3b 34 ce ad bb 3c 39 b9 3c c0 a0 18 bb
       0.0038632504 -0.0053041223 0.0226103 -0.0023289174
000210 3f 9b 87 bd 14 e7 73 3c 0a f3 59 bc 3c 24 a0 3b
       -0.06621408 0.014886636 -0.013302574 0.004887132
000220 d0 5f 16 bd 09 11 6d 3b 9b 3d ae 3d 7a d2 9f 3c
       -0.036712468 0.0036173484 0.08507844 0.019509543
000230 32 c4 6f 3c b5 24 4f 3b 27 b4 ee 3d dd b4 e6 bb
       0.014634179 0.0031607572 0.11655455 -0.0070406036
000240 b6 5f 09 3d ba eb 9b bb 3e c9 7a bc aa c5 ae bc
       0.033538543 -0.0047583254 -0.015306769 -0.021334488
000250 15 3b 93 bb df 82 62 3b be de ad bc 76 e7 7b bc
       -0.004493127 0.0034562869 -0.021224376 -0.015375009
000260 14 7e c7 3c b2 ae 37 be 8a c8 2d 3b 90 a7 a7 bc
       0.02435211 -0.17937735 0.0026517236 -0.020465642
000270 0b 96 08 3d 00 73 6e 3c 86 6e ab 3c ee 4f 85 3c
       0.033346217 0.014553785 0.020926725 0.016273465
000280 53 54 9a bc 88 36 6f bd 4e 3c 56 3b 05 6e 44 3b
       -0.018839037 -0.058401614 0.0032689753 0.0029972803
000290 0f 89 1d bd 7c d7 8a 3c 17 a6 68 3c ec 31 fc 3c
       -0.038460787 0.016948454 0.014199755 0.030785523
0002a0 83 5b cf bc 29 77 53 bc 77 f7 75 3b b3 44 04 bd
       -0.02531219 -0.012906828 0.0037531534 -0.03229208
0002b0 1a 24 e0 bc a0 03 22 bc 9f 50 01 3c 4b 51 19 bc
       -0.027360965 -0.00988856 0.007892757 -0.009357761
0002c0 98 19 a6 3d c8 ad 39 3b f0 a8 33 bd 2c 77 6c bc
       0.0811035 0.0028332341 -0.043862283 -0.01443271
0002d0 0a aa 39 bb e1 8a 14 bd 02 6e 94 3c 57 e1 59 3b
       -0.002833011 -0.036265258 0.018118862 0.0033245885
0002e0 0a ce eb bc 68 a5 ac 3b 6d 31 25 3c 8f a3 ed 3d
       -0.02878477 0.0052687414 0.010082585 0.11603462
0002f0 0b 2d bd bc d9 15 8e bd 8c e0 4c 3c f9 76 c5 bc
       -0.023092767 -0.06937761 0.012504708 -0.024104582
000300 4b c8 9a bc 14 3c d1 3a b6 45 a3 3c 9d 75 47 bc
       -0.018894335 0.0015963339 0.019930702 -0.012174037
000310 11 f4 e6 3b bd ea 5d bb 00 96 72 bd 35 02 5c 3d
       0.007048138 -0.0033861839 -0.059225082 0.053713042
000320 53 9d b5 bc 11 c9 6d 3c 26 be 25 bd 49 97 c8 3c
       -0.022169745 0.01451327 -0.040464543 0.0244862
000330 e4 de ec 3c 37 e7 12 3d 30 3c 1e 3e 1b af 40 3c
       0.028914876 0.035865035 0.15452647 0.011760498
000340 2f 68 81 bb 53 9c ea 3c 04 50 a9 3a ae 39 4b bc
       -0.003949187 0.028638994 0.0012917523 -0.012403889
000350 a8 54 e3 3c f2 c7 96 3c 38 50 de 3c fe ad a5 3d
       0.027750328 0.018405888 0.02713786 0.08089827
000360 dc 8c 59 3d 4c d5 b8 3d 05 3d a1 bb 4d b6 e5 3c
       0.05311285 0.09025058 -0.004920604 0.02804103
000370 11 7c 82 bc 4f 8d 17 3d e8 72 11 bd 18 50 62 be
       -0.0159283 0.036999997 -0.035509974 -0.22100866
000380 bd 76 c1 bc fe 4b 2a bc 46 ef 17 b8 f1 a3 ff 3b
       -0.02361619 -0.0103940945 -3.6224046e-05 0.0078015258
000390 98 46 1c ba b7 8e 0b 3d 9c c1 83 bc a0 8b 89 3c
       -0.0005961447 0.03407165 -0.016083531 0.016790211
0003a0 0c b3 c0 ba 0b 6a 26 3d 76 b0 8c 3c 0f 3d 01 bc
       -0.0014701798 0.040628474 0.017173987 -0.007888093
0003b0 0d 26 95 3c 0e a8 4b bc 83 10 78 bc d9 26 f9 bc
       0.01820662 -0.012430204 -0.015140655 -0.030414032
0003c0 61 ad 99 bc f6 61 60 3c 01 05 10 bd 93 eb 3f 3e
       -0.018759431 0.013695231 -0.035161022 0.18742208
0003d0 da 2a 60 3d 24 2b 43 3d 89 94 fd b9 94 34 dd 3b
       0.054728366 0.047648564 -0.00048366588 0.0067506526
0003e0 b8 eb 6b bd 65 61 1a 3c c7 4a 97 3d 94 d4 d5 bc
       -0.057597846 0.009422635 0.073873095 -0.026102342
0003f0 96 42 40 bc c1 4c 3b bd 4f e9 03 bd 5c 43 6a b9
       -0.011734625 -0.045727495 -0.032204922 -0.00022341072

bias f4 [2]
000000 87 90 29 b8 54 d6 0a 38
       -4.042734e-05 3.3101373e-05

W f4 [128, 128]
000000 ee a4 81 3e b1 21 24 bc 66 10 5a bd ab 14 b0 bc
       0.25321144 -0.010017798 -0.053238295 -0.02149423
000010 46 9c 02 3e 8e 9d 86 3d 1e 61 5b 3e 1f d7 88 3d
       0.12754926 0.0657302 0.21423766 0.06681656
000020 1d b1 88 bd 45 f1 04 be 89 15 b0 3d 87 ca 7d bd
       -0.06674407 -0.12982662 0.085978575 -0.061960723
000030 18 9f 19 be 0a 92 e5 bd 26 1d 5f 3d 40 0d d4 bd
       -0.15002096 -0.11209495 0.054471157 -0.1035409
000040 0b a5 a3 3b 89 26 73 bc 0a 37 e1 3d 7a 60 f7 bd
       0.00499404 -0.0148407305 0.10996826 -0.12078948
000050 c7 38 03 bd 4a 39 5d bc fd e7 26 bd f6 86 27 3d
       -0.03203657 -0.013502428 -0.040748585 0.040900193
000060 3d f9 10 be af b1 c1 3d 1b 5b 2f 3e a1 96 d2 bd
       -0.14157577 0.094577186 0.17124598 -0.102826364
000070 3e 0a f3 3d 95 6c ed bb 4e f5 b5 bd 4b 73 48 be
       0.11867188 -0.00724561 -0.08884679 -0.19575231
000080 41 d8 92 bd 69 4d f6 bd 96 87 c5 3b a7 61 00 3e
       -0.071701534 -0.120264836 0.006028126 0.12537251
000090 8b 42 4a bd db 6a e1 bc 0f a9 ae 3d dc 8b ad 3c
       -0.049379867 -0.027516773 0.08528339 0.021184854
0000a0 dd 7a ab bd fa 3d 19 3e fc cc e0 3c 90 d7 fc 3d
       -0.08373044 0.14965048 0.027441494 0.12345803
0000b0 bf ef 0a 3d 77 19 03 bd 3e 6e 89 bd 09 1a c9 bd
       0.033920046 -0.032006707 -0.0671048 -0.09819419
0000c0 0a 0f ba 3d 46 9d 66 bd 47 c8 ca 3d 6e a3 09 be
       0.090849 -0.05630233 0.09901481 -0.1344125
0000d0 c7 e9 25 bd da 7c bc bc 8b b0 38 3d 7e 33 97 3d
       -0.04050615 -0.023008753 0.04509024 0.07382868
0000e0 52 99 a5 3d 17 cd 54 3e d4 b7 24 be 2c a6 a6 bc
       0.08085884 0.2078136 -0.1608575 -0.020342909
0000f0 c9 fa a2 bd 80 9f 85 bd 93 44 0a bd 58 65 d9 3a
       -0.0795799 -0.06524563 -0.033756804 0.0016585989
000100 84 2b 6d 3d eb 50 8d bd f7 48 5f 3b 4a f5 80 bd
       0.057902828 -0.069001995 0.003407059 -0.06296785
000110 73 03 36 be e7 54 03 be 93 27 a4 3d 75 23 12 3d
       -0.17774753 -0.12825356 0.08015361 0.035678346
000120 d7 d8 70 bc fb 96 48 bd 60 eb 8a bd ce 54 ef bb
       -0.014700136 -0.04897211 -0.067831755 -0.0073038107
000130 7a eb b2 3d 92 cc c3 bd 05 29 bb 3d 85 e8 48 bd
       0.0873632 -0.09560503 0.09138683 -0.049049873
000140 23 86 4e bd be 63 fa bc ef 04 09 bd 3d e9 46 3d
       -0.05042089 -0.030565139 -0.03345197 0.048562277
000150 a2 87 24 3d 82 e0 aa 3c 83 b0 ec 3d b9 ba b5 3c
       0.040168412 0.020859007 0.115571044 0.022183763
000160 3b ed 63 3e 7c 11 3a 3c 53 40 86 bc bf 71 61 3d
       0.22258465 0.011356708 -0.016388094 0.055040117
000170 90 07 96 bd 51 47 76 bd da bb c7 3d 06 2d 18 3d
       -0.07325661 -0.060126606 0.09752627 0.037152313
000180 9e e2 05 3d 76 e7 ce 3d 5a a2 c6 bd 3b 4e 9c 3b
       0.032686822 0.101027414 -0.09698935 0.004770068
000190 c7 5e 62 3c 7f e0 31 bc e7 27 11 bd 33 22 ae bc
       0.013816542 -0.010856747 -0.035438444 -0.021256542
0001a0 45 48 52 bd 5f a6 51 bd c6 67 20 3b 04 39 b4 3d
       -0.051338453 -0.051184054 0.0024475916 0.08799937
0001b0 02 18 0e 3c 7c 52 10 3c 1b 5a c3 3d 64 8f 3a bd
       0.008672716 0.008808728 0.09538671 -0.045546904
0001c0 5a 6c 10 3c 6f 99 07 bd 38 e0 b6 3d ec 3a b4 3d
       0.0088148955 -0.03310531 0.08929485 0.08800301
0001d0 69 a0 8d bd e4 d6 3e 3e 71 34 46 3d d7 6d 1a 3b
       -0.069153614 0.18636662 0.048389856 0.0023564005
0001e0 03 f7 33 3d 56 d3 4b be ae 11 85 3c 47 7b 57 3d
       0.04393674 -0.19904837 0.016243782 0.0526078
0001f0 fa c9 06 bd 3f f5 df 3d b4 a2 7e bd b6 6b 82 be
       -0.032907464 0.10935449 -0.062166885 -0.25472802
000200 ee 2f e7 3d 90 b0 3e bd 2b 23 12 be 52 7a 82 3e
       0.11288439 -0.046555102 -0.14271228 0.25483948
000210 fb 46 29 3d 15 a3 97 3d 92 3f ac 3c 9b 4a d6 3b
       0.041327458 0.07404152 0.021026406 0.0065396554
000220 d5 4e 4b bd 1d fd 47 bd 2f 99 6d bd c2 26 a8 3d
       -0.049635727 -0.048825372 -0.058007415 0.082105175
000230 16 da c0 3d 94 b5 20 3e 29 51 34 bd 4d 21 22 3d
       0.094165966 0.15694267 -0.044022713 0.03958254
000240 71 89 e6 bd 15 a5 85 bd 5c 2c 36 3e cb 59 97 bd
       -0.112566836 -0.065256275 0.1779036 -0.073901735
000250 0e 7d 7e bc 52 00 63 3d ea cb 42 3d 16 0d 56 bd
       -0.015532745 0.055420227 0.04755775 -0.052258573
000260 37 1a ab 3d 5c d5 84 3c e5 0c 5b 3d 5c fd 90 bd
       0.083546095 0.016215019 0.053479094 -0.070795745
000270 d8 f7 91 3d 98 aa af bd 68 32 18 3e 9a 78 7a bd
       0.071273506 -0.0857746 0.14862978 -0.06115017
000280 cd 0b 11 bc 12 75 08 ba 85 1e ca bd b4 0a b7 3d
       -0.008852911 -0.0005205433 -0.098691024 0.08937588
000290 b1 90 d5 bc 58 a3 ad 3d bd 86 d9 bd ff 77 30 bd
       -0.02606997 0.08478421 -0.106214024 -0.043083187
0002a0 e5 25 ff 3d 03 e1 29 3d 66 2c 63 3b de 52 52 3d
       0.124584 0.041474354 0.0034663915 0.05134856
0002b0 30 f8 3a be 3a 71 46 be a3 55 cb bd de 3f 3f 3e
       -0.18258739 -0.1937913 -0.09928443 0.18676707
0002c0 5a 3c 09 3d 9f e5 0e bd 67 26 35 3d 17 6c a2 3d
       0.03350482 -0.034886952 0.044226076 0.07930773
0002d0 c2 65 0d 3d 58 be f0 bd bf 6d de bd 2c 14 1e bd
       0.034520872 -0.11755055 -0.10860776 -0.038593456
0002e0 5d 58 a5 39 6b 25 23 be 46 cc 14 3e 76 44 a0 3d
       0.00031537088 -0.15932243 0.14531049 0.07825558
0002f0 05 27 00 be 90 4e 8f 3d 5f 3b 00 ba 9e 53 aa 3d
       -0.12514885 0.069974065 -0.00048916595 0.0831673
000300 9c cc 79 bd bc 59 60 bd 13 2b 0c 3e 1f d2 2e 3d
       -0.060986146 -0.054773077 0.13688307 0.042680856
000310 17 33 97 3c 6f 3c 06 be ba df 5f bd fb c0 3e bd
       0.018456979 -0.13108991 -0.05465672 -0.04657076
000320 be 69 eb bc 33 95 3c bd d4 bc e3 bc b7 49 4d bd
       -0.028736945 -0.046040725 -0.027800001 -0.050119128
000330 ab 43 33 3c 6c 0e a1 bd 8f 97 31 3d 2d 9e a9 3d
       0.010941426 -0.07864079 0.04335743 0.08282123
000340 38 49 71 3e 09 8d 48 be af f0 50 3d b7 45 8b bd
       0.23563087 -0.1958505 0.051010784 -0.068004064
000350 bb df 2e 3e 53 1f bf 3c 62 57 2c 3e ce e6 2f 3e
       0.17077534 0.023330366 0.16830209 0.17177889
000360 d5 e5 0e be bd 93 14 3d f5 63 9c bb f2 e7 0c be
       -0.13954861 0.036273707 -0.004772658 -0.13760355
000370 3d 88 a8 bd 9e 8f f1 bc 31 91 ab bd bf 4f e8 bd
       -0.082291104 -0.029487427 -0.083773024 -0.11343335
000380 a8 67 c2 3b 84 0b 9a bb 71 73 17 be 66 d5 8a 3d
       0.005932767 -0.00470108 -0.14790131 0.06778984
000390 cf b9 18 be 70 3e c9 bd 6b 4f 8d 3d 32 23 19 be
       -0.1491463 -0.09826362 0.068999134 -0.14954832
0003a0 ea 31 00 3e fe 9f 82 3d 69 87 0a 3e ab 31 6a bd
       0.1251904 0.06378172 0.13528217 -0.057176273
0003b0 6a 8f 7f 3c 8e 9d 4c bc 46 94 55 bd 80 e9 2a be
       0.015598157 -0.012488736 -0.052143358 -0.16690636
0003c0 29 e6 58 bd ee b7 9e 3d 32 f6 88 bc 6a 88 2b 3d
       -0.052953873 0.077499256 -0.016718958 0.04187814
0003d0 74 f9 ad 3b 72 5b 49 be 2b 12 c6 3b 5b 55 a5 bd
       0.005309278 -0.1966379 0.0060446463 -0.08072921
0003e0 aa 42 47 bd ca 5e b0 bc fd 58 52 3d 7c c2 07 3d
       -0.04864756 -0.021529574 0.051354397 0.03314446
0003f0 78 7d 47 3e bc 32 ad 3a f3 8b 74 3d d6 ec b9 bd
       0.19481456 0.0013213973 0.05970378 -0.09078376
