LeakyRNN_11.28/1202/sg_3_128_d10_r7/model_170.pth (torch, 137244 bytes, 5 tensors)

weight f4 [128, 128]
000000 f6 6e 14 40 aa 9f 89 bf a6 64 35 3e 1a 08 a6 be
       2.3192725 -1.0751851 0.17714176 -0.32428056
000010 34 04 86 be 75 53 24 3f 96 ba 6b be 98 bc 5d bf
       -0.26175082 0.64189845 -0.23020396 -0.86615896
000020 65 7d 21 3e bd c7 5d be 29 55 05 be 38 3b ce be
       0.1577049 -0.21658225 -0.13020767 -0.40279555
000030 b0 4d 00 bf c4 fa 84 3e d3 f0 fd 3e 77 79 ab be
       -0.5011854 0.2597257 0.49597797 -0.33491108
000040 e7 ac 08 be 27 cf 02 be 09 85 7d bf d6 34 80 bf
       -0.13347207 -0.12774335 -0.9903112 -1.0016124
000050 27 e4 25 c0 6b e3 bb be cc 1b f2 bd 7b bd 7d bf
       -2.5920503 -0.36696944 -0.11821708 -0.9911725
000060 7d 8b ac be b5 9e 07 be 26 8d 22 be 75 d3 b4 bf
       -0.3370017 -0.13244136 -0.15874156 -1.4127032
000070 8c 2e bc be f9 34 46 be 6f c0 06 be 26 0c 92 3d
       -0.36754262 -0.19356145 -0.13159345 0.071312234
000080 72 73 60 be f6 0a 7f be 04 dd 73 bf 98 c5 00 c0
       -0.21919039 -0.24906525 -0.9525912 -2.0120602
000090 12 32 02 3f 1f b6 2f 3f bc 27 00 40 e0 24 5c be
       0.5085765 0.6863727 2.0024252 -0.21498442
0000a0 26 69 ff be 8a b8 42 bf d0 7e 4b 3f 76 ca fc be
       -0.4988491 -0.76062834 0.79490376 -0.49373215
0000b0 3e 04 80 3f 50 78 80 bf 00 e7 7c bf bd ef 62 bd
       1.0001295 -1.0036716 -0.9878998 -0.055404413
0000c0 0c 19 59 bf c1 c1 d4 3f 8b 0e 04 be cd 89 40 bf
       -0.84803843 1.6621629 -0.12896173 -0.7521027
0000d0 f0 5a 09 be e6 4e 91 bf d9 8d ab be a2 95 fd be
       -0.13413596 -1.1352203 -0.3350666 -0.49528223
0000e0 99 37 d1 bd 2b 5c 05 be a7 5b fb bd 0b 41 60 3d
       -0.102156825 -0.1302344 -0.12273341 0.05474953
0000f0 a2 a8 08 be 3c 0d 5e 3e 7f 79 12 bf 06 98 56 be
       -0.13345578 0.21684736 -0.5721664 -0.2095643
000100 cc 3e 07 be f9 e5 ff 3e f6 ab ac 3f d0 3e a6 bf
       -0.13207549 0.49980143 1.3489978 -1.2987919
000110 47 ad 06 be 7b b7 a3 3f 63 dd 5b bf df c3 a6 3c
       -0.13152038 1.2790369 -0.85884684 0.02035707
000120 f7 38 9f 3e 70 d0 06 be 91 21 08 be ac 22 7b bf
       0.31098148 -0.1316545 -0.13294055 -0.9809978
000130 a5 5f 07 be d5 00 31 3d 6c d9 cb 3f ab 1b 1e 40
       -0.13220079 0.043213684 1.5925727 2.4704387
000140 88 35 03 bf 6d b2 08 be f2 57 09 be bd e8 9e 3f
       -0.5125356 -0.13349314 -0.13412455 1.2414776
000150 45 3f 35 bf 0f 67 2b bf ce a8 0e be de 77 22 3f
       -0.70799667 -0.6695413 -0.13931581 0.6346415
000160 e8 42 5c bf 73 ca 29 be 6e f8 08 be 46 84 8d 3e
       -0.8603959 -0.16581134 -0.13376018 0.2763998
000170 5d 7e 06 3e 24 0e b3 3c c6 c8 da 3e 0c 27 07 be
       0.13134141 0.021857329 0.42731303 -0.13198489
000180 21 6b e8 bf 6c d9 e1 bd 1c 6b 43 bf a4 1e 25 3f
       -1.8157693 -0.11027798 -0.7633531 0.6449988
000190 5c d5 cb 3f 22 bf f3 3d cf 05 75 bf b8 64 07 be
       1.5924487 0.1190169 -0.9571199 -0.13222015
0001a0 91 b5 7d bf af 5d 2e bf cb e2 08 be b1 03 96 3f
       -0.99105173 -0.681117 -0.13367765 1.1719877
0001b0 74 6a 3e bf d9 b2 8d be 92 45 07 be 8c 62 24 be
       -0.74381185 -0.27675512 -0.13210133 -0.16053218
0001c0 63 30 db be 7c de ad 3e 1b b3 0a be ff 4a 07 be
       -0.42810354 0.33958805 -0.13544886 -0.13212202
0001d0 b6 26 48 bd 75 54 28 be e0 3d b8 3e e5 c9 82 bf
       -0.048865043 -0.16438468 0.35984707 -1.0217863
0001e0 60 c1 16 3f f1 ea 82 bf 31 85 36 3e 76 9d 73 3e
       0.58888817 -1.0227948 0.17824246 0.23790535
0001f0 a2 bb 83 be d6 8b 77 bf 9c de a2 3e 85 2b 20 3f
       -0.2572909 -0.9669775 0.31810462 0.62566406
000200 63 23 58 bd 31 ff 52 40 be f1 81 bf bf cd b6 3e
       -0.052768122 3.2968256 -1.0151899 0.35703847
000210 9c d8 06 bf 46 46 49 3e b7 00 7b be 3c b8 90 3e
       -0.5267427 0.19655713 -0.24511991 0.2826556
000220 f0 a2 8c be f3 fc 8b bf f1 40 42 be a3 ca 00 bd
       -0.2746806 -1.0936569 -0.18970086 -0.03144325
000230 7a 21 4a bf d1 a5 2f bd 7b 1f 60 bd 5b 9f 99 3e
       -0.7895733 -0.042882744 -0.054717522 0.3000439
000240 57 1c 4b be e2 39 43 be 8e 7a 7d bf c2 5d f7 be
       -0.1983503 -0.1906505 -0.9901513 -0.4831372
000250 44 30 cb bf ca f8 89 bf 76 ea 35 be 9b e2 f8 3d
       -1.5874104 -1.0779049 -0.17765221 0.121525966
000260 6c 05 e0 bd fa e6 48 be 88 93 2b bf a2 10 44 bf
       -0.10938534 -0.1961936 -0.6702199 -0.7658788
000270 f1 aa a9 ba cc f7 45 bf 40 ac 46 be 14 0e f9 bd
       -0.0012944621 -0.77331233 -0.19401646 -0.12160888
000280 46 83 59 bf 57 4f 5b bf 15 7c 02 bd cd f6 a1 bd
       -0.8496593 -0.8566794 -0.031856615 -0.07908402
000290 5e be ed be 0b 9a 73 bd 5d 8a b6 be 41 6a af bf
       -0.464343 -0.05947308 -0.35652438 -1.3704301
0002a0 00 20 55 3f 4b 1f 43 3f 70 9f 94 3d d3 58 42 be
       0.83251953 0.76219624 0.07256973 -0.18979196
0002b0 bd e4 41 3f 7e 56 b4 bd b9 95 3f bf ee 10 81 bf
       0.7573965 -0.088055596 -0.74837834 -1.0083292
0002c0 c3 31 59 bb 43 cf 56 bf 7c 05 41 be a7 b8 34 bf
       -0.0033141233 -0.83910006 -0.18849748 -0.7059426
0002d0 67 8c 49 be f0 e5 fc be 25 36 3f 3f 20 73 eb 3e
       -0.19682465 -0.49394178 0.74691993 0.4598627
0002e0 30 6b 60 3f 3f a1 43 be 40 44 34 be bd 64 6f bf
       0.87663555 -0.19104479 -0.1760416 -0.9351309
0002f0 6d a3 48 be 0a c2 b3 be 19 40 8e 3e 61 0c ee be
       -0.19593592 -0.35108978 0.27783278 -0.4649382
000300 c2 64 46 be ce 37 0b bf 85 33 ba be 1c 9d 9c 3f
       -0.19374374 -0.54382026 -0.3636743 1.2235446
000310 2e fe 43 be e7 8c 9c bf a4 3c 69 be e9 4c 32 bf
       -0.1913993 -1.22305 -0.22777039 -0.69648606
000320 0d f0 dc 3d 9e 0d 46 be 81 38 49 be c5 48 a1 be
       0.107879736 -0.19341132 -0.19650461 -0.3150083
000330 65 a5 45 be c5 b1 a5 bd d8 0d 25 bf 68 df 9d be
       -0.19301374 -0.080905475 -0.6447425 -0.30834508
000340 67 78 e7 bd 69 b4 49 be 72 9f 49 be 0c 89 c0 be
       -0.11302262 -0.19697727 -0.1968973 -0.37604558
000350 cc e5 a4 3e ec ca 87 bf db ff 4e be 34 69 df bf
       0.3220657 -1.0608802 -0.20214789 -1.745398
000360 f8 04 76 bc 57 93 44 bf 96 e9 48 be 87 0d d8 3d
       -0.015015833 -0.7678732 -0.19620356 0.10549455
000370 1c ee 3d 3f a4 a9 09 bc ac 0f 43 3e 5f b7 49 be
       0.7419145 -0.008402262 0.19048947 -0.19698857
000380 4d 02 01 3c b4 f7 21 be 23 37 8e bf c6 3e 92 3f
       0.007874084 -0.15817147 -1.1110576 1.1425407
000390 a0 94 7a bf 0e d5 8c bd b3 76 08 3f 3d 72 44 be
       -0.97883034 -0.068765745 0.5330612 -0.19184203
0003a0 65 b8 85 bf 85 cd 4f 3f c7 6f 47 be 40 24 a9 3f
       -1.0446898 0.8117297 -0.19476233 1.3214188
0003b0 1f 7f a5 3d b0 d3 b6 bf f3 7f 47 be ec de ec bf
       0.08080887 -1.4283352 -0.19482403 -1.850553
0003c0 ee a9 d1 3f 5a 45 bb 3f 39 2f 4b be 6e 31 46 be
       1.6379983 1.463054 -0.19842233 -0.19354793
0003d0 c8 6f 3b 3f b9 d8 ab bf 74 fb 3f bf 3b 05 67 3f
       0.7321744 -1.3425514 -0.7499306 0.90242356
0003e0 be 1f 27 bf a5 1b b2 3e a1 bf f3 3d 01 4e 8e be
       -0.6528281 0.34786716 0.11901785 -0.27793887
0003f0 a8 e9 c9 bd 47 57 1d be 3b b0 a8 3f b0 a2 ea 3e
       -0.098590195 -0.15365325 1.3178781 0.45827246

weight f4 [128, 3]
000000 a0 d5 2b 3c 6e 5d 66 3d 69 a0 81 3b 0e d0 2c bd
       0.010487944 0.056241445 0.00395589 -0.042190604
000010 3e 32 12 bc 76 3e db bc 99 d0 85 3d fc 0a 44 3d
       -0.0089231115 -0.026763182 0.065339275 0.047862038
000020 12 a0 71 bd 84 ff ba 3c 5a 63 03 b8 96 d3 0f 3d
       -0.058990546 0.022826917 -3.1325362e-05 0.035113893
000030 89 23 b7 bc 4a 82 10 3d 29 99 a6 3c 4d 99 52 bd
       -0.022355812 0.035280503 0.020336704 -0.05141573
000040 0a 2e 7f 3c 7d 6b e2 bc 64 f1 05 bb 9a 92 89 3c
       0.015574941 -0.027639145 -0.002043807 0.016793538
000050 f3 36 1b bc 4e ae 02 bd fe aa 52 3a 89 4f 28 3d
       -0.00947355 -0.03190451 0.0008036344 0.041091476
000060 5a 4e 83 3c 4a 82 db 3b c1 04 1b bd de a8 ad 3c
       0.016028572 0.0066988813 -0.03784633 0.021198686
000070 d4 8c 90 39 5a c7 a7 bc bc b9 b6 bb 17 d5 3f 3c
       0.00027570745 -0.0204808 -0.0055763405 0.011708519
000080 6a 5b f1 bb 6a 84 fa 3c a5 22 fe 3c af c4 27 3c
       -0.0073656337 0.030580718 0.03102238 0.010239764
000090 44 a7 0a bd 3d a1 62 3c cc 36 f8 37 c4 f8 8f bc
       -0.033850923 0.0138323875 2.958942e-05 -0.017574675
0000a0 bd 7f 4a 3e 08 60 9d bd 5d 53 b4 be eb 06 5c 3e
       0.19775291 -0.07684332 -0.3521985 0.21487014
0000b0 59 70 36 be a0 11 3f 3c a7 15 a1 3c 8c 40 d7 3b
       -0.17816295 0.011661917 0.019663645 0.006568974
0000c0 a3 ea b4 ba 75 db 94 3c 92 20 3b bc 38 c8 90 bb
       -0.0013802837 0.018171052 -0.01142134 -0.004418399
0000d0 ee 0b 46 3c 2e 8a ee bb 58 91 ae 3d da 1a c9 3c
       0.012087805 -0.007279656 0.08523816 0.024548937
0000e0 ea 19 dd bd 28 d2 2e bd bb da 02 3c 48 08 92 bd
       -0.10795958 -0.04268089 0.00798672 -0.07130486
0000f0 45 4b 14 40 6a 33 2f 3d 6a 41 4f 3f 48 d5 9f 3c
       2.317094 0.04277364 0.8095919 0.01951088
000100 e4 91 bf 3c 85 28 43 bd e7 19 8a bb ea 09 99 3b
       0.023384996 -0.047646064 -0.0042145136 0.0046703713
000110 dc 30 6e bb e7 61 fe 3c 05 0a 85 bc c2 89 a7 3d
       -0.003634504 0.031052543 -0.01624013 0.08180572
000120 a1 36 8b 3c 84 f7 cc 3c 12 f2 aa bd fa 04 7b ba
       0.016993823 0.025020368 -0.083469525 -0.00095756317
000130 8c 6a 8c 3c d6 c4 3a bc 38 b1 ab 3c ec 53 fc 3b
       0.01714065 -0.011399468 0.020958528 0.007700434
000140 14 2a 43 3d 8e f7 15 be 44 46 0d bc 8c 46 0a 3e
       0.04764755 -0.14645216 -0.00862271 0.13503474
000150 10 be 3e 3d 69 a2 95 bc 51 2d 07 bd c8 59 6e 3c
       0.046567976 -0.01826592 -0.0330022 0.014547773
000160 92 03 ac bd 83 2d 00 bd 57 39 0e bb 2c dd 70 3c
       -0.083991185 -0.031293403 -0.0021701658 0.014701169
000170 0b 10 23 bc 80 7c c1 3c 14 60 0a be 4c ac e1 bd
       -0.009952555 0.023618937 -0.13513213 -0.11019191
000180 65 91 f1 bb 2c 53 c2 bc 46 65 1a 3b 24 57 82 3c
       -0.0073720687 -0.0237213 0.0023558899 0.015910693
000190 0a 6c 24 bd c0 1e 0e bc b7 10 c2 bd cd 7b 44 3e
       -0.040142097 -0.008674324 -0.09475844 0.19187851
0001a0 60 47 72 3d 19 ef 01 be 38 18 cf 3d db c1 d2 bc
       0.0591501 -0.12688865 0.10112041 -0.025727203
0001b0 0d b5 bc bb fd d2 a4 36 e5 84 be bc 7d c4 96 bc
       -0.0057588876 4.912143e-06 -0.023256728 -0.01840424
0001c0 20 a6 85 bd da 7b 48 be 2b 96 32 be 04 38 54 bd
       -0.065258265 -0.19578496 -0.17440097 -0.051811233
0001d0 aa 67 9a be 81 d1 9f 3d fb d6 a8 3c da 76 58 be
       -0.30157214 0.078036316 0.020610323 -0.21139088
0001e0 42 87 7c bb 6d 56 88 bb d3 f8 d4 3d e3 41 b6 3a
       -0.0038532768 -0.0041606934 0.10399022 0.0013905134
0001f0 48 fb 42 bd 62 e6 bb 3b c6 86 92 bd b2 c1 5c bc
       -0.04760292 0.005734251 -0.07154612 -0.013473915
000200 e3 ba 1b be c1 ab 76 3b 0e 61 08 bd 04 49 5e be
       -0.1520801 0.0037638994 -0.033295684 -0.21707541
000210 5d cb b8 3c 67 60 b6 bc e7 84 81 be 73 bc 5d 3a
       0.022557909 -0.022262765 -0.2529671 0.0008458562
000220 c9 96 d7 bc 4b 57 36 be 5a 22 0b 3c 6f 37 99 3c
       -0.026317017 -0.17806737 0.008492077 0.01870319
000230 db 64 42 3d 40 bf 06 3e 09 c9 6c 3d e9 ec a8 3d
       0.047459465 0.13158894 0.05780891 0.08248312
000240 2a 81 92 39 e8 f5 90 3c 5a f6 85 bd 20 10 e0 bc
       0.00027943525 0.017695382 -0.065411285 -0.027351439
000250 bf 4f 62 3b 25 c8 fe bd 1d 39 97 bb f9 20 3a 3c
       0.0034532396 -0.12440518 -0.0046149627 0.0113604
000260 88 9f e6 bb d7 5d 9d bc 81 0e 86 3b 4b ef 3a 3d
       -0.0070380606 -0.019209785 0.0040910845 0.045638364
000270 98 8b 47 bb 77 31 8e 3c c5 56 2f bc 59 a1 04 bd
       -0.0030448195 0.017357571 -0.01070184 -0.032380436
000280 dc a3 55 3a 04 a7 1e bd 97 97 a4 bc 07 60 b4 3b
       0.0008149722 -0.038733497 -0.020091815 0.0055046114
000290 4a 2f fb bd c0 fd 18 bb 53 44 0b 3b 39 75 fe bc
       -0.12264879 -0.0023344606 0.0021250441 -0.031061755
0002a0 53 c5 52 bc fa b8 dc 3b 69 b1 89 3d aa fd 15 bb
       -0.012864429 0.006735918 0.067232914 -0.0022886791
0002b0 b7 10 56 3c c7 41 0b bc 07 14 15 bc f2 78 a8 3b
       0.013065509 -0.008499569 -0.009099013 0.005141371
0002c0 40 97 74 bb 45 ee 48 3e 14 a6 d9 bc 35 de b2 3d
       -0.0037321597 0.19622143 -0.02656845 0.08733789
0002d0 ba b4 8f ba cc a6 8c 3c 8b 28 3a bc 5a 7b 89 3b
       -0.0010963895 0.017169379 -0.011362205 0.004195613
0002e0 04 a1 ed 3b a2 7c 26 bd d2 7a 11 bc 13 ae 42 bd
       0.0072518606 -0.040646203 -0.00887938 -0.04752929
0002f0 4a d3 56 3e eb 6e 9f bc 07 6a 05 3d e4 cc 0e bc
       0.20979038 -0.01946207 0.03257182 -0.008715842
000300 ff ae c7 ba ce 8c 7d 3c 3c 9b 26 bc 5c 5b 68 bc
       -0.0015234648 0.015475465 -0.010168847 -0.014181938
000310 7d 4a be 3b 2a 03 0a be c9 33 a7 bd 9b a4 3a bd
       0.0058072195 -0.1347777 -0.08164174 -0.045567136
000320 ff e8 9f bd da 10 cd bd 4f 3a cf bc 13 3a 55 bd
       -0.07808112 -0.1001298 -0.025296358 -0.052057337
000330 e9 54 2e bb 04 14 60 3c 0d e5 13 bc 10 f6 58 bd
       -0.0026600903 0.013676647 -0.009026778 -0.05296904
000340 12 31 e5 3d e9 8e 81 bd a8 b2 4f bc 2d 96 51 3d
       0.11191 -0.06326086 -0.012676872 0.05116861
000350 2b f6 98 bd 3f 55 ea bd f9 97 11 3d 4d d3 96 bd
       -0.07468828 -0.11442041 0.035545323 -0.07364521
000360 bc a4 9a 3c 9f 4e ea 3d 25 70 94 bd f8 ae 1b bb
       0.01887738 0.11440777 -0.07247952 -0.0023755413
000370 ab 11 78 3c ff 83 1f bc 00 40 b1 ba 7e 0f 8c 3c
       0.015140931 -0.00973606 -0.0013523102 0.017097231
000380 8b 4d 36 bc 6a 2d 5c 3e 48 34 f3 3d 6a b6 e3 3f
       -0.011126886 0.21501699 0.11875206 1.7790043
000390 58 42 a1 bb 4a 14 62 3c 2e 5e 12 bc d6 b0 90 bc
       -0.004921239 0.013798783 -0.008933587 -0.017662447
0003a0 83 42 56 3c 54 70 dc be c9 1f 91 bb 19 20 8e bd
       0.013077381 -0.4305445 -0.004428838 -0.06939716
0003b0 2d 17 1d 3c 3d 00 f3 bd 5d 2b 0d 3e 39 cf 35 bd
       0.009588045 -0.1186528 0.13786073 -0.044387076
0003c0 19 77 39 bd d7 c6 e7 3d c8 3d 7b be 8a a2 bb ba
       -0.045279596 0.113172226 -0.24535286 -0.0014315408
0003d0 79 bb 93 3c 47 f2 3e bc 0b 35 13 bb 52 db 8e 3c
       0.01803373 -0.011654443 -0.0022462036 0.017438564
0003e0 ff 21 3a bc 72 e9 88 3c 5d d3 91 3c cb ad 49 bd
       -0.011360644 0.016712878 0.017800981 -0.049238008
0003f0 79 9e a5 3b ff 50 16 bc 5e 02 30 3b 2c 37 34 be
       0.005054292 -0.009174584 0.002685688 -0.17599171

weight f4 [2, 128]
000000 bb cc 3a be 91 21 83 bc 87 c5 7d bb 22 1a f1 bd
       -0.18242161 -0.016007217 -0.0038722472 -0.117725626
000010 96 9b 21 be 8a ca 3d bd f3 42 94 bc 3c 92 88 3e
       -0.15782008 -0.046335734 -0.01809833 0.26674068
000020 52 4b 62 be 0f 72 da bd d3 35 9f bc 90 6e f2 bd
       -0.22099045 -0.10666286 -0.019434845 -0.118374944
000030 d5 69 45 3e ae b9 1f 3c 07 be 87 3e c9 db b9 bd
       0.19278653 0.009748859 0.26512167 -0.09075124
000040 6e d9 98 bc 24 72 97 bc ce 69 2d be 64 64 95 be
       -0.018658366 -0.018487044 -0.16934893 -0.29178154
000050 e8 b0 94 3d 23 09 68 3e 1e 14 80 bc 02 b5 2c be
       0.07260305 0.22659735 -0.015634593 -0.16865924
000060 e6 a8 d9 bd 1a ae 95 bc 21 78 c2 be bc 2e 25 bd
       -0.10627918 -0.018271495 -0.37982276 -0.040327772
000070 dc fb ca 3d 37 94 86 3c e4 a3 98 bc ed b9 33 be
       0.099113196 0.016428096 -0.018632837 -0.17551394
000080 ef d8 08 3d 9c 55 07 be 84 73 6c be 45 21 58 39
       0.03341001 -0.13216251 -0.2309094 0.00020611759
000090 08 44 1f be 39 f5 a4 bd 77 31 ff 3d b1 81 17 bf
       -0.15553296 -0.08054585 0.124606065 -0.5918227
0000a0 5b 31 32 3e 48 18 e5 bc 7d 56 be be 5f 52 86 3e
       0.1740164 -0.02796568 -0.3717536 0.2623472
0000b0 dc ed 25 3e f0 0f 0f 3f ad 49 bc 3d ed 0e d9 be
       0.16204017 0.55883694 0.0919374 -0.423942
0000c0 6e 33 3e 3e 12 21 52 be 9b 71 97 bc 6b cd 2c 3e
       0.18574306 -0.20520428 -0.018486788 0.16875236
0000d0 64 30 9e bc 03 0e c6 bd b1 58 dc 3b 82 e2 88 bd
       -0.019310184 -0.09670641 0.00672444 -0.06683828
0000e0 9f 36 04 3e ba 02 98 bc 49 27 81 bc f8 e1 10 bf
       0.12911461 -0.018555988 -0.015765803 -0.565948
0000f0 a1 c0 96 bc 90 d6 a1 bd 9a d1 09 3f 27 3f 80 bd
       -0.0184024 -0.07902253 0.5383545 -0.06262045
000100 58 53 97 bc b0 61 96 3b 30 2f 20 3d bd 30 08 be
       -0.018472359 0.004589282 0.0391075 -0.13299842
000110 5e 76 9a bc 33 c1 a1 be 22 16 0f 3d 1d 65 1a 3c
       -0.01885527 -0.31592712 0.034933217 0.009423521
000120 6f 57 2a 3f f3 ba 99 bc 34 38 97 bc e6 72 f2 3c
       0.66539663 -0.018765902 -0.018459417 0.029595803
000130 59 aa a1 bc be 82 af 3e 5f 0a 97 3d 21 73 92 be
       -0.019734548 0.34279436 0.07375025 -0.2860346
000140 c5 e5 b0 3e 94 55 96 bc ff 76 9c bc ec c5 e5 bc
       0.345503 -0.018351354 -0.01909971 -0.028048478
000150 64 0e f2 3c 06 22 80 bd 08 50 52 bd aa e1 6b bd
       0.029547878 -0.062564895 -0.051345855 -0.057588257
000160 e0 f2 7f 3c a5 8d 54 3e e5 59 96 bc b1 ff 00 3d
       0.015621871 0.20757158 -0.018353412 0.031493846
000170 bc 07 7f be 88 82 f6 3d 9a 66 b0 3d eb 11 9b bc
       -0.24905294 0.120366156 0.0861332 -0.018929442
000180 1b 87 5f 3e b7 f9 3f bc a7 1b e5 3d 2e 5c 98 3b
       0.21828882 -0.0117172515 0.11186915 0.0046496606
000190 33 08 d1 bd 11 1a 54 3e 75 24 0b be 67 02 a0 bc
       -0.10206642 0.20713069 -0.13588126 -0.019532396
0001a0 b3 33 df 3c 92 6b e5 3d d9 7d 9c bc 13 69 a3 be
       0.027246332 0.11202158 -0.019102978 -0.31916103
0001b0 6e 8a e3 3e c3 98 9a 3c 1b 97 9c bc a8 30 a1 3c
       0.4444155 0.01887167 -0.019115021 0.019676521
0001c0 cb 1b 8d 3e 73 0d 1a bd 71 f2 9b bc c7 bb 99 bc
       0.27560267 -0.037610482 -0.019036504 -0.018766297
0001d0 56 1d 16 bf 46 0c 83 bc 69 d1 90 3d a0 91 c1 3e
       -0.58638513 -0.015997063 0.07071192 0.37806416
0001e0 b4 3a 45 3d 4e 75 26 be db 15 3d be 3f 4e 8c 3d
       0.048151687 -0.16255686 -0.18465368 0.06850862
0001f0 09 f8 1c bd ff 76 a8 3e 48 6d b2 3d 52 c6 74 bd
       -0.038322482 0.32903287 0.0871225 -0.059759445
000200 d0 b5 28 be 7c 9e 26 be e0 09 e1 be d2 a7 2d 3e
       -0.16475606 -0.16271394 -0.43952847 0.1695855
000210 5e e8 2d be eb 53 11 3d 26 da fe 39 e2 a0 7b 3e
       -0.16983172 0.03548042 0.00048609189 0.2457309
000220 ad 48 ff 3d a9 21 95 3e a5 78 95 3b 29 45 6b bd
       0.12465034 0.29127243 0.004561501 -0.057439003
000230 0d c0 22 bd c3 bf d6 3e e8 ff 78 be 12 16 48 3e
       -0.039733935 0.41943178 -0.2431637 0.19539669
000240 a7 46 73 3a be 8c 77 3b ae 6c 36 be 4d a9 2a 3e
       0.00092802424 0.0037773098 -0.17814896 0.16666146
000250 fa 2e 8f 3d c6 59 42 be be 83 03 3c 31 7e 86 3d
       0.06991382 -0.18979558 0.008027015 0.06567038
000260 00 b1 45 be 47 9f 86 3a 83 32 51 3e 97 dc 80 3e
       -0.19305801 0.0010270857 0.20429425 0.25168297
000270 46 44 78 bc d0 09 4a 3d 92 83 21 3b 9a 64 cc bc
       -0.015152996 0.049325764 0.0024645072 -0.024950314
000280 6a 2b d9 bd 92 26 22 3e 30 87 c6 be af fe 93 be
       -0.10603984 0.15835026 -0.38775015 -0.28905246
000290 31 23 3c 3d d8 bb aa 3e 92 f8 db 3e 4a 4e 2e be
       0.045932 0.33346438 0.42963082 -0.17022052
0002a0 44 df f8 bd 63 e3 c1 bd 25 e8 35 be fb ae c7 3d
       -0.121519595 -0.09467199 -0.17764337 0.09750172
0002b0 5f 21 17 be 23 1c 05 bf f1 fa 36 bc e7 a1 cf be
       -0.14758824 -0.5199606 -0.0111682275 -0.4055321
0002c0 04 dd 82 bd f5 7f 38 bf 38 45 89 3b 05 94 05 bd
       -0.06389812 -0.72070247 0.0041891597 -0.032611866
0002d0 ad da df 3a c0 7f 6b 3e c8 d4 8e 3e 54 ec 4c 3d
       0.001707872 0.22997952 0.27896714 0.050030068
0002e0 a7 7c b4 be 3d 50 51 3b 1e c7 f3 3b fb c4 04 be
       -0.35251352 0.0031938695 0.007439508 -0.12965767
0002f0 d0 1c 80 3a ee bc 96 3e 3d af 06 3f 0c bd 1f 3d
       0.0009774212 0.29441017 0.5261114 0.03899865
000300 84 f8 f7 3a 24 cc 0f be 06 ab 42 be 57 6a 2f 3d
       0.0018918668 -0.14042717 -0.19010553 0.042826023
000310 05 ff 36 3b 13 d0 a3 3e 60 5b 69 3c ce 72 9e bd
       0.0027923 0.31994686 0.014242977 -0.07736741
000320 f9 d3 4b 3e 52 01 16 3b dd 05 aa 3a 5b 27 93 bb
       0.1990508 0.002288897 0.0012971718 -0.0044907755
000330 61 f7 60 3b 77 f6 b8 be dd 4c f5 bb 50 f2 91 be
       0.0034327137 -0.36125538 -0.0074859695 -0.28505182
000340 55 dd da bc fe 60 6a 3a 4d d9 bd 3a bb 58 1b be
       -0.026716867 0.00089408446 0.0014484316 -0.15170567
000350 2f 29 1d 3d 6d 8a f7 3d 28 e5 55 bd 67 72 bf bd
       0.038369354 0.120869495 -0.052220494 -0.093479924
000360 d0 5f c6 3d ab e9 94 bb e4 ab 4a 3a 8c c8 39 bd
       0.096862435 -0.004544457 0.0007731302 -0.045357272
000370 f5 00 15 be 10 e0 89 3e e2 6c 35 3d fa 55 ff 3a
       -0.14551146 0.2692876 0.044293292 0.0019480579
000380 19 ed 17 bf 49 c6 5b 3c 56 3a c0 be 7a e4 3a be
       -0.5934616 0.013413974 -0.37544507 -0.1825122
000390 1d d0 23 3e be 71 8d bd 56 24 4b 3e 55 cd cc 3b
       0.15997358 -0.0690646 0.1983808 0.0062500634
0003a0 04 f1 45 bd 92 eb 2d be e5 94 16 3b 7e 2d 8b 3e
       -0.048325554 -0.16984394 0.0022976932 0.27183145
0003b0 9f f1 0e 3f 35 04 52 3d 3b b4 26 3b d5 df 7b 3e
       0.55837435 0.051273543 0.0025437016 0.24597104
0003c0 55 47 be 3d 36 70 9d 3e 9d cc 67 3a 7b c0 05 3b
       0.09290949 0.30749673 0.00088424404 0.0020408917
0003d0 e1 6c d0 3e ce b3 b3 bb 37 f3 a8 be 47 af a5 3e
       0.40708068 -0.005484081 -0.32998058 0.32360289
0003e0 9d f4 21 be 5a 63 ea bd 7b 48 ac 3c 41 04 3a bb
       -0.15815969 -0.11444731 0.021030655 -0.0028383883
0003f0 8f 3f ea bc 22 82 4d 3e 91 98 05 3e 1b 3f 41 3c
       -0.02859476 0.20069173 0.1304648 0.011794831

bias f4 [2]
000000 8a ce 17 3e 46 5b 68 bd
       0.14824882 -0.05672767

W f4 [128, 128]
000000 80 9a 59 bd fd 02 48 3d 83 88 f8 3d 5e 05 03 3e
       -0.05312586 0.048830975 0.121354125 0.12795016
000010 6b 41 e0 bd bf a3 ff 3d af e6 8a 3d 6f be f7 bd
       -0.109499775 0.12482404 0.06782281 -0.12096869
000020 c6 9e 07 3d 87 6b 17 3e 27 2c 37 3d bd 0a 23 3e
       0.033110403 0.14787112 0.04471984 0.15922065
000030 2a 60 bc bd 0a 53 fc 3d 4a 74 00 be 96 c8 57 bd
       -0.09198029 0.12320526 -0.12544361 -0.052681528
000040 b8 ce fb 3c 59 1a 50 3e cb 4b cd bd c4 6c a4 3b
       0.03073822 0.20322551 -0.10024222 0.0050178487
000050 53 68 1e be b1 a8 2b bd b5 cb 3e bd 75 3e 54 bd
       -0.15469484 -0.041908924 -0.04658099 -0.051817376
000060 9b 37 61 bd 20 cd 99 3d c3 2e fb 3c 0a b6 b6 3d
       -0.05498467 0.075098276 0.030661946 0.0892144
000070 df cf 85 3b 6d 4d 1b bd 2b 3a 3a 3e 70 e3 d8 bc
       0.004083618 -0.037915636 0.18186252 -0.026475638
000080 6d ad ad 3d fd 04 c5 3d 60 9e ad 3d 95 52 d8 bd
       0.08480344 0.09620092 0.08477473 -0.10562626
000090 74 00 05 3e f6 05 06 bb c4 b3 5f 3e 10 65 51 3e
       0.12988454 -0.002045033 0.21845919 0.20448709
0000a0 ab 11 19 bc 2f d7 db bd e4 bd 5e 3c 69 63 97 bc
       -0.009342591 -0.107344024 0.013595078 -0.01848002
0000b0 72 4d 0a 3e c2 cc 45 be cd 50 cb bd 47 a4 fe 3d
       0.13506106 -0.1931639 -0.09927521 0.12433677
0000c0 8a e8 b8 bd c9 9c cf 3d d3 c4 e1 bc b2 4a c5 3d
       -0.09028728 0.10137326 -0.027559673 0.096333876
0000d0 0b a8 c3 bd 02 61 64 3d 06 5d 9c 3d 2d bd 4a 3c
       -0.09553536 0.055756576 0.0763493 0.012374205
0000e0 0d 71 84 bd 14 70 18 bd b4 1e 51 3e 21 00 a9 3d
       -0.06466875 -0.03721626 0.20421869 0.08251978
0000f0 92 26 18 bd b2 1b d3 3d 13 c2 e1 bd 6c 61 21 3c
       -0.03714616 0.10308017 -0.11023345 0.009849887
000100 9d fd 82 bd 63 c4 91 3c 07 fb 4e 3e 38 15 8e 3c
       -0.06396029 0.01779384 0.20212947 0.017344102
000110 6a 0b 7d bd 83 fd 11 be 86 7e 14 be 8f f2 33 3d
       -0.061778463 -0.14256863 -0.1450139 0.043932494
000120 12 5f c1 3d 3b 0b 03 bd 93 4f ac bd b9 21 35 3e
       0.09441961 -0.031993132 -0.08413615 0.17688645
000130 64 86 dd 3c 3f 09 b5 bd 27 2b ee bd 7f 40 0b 3e
       0.027041622 -0.08839654 -0.116293244 0.13598822
000140 98 2c 4a ba 89 84 29 bd 6b d6 e3 3d fe ba 1f 3e
       -0.00077123335 -0.04138616 0.11124881 0.15598676
000150 52 63 22 be 0a e2 38 be 7f 84 59 3e d6 a3 74 3d
       -0.158582 -0.18054977 0.2124195 0.05972656
000160 42 3e 4a 3d 16 39 6a 3d 51 d7 86 bd b2 53 d6 3d
       0.04937578 0.057183348 -0.06584037 0.10465182
000170 04 b1 89 bd b4 05 db bb 96 ea 46 bd 11 75 aa 3d
       -0.06723216 -0.0066840295 -0.048563562 0.0832311
000180 3e f5 bf 3d ac b5 16 3e 9c 0c 0c be 2b 4e 8f 3d
       0.09372948 0.1471774 -0.13676685 0.06997331
000190 f5 36 01 bd ee ab c5 bd bc ed 51 be 67 24 04 3d
       -0.03154655 -0.096519336 -0.20500845 0.03226128
0001a0 6e 52 11 be 1c c3 04 3d 6d b4 14 3d 39 6d 7c 3c
       -0.141916 0.032412633 0.03630488 0.0154069
0001b0 c9 c0 4c bd c1 0e e7 bd ff 2d ea 3d 09 c9 f8 3d
       -0.04998854 -0.11282111 0.11434554 0.121477194
0001c0 49 b3 be bc 28 00 44 bd ff 15 43 bd 10 41 ab 3d
       -0.02327885 -0.04785171 -0.0476284 0.08362019
0001d0 62 e6 75 3d f3 b3 4e be 22 c2 dc 3b f1 c6 12 bd
       0.060034163 -0.20185833 0.0067370096 -0.035834257
0001e0 30 e7 9d 3c f6 bc 97 bd ee 77 fa bc cc 26 0a bd
       0.019275278 -0.07409088 -0.030574765 -0.033728406
0001f0 f2 00 6f bd dd 19 b2 bd bf e1 13 3c cb 1a 79 3d
       -0.05835051 -0.08696339 0.00902599 0.060816567
000200 6a 1e 07 3e d7 3b 00 3e f8 6d ca 3b 88 b0 9a 3d
       0.13195196 0.12522827 0.00617766 0.07553202
000210 20 59 a2 3c 0c e3 c7 bd 4c 24 37 3d a1 d9 24 bd
       0.019817889 -0.09760103 0.04471235 -0.04024661
000220 69 de e1 3a e3 a7 04 be ed a3 09 3d 35 26 4c 3d
       0.0017232421 -0.12954669 0.033603597 0.049841125
000230 fa fa 89 3c 62 96 56 3d ad a7 09 be 3b 8a 05 3e
       0.016843308 0.05238951 -0.1344287 0.13041012
000240 70 89 15 3e 5f b7 8f bd 2b b3 57 bb 72 55 f4 bc
       0.1460321 -0.07017397 -0.003291319 -0.0298259
000250 ef d8 ba bd 5e f5 ad bc b5 de fc bd 3b f6 15 bc
       -0.09123408 -0.021235164 -0.123471655 -0.009152944
000260 f1 e6 72 3d 1e 53 9d bd e3 38 dc bc 70 84 ce bd
       0.059302274 -0.07681869 -0.026882594 -0.10083854
000270 12 73 29 3e 54 a0 ce 3d b5 f7 e0 bc 0b 7c 7e 3c
       0.16547802 0.10089174 -0.027461866 0.015532504
000280 cf 27 01 3e 96 45 56 be 26 a7 ef 3d b2 23 41 bd
       0.12612842 -0.20924982 0.11701803 -0.047153182
000290 ad cf 91 bd 4e 45 77 3d 30 66 28 bc 4e 75 69 3d
       -0.07119689 0.06036883 -0.01027827 0.056996636
0002a0 07 11 7d 3d c4 78 13 3c be bb 03 3e 5f 0d f2 bd
       0.061783817 0.009000961 0.12864587 -0.118189566
0002b0 87 f4 81 bd 69 27 76 bc 85 ca 21 3c e6 25 c7 bd
       -0.06345468 -0.015024045 0.009874945 -0.097240254
0002c0 80 d0 d7 3b 9c aa b2 bd 74 ce 3c 3d 1b 5a 14 bd
       0.0065861344 -0.087239474 0.046095327 -0.036218744
0002d0 e8 ae b5 3c c5 64 51 3c f8 c4 61 3b cc 97 75 be
       0.022178128 0.012780373 0.0034449678 -0.23983687
0002e0 c0 0d d8 3b eb 9a 01 3e 62 e0 9e bc 99 9b f1 bd
       0.006593436 0.12656753 -0.019394103 -0.11797256
0002f0 cc 04 ad 3d d2 a1 28 bd af dc 9d bd 0b 38 de bc
       0.084481806 -0.04116995 -0.07708108 -0.027126333
000300 6f d1 44 bd 50 43 4c 3d 51 1e 16 3e 8f 05 26 3e
       -0.048051294 0.04986888 0.14660002 0.16213058
000310 19 78 88 bd a5 fd 29 3a e5 05 81 3d 3a f0 3b bd
       -0.06663532 0.00064846344 0.062999524 -0.045883395
000320 6e fc 97 3c c9 8a 99 3c c6 aa 78 bd 08 2b 65 3e
       0.018552985 0.018742936 -0.060709737 0.22379696
000330 55 80 3c 3c 12 27 90 bd cd e1 79 3b 4f 83 88 3b
       0.011505206 -0.07038702 0.0038128973 0.004166044
000340 0e da a4 bb 8e a3 b3 bc a2 fc 8e bb 19 1f b6 bd
       -0.005030877 -0.021928575 -0.0043636123 -0.0889265
000350 2a e2 f4 3c 22 f1 98 bd 4c 55 d7 3c 5b f4 7d bb
       0.029893 -0.074678674 0.02628579 -0.0038750384
000360 94 44 25 3b 31 a8 a8 bd ae 91 0b be 5e 8d d1 bc
       0.0025217878 -0.08235205 -0.13629791 -0.025580104
000370 0c a5 ac bc bd 68 5c 3d b3 75 c2 bc 57 d4 e2 bd
       -0.021074794 0.053810824 -0.023737764 -0.11075657
000380 32 38 b8 bd 9a 0c 15 bd 32 dc c5 bd eb 95 33 be
       -0.089950934 -0.03638897 -0.096611395 -0.17537658
000390 98 0e d2 bd 6c 19 3a be 41 73 7b 3d d0 1c 77 3e
       -0.1025669 -0.1817376 0.06138921 0.24132085
0003a0 b5 b4 2b 3c 50 5d d1 3b d8 f3 f3 bd 9c e2 8e bd
       0.010480096 0.0063892975 -0.11911744 -0.06976816
0003b0 b8 b7 e2 bd d2 b0 0b 3e aa 02 32 be 90 d6 02 be
       -0.11070198 0.1364167 -0.17383829 -0.12777162
0003c0 dd 23 17 3b 02 2c 83 3c 15 78 93 3d 8a eb 0b bd
       0.0023062148 0.016012195 0.07200638 -0.034160174
0003d0 fe 9f 46 3d 27 a2 0c be 20 0c ee 3b 8d d5 56 3d
       0.048492424 -0.13733731 0.007264629 0.05244975
0003e0 a0 9c 47 3c 4c 19 0f bd 80 10 4c bc 4e 46 e7 bc
       0.012183338 -0.034936234 -0.012455106 -0.028231766
0003f0 68 3c e8 39 6e 66 88 3d ad da e0 3d bb a2 00 3e
       0.00044295494 0.06660162 0.10979209 0.12562077
