LeakyRNN_11.28/1202/sg_3_128_d10_r7/model_189.pth (torch, 137244 bytes, 5 tensors)

weight f4 [128, 128]
2.5216372 -1.5985948 0.09897448 -0.5548755 0.046531666 1.074812 -0.1442545 -0.9871253
-0.027521946 -0.16757904 -0.11715183 -0.119793326 -0.3712929 0.35866392 0.66420233 -0.31298926
-0.11987317 -0.11579813 -0.94917405 -1.0439624 -2.579135 -0.40507677 -0.098580755 -0.8616967
-0.33355156 -0.11951227 -0.13638963 -1.4585776 -0.09139028 -0.21293405 -0.119427495 -0.12937579
-0.295129 -0.27858347 -1.0545228 -2.0242846 0.6754501 0.68159086 1.9984579 -0.22813149
-0.3309249 -0.9420897 0.86778194 -0.43124068 0.6675034 -0.47220182 -0.71009463 -0.10021827
-0.7871848 1.54586 -0.11692038 -0.6174289 -0.11970955 -1.1361343 -0.35289213 -0.23128903
-0.10186199 -0.11795127 -0.10225785 -0.020375125 -0.11957715 0.13482843 -0.5951548 -0.3937661
-0.118673086 0.3278899 1.2263556 -1.816991 -0.11761349 1.0139058 -1.0912794 -0.048469573
0.226147 -0.11849102 -0.11973866 -1.001906 -0.11785179 0.06936355 1.6330582 2.5171463
-0.5101499 -0.120158225 -0.1201475 1.1755415 -0.7080688 -0.63265234 -0.23059362 0.7190361
-0.8335943 -0.05103666 -0.1199061 0.36046293 0.10554635 0.14300264 0.30175588 -0.11985447
-1.920476 -0.049199004 -0.72750646 0.61847407 1.6881003 0.05813835 -0.9286351 -0.1117465
-0.95967853 -0.6452311 -0.120212555 1.1492342 -0.7802713 -0.19526987 -0.1178272 -0.11759772
-0.31816882 0.17561091 -0.12049477 -0.11866331 -0.032654826 -0.21085532 0.40321878 -0.99636674
0.6302939 -0.880249 0.44301778 0.21864137 -0.16561867 -0.81407136 0.23818806 -0.053498253
-0.20855488 3.2880294 -1.0100842 0.34556332 -0.4362733 0.045396417 -0.17419368 -0.04207876
-0.40583208 -1.0309206 -0.16353905 -0.026934285 -0.77372754 -0.021241102 0.15716538 0.2764285
-0.17473625 -0.16476008 -0.93628985 -0.476101 -1.5186316 -1.0047525 -0.14843534 0.24375762
-0.1462821 -0.17293617 -0.764547 -0.6854749 0.237559 -0.7206558 -0.1688713 -0.06839131
-0.7127436 -0.8060304 -0.049973853 -0.04556446 -0.5023173 -0.22110237 -0.38545474 -1.5611354
0.94308597 0.9080653 -0.04193277 -0.16151415 0.43993682 0.012321872 -0.7179872 -1.1100129
-0.14182316 -1.0780029 -0.16270463 -0.58719945 -0.17273955 -0.51799005 0.751153 0.44624302
0.8328324 -0.16592366 -0.14842285 -0.88440037 -0.1726982 -0.6415836 0.12707636 -0.5434405
-0.16967809 -0.59376264 -0.33335522 1.137891 -0.16711815 -1.2017753 -0.32253456 -0.61134654
0.02239817 -0.16895467 -0.17248726 -0.30585518 -0.16763332 -0.05921869 -0.5735989 -0.48729724
-0.16202576 -0.17364995 -0.17314494 -0.3660375 0.18835114 -0.96932137 -0.21292514 -1.620927
0.17355734 -0.68549 -0.17329967 0.15443173 0.63674563 -0.026354214 0.1853583 -0.17192237
0.037234955 -0.12928556 -0.9301553 1.1803273 -1.0574055 0.022497742 0.6549553 -0.16587281
-1.0117828 0.84050685 -0.17012775 1.3799338 0.07033327 -1.4726993 -0.17005335 -1.930297
1.6976839 1.3170936 -0.17525421 -0.16936047 0.8298745 -1.2756269 -0.8037812 0.9417276
-0.67763287 0.30288136 0.39012414 -0.35929143 -0.171415 -0.13623756 1.0970244 -0.15896234
00000000: 8162 2140 c19e ccbf 22b3 ca3d 520c 0ebf
00000010: fd97 3e3d 7193 893f 74b7 13be 3eb4 7cbf
00000020: b475 e1bc d799 2bbe 4ced efbd 3456 f5bd
00000030: 1a1a bebe cca2 b73e 2a09 2a3f 2140 a0be
00000040: 1180 f5bd 9227 edbd 12fd 72bf 8fa0 85bf
00000050: 8c10 25c0 3966 cfbe b5e4 c9bd 2898 5cbf
00000060: 45c7 aabe d9c2 f4bd b9a9 0bbe acb2 babf
00000070: d42a bbbd 620b 5abe 6796 f4bd 167b 04be
00000080: 261b 97be 7ea2 8ebe 9afa 86bf e18d 01c0
00000090: 4cea 2c3f bd7c 2e3f 78cd ff3f 4d9b 69be
000000a0: fd6e a9be ca2c 71bf f526 5e3f 94cb dcbe
000000b0: 81e1 2a3f 70c4 f1be c3c8 35bf 3d3f cdbd
000000c0: f184 49bf bede c53f f473 efbd d20f 1ebf
000000d0: 482a f5bd d96c 91bf 47ae b4be 08d7 6cbe
000000e0: 059d d0bd 6f90 f1bd 906c d1bd bce9 a6bc
000000f0: dde4 f4bd 7710 0a3e 115c 18bf b69b c9be
00000100: e00a f3bd 2fe1 a73e 38f9 9c3f 2993 e8bf
00000110: 57df f0bd aac7 813f 0baf 8bbf 0888 46bd
00000120: 1493 673e 6bab f2bd 8b39 f5bd 753e 80bf
00000130: 475c f1bd 7a0e 8e3d 0d08 d13f ed18 2140
00000140: 2f99 02bf 8415 f6bd e40f f6bd 2578 963f
00000150: ff43 35bf 81f5 21bf bc20 6cbe c012 383f
00000160: 7066 55bf d10b 51bd 5491 f5bd 998e b83e
00000170: af28 d83d 496f 123e bf7f 9a3e 4376 f5bd
00000180: 28d2 f5bf e584 49bd dd3d 3abf 5154 1e3f
00000190: ac13 d83f 7a22 6e3d 08bb 6dbf 59db e4bd
000001a0: 7ead 75bf de2d 25bf 0032 f6bd 1b1a 933f
000001b0: dcbf 47bf d3f4 47be 634f f1bd 13d7 f0bd
000001c0: 06e7 a2be 59d3 333e f6c5 f6bd c005 f3bd
000001d0: 11c1 05bd 75ea 57be b172 ce3e e411 7fbf
000001e0: f15a 213f 0058 61bf 3ad3 e23e 86e3 5f3e
000001f0: f197 29be fb66 50bf 92e7 733e fc20 5bbd
00000200: 698f 55be 136f 5240 704a 81bf aded b03e
00000210: 375f dfbe 98f1 393d d45f 32be c75a 2cbd
00000220: 39c9 cfbe 35f5 83bf c876 27be 4aa5 dcbc
00000230: 0213 46bf d201 aebc f6ef 203e 0988 8d3e
00000240: 0fee 32be deb6 28be b1b0 6fbf 83c3 f3be
00000250: 8562 c2bf bb9b 80bf 6fff 17be 999b 793e
00000260: faca 15be 2e16 31be 5ab9 43bf 487b 2fbf
00000270: ab42 733e e67c 38bf 99ec 2cbe be10 8cbd
00000280: 5d76 36bf 0258 4ebf 62b1 4cbd cda1 3abd
00000290: de97 00bf a968 62be 535a c5be 49d3 c7bf
000002a0: 156e 713f f876 683f b2c1 2bbd f763 25be
000002b0: 663f e13e ade1 493c 02ce 37bf e714 8ebf
000002c0: 173a 11be 00fc 89bf 0b9c 26be b452 16bf
000002d0: a3e2 30be ff9a 04bf 904b 403f f779 e43e
000002e0: 8134 553f e4e7 29be 29fc 17be 1068 62bf
000002f0: ccd7 30be d33e 24bf 4e20 023e eb1e 0bbf
00000300: 18c0 2dbe d400 18bf 89ad aabe 6aa6 913f
00000310: 0521 2bbe c6d3 99bf 4023 a5be 3581 1cbf
00000320: 5e7c b73c 7402 2dbe 80a0 30be 0d99 9cbe
00000330: 12a8 2bbe 4c8f 72bd 61d7 12bf 067f f9be
00000340: 15ea 25be 4bd1 31be e84c 31be 4469 bbbe
00000350: 1fdf 403e 7225 78bf 0c09 5abe 897a cfbf
00000360: 04b9 313e 467c 2fbf 7875 31be 5a23 1e3e
00000370: c301 233f cbe4 d7bc 91ce 3d3e 6b0c 30be
00000380: ae83 183d 6f63 04be a81e 6ebf f714 973f
00000390: 1059 87bf 2f4d b83c 27ab 273f 90da 29be
000003a0: 1982 81bf 752b 573f f835 2ebe aca1 b03f
000003b0: e40a 903d 6981 bcbf 7722 2ebe f913 f7bf
000003c0: b54d d93f 8696 a83f d775 33be d56c 2dbe
000003d0: a872 543f be47 a3bf 9bc4 4dbf 0f15 713f
000003e0: 5979 2dbf 4413 9b3e 5abe c73e 0cf5 b7be
000003f0: 6a87 2fbe dc81 0bbe 4c6b 8c3f 06c7 22be

weight f4 [128, 3]
0.009758447 -0.03197852 0.021769455 -0.043656703 -0.005973366 -0.032870285 0.055509944 0.035974994
-0.065744154 0.01257223 -0.0014180681 -0.00765314 0.0074474476 0.026684878 0.004330705 -0.015362458
-0.007996127 -0.01631191 0.0007706291 0.0013804387 -0.00096664974 -0.0008108301 -0.00038780837 0.031549826
0.006537731 0.0026599057 -0.0078173615 -0.000789931 0.004286807 -0.03518584 -0.00027800733 0.0005243003
0.00067394605 0.0388532 0.044065036 0.0059005246 0.0045660506 0.001087001 -0.00032404374 0.02955239
0.15279007 -0.050062902 -0.355708 0.29838666 -0.11280399 0.003474733 0.010171472 -0.0023294478
0.0004886622 0.0011693676 -0.0005763992 -0.00046851966 0.0004681112 0.00072943995 -0.016808843 0.08455532
-0.071941786 -0.040612347 0.003824654 -0.04082731 2.2415028 0.03479663 0.60279644 0.00023871657
0.0026618359 -0.014833694 0.00060698343 1.2538879e-05 0.0010275943 0.01877511 -0.0008820251 0.057235323
0.0020731415 0.005883025 -0.00914543 0.0003343997 0.00088330597 -0.0007195127 -0.008544584 0.010529849
0.019551506 -0.1514851 -0.010341474 0.16796176 -0.0046850056 -0.014338011 -0.027416365 0.025607826
-0.028389063 -0.023340996 0.00012520002 0.0006826013 -0.0002334772 0.0098175565 -0.12244578 -0.050875694
0.027699662 -0.014222973 -0.0011193752 0.025121659 -0.008540291 -0.013439252 0.005950178 0.10582704
0.030898683 -0.12621044 0.115763485 -0.056544032 -0.0031156205 -0.0029049676 0.0081938645 -0.041422516
-0.024835572 -0.15100753 -0.1230048 -0.049329415 -0.18589972 0.039797246 0.05899852 -0.20743103
-0.02409077 -0.030828364 0.062197097 -0.009377761 -0.030652493 -0.018955538 -0.049274266 0.011714068
-0.06678811 -0.033416457 -0.026804477 -0.13869405 -0.04340398 -0.02319264 -0.12417291 0.039665073
0.0048616105 -0.14953434 0.011669316 0.0010339345 0.037847493 0.049039908 0.050834898 0.07585616
0.026136408 0.02266458 -0.023315085 -0.00087697455 0.0020707913 -0.13749751 -0.00042817538 0.00042384182
0.00073851534 -1.8445129e-06 0.009077123 0.025696995 0.00037702167 0.0010660798 -0.00029877422 -0.015305923
0.054761343 -0.049690977 -0.043136332 0.030998532 -0.09449222 -0.008145483 0.0015622498 0.007598956
0.01736838 -0.0022677584 0.05125723 -0.00023664792 0.00048100398 0.00021477441 0.00084365514 -6.572233e-05
0.0010394129 0.11168669 -0.017462378 0.07104677 0.00029273832 0.00088031305 -0.00062316674 -0.0059726215
-0.018229406 -0.05932674 0.028119521 -0.0049188575 0.20223959 -0.009180254 0.00443525 -0.009106401
5.0435116e-05 0.00065062416 -0.00026757416 -0.019025844 -0.006186052 -0.016748978 -0.030406749 -0.016547889
-0.023929948 -0.09852296 0.0019056854 -0.036556445 -0.0002488513 0.00050461624 1.591781e-05 -0.028053928
0.07480978 -0.04354921 0.013912255 0.037611116 -0.032886237 -0.09632633 0.06071683 -0.047610838
0.038539607 0.050061345 -0.032292046 4.1665444e-05 0.000681245 -4.4325898e-05 0.0003948522 0.0009230626
-0.00047973084 0.21820803 0.07673157 1.525773 -0.00010706039 0.00070358795 0.00016206408 -0.046152256
-0.022346618 -0.32797238 -0.00630987 -0.070815936 -0.025316669 -0.07401959 0.07347882 -0.03369668
-0.008284955 0.06673074 -0.13020809 0.0005031735 0.0010609071 -0.0006797275 0.00045731754 0.0010838765
-0.00062767556 -0.014127324 -0.011861998 -0.008834882 0.0031773208 -0.0017463716 0.012228743 -0.16583331
00000000: e5e1 1f3c e9fb 02bd db55 b23c 5fd1 32bd
00000010: 3abc c3bb fea2 06bd 655e 633d 845a 133d
00000020: dfa4 86bd c1fb 4d3c 78de b9ba 31c7 fabb
00000030: b809 f43b 3f9a da3c 96e8 8d3b d2b2 7bbc
00000040: 3002 03bc 8ea0 85bc 0b04 4a3a d6ef b43a
00000050: c466 7dba e38d 54ba c252 cbb9 643a 013d
00000060: 763a d63b d051 2e3b 6414 00bc 5f13 4fba
00000070: 5878 8c3b 071f 10bd 83c1 91b9 3371 093a
00000080: c1ab 303a 8824 1f3d 8a7d 343d 3059 c13b
00000090: cf9e 953b b379 8e3a 6ae4 a9b9 db17 f23c
000000a0: 0075 1c3e c20e 4dbd 5c1f b6be 23c6 983e
000000b0: c705 e7bd 59b8 633b 3fa6 263c a6a9 18bb
000000c0: 9119 003a 7745 993a 7f19 17ba a5a3 f5b9
000000d0: d26c f539 e337 3f3a b3b2 89bc 572b ad3d
000000e0: 3756 93bd 2259 26bd 0ca7 7a3b 8a3a 27bd
000000f0: c874 0f40 e986 0e3d de50 1a3f fe4f 7a39
00000100: 3272 2e3b 0609 73bc f81d 1f3a 135e 5237
00000110: 58b0 863a 42ce 993c b437 67ba 966f 6a3d
00000120: 8bdd 073b 64c6 c03b b7d6 15bc 5e52 af39
00000130: a98d 673a ae9d 3cba 95fe 0bbc 6385 2c3c
00000140: 7b2a a03c e91e 1bbe 496f 29bc 2bfe 2b3e
00000150: ad84 99bb fae9 6abc 4998 e0bc 81c7 d13c
00000160: 2e90 e8bc 9e35 bfbc 2048 0339 99f0 323a
00000170: 8fd1 74b9 d1d9 203c dac4 fabd 0863 50bd
00000180: 67ea e23c 7907 69bc 00b8 92ba f0cb cd3c
00000190: 94ec 0bbc 4f30 5cbc b6f9 c23b d9bb d83d
000001a0: 3c1f fd3c 4f3d 01be 6815 ed3d b79a 67bd
000001b0: 702f 4cbb 4561 3ebb 8f3f 063c a8aa 29bd
000001c0: f873 cbbc b8a1 1abe f1e9 fbbd a40d 4abd
000001d0: 7f5c 3ebe 7002 233d 6fa8 713d cd68 54be
000001e0: 025a c5bc c48b fcbc 62c2 7e3d 2ea5 19bc
000001f0: f01a fbbc a548 9bbc d0d3 49bd 5dec 3f3c
00000200: 34c8 88bd b2df 08bd 1095 dbbc d005 0ebe
00000210: 5fc8 31bd 7efe bdbc 5e4e febd d877 223d
00000220: 254e 9f3b 881f 19be a930 3f3c 1685 873a
00000230: f905 1b3d 12de 483d 4138 503d 795a 9b3d
00000240: 051c d63c 12ab b93c 47ff bebc c4e4 65ba
00000250: 1db6 073b 26cc 0cbe ba7c e0b9 1637 de39
00000260: ed98 413a fb90 f7b5 37b8 143c 8182 d23c
00000270: feaa c539 b4bb 8b3a cca4 9cb9 b2c5 7abc
00000280: 6e4d 603d c488 4bbd b9af 30bd a2f0 fd3c
00000290: 2385 c1bd a274 05bc 68c4 cc3a aa00 f93b
000002a0: 2248 8e3c ac9e 14bb 1af3 513d b124 78b9
000002b0: 432f fc39 1135 6139 bd28 5d3a 68d4 89b8
000002c0: e93c 883a febb e43d 430d 8fbc f880 913d
000002d0: ac7a 9939 cfc4 663a 035c 23ba fbb5 c3bb
000002e0: d655 95bc 9900 73bd e95a e63c 5e2e a1bb
000002f0: e517 4f3e c768 16bc 9355 913b 0433 15bc
00000300: 4b8a 5338 a68e 2a3a 3249 8cb9 16dc 9bbc
00000310: 5eb4 cabb 2735 89bc 9317 f9bc 708f 87bc
00000320: bd08 c4bc 68c6 c9bd 31c8 f93a 36bc 15bd
00000330: 4278 82b9 3948 043a 3d87 8537 5ad1 e5bc
00000340: df35 993d a860 32bd 3af0 633c 1d0e 1a3d
00000350: b8b3 06bd bd46 c5bd 36b2 783d 9503 43bd
00000360: b5db 1d3d 200d 4d3d aa44 04bd eec1 2e38
00000370: 9495 323a 92ea 39b8 2a04 cf39 aff9 713a
00000380: 6284 fbb9 ed71 5f3e 7125 9d3d 884c c33f
00000390: 9c85 e0b8 fd70 383a bfef 2939 260a 3dbd
000003a0: 4110 b7bc ffeb a7be 07c3 cebb f207 91bd
000003b0: e764 cfbc 9597 97bd 107c 963d 8805 0abd
000003c0: 9fbd 07bc 20aa 883d 4555 05be 67e7 033a
000003d0: 230e 8b3a be2f 32ba 1fc4 ef39 dc10 8e3a
000003e0: 988a 24ba 4b76 67bc d358 42bc 2ec0 10bc
000003f0: 993a 503b 82e6 e4ba 115b 483c 35d0 29be

weight f4 [2, 128]
-0.18627645 -0.011634914 -0.011963364 -0.13248576 -0.13433756 -0.059117626 -0.010558147 0.25012213
-0.18852618 -0.07482716 -0.010840056 -0.090101816 0.17229502 0.0420349 0.27047142 -0.11661189
-0.009503757 -0.010076856 -0.16149597 -0.30590287 0.05591931 0.24817754 -0.0111542195 -0.1495777
-0.08956228 -0.009015316 -0.35048202 -0.07291938 0.07913591 0.025695452 -0.009451831 -0.18009983
0.038548242 -0.15123296 -0.2511534 0.031397242 -0.11253523 -0.086422294 0.107145466 -0.5893665
0.16765986 0.032070015 -0.36892998 0.27440196 0.15673615 0.58315235 0.097209044 -0.40685898
0.21522026 -0.17334817 -0.010097124 0.15843573 -0.010177374 -0.0833541 0.017181298 -0.04454853
0.1203523 -0.009514594 -0.012046117 -0.558607 -0.00918619 -0.08249444 0.5308109 -0.096462406
-0.00929296 0.006881133 0.025068127 -0.11176817 -0.009551099 -0.32449535 0.033462103 -0.027643394
0.6569965 -0.009715471 -0.009359141 0.06851053 -0.010587606 0.37623227 0.085668534 -0.25527844
0.31676483 -0.009334945 -0.009784384 -0.043121945 0.0462462 -0.060867913 -0.03309573 -0.043001257
0.010520636 0.20157395 -0.009101897 0.04407542 -0.22495104 0.105524056 0.087479986 -0.00971395
0.20324963 -0.003814445 0.10523439 0.007743341 -0.1046595 0.2164914 -0.11192242 -0.008492229
0.0133198565 0.089471325 -0.009945012 -0.30628946 0.42520276 0.0058968784 -0.010505034 0.035743717
0.25512737 -0.057449713 -0.010091668 -0.0097805625 -0.56591886 -0.0016364851 0.07367547 0.38429004
0.057324875 -0.1616028 -0.17931041 0.075041994 -0.004244463 0.3587122 0.07203228 -0.011042485
-0.1588952 -0.12915833 -0.4509368 0.15189946 -0.18002774 -0.0018211241 -0.0056809075 0.22844484
0.11738962 0.26300472 0.00039207662 -0.063001655 -0.03239486 0.40058967 -0.24408077 0.18910797
-0.003958102 -0.00016665667 -0.17841348 0.14916499 0.09196679 -0.17946638 0.005514337 0.054216627
-0.09911335 -0.0035724898 0.20389184 0.2626495 0.013853105 0.050688468 -0.001773141 0.0014230516
-0.12621094 0.16216223 -0.36487454 -0.2514839 0.054986153 0.33202186 0.431664 -0.15571259
-0.102577075 -0.092608474 -0.1575548 0.08597382 -0.1384765 -0.52123564 -0.003835235 -0.36956072
-0.05867194 -0.7194187 0.00046152654 -0.018079571 -0.003350351 0.23116368 0.27025878 0.06751465
-0.33019215 -0.00067258725 0.004677369 -0.11620365 -0.0036537603 0.27610406 0.49589273 0.09974532
-0.002454387 -0.1265469 -0.19342548 0.03768711 -0.0013311171 0.3755605 0.026808146 -0.07816521
0.20562497 -0.0021675616 -0.003360807 -0.027840966 -0.0012520853 -0.33883187 -0.01154586 -0.2643394
-0.029476473 -0.0039703646 -0.0035979007 -0.118633375 0.036209144 0.08886105 -0.033742484 -0.10666742
0.12697054 -0.031653307 -0.00390768 -0.013307145 -0.14344735 0.25380513 0.0027506603 -0.0027734947
-0.54590076 0.01417744 -0.36692473 -0.17370859 0.16599308 -0.07929271 0.19401622 0.0036619431
-0.021471972 -0.14529252 -0.0024921424 0.25483385 0.53084224 0.0457366 -0.0023312725 0.24273548
0.058026157 0.29570037 -0.0043952195 -0.0025323478 0.37122005 -0.0329696 -0.30986094 0.3229984
-0.1694714 -0.11834507 0.043510996 -0.0057513868 -0.004257466 0.18577929 0.11307925 -0.00067604677
00000000: 41bf 3ebe 5ea0 3ebc fc01 44bc 59aa 07be
00000010: c98f 09be 5325 72bd 14fc 2cbc 0210 803e
00000020: 020d 41be fb3e 99bd 7e9a 31bc 4d87 b8bd
00000030: 1b6e 303e ca2c 2c3d 3b7b 8a3e 37d2 eebd
00000040: a5b5 1bbc 6619 25bc 335f 25be 4d9f 9cbe
00000050: a50b 653d 4122 7e3e 30c0 36bc e62a 19be
00000060: 6e6c b7bd fab4 13bc 6172 b3be c256 95bd
00000070: 0212 a23d 457f d23c dadb 1abc 176c 38be
00000080: c3e4 1d3d d0dc 1abe 2e97 80be 659a 003d
00000090: df78 e6bd 2cfe b0bd 156f db3d b9e0 16bf
000000a0: 07af 2b3e d95b 033d 64e4 bcbe 6a7e 8c3e
000000b0: 717f 203e 7949 153f 8915 c73d d24f d0be
000000c0: b362 5c3e 2f82 31be 686e 25bc fa3c 223e
000000d0: 00bf 26bc 8eb5 aabd cbbf 8c3c 8578 36bd
000000e0: 447b f63d 1ae3 1bbc 145d 45bc de00 0fbf
000000f0: ac81 16bc d8f2 a8bd 39e3 073f 158e c5bd
00000100: 8041 18bc 217b e13b ac5b cd3c b6e6 e4bd
00000110: 367c 1cbc 4124 a6be 8f0f 093d 6674 e2bc
00000120: ec30 283f a42d 1fbc 1557 19bc 404f 8c3d
00000130: a377 2dbc 84a1 c03e fc72 af3d dbb3 82be
00000140: 002f a23e 99f1 18bc ae4e 20bc a3a0 30bd
00000150: a86c 3d3d a250 79bd 638f 07bd 1622 30bd
00000160: bf5e 2c3c 6769 4e3e 1f20 15bc 6d88 343d
00000170: 9159 66be ff1c d83d b528 b33d 4227 1fbc
00000180: ac20 503e c5fb 79bb 2185 d73d dabb fd3b
00000190: b857 d6bd ecaf 5d3e 9537 e5bd fd22 0bbc
000001a0: 873b 5a3c be3c b73d 67f0 22bc f9d1 9cbe
000001b0: 2db4 d93e 9a3a c13b 4e1d 2cbc 0168 123d
000001c0: 0ea0 823e 6450 6bbd 8657 25bc a73e 20bc
000001d0: 0fe0 10bf 547f d6ba 2ae3 963d aac1 c43e
000001e0: 7dcd 6a3d 347b 25be 269d 37be 9eaf 993d
000001f0: 2315 8bbb 20a9 b73e a985 933d 8aeb 34bc
00000200: 6cb5 22be 1542 04be 30e1 e6be 888b 1b3e
00000210: 3159 38be c9b2 eeba e826 babb 72ed 693e
00000220: f869 f03d 8ea8 863e a28f cd39 0307 81bd
00000230: 79b0 04bd 171a cd3e 4ff0 79be 85a5 413e
00000240: f7b2 81bb 8fc0 2eb9 06b2 36be b5be 183e
00000250: 1659 bc3d 09c6 37be 9db1 b43b 4112 5e3d
00000260: f1fb cabd 6f20 6abb 06c9 503e ff79 863e
00000270: 22f8 623c b69e 4f3d bd68 e8ba b085 ba3a
00000280: 713d 01be db0d 263e d6d0 babe 7fc2 80be
00000290: 2939 613d c5fe a93e 1003 dd3e 1f73 1fbe
000002a0: ee13 d2bd 83a9 bdbd 0c56 21be 0b13 b03d
000002b0: c9cc 0dbe b36f 05bf 9158 7bbb 1037 bdbe
000002c0: fd51 70bd d32b 38bf 0bf9 f139 9c1b 94bc
000002d0: 9091 5bbb 2cb6 6c3e 5c5f 8a3e 1f45 8a3d
000002e0: f20e a9be 9150 30ba 9d44 993b 2efc edbd
000002f0: ed73 6fbb 835d 8d3e a7e5 fd3e 4647 cc3d
00000300: c8d9 20bb 8395 01be 5411 46be cd5d 1a3d
00000310: e178 aeba 7749 c03e c29c db3c 1515 a0bd
00000320: 5a8f 523e a60d 0ebb fc40 5cbb bd12 e4bc
00000330: 031d a4ba 5f7b adbe d92a 3dbc 7e57 87be
00000340: a578 f1bc d519 82bb c2ca 6bbb 0ef6 f2bd
00000350: 0a50 143d c8fc b53d 8f35 0abd 7374 dabd
00000360: 9104 023e e6a6 01bd ff0b 80bb 3606 5abc
00000370: dde3 12be bff2 813e 6c44 343b 85c3 35bb
00000380: 27c0 0bbf 7e48 683c 8fdd bbbe aae0 31be
00000390: 17fa 293e 3764 a2bd 30ac 463e 36fd 6f3b
000003a0: fde5 afbc 90c7 14be 3653 23bb 9579 823e
000003b0: 47e5 073f 4d56 3b3d 43c8 18bb a68f 783e
000003c0: d6ac 6d3d 0a66 973e c605 90bb bff5 25bb
000003d0: 8e10 be3e 220b 07bd 18a6 9ebe 0c60 a53e
000003e0: e989 2dbe e65e f2bd 9638 323d 2176 bcbb
000003f0: 3782 8bbb ed3c 3e3e 1896 e73d bb38 31ba

bias f4 [2]
0.15678485 -0.06585478
00000000: 358c 203e dfde 86bd

W f4 [128, 128]
-0.05312586 0.048830975 0.121354125 0.12795016 -0.109499775 0.12482404 0.06782281 -0.12096869
0.033110403 0.14787112 0.04471984 0.15922065 -0.09198029 0.12320526 -0.12544361 -0.052681528
0.03073822 0.20322551 -0.10024222 0.0050178487 -0.15469484 -0.041908924 -0.04658099 -0.051817376
-0.05498467 0.075098276 0.030661946 0.0892144 0.004083618 -0.037915636 0.18186252 -0.026475638
0.08480344 0.09620092 0.08477473 -0.10562626 0.12988454 -0.002045033 0.21845919 0.20448709
-0.009342591 -0.107344024 0.013595078 -0.01848002 0.13506106 -0.1931639 -0.09927521 0.12433677
-0.09028728 0.10137326 -0.027559673 0.096333876 -0.09553536 0.055756576 0.0763493 0.012374205
-0.06466875 -0.03721626 0.20421869 0.08251978 -0.03714616 0.10308017 -0.11023345 0.009849887
-0.06396029 0.01779384 0.20212947 0.017344102 -0.061778463 -0.14256863 -0.1450139 0.043932494
0.09441961 -0.031993132 -0.08413615 0.17688645 0.027041622 -0.08839654 -0.116293244 0.13598822
-0.00077123335 -0.04138616 0.11124881 0.15598676 -0.158582 -0.18054977 0.2124195 0.05972656
0.04937578 0.057183348 -0.06584037 0.10465182 -0.06723216 -0.0066840295 -0.048563562 0.0832311
0.09372948 0.1471774 -0.13676685 0.06997331 -0.03154655 -0.096519336 -0.20500845 0.03226128
-0.141916 0.032412633 0.03630488 0.0154069 -0.04998854 -0.11282111 0.11434554 0.121477194
-0.02327885 -0.04785171 -0.0476284 0.08362019 0.060034163 -0.20185833 0.0067370096 -0.035834257
0.019275278 -0.07409088 -0.030574765 -0.033728406 -0.05835051 -0.08696339 0.00902599 0.060816567
0.13195196 0.12522827 0.00617766 0.07553202 0.019817889 -0.09760103 0.04471235 -0.04024661
0.0017232421 -0.12954669 0.033603597 0.049841125 0.016843308 0.05238951 -0.1344287 0.13041012
0.1460321 -0.07017397 -0.003291319 -0.0298259 -0.09123408 -0.021235164 -0.123471655 -0.009152944
0.059302274 -0.07681869 -0.026882594 -0.10083854 0.16547802 0.10089174 -0.027461866 0.015532504
0.12612842 -0.20924982 0.11701803 -0.047153182 -0.07119689 0.06036883 -0.01027827 0.056996636
0.061783817 0.009000961 0.12864587 -0.118189566 -0.06345468 -0.015024045 0.009874945 -0.097240254
0.0065861344 -0.087239474 0.046095327 -0.036218744 0.022178128 0.012780373 0.0034449678 -0.23983687
0.006593436 0.12656753 -0.019394103 -0.11797256 0.084481806 -0.04116995 -0.07708108 -0.027126333
-0.048051294 0.04986888 0.14660002 0.16213058 -0.06663532 0.00064846344 0.062999524 -0.045883395
0.018552985 0.018742936 -0.060709737 0.22379696 0.011505206 -0.07038702 0.0038128973 0.004166044
-0.005030877 -0.021928575 -0.0043636123 -0.0889265 0.029893 -0.074678674 0.02628579 -0.0038750384
0.0025217878 -0.08235205 -0.13629791 -0.025580104 -0.021074794 0.053810824 -0.023737764 -0.11075657
-0.089950934 -0.03638897 -0.096611395 -0.17537658 -0.1025669 -0.1817376 0.06138921 0.24132085
0.010480096 0.0063892975 -0.11911744 -0.06976816 -0.11070198 0.1364167 -0.17383829 -0.12777162
0.0023062148 0.016012195 0.07200638 -0.034160174 0.048492424 -0.13733731 0.007264629 0.05244975
0.012183338 -0.034936234 -0.012455106 -0.028231766 0.00044295494 0.06660162 0.10979209 0.12562077
00000000: 809a 59bd fd02 483d 8388 f83d 5e05 033e
00000010: 6b41 e0bd bfa3 ff3d afe6 8a3d 6fbe f7bd
00000020: c69e 073d 876b 173e 272c 373d bd0a 233e
00000030: 2a60 bcbd 0a53 fc3d 4a74 00be 96c8 57bd
00000040: b8ce fb3c 591a 503e cb4b cdbd c46c a43b
00000050: 5368 1ebe b1a8 2bbd b5cb 3ebd 753e 54bd
00000060: 9b37 61bd 20cd 993d c32e fb3c 0ab6 b63d
00000070: dfcf 853b 6d4d 1bbd 2b3a 3a3e 70e3 d8bc
00000080: 6dad ad3d fd04 c53d 609e ad3d 9552 d8bd
00000090: 7400 053e f605 06bb c4b3 5f3e 1065 513e
000000a0: ab11 19bc 2fd7 dbbd e4bd 5e3c 6963 97bc
000000b0: 724d 0a3e c2cc 45be cd50 cbbd 47a4 fe3d
000000c0: 8ae8 b8bd c99c cf3d d3c4 e1bc b24a c53d
000000d0: 0ba8 c3bd 0261 643d 065d 9c3d 2dbd 4a3c
000000e0: 0d71 84bd 1470 18bd b41e 513e 2100 a93d
000000f0: 9226 18bd b21b d33d 13c2 e1bd 6c61 213c
00000100: 9dfd 82bd 63c4 913c 07fb 4e3e 3815 8e3c
00000110: 6a0b 7dbd 83fd 11be 867e 14be 8ff2 333d
00000120: 125f c13d 3b0b 03bd 934f acbd b921 353e
00000130: 6486 dd3c 3f09 b5bd 272b eebd 7f40 0b3e
00000140: 982c 4aba 8984 29bd 6bd6 e33d feba 1f3e
00000150: 5263 22be 0ae2 38be 7f84 593e d6a3 743d
00000160: 423e 4a3d 1639 6a3d 51d7 86bd b253 d63d
00000170: 04b1 89bd b405 dbbb 96ea 46bd 1175 aa3d
00000180: 3ef5 bf3d acb5 163e 9c0c 0cbe 2b4e 8f3d
00000190: f536 01bd eeab c5bd bced 51be 6724 043d
000001a0: 6e52 11be 1cc3 043d 6db4 143d 396d 7c3c
000001b0: c9c0 4cbd c10e e7bd ff2d ea3d 09c9 f83d
000001c0: 49b3 bebc 2800 44bd ff15 43bd 1041 ab3d
000001d0: 62e6 753d f3b3 4ebe 22c2 dc3b f1c6 12bd
000001e0: 30e7 9d3c f6bc 97bd ee77 fabc cc26 0abd
000001f0: f200 6fbd dd19 b2bd bfe1 133c cb1a 793d
00000200: 6a1e 073e d73b 003e f86d ca3b 88b0 9a3d
00000210: 2059 a23c 0ce3 c7bd 4c24 373d a1d9 24bd
00000220: 69de e13a e3a7 04be eda3 093d 3526 4c3d
00000230: fafa 893c 6296 563d ada7 09be 3b8a 053e
00000240: 7089 153e 5fb7 8fbd 2bb3 57bb 7255 f4bc
00000250: efd8 babd 5ef5 adbc b5de fcbd 3bf6 15bc
00000260: f1e6 723d 1e53 9dbd e338 dcbc 7084 cebd
00000270: 1273 293e 54a0 ce3d b5f7 e0bc 0b7c 7e3c
00000280: cf27 013e 9645 56be 26a7 ef3d b223 41bd
00000290: adcf 91bd 4e45 773d 3066 28bc 4e75 693d
000002a0: 0711 7d3d c478 133c bebb 033e 5f0d f2bd
000002b0: 87f4 81bd 6927 76bc 85ca 213c e625 c7bd
000002c0: 80d0 d73b 9caa b2bd 74ce 3c3d 1b5a 14bd
000002d0: e8ae b53c c564 513c f8c4 613b cc97 75be
000002e0: c00d d83b eb9a 013e 62e0 9ebc 999b f1bd
000002f0: cc04 ad3d d2a1 28bd afdc 9dbd 0b38 debc
00000300: 6fd1 44bd 5043 4c3d 511e 163e 8f05 263e
00000310: 1978 88bd a5fd 293a e505 813d 3af0 3bbd
00000320: 6efc 973c c98a 993c c6aa 78bd 082b 653e
00000330: 5580 3c3c 1227 90bd cde1 793b 4f83 883b
00000340: 0eda a4bb 8ea3 b3bc a2fc 8ebb 191f b6bd
00000350: 2ae2 f43c 22f1 98bd 4c55 d73c 5bf4 7dbb
00000360: 9444 253b 31a8 a8bd ae91 0bbe 5e8d d1bc
00000370: 0ca5 acbc bd68 5c3d b375 c2bc 57d4 e2bd
00000380: 3238 b8bd 9a0c 15bd 32dc c5bd eb95 33be
00000390: 980e d2bd 6c19 3abe 4173 7b3d d01c 773e
000003a0: b5b4 2b3c 505d d13b d8f3 f3bd 9ce2 8ebd
000003b0: b8b7 e2bd d2b0 0b3e aa02 32be 90d6 02be
000003c0: dd23 173b 022c 833c 1578 933d 8aeb 0bbd
000003d0: fe9f 463d 27a2 0cbe 200c ee3b 8dd5 563d
000003e0: a09c 473c 4c19 0fbd 8010 4cbc 4e46 e7bc
000003f0: 683c e839 6e66 883d adda e03d bba2 003e
