LeakyRNN_11.28/1202/sg_3_128_d10_r7_3/model_112.pth (torch, 137244 bytes, 5 tensors)

weight f4 [128, 128]
00000000: 4b2a f83f 3877 a63e 9ea3 0ebe 3e4b c8bd
00000010: faf8 01be 5980 bebf 05bb f1bd 67bc 213f
00000020: a9d3 9dbf 4a20 84bf e121 81bf 923e 653f
00000030: 41c8 f83e a2c0 d0be 1f58 25bf 3fce 413f
00000040: 06b9 d5bf 24f2 bfbf 2ffb a93d 8c2a 0ac0
00000050: e073 1dbd 6271 51bf 205e 173e a4ba efbd
00000060: facc 7f3e 1935 313f d7cc 573f 24c2 0dbf
00000070: 0c48 47bf 40e4 f83e bd81 0b3d 5cef 2a3f
00000080: 4a15 f9be 9b23 b4bf 4993 b2be 2750 0a3f
00000090: 3651 92bf b3c5 14be bfcb 0b3f bc00 aebf
000000a0: 65f0 12bf 5c5f 0e3d 40b0 b03e 6df5 13bf
000000b0: 4cf9 e4bd 8bcf 4f3f dea1 cfbd e7ba 36bf
000000c0: d24d efbe bb5e d4bf c026 78bd d643 8d3f
000000d0: 4ec9 8fbf 864c 1bbf b194 4ebf f392 1ebf
000000e0: 0c43 0d40 74f7 d9bd cd3a 2ebf d71b 493f
000000f0: 4d07 45be 464b d5be 39fb 9dbf 843c a2bf
00000100: 7f94 0abf 59d7 17bd 0f22 b3bf 9a5d 1d3f
00000110: 3cbf 6abf ac55 cd3f cbbc f73e 55c6 01be
00000120: 328e 873e f8fa dfbd 8987 d6bf ee28 04be
00000130: 510e 0e3f e988 f0be 0337 66bf 75a1 993e
00000140: 389f 3d3f b982 c83e 0acd ddbd 12a6 76be
00000150: 6937 383f 77ee f33d 9726 5dbf 4cb9 56bd
00000160: ee7d 673f 9689 b53f f780 953e 1d4d 52bf
00000170: 47f7 443f 0824 e43f 51f0 d9be fde1 30bf
00000180: 77b3 93bf 3093 9c3d 693e c43e 1bde a2bc
00000190: 01e0 413f 79d9 e9bd c9d7 583d 12c5 66bf
000001a0: 5ca6 44bd 78e6 e6bd 5ea7 02be 83bd 363f
000001b0: bd27 27c0 5141 b63e c6c6 02bf 1345 a33f
000001c0: 6462 b5be fddf 6abf fe58 26bf ba1a 51bf
000001d0: 6935 bdbf 637d 933f 6707 73bf fd8b 533f
000001e0: 3d44 d7bf 5a7f f5be 2e51 d7bd de76 d6be
000001f0: 761b d4bf 5ca0 e0bd b554 043f 2ae5 adbc
00000200: 9ae6 8fbf 7300 2340 a5fa 3dbf 8f2f 04be
00000210: c9c8 42be 28fb 5c3f 7975 44be 9523 c4bf
00000220: c241 b5bf 554f 84bd 15bf a23c 56bc e8be
00000230: d82e 303c 2c2c 473f ff01 b1bd dc59 84bf
00000240: aa74 adbf 176b d0bd 0d98 98bf 25d5 48bf
00000250: d651 5abf 7c15 d4bb cc75 54bf 07bb 44be
00000260: b976 0dbf 1c37 963e ed1a a8be 89f9 bcbe
00000270: 6db0 40bf d862 33be 7993 7a3f d239 8ebe
00000280: 40fb 6abf 52ef ae3f 969e 94be 8c9d 5d3f
00000290: ba09 d63f daa6 5cbe 530b b7bf fc5d 10bf
000002a0: e74c 0ebf d69f 5b3f b09c 28bf ca33 30be
000002b0: e879 40bf f744 febf 64c4 cc3e b2fc c4be
000002c0: 50be d13e 07d5 ddbb 7de0 39bf 27bc 653f
000002d0: 5b45 c5be 4532 afbf 4def 83bf ea4e 193f
000002e0: 7a87 393f c8d3 45be ed89 363f 6100 b03f
000002f0: 6a0a 003e f45e 3dbe 0207 1ebf 8a2f 1b3e
00000300: 8f4d 41bf 6af0 4fbe 9050 893e dc54 543f
00000310: 9b51 d8be bf84 90be 3b43 2ebe e3ec 41be
00000320: a46d 4fbe b6e4 43be 8dfc 7cbf e8bd 42be
00000330: 264c b13e 8a40 26bf 3c04 f83d 6c6c cabf
00000340: 882a 993e 399d 68bf 459e 46be 079d 2bbf
00000350: 2d87 b9bf 0679 03bf 471a 96bf d723 d2bd
00000360: b1c5 623f ed21 90bf 35b3 ddbe b860 21bd
00000370: 15b9 8bbf 27bf 6e3d 8d5a 0fbe a223 78be
00000380: 57b8 36bf b6a3 b53d fc97 c4be 4ec7 633f
00000390: cd20 99bf 6e4b 44be a72a f4be c549 df3e
000003a0: 3b55 7fbf 8a08 47be 7bd6 3fbe 74fa ccbe
000003b0: 00db 053f 0733 8fbe a3d2 993b c892 6fbe
000003c0: fc62 91bf 61c8 3dbe 53d7 58bf 7a1a 45be
000003d0: b526 14bf 1537 28bf 9cef 1bbf 6769 9dbe
000003e0: 4377 27bf 45ed 79bf d0de 46be b1f7 72be
000003f0: b0f0 75bf bd59 48be be7a e4bd ed24 513f
1.9387907 0.32512832 -0.13929603 -0.09779976 -0.12692633 -1.4882919 -0.11803249 0.63178104
-1.2330219 -1.0322354 -1.0088464 0.895486 0.48590282 -0.40771967 -0.6458759 0.7570533
-1.669709 -1.499577 0.082998626 -2.1588469 -0.038440585 -0.81813633 0.14782 -0.11705521
0.24980536 0.69221646 0.84296936 -0.5537436 -0.7784431 0.4861164 0.034059275 0.66771483
-0.48649055 -1.4073366 -0.34877995 0.5402855 -1.1431034 -0.14528541 0.54607767 -1.3593974
-0.5739806 0.03475891 0.34509468 -0.57796365 -0.11180362 0.8117606 -0.101382956 -0.7137894
-0.4673906 -1.659141 -0.06058383 1.1036327 -1.1233308 -0.6066364 -0.80695635 -0.61942977
2.2072172 -0.10642901 -0.6805847 0.78558105 -0.19241066 -0.41658992 -1.2342292 -1.2674718
-0.5413284 -0.037070606 -1.3994769 0.6147095 -0.9169805 1.604177 0.48386225 -0.12673314
0.26475674 -0.1093654 -1.6760112 -0.12906238 0.55490595 -0.46979454 -0.8992769 0.30005994
0.74071074 0.39162233 -0.10830124 -0.24086788 0.7195955 0.11910718 -0.8638701 -0.052422807
0.9042653 1.4182613 0.29199955 -0.82148916 0.76939815 1.7823496 -0.4256616 -0.6909483
-1.1539143 0.07645261 0.38328865 -0.019881299 0.7573243 -0.11418433 0.052940164 -0.90144455
-0.048010215 -0.11274427 -0.12759158 0.7138292 -2.6118004 0.35596707 -0.51084554 1.2755455
-0.3542663 -0.9174803 -0.6497954 -0.81681406 -1.4781924 1.152264 -0.9493317 0.8263548
-1.68177 -0.47948724 -0.10513531 -0.41887563 -1.657088 -0.10968086 0.5169175 -0.021227438
-1.1242249 2.5469024 -0.7421058 -0.12908767 -0.19021906 0.86320734 -0.19185437 -1.5323359
-1.4160693 -0.06460444 0.019866506 -0.4545619 0.010753356 0.77801776 -0.08642959 -1.0339923
-1.3551228 -0.10176676 -1.1921402 -0.7845023 -0.8528112 -0.0064722877 -0.82992244 -0.1921197
-0.5525928 0.2933892 -0.32833043 -0.3690913 -0.75269204 -0.17518175 0.97881275 -0.27778488
-0.9178963 1.3666785 -0.2902724 0.8656852 1.6721718 -0.21548024 -1.4300331 -0.5639341
-0.55586094 0.85790765 -0.65864086 -0.17207256 -0.75186014 -1.9864796 0.39993584 -0.3847404
0.4096551 -0.0067697796 -0.72608167 0.8974022 -0.38529477 -1.3687216 -1.0307404 0.5988604
0.72472346 -0.1931907 0.7130421 1.3750116 0.12503973 -0.18493253 -0.61729443 0.15154853
-0.7550897 -0.20306554 0.26819277 0.82941985 -0.4224976 -0.28226277 -0.17017834 -0.18938021
-0.20256668 -0.19130215 -0.9882286 -0.19017756 0.3462841 -0.6494223 0.12110183 -1.5814338
0.2991526 -0.908649 -0.19396313 -0.6703648 -1.4494377 -0.5135654 -1.1726769 -0.10260742
0.88582903 -1.1260353 -0.43300787 -0.03939888 -1.0915858 0.058287766 -0.13999386 -0.24232343
-0.7137503 0.08869116 -0.38397205 0.8897599 -1.1963135 -0.19169399 -0.4768879 0.4361097
-0.99739426 -0.19436851 -0.18734162 -0.4003483 0.5228729 -0.27968618 0.0046942993 -0.23395836
-1.1358333 -0.1853347 -0.8470356 -0.19248381 -0.5787156 -0.6570905 -0.6091249 -0.30744478
-0.65416354 -0.9762767 -0.19420934 -0.237273 -0.96070385 -0.19565482 -0.11156224 0.8169697

weight f4 [128, 3]
00000000: 7cc0 85bd 9d36 2a3e 9f73 0fbe e770 e23b
00000010: 71c9 e6ba 1192 073e 76e4 063d 9dfa d73c
00000020: d313 1f3c bd62 3a3c 6dc9 babc c93f 2abd
00000030: 0ade bb3a d998 c3ba e919 d23a 20a8 353d
00000040: 5835 e2bd 4bb2 df3d ab57 0a3b 3c93 f0ba
00000050: b6e7 da3a 4acf adbe e778 36bf 3103 853d
00000060: 789a 483f 33df 8a3b 01b0 bcbd bda7 94bc
00000070: 72c2 aaba 72b8 2bbe 2ba8 acbc 9078 ac3c
00000080: 1ee9 8a3b 1e25 82bc 61f8 453d b8af 8fbe
00000090: 1a93 d0bb 2ea0 b63c 2a8a 1a3f a81d 57be
000000a0: f089 4d3d 8093 e9bb 15a2 b23c 645b e53c
000000b0: f46e 853d 6d11 353d ca18 8e3c 5b20 35bd
000000c0: 5f2e 0740 27c5 d8bf e705 efbe 70b9 cb3d
000000d0: bc51 98bd b00e 2bbe 821e 143e da33 5dbe
000000e0: c20f e2bc d91d 68bc a995 333e c194 233c
000000f0: 8686 1bbc ca3a fcbc bf06 913c 045b 313d
00000100: 8a18 9dbb 1512 b03c 8c92 1a3e 704d 993d
00000110: b8c4 313c bacd 003b 4c88 ccba 0edc d13a
00000120: 5f71 2a3f 361b 4cbf 69c0 463c b2bd ffbe
00000130: 314e 613f 0a75 c440 93d4 02bf c1f7 113f
00000140: cbd7 fb3d ee9b 633d 0d11 9dbd 17fe bebb
00000150: 9ea2 53be 85b4 65bd 4bba d03a 3130 cbbc
00000160: 228f dcbc 700e dabd 5858 78bd 45e0 4bbd
00000170: 1aff 343e f8f0 d83b d3ca 00bc 0236 003d
00000180: 4767 f03d c873 ccbd 14fb e5bd c67e a83b
00000190: 2ca8 39bd 0d11 dc3c 0b93 33be 0d35 34bb
000001a0: 82f6 76be 6dbd 3bbc 7ab4 adbb 92ad 093c
000001b0: 20d9 ac3d 9935 1d3d fb96 30bc 788f 2a3b
000001c0: 9717 f6ba d07d b23a 9dfc 3cbe cbc3 9abd
000001d0: 6873 d33d 87d7 b63c 69e0 94bd e3d1 053e
000001e0: 943d 5f3d f73d 373e a644 d0bd a3af 47bd
000001f0: e555 5cbd 5f31 1cbd da92 5140 a666 be3f
00000200: 9dd0 11be 6d36 ddbd 7590 f3bc b053 643d
00000210: c6c4 9e3c 48a5 a7bb 6a39 32bd 5880 ebbf
00000220: 7603 943f 8d11 b9be 189d d6bd b813 5f3e
00000230: db63 493c e86c e2bb 3d24 0cbe a891 14be
00000240: 3238 55bd e4f1 633c 0193 afbb 0390 a33e
00000250: 1c44 97bd 039d dfbd fc5f d93d dc6c ed3d
00000260: 3947 94bc 615c 0ebd 7a5d b4bd 8184 0f3c
00000270: a11e 04bb d81b ca3c 29b9 883c 92ea 13be
00000280: 19ba 5d3e 4abb 843c 1eaa 6ebf ce06 803e
00000290: 39c4 5bbf b438 32bd 37a7 2abc dee0 a03d
000002a0: 41c5 143e ab86 e6bd a7a1 553e d3dc 113b
000002b0: d9f5 1fbb 33e4 e93a 17b2 38bc 38e2 62bd
000002c0: c9fa dcbc 6e37 3a3b deaf ccbc c637 013b
000002d0: 58a2 0dbf 8ed8 903d 50c4 923c 4443 523d
000002e0: 482d 3b3d 4ab5 a7bc 8464 973d 94b9 a53d
000002f0: f98a afbc 8da1 2a3d 120c e33c c423 ed3c
00000300: eaae 15bd 9f70 893d 3bc0 783d 89af 83bd
00000310: 15e9 213e 89fe 51be 3cf0 003d 8861 82bd
00000320: d24a c0bc 1ddc fc3c b364 a2bd 9b6c 9ebb
00000330: 33f0 c33d c829 cdbc 55eb 00be 4424 06be
00000340: 84af a1bd 5b7c 903d 395e 93be d7c8 e43e
00000350: 35ee 42be 3c7e a53a d1a0 c9ba 91b6 c73a
00000360: 17d8 b23d 0260 d53d 2e9b 8abc 7ce1 ad3a
00000370: 3a83 33bb a1d3 f23a 83ac 613a b42a 803d
00000380: b54d b13d fea6 203b 23a6 8aba 0bb4 ce3a
00000390: 7c86 cfbd 83ed d8bd 9927 583c f747 1fbe
000003a0: 109b bbbd bec0 5fbc 6861 15bc 0403 03be
000003b0: 17ad a9bd b072 753d a830 0f3d fc9d 30be
000003c0: 2594 513d 727b 96bd ed3c c13c cf82 8b3d
000003d0: 3f64 af3d ccbd 193d 0592 0d3b b4b7 0fbb
000003e0: 62b6 cb3a 1db4 903d 721f 123d 0be1 8fbd
000003f0: baa1 3bbf 4abf 5dc0 d7c7 953e 95b5 0ebe
-0.06530854 0.16622396 -0.1400895 0.0069104317 -0.0017607642 0.13239314 0.03293272 0.026364619
0.009709316 0.01137608 -0.022801125 -0.041564737 0.001433314 -0.0014922871 0.001602945 0.04434979
-0.11045331 0.109226786 0.0021109383 -0.0018354426 0.0016701135 -0.33947212 -0.7127823 0.06494749
0.783607 0.004238033 -0.092132576 -0.01814639 -0.001302792 -0.16769579 -0.021076282 0.021053582
0.0042392155 -0.01588684 0.048332576 -0.2806375 -0.006365192 0.022293177 0.6036707 -0.21007407
0.050180376 -0.007128179 0.021805802 0.02799768 0.06515303 0.04420607 0.017345805 -0.04422031
2.1122053 -1.6935166 -0.4668419 0.09947479 -0.074374646 -0.16704822 0.14464763 -0.21601811
-0.027595405 -0.0141672725 0.1753756 0.009984196 -0.009492522 -0.030789752 0.017703412 0.04329969
-0.004794185 0.021492997 0.15094966 0.07485473 0.010850124 0.0019653873 -0.0015604584 0.0016011016
0.6657924 -0.7972902 0.012130835 -0.49949414 0.88009936 6.139287 -0.5110561 0.5701867
0.122970186 0.055568628 -0.07669268 -0.0058286297 -0.20667502 -0.05608036 0.001592466 -0.024803253
-0.02692372 -0.10647285 -0.060631126 -0.049774427 0.17675439 0.0066205226 -0.007860857 0.031301506
0.117384486 -0.09983021 -0.1122953 0.0051420657 -0.045326397 0.0268636 -0.17536561 -0.002749744
-0.24117473 -0.011458737 -0.0053010555 0.008403199 0.08439851 0.038381193 -0.010778184 0.0026025455
-0.0018775341 0.0013617817 -0.1845574 -0.07556876 0.10324746 0.022319568 -0.07269365 0.13068347
0.054502085 0.17894731 -0.10169344 -0.048751485 -0.053792853 -0.03813302 3.274588 1.4875076
-0.14239736 -0.108013965 -0.029731968 0.055743873 0.019380938 -0.0051161386 -0.043511786 -1.8398542
1.1563556 -0.36146203 -0.10479182 0.21784866 0.012291874 -0.0069099553 -0.13685699 -0.14508688
-0.052055545 0.013912652 -0.0053581004 0.3194581 -0.07386038 -0.109186195 0.10614011 0.11593029
-0.018100368 -0.03475607 -0.08806892 0.008759619 -0.0020159858 0.02467148 0.016689854 -0.1444495
0.21653022 0.016202588 -0.9322833 0.25005192 -0.85846287 -0.043511108 -0.010415844 0.0785539
0.14528371 -0.112561546 0.20862447 0.0022256866 -0.0024408011 0.0017844498 -0.011272929 -0.05539152
-0.026975052 0.0028414386 -0.024986204 0.0019717081 -0.5532584 0.070725545 0.017915875 0.05133368
0.04569748 -0.020472188 0.07392219 0.08092037 -0.021428572 0.041657973 0.027715717 0.028947718
-0.036543764 0.06710934 0.0607302 -0.06429965 0.1581157 -0.20507254 0.031479105 -0.06366259
-0.023473177 0.030866677 -0.07929363 -0.004834724 0.09567299 -0.025044337 -0.12589772 -0.13099772
-0.07894805 0.07054969 -0.28782824 0.4468448 -0.19036181 0.0012626122 -0.001538301 0.0015236904
0.08732622 0.10418703 -0.016919699 0.0013266052 -0.002739145 0.0018526205 0.0008608775 0.06258145
0.086573996 0.0024513598 -0.0010578077 0.001577021 -0.10133073 -0.10592177 0.013193035 -0.15554796
-0.09160435 -0.013656793 -0.009117462 -0.12794119 -0.082849674 0.059923828 0.03495851 -0.17247766
0.051166672 -0.07347764 0.023588622 0.06812059 0.08564042 0.03753452 0.0021601927 -0.0021929564
0.0015542025 0.07065604 0.03567452 -0.070253454 -0.7329365 -3.4648004 0.29254028 -0.13936456

weight f4 [2, 128]
00000000: fae6 963d 007a 9e3e eeaa 483e 901c c43e
00000010: 2d34 5cbc 0377 08bf 8800 5ebc eae6 0bbe
00000020: 655b 9ebd 9228 043f eca3 31bd 4161 9c3d
00000030: 59a1 52bf 9618 443e 7208 a7be 541f 2b3e
00000040: bbb1 aebd 7243 ce3c 8cb8 9d3e 2937 1ebe
00000050: c1cc 32be f193 e53d 5a52 15be c81f 63bc
00000060: c70d 3b3c ec16 493d 8359 b8bd d4ae c8bd
00000070: f6d5 643e 9ba7 ae3d 94a2 d0be e591 4cbe
00000080: 8bf9 1b3e d138 fc3d 07b1 00be 0c96 82be
00000090: 5028 42be 2dd1 95bc 471b 043e 9a9d f73d
000000a0: 6e03 cf3c d7a9 2bbf 3a9c 473d 2491 1d3e
000000b0: 9e0b 033e b124 a2bd 68b1 2a3d 66b0 35bd
000000c0: 2b32 62be 8487 133e be8b a3be 3af5 05bf
000000d0: e4f1 31bd d547 703e ce41 7f3e 1654 3d3e
000000e0: 69ff 85be 6dea 51bc c774 bd3b caf0 87bd
000000f0: 2340 3d3e 7f3a a8be b264 033e 67c3 90bd
00000100: 3980 95be 6aa3 873d 0448 d43e 7422 843d
00000110: 0de9 aabe fd46 d53e bc76 8bbd b2fe 4abc
00000120: be16 52be 2e2b 5bbc b20d 81be 2bce 49bc
00000130: e358 e4bd 9d85 8ebd 8e01 8d3e 95c0 693e
00000140: 1647 8d3e eaf8 05be f495 73bc c7f8 b03e
00000150: 0fb7 243d 4e1d c1bc 29eb 82be c97b 39be
00000160: 6830 cf3d 9eea a4bc 6bc8 b73e 4bf7 803e
00000170: 40bd a7bb 5401 de3d a8ae 31be 7bbd c2bd
00000180: 7fe0 b8bd 1c6d 33bd 3b5c 313e eb39 48be
00000190: a9f1 c43e 783d 5fbc b7ca 87be 75c3 6fbe
000001a0: ab25 0a3e 55a1 68bc 2312 53bc 9bd9 fd3e
000001b0: ace2 383e 26e1 39bb bd56 09be e1c3 0cbc
000001c0: cf37 373e 3921 4bbd 352e 3f3e 85c1 21be
000001d0: 38fd 103e 385b e43d f850 45be e282 cb3e
000001e0: 9e0b 47be c25b 733f 0259 58bc 6456 dbbe
000001f0: 04b1 df3c 2a07 79bc 268c fd3d 8ce8 f8bc
00000200: 6531 863e 3775 2c3d 9a7d 603e b3b7 88be
00000210: 56e0 483c f740 9c3e 084c 4c3c 5a45 21be
00000220: 444c edbd 0efb 223f b76f ef3d 9394 9ebd
00000230: 3366 b93d 1de3 e43c a381 c63e 7429 293b
00000240: 03a5 583e e787 87be b6e1 24bf 548a eb3e
00000250: bb99 47be ebd7 6c3e 5ab1 fe3d 19c5 4a3c
00000260: d5a1 473d 6133 8cbd 9ebc 66be 6593 303d
00000270: 48d8 9d3e 6b94 d23e 6ee8 323d f90d a2bd
00000280: 6292 a1be 082e 643e fd31 cb3e 647d f0bb
00000290: e7c9 d1bd 84c3 f9bb 5462 76bd 9dc8 ab3e
000002a0: 0c31 8c3e 75f6 c43b e9b0 81bd d8ea e9be
000002b0: 9753 6cbc 18e4 043e 39af 253e df7c 2fbd
000002c0: 8fd5 683e ce05 2fbf a229 533e 32fc 92be
000002d0: cde3 533e d76f 873e 8804 dfbe d112 efbe
000002e0: 248e 5dbe 01b3 5e3c aa60 cebd 9d9e 3cbe
000002f0: 14bd 683c 8bc3 1ebf 8e36 18bc 531b e5be
00000300: d49d 1dbe 7b05 6d3d f348 aebe 1c98 47bd
00000310: e6fb babd e3ed 89be d171 f1bd 488b 503c
00000320: 4154 91bc cdc9 5d3c f693 913c de9a 383c
00000330: 2035 cbbe e859 af3d 8c61 f0bd e94c 1ebd
00000340: 9a9a 8cbe 0679 68be 0e30 683c bd50 053e
00000350: cb78 223d 0c1c f03e 971f 9a3d 5047 38be
00000360: 1eb3 943e 2224 9dbe 03aa 1ebe cbc8 78be
00000370: 512a 4c3e f1eb 9fbe 3822 7d3e ec6c 1c3d
00000380: dc24 533e 905e 843e fde9 963e 3318 22be
00000390: 4d30 30be 2547 563c 9e3a 643d f22e 26be
000003a0: 63ab c93e 2ee4 6b3c dd71 493c 6ea0 a43c
000003b0: 099d 013f 1a2d 1bbe 26c0 8abe c14a dbbd
000003c0: b457 50be bf7b a13e 9c6f d43d 57af c2be
000003d0: 7b4d 953e 3390 dc3d e2bd 223e 6e67 9ebd
000003e0: 9bcb cd3d e0ef 07be 1648 703c 8a0d b13d
000003f0: 9f00 363d e969 743c aee6 6b3e 3e3f a53e
0.07368274 0.30952454 0.19596455 0.3830304 -0.013440174 -0.533066 -0.013549931 -0.13662305
-0.07732276 0.51624405 -0.04336922 0.07635737 -0.82277447 0.19150004 -0.3262363 0.1671117
-0.08529993 0.025178645 0.3080486 -0.1545073 -0.1746092 0.11209858 -0.14582196 -0.013862558
0.011416859 0.049094126 -0.09001448 -0.09798971 0.22347245 0.08528062 -0.40749037 -0.1997753
0.15231912 0.12315524 -0.1256753 -0.25505102 -0.1896069 -0.01828822 0.1290103 0.12090607
0.02527019 -0.6705603 0.048732974 0.15387398 0.127974 -0.079171546 0.041673094 -0.04435768
-0.2208945 0.14407164 -0.31942552 -0.5232731 -0.043443576 0.23464902 0.24927446 0.18489107
-0.26171425 -0.012812239 0.005781743 -0.06637724 0.18481497 -0.3285713 0.12831381 -0.0706852
-0.2919939 0.06622966 0.41461194 0.06451884 -0.3338093 0.41655722 -0.06809756 -0.012389826
-0.20516488 -0.013376994 -0.2520576 -0.012317221 -0.11149766 -0.069590785 0.2754025 0.2282737
0.27593297 -0.13083234 -0.014867295 0.34564802 0.04021364 -0.023573544 -0.25570038 -0.18113627
0.10116655 -0.020131405 0.35895094 0.2518867 -0.005118996 0.10840097 -0.17351782 -0.09508797
-0.09027194 -0.043805227 0.1732034 -0.19553344 0.38465622 -0.013625495 -0.26521847 -0.23414405
0.13490932 -0.014198621 -0.012882742 0.49580082 0.18055218 -0.0028362959 -0.13411994 -0.008591623
0.17892383 -0.04959223 0.1866997 -0.15796478 0.14159095 0.11150211 -0.19269168 0.39748293
-0.19438025 0.95061886 -0.013204815 -0.42839348 0.027306087 -0.015199462 0.12380247 -0.030384324
0.2620956 0.042103972 0.21922913 -0.2670265 0.012260517 0.30518314 0.012469299 -0.15749112
-0.11586812 0.6366433 0.1169123 -0.07743182 0.09052696 0.027940327 0.3877078 0.0025812062
0.21156697 -0.26470873 -0.6440691 0.46003973 -0.19492237 0.23129241 0.12436171 0.012376093
0.04873832 -0.06845737 -0.22532889 0.043109316 0.30829072 0.4112886 0.043678693 -0.07912821
-0.31556994 0.22283185 0.39686576 -0.0073391665 -0.10243588 -0.007622184 -0.060152367 0.33551493
0.2738117 0.0060108253 -0.06332571 -0.45686984 -0.014424226 0.12977636 0.16180123 -0.042843696
0.22737716 -0.6836823 0.2062135 -0.28708035 0.20692368 0.26452515 -0.43558145 -0.46694043
-0.21636254 0.013592483 -0.10077031 -0.18419881 0.014205236 -0.62017125 -0.009290351 -0.4474741
-0.15392238 0.057866555 -0.3404003 -0.048729047 -0.09130077 -0.26939306 -0.11789287 0.01272852
-0.01774037 0.013536883 0.017770749 0.011267392 -0.3968897 0.0856207 -0.117373556 -0.038647566
-0.27461702 -0.22702417 0.014171613 0.1301908 0.03966598 0.46896398 0.075255565 -0.17995954
0.29042906 -0.3069163 -0.15494542 -0.24295346 0.19938017 -0.31234697 0.24720085 0.038189813
0.2061953 0.25853395 0.29475394 -0.15829544 -0.17205925 0.013078486 0.055719964 -0.16228846
0.3938857 0.014397664 0.0122952135 0.02009603 0.5063024 -0.15153924 -0.27099723 -0.107076176
-0.20345956 0.31539723 0.1037285 -0.380244 0.29160675 0.10769691 0.15892747 -0.077345714
0.100486 -0.13275099 0.014665624 0.086451605 0.044434186 0.014917829 0.23037216 0.32274812

bias f4 [2]
00000000: 9d34 c2bd 2aae b13d
-0.094826914 0.08675797

W f4 [128, 128]
00000000: 798b 573d 0fb8 13bd b5ff 2abe 5061 b43d
00000010: cdfd 38bd 1189 09bd 3e65 71bd 19ef a8bd
00000020: d9e9 a3bc 435d 99bd 519c 2a3c 6a52 273e
00000030: 337e 97bd cf26 f3bc 0a9d bfba faa2 d1bb
00000040: 8dc2 b3bd 67d8 2dbe dc65 abbd 6a46 5a3d
00000050: 4fc4 cf3c 823f ec3d 6d33 ebbd 3c9e 10bd
00000060: b8d6 cabd b285 8c3c 4a45 11be 027a 7bbd
00000070: 2e17 513e 7405 2f3d b790 3e3d 6a54 2eba
00000080: d69b 58bd 7039 4a3d e822 95bc 7928 ba3d
00000090: 0663 ab3d d566 14be b032 433c eee2 243e
000000a0: 11d0 92bd 4430 45bd c89d 953d 7c0a 64bd
000000b0: 1c6c d0bb 397a 93bb 1837 c83d 1188 6abd
000000c0: 84bc d2bd aaf6 bbbd d904 203c b4e9 d23b
000000d0: c8cb 683c 2401 cf3d 2745 b5bb c366 fd3d
000000e0: 1e09 d73d bcbe babd b44c ec3c 6162 363d
000000f0: 9401 7d3c 2550 86bc 2d30 16bd fcec 42bd
00000100: 87ec bcbd 5959 7f3d 5e92 0c3e 3914 343c
00000110: 6187 083d cc90 b33d c18c dabc e211 233d
00000120: aa41 bf3d 86ce 113d a1ba 3c3e b1a1 4dbd
00000130: 7ca3 67bd c005 5ebb 167b 19bb 968a 273d
00000140: 9a1b a13b e658 6ebd 67a3 30bc 559c 4abe
00000150: 29f2 303e 5215 c4bc fd93 4cbd c612 153e
00000160: cc0a 353d 6625 cb3d 1cac 553c b29d 623c
00000170: 1fc8 1bbd 4f02 d83c fe7b 26be ead4 e5bd
00000180: 17dc d63d c8dd 31bd 0344 c3bc df94 0a3e
00000190: 41b5 6cbd e09f a6bc 8474 67bd ba86 983e
000001a0: 063d 34bb 9b3f 3c3e 6892 63be 2159 3dbd
000001b0: f405 d9bc 8cb4 78bd 7212 c23d 240d cf3c
000001c0: 9b50 d03c 534f 193e 6d36 8d3c f600 2abd
000001d0: d58e be3d 2423 093e 3e54 24bd c982 353e
000001e0: 9300 b1bd 1449 5cbd b78a af3b 2157 86bd
000001f0: 1469 8dbd 1bab 49bd 3779 9dbd 16f6 8d3c
00000200: e960 063e 6aef 33bd 2eec 1fbe 518e d1bd
00000210: 9515 493d 9ea7 6d3d 8053 74bb 9544 b5bd
00000220: fe6c 083e a9cd b5bd ca78 543d 88ed 333d
00000230: 3ed2 963c 5641 903d 1995 db3d 1183 8d3b
00000240: dfc9 88bd e25f 69bd 0702 50be f87b 8cbc
00000250: 92b3 30be ee32 cb3d b013 00be 3004 0b3e
00000260: d6c5 b03d 17e7 2dbe 9f59 433e 21fa b73c
00000270: 3fe8 01bd 41e3 39be a825 9cba 0840 023d
00000280: 6ff6 c33b c656 a0bc fe94 c0bc 37ae 2b3e
00000290: f3e9 4a3d c1c5 033e f1bf 80be 6d75 f5bd
000002a0: 468c 043e fc14 2dbd d07f b3bd 402b 9bbd
000002b0: 8900 92bd e627 d9bc 10e0 abbd b8d0 b2bd
000002c0: 6217 773d 88a1 f4bb 0086 823c 8cb6 1dbe
000002d0: fb69 80bd 0c49 d9bd 031c c13c df8e c7bd
000002e0: abe6 ba3a e64b 4dba 3bd6 cebd 7abb bfbd
000002f0: 7b46 eabc f69d 5fbd 3654 a0ba 0857 863d
00000300: bacb 14bd 38c4 153d 923d 23be c9d1 9ebc
00000310: 195f e93c 0d75 e43c 1b8d 113d 8900 86bd
00000320: 2015 273e c8d3 3fbc 5f1b eb3c 671f 1bbe
00000330: 6890 f93d 780d 9fbd 1e01 233e 6244 043e
00000340: 8960 4e3d 2fe1 8e3d 4597 073d 7fe9 33bd
00000350: d0da d73d 2e4c 01be 4b86 1e3c b2c1 00be
00000360: 62a3 da3c 061c 09bd ef41 12be 120a 42bd
00000370: d5a6 79bd dca0 39bc a3b7 2ebb cb40 2abd
00000380: 5898 cebd ce0d 293d c348 36be b453 cbbd
00000390: 19ca 72bb ce6a bf3d 9fca 09be 6977 073e
000003a0: f5a8 9e3b c945 b33d cfc8 fd3b f051 37bd
000003b0: ce61 d53c e202 c5bd d3ac 943d c22c 70be
000003c0: 25f2 bbbd d561 4ebd 4e22 c7bc d606 503e
000003d0: b856 0dbe 6ec4 91bc df00 523e 5ef1 6d3c
000003e0: ae36 5cbd dba1 013e d2ee 233d 06ea 253d
000003f0: f150 0fbd 4a9c 133d ca32 a03d 8ece d63d
0.052623246 -0.036064204 -0.16699107 0.088076234 -0.04516392 -0.033577982 -0.058934443 -0.08248729
-0.020008968 -0.074884914 0.010413245 0.16340032 -0.073971175 -0.029681591 -0.0014618945 -0.006397602
-0.08777342 -0.16977082 -0.083690375 0.05328981 0.025362162 0.11535551 -0.11484418 -0.035307154
-0.099042356 0.017153595 -0.14186588 -0.061395653 0.20418999 0.04272981 0.04652473 -0.0006650152
-0.05288299 0.049371183 -0.018205121 0.09089751 0.083684966 -0.14492352 0.01191394 0.16102192
-0.07168592 -0.048141733 0.07305485 -0.05567406 -0.006360544 -0.004500654 0.09776133 -0.05725867
-0.10289863 -0.09177907 0.009766781 0.006436551 0.0142087415 0.101076394 -0.0055319252 0.12373116
0.10499786 -0.09118411 0.028845169 0.044527415 0.015442271 -0.016395638 -0.036667038 -0.047589287
-0.092248015 0.062341068 0.1372771 0.01099115 0.033332232 0.08767852 -0.026678445 0.039811976
0.09338696 0.035597347 0.18430568 -0.05020303 -0.056552395 -0.003387794 -0.0023419312 0.04090365
0.0049166204 -0.05819025 -0.010781146 -0.19786198 0.17279877 -0.023935948 -0.04994582 0.14557943
0.04419975 0.099192426 0.013041522 0.013831543 -0.038032647 0.026368288 -0.16258237 -0.11222251
0.104911976 -0.043424398 -0.023836141 0.13533352 -0.057790045 -0.020339906 -0.056507602 0.29790288
-0.0027502193 0.18383639 -0.22223818 -0.046227578 -0.026492096 -0.060719058 0.094761744 0.02527482
0.02542906 0.14971666 0.017237866 -0.041504823 0.09304587 0.13392311 -0.040119402 0.17725672
-0.08642688 -0.05378063 0.0053571123 -0.06559587 -0.06904808 -0.049235445 -0.076891355 0.017329257
0.13122906 -0.043929495 -0.15617439 -0.10232223 0.049092848 0.05802118 -0.0037281215 -0.088509716
0.13322827 -0.08877117 0.051873006 0.0439277 0.018410798 0.07043712 0.107217975 0.004318603
-0.06679129 -0.056976207 -0.20313273 -0.017148957 -0.17256 0.099218234 -0.1250751 0.13575816
0.08631484 -0.16982685 0.19077156 0.022458138 -0.031715628 -0.18153097 -0.0011913078 0.031799346
0.005980305 -0.019572627 -0.023508545 0.16765676 0.049539518 0.12868406 -0.2514644 -0.11985288
0.12944135 -0.04225634 -0.08764613 -0.07576609 -0.07129008 -0.026508283 -0.08392346 -0.08731216
0.060325034 -0.007465545 0.015933037 -0.15401667 -0.06270214 -0.10609636 0.023572927 -0.097440474
0.0014259418 -0.0007831439 -0.10099455 -0.0936193 -0.02859806 -0.054594003 -0.0012232128 0.06559569
-0.0363271 0.036564082 -0.15941456 -0.019387143 0.028487729 0.027887845 0.03553496 -0.06543071
0.16316652 -0.011708207 0.028699575 -0.15148698 0.121857464 -0.07766241 0.15918395 0.12916711
0.05038503 0.06976544 0.033103246 -0.04392385 0.10539782 -0.12626716 0.009675573 -0.12573889
0.026689235 -0.03347399 -0.14282964 -0.047372885 -0.06095012 -0.011329856 -0.002665975 -0.041565698
-0.10087651 0.04127293 -0.17801194 -0.099280745 -0.003704673 0.09346543 -0.134562 0.13229145
0.0048419186 0.08753545 0.0077448855 -0.044755876 0.026047613 -0.096196905 0.07259526 -0.23454574
-0.09177045 -0.05038627 -0.02430835 0.20315108 -0.13802612 -0.01779386 0.20508145 0.014522878
-0.053763084 0.12659399 0.04002268 0.040506385 -0.0349893 0.03603772 0.07822187 0.10488616
