LeakyRNN_11.28/1128/sp_2_10_64_d10_r11_1/model_69.pth (torch, 37660 bytes, 5 tensors)

weight f4 [64, 64]
0.270001 0.51938546 0.28345844 -0.3327213 -0.8107592 -0.037122846 0.15773483 -0.4809555
-0.007966988 0.8425701 0.7289894 -0.5205802 0.21942122 -0.12975086 -0.3207353 -0.59950536
-0.110735185 -0.018523667 0.0990397 -0.2778651 -0.6877255 -0.2689424 0.25245333 0.1963786
-0.29104918 -0.048468642 -0.09738982 0.1636053 -0.4144562 -0.8839423 0.15418842 -0.638274
0.45281592 -0.61813027 0.008198871 -1.3200979 -0.059594467 -0.01718759 -0.72833556 -0.5090142
0.11329022 -0.005918772 -0.6462644 0.26577508 0.077181935 0.5292485 -0.29057384 -0.23900694
-0.3888373 -0.05146502 -0.5481021 0.14361343 0.12450241 -0.82093537 0.13032463 -0.1616207
-0.20368825 0.7607492 -0.2343202 0.6764551 -0.044233907 0.25452513 -0.8897175 0.074124835
0.24962956 0.09539317 0.2276149 -0.4496554 -0.42995638 0.25623488 -0.026919065 -0.76810515
0.1793905 1.0574152 1.0571821 -0.23396994 0.24760687 -0.09230742 0.6704296 -0.085543916
-0.33758318 0.35842663 -0.13597879 0.07245768 -0.40945762 0.087827384 0.14696354 -0.10633488
-0.8974638 0.20374426 0.0297255 -0.25392035 0.2490877 0.042188607 -0.58780354 -1.4758741
0.1130935 0.00077236485 0.03127114 -0.7906428 0.23822774 0.30139962 -0.3509563 -1.1647385
-0.042177092 0.30204383 -0.45061088 0.3281688 0.17301118 0.39778447 -0.12677775 -0.53509456
-0.8338399 -0.22416767 0.21991341 -0.81293315 0.1043315 -0.43138093 0.20472036 -1.4918544
-0.18010873 0.77489275 -0.6644836 0.102622345 -0.40956914 -0.43524268 0.280649 -0.10000608
0.3069399 -0.03555989 0.27724147 -0.038917106 -0.19656754 -0.4071663 0.5180982 0.018828364
0.3606526 -0.2445464 -0.3796541 -0.26807487 0.19036347 0.081959724 -0.9239079 -0.39847592
-0.033877775 -0.6889461 0.35529608 0.015244706 -0.08523226 -0.11531981 -0.32866532 0.44973642
-0.27969205 0.47811046 0.09310354 0.019807767 -0.23878181 -0.14861463 -0.43580225 0.07946659
-0.8238638 -0.14778343 -0.089756966 -0.4701234 -0.35160372 -0.20191845 -1.0434939 -0.056409094
0.17474143 0.09438613 0.093620665 0.38918915 0.124286756 0.045753933 -0.16229339 0.123826854
0.081026815 0.10594089 -0.3938382 0.045608588 0.059138518 0.025187049 0.22895105 -0.038648836
-0.030076431 -0.08940132 0.44255495 -0.08350932 0.10032151 -0.087627836 -0.50326854 -0.10995872
-0.24158853 -0.45971876 -0.107017815 -0.5965612 0.03628711 -0.78489095 -0.3457709 0.016151097
-0.49639556 -0.5537947 0.053186785 -0.6853426 -0.37105924 -0.33475864 -0.41600585 -1.0063963
-0.26882973 -0.9563301 -0.37037778 -0.2453594 0.25620732 -0.5224738 -0.42854026 -0.38971412
-0.10821002 -0.372521 -0.8378447 -0.26286483 -0.12177505 0.08987506 0.20837615 0.6710708
-0.8519344 -0.2749735 -0.1117134 0.45148367 -0.689946 -0.05368572 -0.03402972 -0.6668041
-0.71253365 -0.17577544 -0.50734574 -0.09759651 -0.17726572 -0.4672884 -0.1872812 -0.14869331
0.5595285 -0.0820925 0.043499213 0.019308772 -0.25214046 -1.0814319 -0.97510093 -0.24227224
-0.20157155 -0.47085935 -0.19953202 -0.3210365 -0.5995308 -0.36822063 0.524911 0.21493843
00000000: 923d 8a3e 72f6 043f 7721 913e 725a aabe
00000010: ea8d 4fbf 200e 18bd 3d85 213e cd3f f6be
00000020: f887 02bc adb2 573f 0d9f 3a3f be44 05bf
00000030: f5af 603e 69dd 04be 6b37 a4be 2f79 19bf
00000040: 21c9 e2bd f2be 97bc 54d5 ca3d 5644 8ebe
00000050: c70e 30bf d1b2 89be 9041 813e 7917 493e
00000060: 6604 95be 0e87 46bd 5074 c7bd 2688 273e
00000070: 9a33 d4be 0b4a 62bf 92e3 1d3e ed65 23bf
00000080: 7dd7 e73e c93d 1ebf 8f54 063c f8f8 a8bf
00000090: 5419 74bd fdcc 8cbc 3374 3abf c14e 02bf
000000a0: b404 e83d 42f2 c1bb 9571 25bf ac13 883e
000000b0: 9011 9e3d d47c 073f 18c6 94be 3cbe 74be
000000c0: af15 c7be fccc 52bd 6b50 0cbf 660f 133e
000000d0: 1ffb fe3d d228 52bf d273 053e e67f 25be
000000e0: a793 50be 76c0 423f a2f1 6fbe 292c 2d3f
000000f0: 9d2e 35bd 1e51 823e 87c4 63bf c3ce 973d
00000100: e49e 7f3e 7f5d c33d e113 693e 3c39 e6be
00000110: 3e23 dcbe 3831 833e 5f85 dcbc 8aa2 44bf
00000120: 25b2 373e 6259 873f be51 873f d195 6fbe
00000130: a88c 7d3e ac0b bdbd 46a1 2b3f a631 afbd
00000140: b4d7 acbe b283 b73e 063e 0bbe b164 943d
00000150: 6ea4 d1be d8de b33d 9c7d 163e 1ac6 d9bd
00000160: 30c0 65bf 56a2 503e e482 f33c d901 82be
00000170: d910 7f3e f6cd 2c3d 4b7a 16bf 71e9 bcbf
00000180: 919d e73d 8778 4a3a 2b16 003d 9167 4abf
00000190: f9f1 733e 0d51 9a3e 8bb0 b3be 2716 95bf
000001a0: e3c1 2cbd 7da5 9a3e 78b6 e6be be05 a83e
000001b0: d829 313e 68aa cb3e 07d2 01be f5fb 08bf
000001c0: 8876 55bf 368c 65be fb30 613e 631c 50bf
000001d0: c1ab d53d f6dd dcbe 37a2 513e 16f5 bebf
000001e0: 6c6e 38be 5f5f 463f 991b 2abf aa2b d23d
000001f0: 0cb3 d1be 21d8 debe 3ab1 8f3e fdcf ccbd
00000200: 3a27 9d3e 3fa7 11bd 98f2 8d3e 8b67 1fbd
00000210: 0049 49be 1a78 d0be 15a2 043f f13d 9a3c
00000220: 75a7 b83e 5f6a 7abe 0662 c2be 1c41 89be
00000230: a4ee 423e 80da a73d 3a85 6cbf 0905 ccbe
00000240: 6cc3 0abd c65e 30bf 5ee9 b53e eec4 793c
00000250: 408e aebd cb2c ecbd d246 a8be da43 e63e
00000260: cc33 8fbe e5ca f43e 12ad be3d e643 a23c
00000270: 3883 74be 6f2e 18be 7921 dfbe 61bf a23d
00000280: bde8 52bf 8a54 17be 80d2 b7bd 04b4 f0be
00000290: 6705 b4be b6c3 4ebe 3591 85bf 390d 67bd
000002a0: 6bef 323e 844d c13d 31bc bf3d cd43 c73e
000002b0: 0e8a fe3d 7a68 3b3d 3d30 26be ef98 fd3d
000002c0: 63f1 a53d 8af7 d83d 29a5 c9be 12d0 3a3d
000002d0: 3b3b 723d 1255 ce3c 2572 6a3e 3e4e 1ebd
000002e0: d962 f6bc 0a18 b7bd 9096 e23e ef06 abbd
000002f0: 5d75 cd3d 3976 b3bd 35d6 00bf 0a32 e1bd
00000300: fc62 77be 4260 ebbe 282c dbbd 3cb8 18bf
00000310: cba1 143d 9dee 48bf e208 b1be 4e4f 843c
00000320: 8f27 febe 7dc5 0dbf 63da 593d 9d72 2fbf
00000330: 7afb bdbe 7c65 abbe b8fe d4be 98d1 80bf
00000340: 0da4 89be 0dd2 74bf 28a2 bdbe 7f3f 7bbe
00000350: 9b2d 833e d8c0 05bf a169 dbbe 9c88 c7be
00000360: 379d ddbd 13bb bebe fe7c 56bf 3896 86be
00000370: 3365 f9bd 6a10 b83d 8f60 553e 4ccb 2b3f
00000380: 5f18 5abf 54c9 8cbe ffc9 e4bd de28 e73e
00000390: 4da0 30bf 8fe5 5bbd bf62 0bbd acb3 2abf
000003a0: 9b68 36bf 7afe 33be 69e1 01bf aee0 c7bd
000003b0: 2585 35be 6d40 efbe a5c6 3fbe 0f43 18be
000003c0: 433d 0f3f 1d20 a8bd 3b2c 323d 6e2d 9e3c
000003d0: 8e18 81be 5c6c 8abf 37a0 79bf 3716 78be
000003e0: c668 4ebe 7a14 f1be 1f52 4cbe e55e a4be
000003f0: da7a 19bf 6a87 bcbe 9160 063f d218 5c3e

weight f4 [64, 3]
-0.257661 0.23578864 0.2622526 0.17297547 0.05612667 0.26048025 -0.27163768 0.36147192
0.18578425 0.009639762 -0.017912049 0.001787932 -1.5747702 -0.80285084 -1.4923948 0.049124535
0.085693344 0.4134712 0.05230426 0.2405006 0.0834868 -0.3541451 0.104928136 0.016015261
0.27834797 0.341825 0.17561102 0.3243933 -0.24127191 2.620299 -0.15988871 -0.24161783
3.468254 0.019800391 -0.13580303 -0.3372082 5.0873252e-05 0.113432415 0.12391887 0.02490524
0.07065624 -0.03855962 -0.18919975 -0.53982556 -0.2638545 0.07062108 0.04248597 -0.09285234
-0.092674315 -0.004579609 0.027287817 0.23064151 -0.34769702 -0.24559195 0.00045710764 0.09188746
0.0012602885 0.06554354 0.008029641 0.013316008 -0.10219318 -0.043119855 0.00459583 -0.10797366
-0.014537785 -0.11557225 0.40149736 -0.38363877 0.13859765 0.28253755 0.5641437 0.05913156
-0.6866926 0.9028955 -1.712727 0.09700491 0.031127999 0.19069943 0.18549757 0.2720513
0.4960693 -0.025465403 0.051441956 0.01466522 0.025931844 -0.02131914 -0.039152924 0.5015416
0.3408737 -0.13864829 -0.33412778 0.08481686 -0.13104442 -0.31569046 0.19969252 0.072643094
0.57366896 -0.30371293 1.2800702 0.24771188 -0.23580188 0.02221929 0.0026457077 0.011132046
-0.0085532265 1.5697094 -0.22123148 0.10163541 -0.15521032 -0.093672894 -0.21336791 -0.054358047
-0.040836487 0.021302639 0.8247034 -0.94050616 -1.275871 0.0541757 -0.04542859 -0.30565032
0.27470288 0.06448281 0.111080304 0.036932245 -0.030679777 -0.07279691 -0.58127964 0.05853738
-0.19417554 -0.25283483 0.0852459 0.07542768 0.068715215 0.11785133 -0.03901922 0.17165639
-0.006133539 1.229722 0.07136442 -0.07961203 -0.08148628 -0.03348716 0.01014748 -0.0032033962
-0.3248781 -0.10832564 -0.031877656 0.007246259 -0.061048336 -0.018539771 -0.13567284 -0.09597172
-0.19479719 -0.07308456 0.43023798 0.3154875 0.053062078 -0.02021572 0.028705852 1.1584723
0.44706407 -0.8111336 -0.8812935 0.16668911 -0.48764658 -0.5092135 1.5107849 -0.53641486
0.0117069045 0.118993334 0.023984505 0.17489958 -0.19042268 2.3269317 1.3319746 1.5522357
-0.097255774 -0.15966292 -0.6777914 2.8963895 0.03430198 0.0051490525 0.050877783 -0.07213046
0.11402629 0.15438895 0.53433293 -1.8462912 -0.4998747 -0.8156829 -0.10438546 -0.28904983
00000000: 25ec 83be 9472 713e f945 863e 7b20 313e
00000010: 14e5 653d ab5d 853e 1814 8bbe d912 b93e
00000020: 3a3e 3e3e 18f0 1d3c 4abc 92bc 0b59 ea3a
00000030: 1292 c9bf a287 4dbf cb06 bfbf cf36 493d
00000040: fe7f af3d 7fb2 d33e fe3c 563d ca45 763e
00000050: 21fb aa3d 8252 b5be 90e4 d63d 7032 833c
00000060: a083 8e3e b003 af3e 60d3 333e e116 a63e
00000070: fc0f 77be fbb2 2740 deb9 23be aa6a 77be
00000080: e0f7 5d40 6e34 a23c f30f 0bbe 8ea6 acbe
00000090: bd60 5538 414f e83d 2dc9 fd3d 1306 cc3c
000000a0: 38b4 903d b1f0 1dbd 94bd 41be 0232 0abf
000000b0: f017 87be c9a1 903d c505 2e3d 5e29 bebd
000000c0: 08cc bdbd 8b10 96bb b38a df3c 4a2d 6c3e
000000d0: 5805 b2be 757c 7bbe f3a7 ef39 7e2f bc3d
000000e0: 4430 a53a b13b 863d c18e 033c 632b 5a3c
000000f0: a84a d1bd 729e 30bd 9e98 963b 4b21 ddbd
00000100: e42f 6ebc 25b1 ecbd 1091 cd3e 4d6c c4be
00000110: 8bec 0d3e c3a8 903e b96b 103f ef33 723d
00000120: 16cb 2fbf 2924 673f a33a dbbf 83aa c63d
00000130: 2500 ff3c b646 433e 13f3 3d3e 4f4a 8b3e
00000140: ccfc fd3e d29c d0bc cdb4 523d 6446 703c
00000150: 056f d43c 7aa5 aebc d15e 20bd 0865 003f
00000160: ff86 ae3e d1f9 0dbe cc12 abbe 76b4 ad3d
00000170: 8230 06be 2ea2 a1be 327c 4c3e e7c5 943d
00000180: f8db 123f 4380 9bbe 57d9 a33f 2fa8 7d3e
00000190: 0c76 71be 3a05 b63c 9c63 2d3b 2f63 363c
000001a0: d522 0cbc 3dec c83f 818a 62be 3a26 d03d
000001b0: 74ef 1ebe 93d7 bfbd 1e7d 5abe 8ba6 5ebd
000001c0: 2944 27bd df82 ae3c c31f 533f 03c5 70bf
000001d0: be4f a3bf 57e7 5d3d 5413 3abd 337e 9cbe
000001e0: dba5 8c3e 900f 843d 127e e33d 4446 173d
000001f0: 2854 fbbc 8c16 95bd bece 14bf e4c4 6f3d
00000200: f4d5 46be 9173 81be 6795 ae3d d479 9a3d
00000210: 90ba 8c3d 0a5c f13d 9ed2 1fbd b1c6 2f3e
00000220: dbfb c8bb 8867 9d3f 8227 923d a20b a3bd
00000230: 47e2 a6bd d529 09bd 9e41 263c 12f0 51bb
00000240: 6c56 a6be d5d9 ddbd 2592 02bd 0772 ed3b
00000250: d20d 7abd b8e0 97bc d2ed 0abe d28c c4bd
00000260: ea78 47be 5cad 95bd 2748 dc3e 9487 a13e
00000270: 9f57 593d 709b a5bc 8928 eb3c d248 943f
00000280: 95e5 e43e 74a6 4fbf 739c 61bf 8db0 2a3e
00000290: d0ac f9be d15b 02bf 6661 c13f 7c52 09bf
000002a0: 51ce 3f3c c7b2 f33d 277b c43c e018 333e
000002b0: 2afe 42be 73ec 1440 257e aa3f a9af c63f
000002c0: 092e c7bd ad7e 23be bd83 2dbf 725e 3940
000002d0: 3c80 0c3d 62b9 a83b 3965 503d 22b9 93bd
000002e0: 9e86 e93d 2318 1e3e 0bca 083f 4553 ecbf
000002f0: 94ef ffbe 98d0 50bf 0bc8 d5bd 57fe 93be

weight f4 [2, 64]
-0.27877086 -0.2961749 -0.013264722 -0.23185074 0.029106263 -0.18567975 0.019696282 0.13228059
-0.17542851 0.097512625 0.017516568 -0.31591493 0.27129272 0.055579185 -0.061153784 0.09349239
-0.14877973 0.16085339 0.015354487 0.2503185 0.3275726 -0.0929619 0.232322 -0.14051177
0.10906617 0.31874666 -0.72887623 -0.048335522 0.056576706 0.13965301 -0.038456008 -0.08180575
0.08938586 -0.36894882 0.051457554 0.25366592 0.17115037 -0.021225246 -0.2653424 -0.4366344
0.23681617 0.03404326 0.04950076 0.2527008 -0.12351854 0.31401896 0.03244846 -0.09445309
0.19142632 0.055232704 -0.034460183 -0.08795706 0.16357315 0.06347718 -0.17379896 0.17296319
0.14872059 -0.3134238 0.052009907 0.037296917 0.22961314 -0.29981095 0.044200808 0.12955667
-0.029512286 -0.2844046 0.33080855 -0.2295631 0.02584069 0.27556965 0.30256382 -0.008112307
0.16854067 -0.13195145 0.23278488 -0.100009404 0.2532235 0.008716154 0.22647174 0.18146636
-0.20530358 0.24488959 0.094032496 -0.10748326 -0.30684784 0.041107297 -0.044378452 -0.023666525
-0.009257504 0.25374347 -0.004375825 -0.09706897 -0.023964101 -0.1276506 0.13159052 0.038615514
0.3768198 -0.33360377 -0.09774916 0.063713536 0.09263694 -0.20303234 -0.095150985 0.12586199
0.10370937 -0.049241904 -0.35663497 0.105226725 0.14779744 -0.31799424 -0.29563078 -0.09936477
0.17762135 -0.17739363 0.27206513 0.26362553 -0.062231973 -0.14794889 -0.056753 0.019501729
-0.16375534 -0.03201126 -0.048320167 -0.41765922 -0.10390588 0.20492792 0.021798877 -0.0537625
00000000: 0ebb 8ebe 3da4 97be 4754 59bc 486a 6dbe
00000010: 4270 ee3c d522 3ebe 195a a13c 9074 073e
00000020: 88a3 33be b3b4 c73d e87e 8f3c 9abf a1be
00000030: e1e6 8a3e 00a7 633d 647c 7abd f078 bf3d
00000040: b759 18be c0b6 243e 6391 7b3c bf29 803e
00000050: 99b7 a73e cf62 bebd d2e5 6d3e 51e2 0fbe
00000060: 165e df3d c332 a33e a297 3abf 78fb 45bd
00000070: fabc 673d 3301 0f3e 0c84 1dbd c689 a7bd
00000080: ef0f b73d dce6 bcbe 28c5 523d 80e0 813e
00000090: 0b42 2f3e 91e0 adbc f6da 87be 8b8e dfbe
000000a0: f07f 723e f270 0b3d 4fc1 4a3d 0062 813e
000000b0: 4af7 fcbd 18c7 a03e ade8 043d 9f70 c1bd
000000c0: 4305 443e b03b 623d 1f26 0dbd d522 b4bd
000000d0: b87f 273e 5300 823d 5bf8 31be 431d 313e
000000e0: 364a 183e 1679 a0be 5708 553d a7c4 183d
000000f0: b51f 6b3e d280 99be e80b 353d 81aa 043e
00000100: c0c3 f1bc 7b9d 91be bd5f a93e 9712 6bbe
00000110: dbaf d33c 7717 8d3e a5e9 9a3e 7be9 04bc
00000120: ed95 2c3e 481e 07be 295f 6e3e bbd1 ccbd
00000130: 83a6 813e 33ce 0e3c 35e8 673e 51d2 393e
00000140: 1a3b 52be 56c4 7a3e 1c94 c03d 2f20 dcbd
00000150: 291b 9dbe 2060 283d 2ec6 35bd 4de0 c1bc
00000160: c9ac 17bc aaea 813e 1563 8fbb 19cc c6bd
00000170: 5d50 c4bc d7b6 02be aabf 063e 4d2b 1e3d
00000180: 86ee c03e 1dce aabe b630 c8bd 3e7c 823d
00000190: 70b8 bd3d b6e7 4fbe 85de c2bd f7e1 003e
000001a0: 9465 d43d e1b1 49bd dc98 b6be 1c81 d73d
000001b0: 3658 173e 24d0 a2be eb5c 97be c27f cbbd
000001c0: 5fe2 353e ada6 35be 1f4c 8b3e edf9 863e
000001d0: f4e6 7ebd ea7f 17be d575 68bd 17c2 9f3c
000001e0: 7baf 27be 3d1e 03bd 5eeb 45bd 6ed7 d5be
000001f0: 9bcc d4bd a0d8 513e 8f93 b23c 1136 5cbd

bias f4 [2]
0.054909877 0.10019864
00000000: 2ee9 603d f234 cd3d

W f4 [64, 64]
0.038570996 0.07702715 -0.04394925 -0.018775472 -0.11540305 -0.16584826 -0.012687793 0.0021454147
-0.053766627 -0.102826074 0.05017091 -0.14014895 -0.10664629 0.08111308 -0.0015500733 -0.21220088
-0.043245018 -0.016461963 -0.011730172 0.0643725 -0.052191317 0.07947324 0.07908103 0.073121905
0.1759733 0.019920759 -0.06432224 0.049370326 -0.11070164 -0.23771851 0.07849167 -0.03896644
-0.0002839198 -0.04555173 0.08554175 0.07074404 -0.06305918 0.32818753 -0.0802609 -0.096442915
0.14238958 -0.033622064 0.002566475 0.030501543 0.14929388 0.22529961 -0.00989117 0.057780616
0.17209621 0.13245995 0.018007109 0.12517935 0.15660377 -0.23394582 0.004427283 0.09739731
-0.011264544 -0.018490942 0.022031587 -0.0161222 -0.049956925 0.0905103 -0.2052197 -0.08988592
-0.06511928 -0.194686 -0.007566109 0.0143295275 0.22896005 -0.21530281 0.16746184 -0.01479207
0.17149156 -0.109016255 0.014945373 -0.014562205 0.06543551 0.014183459 0.29893446 -0.0697877
0.002649428 -0.10273437 -0.08315092 0.108911045 -0.046534173 -0.13217454 0.0187725 0.00585322
0.116893254 0.06462186 0.14301959 -0.24678159 0.21599498 -0.003954934 -0.17362161 0.04326528
0.11072509 0.0027628834 0.090459526 -0.16839695 -0.02803886 0.10914703 0.057674278 0.027277362
-0.15107335 -0.04605383 0.08768743 0.025802495 -0.027028246 -0.13691863 -0.07424348 -0.28117412
0.18920307 -0.111159936 0.10263632 -0.1266057 -0.09628064 -0.043574374 0.046820544 0.03543337
-0.045153324 -0.03871222 -0.15629613 -0.07677239 -0.031390533 -0.2135551 -0.06135504 -0.003645374
0.22865929 0.06982553 0.09111964 -0.09440483 0.0735365 0.07070383 0.084851176 -0.022595935
0.18113676 0.004305349 -0.1316668 -0.03056737 -0.16767225 -0.020125015 -0.2105908 -0.124496624
-0.059606075 -0.022045888 0.14887905 0.10250525 -0.06194049 0.039710358 -0.07630521 0.06490541
0.078494295 0.37575555 -0.10594738 -0.050238807 -0.19264093 -0.11710118 -0.07711764 -0.036509585
-0.1215189 0.015037936 -0.11684012 -0.11640764 0.03568366 -0.089539744 -0.14164433 -0.0687554
0.16830751 0.069024384 0.12560368 0.11440101 -0.072273076 0.14350359 -0.04005093 0.16492237
0.018699368 0.21103778 0.04492429 0.075239904 0.06559526 0.13453156 0.09059938 -0.076583706
-0.17771819 -0.0034099154 0.19669776 0.04099064 0.02611926 0.061234806 -0.11653223 0.056727853
0.013585896 0.07946642 0.07840701 0.008156446 -0.030160157 0.040977646 -0.03954446 -0.043486886
0.058177315 -0.15925786 0.12317911 0.15402552 -0.10521783 -0.005876736 -0.047003042 -0.16315338
-0.10344696 -0.104533985 -0.13939202 -0.07614847 -0.07174744 -0.110677965 0.17010184 0.0073068505
0.21379197 0.062129945 -0.068333685 -0.055541843 0.1493002 0.055052478 0.2171747 0.1267703
-0.0639757 0.06904364 0.15477337 0.0011273335 -0.21018909 -0.21638605 0.15076433 -0.14485069
-0.057629984 0.07293944 0.052712716 0.14286107 0.15771909 0.032308802 0.100104146 0.13660342
-0.004021776 0.10598205 0.24653837 0.1242796 0.009107574 -0.22216386 -0.2347598 -0.18988656
-0.0024264886 -0.007839593 0.044767614 -0.009354652 -0.1381303 -0.15747598 0.18854053 0.12776066
00000000: 9ffc 1d3d 69c0 9d3d 2104 34bd 05cf 99bc
00000010: 6f58 ecbd 20d4 29be 76e0 4fbc 169a 0c3b
00000020: 653a 5cbd 7a96 d2bd 0380 4d3d 3583 0fbe
00000030: 5f69 dabd 9d1e a63d d42b cbba 304b 59be
00000040: b021 31bd 3ddb 86bc e82f 40bc bbd5 833d
00000050: 90c6 55bd dec2 a23d 3cf5 a13d f0c0 953d
00000060: 5832 343e dc30 a33c 61bb 83bd 8a38 4a3d
00000070: 8bb7 e2bd 7b6c 73be 3ec0 a03d 469b 1fbd
00000080: 12db 94b9 7394 3abd 8330 af3d 40e2 903d
00000090: 2c25 81bd 3208 a83e d45f a4bd dd83 c5bd
000000a0: 93ce 113e 4ab7 09bd 4e32 283b 5fde f93c
000000b0: 7fe0 183e f1b4 663e 930e 22bc 5eab 6c3d
000000c0: fd39 303e 95a3 073e a583 933c 042f 003e
000000d0: bd5c 203e 7e8f 6fbe be12 913b 3e78 c73d
000000e0: ec8e 38bc 517a 97bc 967b b43c b412 84bc
000000f0: a29f 4cbd 775d b93d 1d25 52be 1c16 b8bd
00000100: 425d 85bd c45b 47be 1fed f7bb 65c6 6a3c
00000110: 8174 6a3e 5778 5cbe 1e7b 2b3e 705a 72bc
00000120: 7c9b 2f3e ea43 dfbd 70dd 743c 5196 6ebc
00000130: 0d03 863d bd61 683c f00d 993e dbec 8ebd
00000140: 07a2 2d3b 6666 d2bd 084b aabd c10c df3d
00000150: 9e9a 3ebd c358 07be c9c8 993c 5ecc bf3b
00000160: bb65 ef3d 7758 843d ba73 123e 50b4 7cbe
00000170: ca2d 5d3e 6498 81bb ddc9 31be ef36 313d
00000180: d6c3 e23d 7e11 353b d842 b93d 4070 2cbe
00000190: c0b1 e5bc 7a88 df3d dd3b 6c3d c674 df3c
000001a0: f9b2 1abe f1a2 3cbd 7895 b33d c15f d33c
000001b0: 576a ddbc 6634 0cbe f70c 98bd 0ef6 8fbe
000001c0: 73be 413e d2a7 e3bd fe32 d23d eda4 01be
000001d0: c92e c5bd 0b7b 32bd e6c6 3f3d 9522 113d
000001e0: b1f2 38bd b490 1ebd 180c 20be d83a 9dbd
000001f0: 5c93 00bd 30ae 5abe 6c4f 7bbd 3ae7 6ebb
00000200: a925 6a3e b000 8f3d ef9c ba3d 5257 c1bd
00000210: 4e9a 963d 2bcd 903d 74c6 ad3d 1c1b b9bc
00000220: ea7b 393e e313 8d3b a9d3 06be 6c68 fabc
00000230: 46b2 2bbe 37dd a4bc 1da5 57be 16f8 febd
00000240: 8025 74bd 9499 b4bc c073 183e 46ee d13d
00000250: 50b5 7dbd 54a7 223d e845 9cbd 21ed 843d
00000260: 9ec1 a03d 0863 c03e f1fa d8bd 35c7 4dbd
00000270: aa43 45be bed2 efbd daef 9dbd 138b 15bd
00000280: e7de f8bd ad61 763c df49 efbd 2167 eebd
00000290: 0829 123d 9d60 b7bd 360b 11be a2cf 8cbd
000002a0: ce58 2c3e a85c 8d3d 409e 003e 144b ea3d
000002b0: e803 94bd 9bf2 123e 720c 24bd 69e1 283e
000002c0: 6b2f 993c 4a1a 583e 8802 383d 6117 9a3d
000002d0: cf56 863d a4c2 093e 2b8c b93d ebd7 9cbd
000002e0: c2fb 35be e378 5fbb 236b 493e cde5 273d
000002f0: 0ff8 d53c 59d1 7a3d 73a8 eebd 775b 683d
00000300: 6197 5e3c 4abf a23d db93 a03d 9da2 053c
00000310: 6f12 f7bc 2dd8 273d 5ff9 21bd 4e1f 32bd
00000320: 564b 6e3d 7e14 23be 5445 fc3d deb8 1d3e
00000330: 727c d7bd a291 c0bb 4386 40bd ae11 27be
00000340: 00dc d3bd ea15 d6bd c8bc 0ebe bbf3 9bbd
00000350: 52f0 92bd 21ab e2bd 2d2f 2e3e 4e6e ef3b
00000360: 48ec 5a3e f87b 7e3d 88f2 8bbd d87f 63bd
00000370: 27e2 183e b57e 613d 0b63 5e3e 13d0 013e
00000380: b105 83bd c066 8d3d e97c 1e3e 09c3 933a
00000390: cf3b 57be 4e94 5dbe f761 1a3e bd53 14be
000003a0: 6b0d 6cbd 4661 953d 4ae9 573d 2c4a 123e
000003b0: 1d81 213e 3c56 043d 6703 cd3d c4e1 0b3e
000003c0: 1ac9 83bb 1e0d d93d 8e74 7c3e 4e86 fe3d
000003d0: ef37 153c ec7e 63be df64 70be 9f71 42be
000003e0: b905 1fbb a371 00bc 3f5e 373d 4144 19bc
000003f0: 0872 0dbe 6241 21be c510 413e b1d3 023e
