LeakyRNN_11.28/1128/sp_2_10_64_d10_r11_1/model_94.pth (torch, 37660 bytes, 5 tensors)

weight f4 [64, 64]
00000000: 321b c83e 690e 2e3f 9ecf 883e 273f dfbe
00000010: 6ec9 5dbf d1c0 d2bd f3bc 2f3e 15fd 13bf
00000020: 1016 43bd 3320 8b3f 8fe0 753f 2df8 32bf
00000030: cd2f 843e c94a 53be 66e7 b9be 0a12 49bf
00000040: 459b 68be 8799 c43c 91f0 1f3d 91a6 c4be
00000050: a59f 2cbf 97ec c3be 6a90 973e 517d 693e
00000060: 4d08 cabe c94e f8bd 1b92 5fbe 9a29 423d
00000070: b2e1 00bf 10f4 8bbf 9482 3e3e 2621 48bf
00000080: afa7 003f 5257 27bf 7d60 b4bd abb1 d4bf
00000090: 9581 e6bd 700e 51be 81b9 5abf 3edc 0ebf
000000a0: b6e1 463d 4fed f13c 7c77 4abf 102e 843e
000000b0: 95c9 023d ae29 263f a98a c6be 156a b0be
000000c0: 1fb8 f7be 1641 d2bd 4974 21bf bc34 8a3d
000000d0: 06d9 233d 3b66 79bf e2c6 153e aaec 34be
000000e0: c4ef b6be edae 743f f7a2 80be ea8e 643f
000000f0: c44d 82be 2e73 513e 5f6c 82bf a0db 0a3e
00000100: 6aa3 6d3e 1fc6 e83d bcdc 863e 9e13 1ebf
00000110: 2d1f 0fbf 5911 923e 8f1a 32bd 84ae 55bf
00000120: dc52 383e 6a1e 9c3f e182 a93f bfeb babd
00000130: 1cf1 923e 5d8b 1cbe b68c 283f 256e 90be
00000140: 7e4f f1be c328 d33e b73e 37be fe47 33bd
00000150: 09ec cfbe dfbc 113e 6df1 1b3e 5269 ffbd
00000160: 59d1 77bf ab10 573e 176b b73d 274c a9be
00000170: 3748 1f3d 3d43 9f3c c322 38bf 69c1 e2bf
00000180: cb00 c43d 90b3 23bd edad a7bd 69d1 64bf
00000190: ff5c ed3d 5d28 f03e 0498 febe a315 99bf
000001a0: 3519 57bd 08bb 943e ea3e febe a3c3 a43e
000001b0: 55db 873e 4da9 da3e be00 bcbe 1d58 23bf
000001c0: 3ee0 67bf ee3e acbe 2050 1c3e 4e9c 89bf
000001d0: 768a 2ebd a396 03bf fa6a 1d3e feb2 e1bf
000001e0: 6811 e4be cb45 5d3f c2e5 3fbf 3add 943d
000001f0: a3f6 eebe 43ab 11bf cea8 8e3e 6bb9 1bbe
00000200: 1d1f 9b3e 4fd7 82bd fb24 9f3e f47d 73bc
00000210: 9c07 50be 3d3b f4be a949 0e3f dbf6 1b3d
00000220: 0d50 b23e ed2f ccbe 3be2 fabe f944 f1be
00000230: 6cb8 3b3e c695 0b3d 7a52 87bf 18f4 00bf
00000240: 7a11 10be af9b 4ebf d111 ab3e d296 ffbc
00000250: db58 92bd 7eaa 33be be04 9fbe c4db 043f
00000260: 8c63 7bbe 64e2 e13e b360 603d 2498 7bbd
00000270: 4210 8cbe ed24 debd 3988 e6be db05 873e
00000280: 0d62 70bf 6209 37be 1f33 0cbe 6e03 0bbf
00000290: 46e0 07bf 9252 89be de3e a4bf 1cba 90bd
000002a0: 699f 2a3e 2b12 ecbb 9298 d63d 8edd d53e
000002b0: a413 5c3d b126 1a3c 26e3 4abe 2896 4a3d
000002c0: ed49 c23d 735f bb3d 3cf8 02bf bb08 2d3e
000002d0: 706d d83c 5e0f 863c dc78 713e 7bed 3f3e
000002e0: 3f5d 91bd 9522 2dbe e70e 0c3f 784d 0ebe
000002f0: eceb 093e 3e95 1ebe d22e 26bf c0ce 45be
00000300: b36a 85be 722e 0cbf 4d94 31be 2e68 6fbe
00000310: a669 063d 6ebe a9bf 03c2 dbbe 8f97 3cbc
00000320: dd89 42bf ca7a 32bf 54a4 fc3d f184 97bf
00000330: 3bf9 dcbe 15e1 10bf f93a 10bf 4a55 e8bf
00000340: c2fe 12bf 3a0f a8bf b7eb e7be 9ff4 a7be
00000350: 89c8 983e 9a66 5fbf 8ad7 07bf 030a 09bf
00000360: 07e0 0fbe afad 08bf e489 9cbf 577e ccbe
00000370: d492 82be 0ad0 833e 168b cf3e 22a8 8a3f
00000380: 1ec1 87bf 04d0 f1be 3e38 77be fd7a 633f
00000390: 10dd 64bf 540b 0cbb 4f11 293e 6fe0 82bf
000003a0: ab7a 48bf 17e2 4dbe 02f6 24bf 8bcc 38be
000003b0: 442f 8ebe a108 51bf 1907 a7be f7f1 eabe
000003c0: 5ce4 5c3f c418 79be b4f5 7fbe af8a efbd
000003d0: a6f7 b2be 50ea a7bf 2a32 b5bf af1e debd
000003e0: 6f28 24be 09cf 32bf 4018 e13d 0d35 01bf
000003f0: 3d90 43bf 0a87 d0be e0c7 173f 679b 8f3e
0.39083248 0.6799074 0.267209 -0.4360287 -0.8663548 -0.10290683 0.17161922 -0.5780805
-0.047628462 1.0869201 0.96045774 -0.69909936 0.2581772 -0.20633997 -0.36309355 -0.7854315
-0.2271548 0.023998989 0.03904778 -0.3840833 -0.674311 -0.3826644 0.29602367 0.2280171
-0.39459458 -0.12124402 -0.21833079 0.047402956 -0.50344384 -1.0933857 0.18604499 -0.7817558
0.50255865 -0.65367615 -0.08807466 -1.661672 -0.112551846 -0.20415664 -0.85439306 -0.5580481
0.0485551 0.029532103 -0.7908857 0.25816393 0.031930525 0.6490735 -0.38777664 -0.34455934
-0.4838266 -0.102663204 -0.6306806 0.067483395 0.04000189 -0.97421616 0.14626649 -0.17668405
-0.35729802 0.95579416 -0.25124332 0.8928057 -0.25449955 0.20454094 -1.0189322 0.13560343
0.23206869 0.113659136 0.26340282 -0.61748683 -0.55906945 0.2852886 -0.04348236 -0.83469415
0.18000358 1.2196782 1.3243066 -0.09126996 0.28699577 -0.15287538 0.6583971 -0.28209034
-0.4713096 0.41242036 -0.17895018 -0.04376983 -0.40609768 0.14232205 0.15228815 -0.1247126
-0.96803814 0.21002452 0.08955973 -0.33065912 0.03888723 0.019441241 -0.7192804 -1.7715274
0.09570464 -0.039966166 -0.081874706 -0.89382035 0.11590003 0.46905795 -0.49725354 -1.1959728
-0.052514274 0.29048944 -0.49657375 0.3218051 0.26534525 0.4270729 -0.36719316 -0.63806325
-0.9057654 -0.33641762 0.1526494 -1.0750825 -0.042612515 -0.5140173 0.1537284 -1.7632749
-0.4454453 0.8643462 -0.7495996 0.07268758 -0.46672544 -0.5690195 0.27863163 -0.1520745
0.30297175 -0.06388723 0.310829 -0.0148615725 -0.20315403 -0.47701445 0.55581146 0.038077217
0.348267 -0.39880314 -0.49000725 -0.47122934 0.1833207 0.034078382 -1.0572045 -0.5037246
-0.14069167 -0.80706304 0.3341203 -0.031199846 -0.07145854 -0.17545506 -0.31058306 0.51897836
-0.24549693 0.44118035 0.05477972 -0.06142439 -0.27356154 -0.10846887 -0.45025805 0.26371655
-0.93899614 -0.17874673 -0.13691376 -0.5430211 -0.5307659 -0.2682081 -1.2831686 -0.070667475
0.16662373 -0.007204314 0.10478319 0.41770595 0.05372967 0.009408639 -0.19813213 0.049459606
0.094867565 0.09149065 -0.51160026 0.16897862 0.026419371 0.01636475 0.2358126 0.18742935
-0.070978634 -0.16907723 0.5471024 -0.1389674 0.13468903 -0.15486619 -0.6491519 -0.1931715
-0.26057968 -0.5475837 -0.17341729 -0.23379585 0.032815598 -1.326124 -0.42921457 -0.011510744
-0.7599161 -0.6971861 0.123360306 -1.1837445 -0.43158898 -0.5659345 -0.56339985 -1.8151028
-0.5741998 -1.3129647 -0.45297024 -0.3280382 0.29840496 -0.8726593 -0.5306326 -0.535309
-0.14050303 -0.5339002 -1.2229581 -0.3994014 -0.25502646 0.2574466 0.40535802 1.083256
-1.060581 -0.47229016 -0.24142548 0.8885954 -0.89399815 -0.0021369057 0.16510509 -1.0224742
-0.78312176 -0.20105778 -0.6443788 -0.18046777 -0.27770436 -0.8165379 -0.32622603 -0.4588773
0.8628595 -0.24325854 -0.24996072 -0.11696374 -0.34954566 -1.3118382 -1.4155934 -0.10845696
-0.16031049 -0.6984716 0.109909534 -0.50471574 -0.76391965 -0.40728027 0.5928936 0.2804825

weight f4 [64, 3]
00000000: 9027 8fbe b1dc 6b3e 6e96 c13d 2588 9e3d
00000010: e095 0b3d 56fc ae3d f196 6dbe 3ebe 8c3e
00000020: e387 123e f9fa 91bb 0f17 dabc 1ad7 6f3c
00000030: 621f c0bf 58dc 4cbf dacd adbf 8fcc 3e3d
00000040: bbdf f33d 44e3 a13e aef5 85bc 7269 203e
00000050: 0ea3 913d 709e 60be 2e71 253d e870 e93a
00000060: 3a9a 1c3e e549 403e 30f3 923d 97c4 8f3e
00000070: 491d 5fbe 8b47 1440 1b2c 2cbe 2132 18be
00000080: 7b95 4540 1f0a 0f3d ba21 88bd fbdd a8be
00000090: 94ad 91bc 7b97 203d 338d 1f3e f1a1 5ebc
000000a0: 0945 133d 9173 14bd a81a e3bd 2ea3 e1be
000000b0: 2ce9 5bbe e23f 763d d4cd 003d 6bfc 05be
000000c0: 16b4 67bd 68fc 39bd 76ec 1a3d a23a ec3d
000000d0: 7e30 86be e0a2 5cbe 6e26 b7bc 541e 4c3d
000000e0: 7055 373b 6746 ec3c 2968 3cbc da2c 4ab9
000000f0: f2be c3bd 4685 48bc f5e1 8abd 2c9d 22bd
00000100: 8911 0fbd b272 bbbc c3aa 593e 16d9 83be
00000110: a780 163e 1599 da3d 6299 ec3e acd9 8ebc
00000120: 8f13 36bf 86a8 573f 7a5a cabf 41fd b43c
00000130: d8d8 f13b ba9b 6b3e 8592 203e 1d26 4f3e
00000140: 0461 a23e 3af5 5fbc 911e 843b d7a2 283b
00000150: 66dc 613c b28a ecbc dfe3 e2bc 7c91 9a3e
00000160: 7955 863e e216 14be 99bc a6be 820c 2c3e
00000170: 1ef1 47be a9fb 6cbe 5cb3 bd3d 732f 973d
00000180: 3243 f43e 2698 46be 65be 513f 86ae 4d3e
00000190: 905c 80be 37fa 263c 8d79 d5ba 3c55 3a3b
000001a0: 1b84 2c3a cfe8 c63f 0dae ddbd 67a5 5abd
000001b0: fdf7 9cbd 77bc b1bd cec8 e3bd b99e a23b
000001c0: d8eb 86bd cf42 543b 1a26 5b3f 7962 5ebf
000001d0: a69c 95bf 3de4 ffbc 2809 f8bc f109 32be
000001e0: 1c28 5b3e 4e78 4ebd 4956 053e 1a21 f63c
000001f0: b0d7 02bd 9802 ccbd c3d3 07bf b72e 843c
00000200: 29de 28be 19b5 6abe 78f6 6f3d cd88 593d
00000210: 8016 453d 4b4c 193d 1dfd e9bc 9af2 ba3d
00000220: a914 27bd 6d3d 3d3f 4536 8d3d a634 9cbd
00000230: cf7a 93bd 2431 adbc e1a4 9cbc a38e 133c
00000240: 80f4 6bbe 2191 00be eb4d 55bd 2a2b 8dbb
00000250: 364d 33bd ef62 07bc 50ea a3bd a42f 66bd
00000260: 15c6 f3bd 0aba bfbd 42d8 9c3e 4d07 dc3d
00000270: 9e44 ef3b 75c9 a7bc 094a 833b d8c1 803f
00000280: b024 be3e 55b4 12bf ebcb 6dbf 2cb0 f73d
00000290: c46b cfbe c031 2cbf 50ce af3f 491c fdbe
000002a0: 294f 43bc 66a1 a13d b164 88bc 4754 2e3e
000002b0: da74 f7bd d75f f83f 4763 9f3f 577f ba3f
000002c0: d34a 17be 416d 13bd a25f 1fbf a140 2340
000002d0: 04b2 053c 98a3 253c b021 9e3d f4f0 08bd
000002e0: 76bf c23d 2189 9e3c 1fde 273f 9fcd d4bf
000002f0: 5360 cbbe 1872 eabe 55b1 18bd bec0 4ebe
-0.2795987 0.23033406 0.0945252 0.07740811 0.03407848 0.08544223 -0.23202111 0.27488893
0.14309649 -0.004454967 -0.026622323 0.014638687 -1.5009577 -0.8002372 -1.3578446 0.0465818
0.119079076 0.31618702 -0.0163525 0.15665224 0.07111178 -0.21935439 0.04039114 0.0017810138
0.15293208 0.18778189 0.071752906 0.28079674 -0.21788515 2.3168666 -0.168137 -0.14862873
3.0872486 0.03492176 -0.06647058 -0.32981858 -0.017782964 0.039206963 0.15581207 -0.0135884145
0.03595451 -0.036243025 -0.11089069 -0.4406981 -0.21475667 0.060119517 0.031446293 -0.13084571
-0.056568228 -0.04540673 0.037823163 0.11534621 -0.26208872 -0.21546507 -0.022357192 0.04983361
0.0027974509 0.028842164 -0.011499443 -0.0001928093 -0.09557904 -0.012238806 -0.06781379 -0.039700672
-0.034928832 -0.02288184 0.21256547 -0.2575156 0.14697514 0.10673729 0.46210772 -0.017437778
-0.71123594 0.8424152 -1.5808861 0.022093417 0.007380586 0.23008624 0.15680893 0.20229383
0.31714642 -0.013669306 0.004031964 0.0025731826 0.013785457 -0.028874729 -0.027696548 0.3018912
0.26237085 -0.14461854 -0.32565764 0.16801646 -0.19525573 -0.23142876 0.09262726 0.07382097
0.47707516 -0.19393978 0.81931144 0.20086107 -0.2507062 0.010191492 -0.0016286835 0.0028432151
0.00065809645 1.5539798 -0.10824213 -0.053380396 -0.076644875 -0.08678525 -0.11122285 0.004962769
-0.065879524 0.0032388454 0.85605013 -0.8686901 -1.168843 -0.031236762 -0.030277804 -0.17386605
0.2140202 -0.0504077 0.13021196 0.03004508 -0.031943977 -0.09961432 -0.530575 0.016135557
-0.16490997 -0.22920646 0.05858466 0.05310898 0.04811716 0.037426274 -0.028563077 0.09128304
-0.040791187 0.73921853 0.06895117 -0.076272294 -0.07201158 -0.021141596 -0.01912159 0.009006175
-0.23042488 -0.12555362 -0.05207626 -0.004308124 -0.043774806 -0.008263334 -0.08003676 -0.056197777
-0.119030155 -0.09361656 0.30633742 0.1074358 0.007301881 -0.020481804 0.0040066284 1.0059156
0.37137365 -0.57306415 -0.9288928 0.12094149 -0.40511906 -0.6726341 1.3734837 -0.49435642
-0.011920729 0.078921124 -0.016649576 0.17024337 -0.120828345 1.9404248 1.2452172 1.4570111
-0.14774637 -0.035992865 -0.622553 2.5508196 0.008160118 0.010109805 0.07721269 -0.033432916
0.095091745 0.019352498 0.65573305 -1.662525 -0.39721927 -0.45790172 -0.037278492 -0.20190713

weight f4 [2, 64]
00000000: dc80 9bbe b095 92be 3196 a7bd 8834 87be
00000010: 2b86 153d 8288 69be 5eac e43b b3c4 913b
00000020: 71e2 39be e02d 963d 5afe 133d 48a2 a8be
00000030: 7327 7d3e ecdf f03d 0bd9 c4bd 4a5a 9c3d
00000040: 5656 21be ef3a 3c3e 2c01 173d 454d 623e
00000050: be7c b63e c2c4 65be 0409 943e a4fe 23be
00000060: 2934 c23d 9aff a43e b608 38bf 5bd7 36bb
00000070: 01ca 8d3d 0c89 1d3e 016d 1bbd 6c5b 08be
00000080: cc51 b03d 12be b8be 2c54 2e3d 3306 803e
00000090: cb1f 4b3e 8d54 a3bd f1d6 90be b667 dfbe
000000a0: c6ef 6a3e 3050 e63d d424 d33c c6dd 483e
000000b0: 907c f5bd 52a4 9b3e 0b11 6e3c afa3 6fbd
000000c0: 3fc7 513e 754e 863d 3e62 13bc 829b d8bd
000000d0: 21b3 503e c64e 9d3d 4a7d 33be 686d 513e
000000e0: 2340 073e b64a b7be 006d 373d 3091 ff3c
000000f0: 0be1 7f3e 8842 a3be a1cf 253d 0a55 d93d
00000100: 5873 003d 30a1 a1be 5003 a43e 2a8d 4ebe
00000110: 6857 9c3c 3b16 783e 4e9f 853e 4676 7bbd
00000120: ce9c 003e 3877 d0bd dc26 723e 26fa f9bd
00000130: 116c 903e d2fb 063d e927 673e f052 493e
00000140: a60a 5cbe 862f 8b3e c117 f83c c9ed aebd
00000150: 8eeb 9cbe 907a 8f3c c657 8fbd 1bd7 b9bc
00000160: b569 15bc 24fb 6f3e 4b78 183d d7d9 bcbd
00000170: 320f 60bd 270b 01be c48c 113e f800 483d
00000180: b982 bf3e 3c42 b0be 7ecf 3fbd c77a 3a3d
00000190: 86a2 c83d e8e7 52be db13 04be 3f8a 2b3e
000001a0: cc80 cf3d 09dc 8dbd a747 c7be 7627 223e
000001b0: 50bf 893e ac31 a7be 376d 96be 8f4d fabd
000001c0: 8b7e f73d 11bd 10be 5d67 963e 17d1 783e
000001d0: f1fd 7fbd 308e 13be 29da 46bd a86d 603c
000001e0: 9d1e 08be e77a 80bd eb0e 1dbd ccac debe
000001f0: fb6e c0bd cb3f 433e 6627 3b3d 5fda 85bd
-0.3037175 -0.28629827 -0.081829436 -0.26407266 0.036504906 -0.2280598 0.0069785556 0.004448497
-0.18152787 0.07332969 0.03613124 -0.3293631 0.2472208 0.1176146 -0.0961171 0.07634409
-0.15755591 0.18381856 0.036866352 0.22099788 0.35642046 -0.22438338 0.28913128 -0.16015106
0.09482605 0.3222626 -0.7188829 -0.0027899358 0.06923295 0.1538431 -0.03794575 -0.13316125
0.086093515 -0.36082512 0.04256074 0.2500473 0.19836347 -0.07975111 -0.28288987 -0.43633813
0.22943029 0.11245763 0.025774397 0.1961585 -0.11986649 0.30398804 0.014530431 -0.05850571
0.20486163 0.06557933 -0.008995591 -0.10576536 0.20380832 0.076810405 -0.17528263 0.20451891
0.1320806 -0.35799187 0.044781685 0.03119716 0.24988191 -0.31886697 0.040481213 0.10611923
0.03136 -0.3156829 0.32033777 -0.20171037 0.019084647 0.2422723 0.26098102 -0.06139209
0.12559816 -0.10178989 0.23647636 -0.12205915 0.28207448 0.032955 0.22573818 0.19660544
-0.21488437 0.27184695 0.030284764 -0.08541448 -0.30648464 0.017514497 -0.06999163 -0.022685578
-0.009119441 0.23435646 0.037224095 -0.09221237 -0.05470199 -0.1260191 0.14213854 0.04882905
0.3740442 -0.34425533 -0.04682874 0.045527246 0.09796624 -0.20596278 -0.128982 0.16751955
0.10131988 -0.06926734 -0.38921854 0.15835366 0.26903772 -0.32655084 -0.293802 -0.122218244
0.12084683 -0.14134623 0.29375735 0.24298511 -0.062498037 -0.14409709 -0.048547897 0.013698019
-0.13292928 -0.06273442 -0.038344305 -0.4349121 -0.09396168 0.19067304 0.04569187 -0.065357916

bias f4 [2]
00000000: 98da 363d 06a5 e03d
0.04464206 0.10968976

W f4 [64, 64]
00000000: 9ffc 1d3d 69c0 9d3d 2104 34bd 05cf 99bc
00000010: 6f58 ecbd 20d4 29be 76e0 4fbc 169a 0c3b
00000020: 653a 5cbd 7a96 d2bd 0380 4d3d 3583 0fbe
00000030: 5f69 dabd 9d1e a63d d42b cbba 304b 59be
00000040: b021 31bd 3ddb 86bc e82f 40bc bbd5 833d
00000050: 90c6 55bd dec2 a23d 3cf5 a13d f0c0 953d
00000060: 5832 343e dc30 a33c 61bb 83bd 8a38 4a3d
00000070: 8bb7 e2bd 7b6c 73be 3ec0 a03d 469b 1fbd
00000080: 12db 94b9 7394 3abd 8330 af3d 40e2 903d
00000090: 2c25 81bd 3208 a83e d45f a4bd dd83 c5bd
000000a0: 93ce 113e 4ab7 09bd 4e32 283b 5fde f93c
000000b0: 7fe0 183e f1b4 663e 930e 22bc 5eab 6c3d
000000c0: fd39 303e 95a3 073e a583 933c 042f 003e
000000d0: bd5c 203e 7e8f 6fbe be12 913b 3e78 c73d
000000e0: ec8e 38bc 517a 97bc 967b b43c b412 84bc
000000f0: a29f 4cbd 775d b93d 1d25 52be 1c16 b8bd
00000100: 425d 85bd c45b 47be 1fed f7bb 65c6 6a3c
00000110: 8174 6a3e 5778 5cbe 1e7b 2b3e 705a 72bc
00000120: 7c9b 2f3e ea43 dfbd 70dd 743c 5196 6ebc
00000130: 0d03 863d bd61 683c f00d 993e dbec 8ebd
00000140: 07a2 2d3b 6666 d2bd 084b aabd c10c df3d
00000150: 9e9a 3ebd c358 07be c9c8 993c 5ecc bf3b
00000160: bb65 ef3d 7758 843d ba73 123e 50b4 7cbe
00000170: ca2d 5d3e 6498 81bb ddc9 31be ef36 313d
00000180: d6c3 e23d 7e11 353b d842 b93d 4070 2cbe
00000190: c0b1 e5bc 7a88 df3d dd3b 6c3d c674 df3c
000001a0: f9b2 1abe f1a2 3cbd 7895 b33d c15f d33c
000001b0: 576a ddbc 6634 0cbe f70c 98bd 0ef6 8fbe
000001c0: 73be 413e d2a7 e3bd fe32 d23d eda4 01be
000001d0: c92e c5bd 0b7b 32bd e6c6 3f3d 9522 113d
000001e0: b1f2 38bd b490 1ebd 180c 20be d83a 9dbd
000001f0: 5c93 00bd 30ae 5abe 6c4f 7bbd 3ae7 6ebb
00000200: a925 6a3e b000 8f3d ef9c ba3d 5257 c1bd
00000210: 4e9a 963d 2bcd 903d 74c6 ad3d 1c1b b9bc
00000220: ea7b 393e e313 8d3b a9d3 06be 6c68 fabc
00000230: 46b2 2bbe 37dd a4bc 1da5 57be 16f8 febd
00000240: 8025 74bd 9499 b4bc c073 183e 46ee d13d
00000250: 50b5 7dbd 54a7 223d e845 9cbd 21ed 843d
00000260: 9ec1 a03d 0863 c03e f1fa d8bd 35c7 4dbd
00000270: aa43 45be bed2 efbd daef 9dbd 138b 15bd
00000280: e7de f8bd ad61 763c df49 efbd 2167 eebd
00000290: 0829 123d 9d60 b7bd 360b 11be a2cf 8cbd
000002a0: ce58 2c3e a85c 8d3d 409e 003e 144b ea3d
000002b0: e803 94bd 9bf2 123e 720c 24bd 69e1 283e
000002c0: 6b2f 993c 4a1a 583e 8802 383d 6117 9a3d
000002d0: cf56 863d a4c2 093e 2b8c b93d ebd7 9cbd
000002e0: c2fb 35be e378 5fbb 236b 493e cde5 273d
000002f0: 0ff8 d53c 59d1 7a3d 73a8 eebd 775b 683d
00000300: 6197 5e3c 4abf a23d db93 a03d 9da2 053c
00000310: 6f12 f7bc 2dd8 273d 5ff9 21bd 4e1f 32bd
00000320: 564b 6e3d 7e14 23be 5445 fc3d deb8 1d3e
00000330: 727c d7bd a291 c0bb 4386 40bd ae11 27be
00000340: 00dc d3bd ea15 d6bd c8bc 0ebe bbf3 9bbd
00000350: 52f0 92bd 21ab e2bd 2d2f 2e3e 4e6e ef3b
00000360: 48ec 5a3e f87b 7e3d 88f2 8bbd d87f 63bd
00000370: 27e2 183e b57e 613d 0b63 5e3e 13d0 013e
00000380: b105 83bd c066 8d3d e97c 1e3e 09c3 933a
00000390: cf3b 57be 4e94 5dbe f761 1a3e bd53 14be
000003a0: 6b0d 6cbd 4661 953d 4ae9 573d 2c4a 123e
000003b0: 1d81 213e 3c56 043d 6703 cd3d c4e1 0b3e
000003c0: 1ac9 83bb 1e0d d93d 8e74 7c3e 4e86 fe3d
000003d0: ef37 153c ec7e 63be df64 70be 9f71 42be
000003e0: b905 1fbb a371 00bc 3f5e 373d 4144 19bc
000003f0: 0872 0dbe 6241 21be c510 413e b1d3 023e
0.038570996 0.07702715 -0.04394925 -0.018775472 -0.11540305 -0.16584826 -0.012687793 0.0021454147
-0.053766627 -0.102826074 0.05017091 -0.14014895 -0.10664629 0.08111308 -0.0015500733 -0.21220088
-0.043245018 -0.016461963 -0.011730172 0.0643725 -0.052191317 0.07947324 0.07908103 0.073121905
0.1759733 0.019920759 -0.06432224 0.049370326 -0.11070164 -0.23771851 0.07849167 -0.03896644
-0.0002839198 -0.04555173 0.08554175 0.07074404 -0.06305918 0.32818753 -0.0802609 -0.096442915
0.14238958 -0.033622064 0.002566475 0.030501543 0.14929388 0.22529961 -0.00989117 0.057780616
0.17209621 0.13245995 0.018007109 0.12517935 0.15660377 -0.23394582 0.004427283 0.09739731
-0.011264544 -0.018490942 0.022031587 -0.0161222 -0.049956925 0.0905103 -0.2052197 -0.08988592
-0.06511928 -0.194686 -0.007566109 0.0143295275 0.22896005 -0.21530281 0.16746184 -0.01479207
0.17149156 -0.109016255 0.014945373 -0.014562205 0.06543551 0.014183459 0.29893446 -0.0697877
0.002649428 -0.10273437 -0.08315092 0.108911045 -0.046534173 -0.13217454 0.0187725 0.00585322
0.116893254 0.06462186 0.14301959 -0.24678159 0.21599498 -0.003954934 -0.17362161 0.04326528
0.11072509 0.0027628834 0.090459526 -0.16839695 -0.02803886 0.10914703 0.057674278 0.027277362
-0.15107335 -0.04605383 0.08768743 0.025802495 -0.027028246 -0.13691863 -0.07424348 -0.28117412
0.18920307 -0.111159936 0.10263632 -0.1266057 -0.09628064 -0.043574374 0.046820544 0.03543337
-0.045153324 -0.03871222 -0.15629613 -0.07677239 -0.031390533 -0.2135551 -0.06135504 -0.003645374
0.22865929 0.06982553 0.09111964 -0.09440483 0.0735365 0.07070383 0.084851176 -0.022595935
0.18113676 0.004305349 -0.1316668 -0.03056737 -0.16767225 -0.020125015 -0.2105908 -0.124496624
-0.059606075 -0.022045888 0.14887905 0.10250525 -0.06194049 0.039710358 -0.07630521 0.06490541
0.078494295 0.37575555 -0.10594738 -0.050238807 -0.19264093 -0.11710118 -0.07711764 -0.036509585
-0.1215189 0.015037936 -0.11684012 -0.11640764 0.03568366 -0.089539744 -0.14164433 -0.0687554
0.16830751 0.069024384 0.12560368 0.11440101 -0.072273076 0.14350359 -0.04005093 0.16492237
0.018699368 0.21103778 0.04492429 0.075239904 0.06559526 0.13453156 0.09059938 -0.076583706
-0.17771819 -0.0034099154 0.19669776 0.04099064 0.02611926 0.061234806 -0.11653223 0.056727853
0.013585896 0.07946642 0.07840701 0.008156446 -0.030160157 0.040977646 -0.03954446 -0.043486886
0.058177315 -0.15925786 0.12317911 0.15402552 -0.10521783 -0.005876736 -0.047003042 -0.16315338
-0.10344696 -0.104533985 -0.13939202 -0.07614847 -0.07174744 -0.110677965 0.17010184 0.0073068505
0.21379197 0.062129945 -0.068333685 -0.055541843 0.1493002 0.055052478 0.2171747 0.1267703
-0.0639757 0.06904364 0.15477337 0.0011273335 -0.21018909 -0.21638605 0.15076433 -0.14485069
-0.057629984 0.07293944 0.052712716 0.14286107 0.15771909 0.032308802 0.100104146 0.13660342
-0.004021776 0.10598205 0.24653837 0.1242796 0.009107574 -0.22216386 -0.2347598 -0.18988656
-0.0024264886 -0.007839593 0.044767614 -0.009354652 -0.1381303 -0.15747598 0.18854053 0.12776066
